mnist_iter/end_of_1.pth (torch_old, 842205 bytes, 19 tensors)

encoder.0.weight f4 [128, 1, 3, 3]
0	0x3f1f7000	0.62280273
1	0x3e0214ee	0.12703297
2	0xbd8e2816	-0.069412395
3	0x3e4265d1	0.18984152
4	0xbdcfacaf	-0.10140359
5	0xbe49a5bc	-0.19692129
6	0xbcfec385	-0.03109909
7	0xbe332a43	-0.1749659
8	0xbe5d7960	-0.21628332
9	0x3c84369b	0.01613932
10	0xbd878576	-0.066172525
11	0xbeaa6c5e	-0.33285803
12	0xbde9c038	-0.11413616
13	0xbc8458e9	-0.016155677
14	0xbc1082fc	-0.008820292
15	0x3e0e99ae	0.13925812
16	0x3e33b030	0.17547679
17	0x3f02a852	0.51038086
18	0xbe2f28cf	-0.17105411
19	0xbd217516	-0.039418302
20	0xbe498154	-0.19678241
21	0xbe159880	-0.14608955
22	0x3e4293d5	0.19001706
23	0x3d288425	0.041141648
24	0xbe659abe	-0.2242231
25	0x3c24812e	0.010040564
26	0xbe539065	-0.20660551
27	0x3e985693	0.2975355
28	0x3e658c17	0.22416721
29	0x3e63d194	0.22247916
30	0xbe49445e	-0.19654986
31	0xbe406524	-0.18788582
32	0xbe80ed39	-0.25180987
33	0xbd5b47c4	-0.053535238
34	0xbd36dbaa	-0.04464308
35	0xbd5818fd	-0.052758206
36	0x3e00c8ee	0.12576649
37	0x3e0b1aa2	0.13584378
38	0x3eb0a739	0.3450258
39	0x3e228e41	0.15874578
40	0x3dfd1a38	0.123585165
41	0x3ea08fce	0.31359714
42	0xbe203df2	-0.1564863
43	0xbd251a16	-0.04030808
44	0x3e56e2e8	0.20984995
45	0xbe501cb8	-0.20323455
46	0x3e5b005d	0.21386857
47	0xbde3f07a	-0.11129852
48	0x3cc2b984	0.023770101
49	0x3f030511	0.51179606
50	0x3f001a92	0.50040543
51	0xbeaf7c08	-0.34274316
52	0x3e5c3550	0.21504712
53	0x3ece65a5	0.40311924
54	0x315817e8	3.1445726e-09
55	0x32e659f4	2.681643e-08
56	0x312def5a	2.531087e-09
57	0x325d6e00	1.2888904e-08
58	0xb32a1889	-3.9603524e-08
59	0xb0d6b805	-1.5622851e-09
60	0x330f921d	3.342767e-08
61	0x328e0051	1.653112e-08
62	0x30e24bd7	1.6465219e-09
63	0xbe1a0922	-0.15042546
64	0x3ecfd5a1	0.40592673
65	0x3dd11b6e	0.1021031
66	0xbd59be75	-0.05316015
67	0x3eb75de3	0.35813817
68	0x3ea7d8bb	0.3278254
69	0xbda878d2	-0.0822617
70	0x3d8c4658	0.068493545
71	0xbd8209e0	-0.0634954
72	0x3e7a6bee	0.24455234
73	0x3e3b664e	0.18300745
74	0xbd7f526c	-0.062334463
75	0x3e8a1f16	0.26976842
76	0x3e0c760e	0.1371691
77	0xbd7ea52e	-0.062169246
78	0x3e50713f	0.203557
79	0xbd5e0f4a	-0.0542138
80	0xbe4c5774	-0.19955236
81	0x3e8a2f9b	0.26989445
82	0x3e0d2c16	0.13786349
83	0x3eb2bcfc	0.3490981
84	0x3d4652ac	0.048418686
85	0xbe1551a1	-0.1458192
86	0x3d841483	0.06449225
87	0x3ca8ef33	0.020621872
88	0xbe6d754f	-0.23189281
89	0xbe25d574	-0.16194707
90	0x3e95d787	0.29265997
91	0xbdcee1af	-0.101016395
92	0xbe0866b2	-0.13320425
93	0x3d8a1a64	0.06743315
94	0xbe09a091	-0.13440157
95	0xbdf6571c	-0.120283335
96	0x3e26860b	0.16262071
97	0xbe18890d	-0.1489603
98	0xbdc71154	-0.09720102
99	0x381ff821	3.8139642e-05
100	0x3855f3a2	5.1010058e-05
101	0x37ec78b7	2.8189605e-05
102	0x36c51f3e	5.8746946e-06
103	0x37f1c85d	2.882274e-05
104	0x3824b979	3.9273382e-05
105	0x3749100c	1.198427e-05
106	0x388efa9c	6.817767e-05
107	0x38c8c9a0	9.574299e-05
108	0xbd96a6a3	-0.07356002
109	0xbdc2e39c	-0.09516069
110	0xbddf2f6b	-0.10897716
111	0x3e2e5421	0.1702428
112	0x3e8b3499	0.27188566
113	0x3d495572	0.049153753
114	0xbe8c001a	-0.27343827
115	0x3e0b44d3	0.13600473
116	0xbe02461a	-0.12722054
117	0x3ed33a5c	0.41255462
118	0x3e1e4728	0.15456831
119	0xbbb33f4f	-0.0054701935
120	0x3e77c2d5	0.24195416
121	0xbdc59511	-0.09647573
122	0xbe33cd0f	-0.17558692
123	0xbdb68a5c	-0.08913109
124	0xbe305936	-0.17221531
125	0xbe6dcce8	-0.23222697
126	0xbd34b98a	-0.044122256
127	0x3e5f7d5a	0.21825162
128	0xbf09dd73	-0.5385353
129	0x3e5fc02a	0.21850649
130	0x3ec01b14	0.3752066
131	0x3e22c9f0	0.15897346
132	0xbe5ef49c	-0.21772999
133	0xbe0c19de	-0.13681743
134	0x3d498fbe	0.04920935
135	0x1e2671df	8.811515e-21
136	0xa0c838a9	-3.3918812e-19
137	0x9e18d796	-8.091395e-21
138	0x998e6b45	-1.4725782e-23
139	0x9f0dbeeb	-3.0015835e-20
140	0x9ac06db3	-7.958657e-23
141	0x9856e18f	-2.777273e-24
142	0x9d5ba33d	-2.90688e-21
143	0x189732ce	3.9083885e-24
144	0x3cfc3052	0.03078476
145	0x3e5851e9	0.21124996
146	0x3ecd85e0	0.401412
147	0x3e1485cb	0.14504163
148	0x3e0f6995	0.1400512
149	0x3e2fb226	0.17157802
150	0x3efd0fda	0.49426156
151	0x3e384e33	0.1799858
152	0x3d8d851a	0.06910153
153	0xbde57647	-0.112042
154	0xbe8de356	-0.27712506
155	0xbebda44b	-0.37039408
156	0x3dc3c4d9	0.0955903
157	0xbb5032a8	-0.0031768475
158	0xbbc42e1c	-0.005986942
159	0x3eccfb71	0.40035585
160	0x3e9b91e8	0.30384755
161	0x3eb3efc0	0.35143852
162	0xbbf54949	-0.007485543
163	0x3d0690f6	0.03285309
164	0x3e172257	0.14759193
165	0x3e38d45d	0.1804976
166	0x3e16e332	0.14735106
167	0x3ed625bd	0.41825667
168	0xbe8ab259	-0.27089193
169	0xbe3d5f4a	-0.18493381
170	0x3e3e8516	0.18605456
171	0x0f970563	1.4891824e-29
172	0x9c3b244c	-6.192002e-22
173	0x985c6839	-2.8486953e-24
174	0x1dc43502	5.1935577e-21
175	0xa604054b	-4.5803873e-16
176	0xa3159334	-8.108478e-18
177	0x1b982288	2.5168606e-22
178	0x1ff4d387	1.0368796e-19
179	0x1e783082	1.3139042e-20
180	0xbe8ee5da	-0.27909738
181	0xbd58847a	-0.052860714
182	0xbe937d83	-0.28806695
183	0xbc8ea033	-0.017410373
184	0x3cfa06c1	0.030520799
185	0xbe4a49f3	-0.19754772
186	0x3ec5258f	0.38505217
187	0x3e78f8e2	0.24313691
188	0x3ae594b8	0.0017515635
189	0xbd978c99	-0.07399864
190	0xbeb88382	-0.36037832
191	0xbe957b9b	-0.29195866
192	0x3e7c5316	0.2464107
193	0xbde3b725	-0.111189164
194	0xbe7caf23	-0.24676184
195	0x3f0fa8f0	0.56117153
196	0x3d8c6de3	0.06856897
197	0x3b0616e9	0.0020460433
198	0x3c498a78	0.01230108
199	0xbe2fb436	-0.17158589
200	0xbd8e6501	-0.06952859
201	0x3e8ff32c	0.28115213
202	0xbd679f75	-0.056548554
203	0x3e648c25	0.22319086
204	0xbdd3dee9	-0.10345251
205	0xbe488ec8	-0.19585717
206	0x3e371379	0.17878522
207	0x3a0aa090	0.0005288208
208	0x393c27d6	0.00017943917
209	0x381431c2	3.533229e-05
210	0xb9abc6be	-0.00032763736
211	0xba4d9188	-0.0007841815
212	0x39b4ecba	0.0003450865
213	0x3916b0e2	0.00014371009
214	0x3a87c9ab	0.0010359784
215	0x3b0765bd	0.0020660006
216	0x35b4230f	1.3421248e-06
217	0x36a8bfdb	5.029125e-06
218	0xb653fc18	-3.1588188e-06
219	0xb608b51e	-2.0371003e-06
220	0xb590bf53	-1.0784519e-06
221	0x362658a1	2.4787516e-06
222	0x356cddda	8.823969e-07
223	0x350d8e0b	5.2733293e-07
224	0xb5093a19	-5.112102e-07
225	0x3b80c87e	0.0039301505
226	0x3e4cc614	0.19997436
227	0x3e8d882b	0.2764295
228	0xbd3cecaa	-0.046124138
229	0xbd8286aa	-0.063733414
230	0x3e4660cc	0.19372863
231	0xbe949b37	-0.2902467
232	0xbd16580b	-0.036705058
233	0xbdb57ac9	-0.0886131
234	0xbe70664f	-0.23476528
235	0x3ce88734	0.028384782
236	0x3edc2445	0.4299642
237	0xbe1b120a	-0.151436
238	0xbddd8063	-0.108155034
239	0xbd7a295c	-0.0610746
240	0x3e2f6b99	0.17130889
241	0xbd97a34e	-0.07404195
242	0x3df1f4bb	0.11814257
243	0xbe4facca	-0.20280758
244	0x3d98a4e0	0.074533224
245	0x3e29c573	0.16579227
246	0x3c4a3db0	0.012343809
247	0x3cbad1ce	0.02280512
248	0xbde03e3e	-0.10949372
249	0xbd510b79	-0.05103633
250	0x3e58af48	0.21160614
251	0x3ca7bf14	0.020476855
252	0xbe397840	-0.18112278
253	0xbdcbccc2	-0.09951164
254	0xbe08f35e	-0.13374087
255	0xbb5f365e	-0.0034059505

encoder.0.bias f4 [128]
0	0x3e4c2c95	0.19938882
1	0x3e9a5dd2	0.30149704
2	0xbe26e4a2	-0.16298154
3	0xbd6a0b70	-0.057139814
4	0xbd30c3c5	-0.04315545
5	0x3f265542	0.64973843
6	0xb64f9442	-3.09317e-06
7	0x3f121141	0.5705758
8	0x3e8fc421	0.28079322
9	0x3e9ef5f4	0.31047022
10	0xbe487f90	-0.19579911
11	0xba8161aa	-0.0009871025
12	0x3e6e10e9	0.23248638
13	0x3e76599d	0.24057622
14	0xbdae1a6e	-0.08501135
15	0xa320dcc7	-8.720369e-18
16	0x3eab34b9	0.33438662
17	0x3ec0b82b	0.3764051
18	0xbdf37fb6	-0.11889593
19	0xaa545671	-1.8859373e-13
20	0xbe2c9dcf	-0.16857074
21	0xbe408670	-0.18801284
22	0x3dbdb8de	0.09263776
23	0xbc4963de	-0.012291877
24	0xb6b34213	-5.3423078e-06
25	0x3e279f1c	0.16369289
26	0x3e012c3a	0.12614527
27	0x3ed206f3	0.41020927
28	0x3c86825e	0.016419586
29	0x94fb79ba	-2.5392536e-26
30	0x3df5f6d0	0.120099664
31	0xbdea1396	-0.11429517
32	0x3d4033a0	0.046924233
33	0x3e9b6b8b	0.30355486
34	0xbd77cd51	-0.06049854
35	0xbde239b0	-0.11046159
36	0x3d8d5712	0.06901373
37	0xbdeceb90	-0.115683675
38	0x3e8361b1	0.2566047
39	0xb852b6e9	-5.023825e-05
40	0xbde4d7c9	-0.1117397
41	0x3d8b9018	0.06814593
42	0xbbed4c04	-0.007241728
43	0x3e6c0d1a	0.23051873
44	0x3edaf796	0.42767018
45	0xbd4be40f	-0.04977804
46	0xbbc2820d	-0.0059359134
47	0xbdba8c77	-0.09108823
48	0x3e6e50c7	0.23273002
49	0xbd058681	-0.032598976
50	0x3e62cd4b	0.22148626
51	0xbd954f35	-0.07290498
52	0x3ca5d885	0.020244846
53	0xbbcbce5f	-0.0062196697
54	0x3e5ff24b	0.21869771
55	0xbd7120b4	-0.05886908
56	0xb9303f13	-0.00016808165
57	0xbe0593dd	-0.13044687
58	0x3e38201a	0.17980996
59	0xbd700afb	-0.05860422
60	0xbdcb2db3	-0.09920826
61	0x3e8a9d85	0.27073303
62	0x3cc4f41e	0.024042185
63	0x8cb67bab	-2.811597e-31
64	0x3e5cb101	0.21551897
65	0xb1406341	-2.7996097e-09
66	0x3e6ff437	0.23433004
67	0x3da328fb	0.07966801
68	0xbd5a0be0	-0.05323398
69	0xbdc9d2ad	-0.09854636
70	0x3ee3f459	0.4452236
71	0x3e421e4d	0.18956871
72	0x3d3eebf8	0.046611756
73	0xb6c4f4ab	-5.8697383e-06
74	0x3bc6d8bd	0.0060683177
75	0xbe13f323	-0.14448218
76	0x3eb414b2	0.3517204
77	0xbdcca11e	-0.09991668
78	0xbc15f580	-0.00915277
79	0xb79ff028	-1.9066109e-05
80	0x3e1c39b5	0.15256388
81	0xbb234d4f	-0.0024917906
82	0x3f13fa5c	0.57803893
83	0x3f4cd348	0.8000989
84	0x3de933c8	0.113868296
85	0xbe354bb8	-0.17704666
86	0xbdedaeae	-0.11605583
87	0x3ea85d8b	0.32883868
88	0x3e2cde3c	0.1688165
89	0xbd0bbd9d	-0.034116376
90	0xbc2e0e35	-0.010623504
91	0xbb8ac0f4	-0.0042344276
92	0x3f0f9b21	0.5609608
93	0xb85e17f5	-5.2951236e-05
94	0xbd399771	-0.04531044
95	0xa533e608	-1.5603713e-16
96	0x3c777610	0.015103832
97	0x9f75dfe6	-5.2065972e-20
98	0x3dcd341c	0.10019705
99	0x3e07dbee	0.1326749
100	0x3e0d11dc	0.13776344
101	0xb8e31651	-0.0001082836
102	0xbb978ec8	-0.004625175
103	0x3e088bdb	0.133346
104	0xbd737b50	-0.05944377
105	0xbd994a30	-0.07484853
106	0x3ed85b48	0.42257142
107	0xbd3b6b35	-0.045756537
108	0xbd162ad6	-0.036661945
109	0xbe697235	-0.22797473
110	0xbdecb4a0	-0.11557889
111	0xbd07a898	-0.033119768
112	0x3b9f7d9f	0.00486727
113	0xbe6d587e	-0.23178288
114	0x3e2736cd	0.16329499
115	0xbd8d8ced	-0.06911645
116	0xbda64cc9	-0.08120114
117	0x3d5cb491	0.05388314
118	0xbdb2c12d	-0.087282516
119	0x3ec76aa8	0.3894856
120	0x3eab1f8f	0.33422515
121	0x3c993942	0.01870406
122	0xb242193a	-1.1298022e-08
123	0x3f569b0c	0.8383033
124	0xbc4fe745	-0.012689416
125	0xbcb61816	-0.022228282
126	0x3efde103	0.49585733
127	0x3e882804	0.2659303

encoder.2.weight f4 [64, 128, 4, 4]
0	0x80161522	-2.027962e-39
1	0x80000000	-0.0
2	0x8001c077	-1.60879e-40
3	0x80000000	-0.0
4	0x80000000	-0.0
5	0x0015c071	1.99758e-39
6	0x00116d08	1.600316e-39
7	0x0014cb28	1.909589e-39
8	0x801382ca	-1.791793e-39
9	0x0008dd13	8.1399e-40
10	0x80000000	-0.0
11	0x800bd4d3	-1.086537e-39
12	0x00090b64	8.30606e-40
13	0x00092ecb	8.43306e-40
14	0x801056d9	-1.500523e-39
15	0x0000fcf5	9.0744e-41
16	0x00000000	0.0
17	0x80135614	-1.775753e-39
18	0x00000000	0.0
19	0x00000000	0.0
20	0x00037549	3.1758e-40
21	0x00000000	0.0
22	0x800d16e1	-1.202069e-39
23	0x8011d011	-1.635844e-39
24	0x0014cf6d	1.91112e-39
25	0x00000000	0.0
26	0x00000000	0.0
27	0x00076598	6.79293e-40
28	0x80000000	-0.0
29	0x00000000	0.0
30	0x00000000	0.0
31	0x00000000	0.0
32	0x00000000	0.0
33	0x00000000	0.0
34	0x00000000	0.0
35	0x00000000	0.0
36	0x00000000	0.0
37	0x00000000	0.0
38	0x000e095e	1.289057e-39
39	0x00000000	0.0
40	0x00000000	0.0
41	0x800c4552	-1.126893e-39
42	0x00000000	0.0
43	0x00000000	0.0
44	0x800e1971	-1.294824e-39
45	0x80058a6d	-5.08835e-40
46	0x0002f7ad	2.7252e-40
47	0x00000000	0.0
48	0x00000000	0.0
49	0x80113275	-1.579304e-39
50	0x0006c849	6.22862e-40
51	0x00000000	0.0
52	0x00000000	0.0
53	0x000e16ca	1.293872e-39
54	0x00000000	0.0
55	0x000543ff	4.8357e-40
56	0x8001bd1b	-1.59674e-40
57	0x00068db2	6.01844e-40
58	0x0012658d	1.689468e-39
59	0x00000000	0.0
60	0x000b3c25	1.031766e-39
61	0x00000000	0.0
62	0x00000000	0.0
63	0x800e8bfd	-1.335915e-39
64	0x80000000	-0.0
65	0x80000000	-0.0
66	0x80000000	-0.0
67	0x000d4f0d	1.22222e-39
68	0x80038f81	-3.26986e-40
69	0x80000000	-0.0
70	0x000f1f3b	1.388736e-39
71	0x8011c011	-1.630104e-39
72	0x00157fff	1.974462e-39
73	0x80000000	-0.0
74	0x80000000	-0.0
75	0x8011086b	-1.564223e-39
76	0x80000000	-0.0
77	0x80000000	-0.0
78	0x0009bf93	8.95243e-40
79	0x800dc10f	-1.263118e-39
80	0x80000000	-0.0
81	0x80000000	-0.0
82	0x80007b22	-4.4172e-41
83	0x80000000	-0.0
84	0x80000000	-0.0
85	0x80000000	-0.0
86	0x80000000	-0.0
87	0x800c0e25	-1.1071e-39
88	0x0009ee90	9.121e-40
89	0x0012fbfa	1.743431e-39
90	0x80000000	-0.0
91	0x80157cf5	-1.973372e-39
92	0x80000000	-0.0
93	0x000bb55b	1.075249e-39
94	0x80000000	-0.0
95	0x80000000	-0.0
96	0x80000000	-0.0
97	0x0009682e	8.63892e-40
98	0x000d78bc	1.237173e-39
99	0x80000000	-0.0
100	0x800afc03	-1.00876e-39
101	0x00000000	0.0
102	0x00000000	0.0
103	0x00000000	0.0
104	0x80000000	-0.0
105	0x80087aaf	-7.78695e-40
106	0x801111fd	-1.567656e-39
107	0x00000000	0.0
108	0x80000000	-0.0
109	0x80000000	-0.0
110	0x80000000	-0.0
111	0x000ae483	1.00033e-39
112	0x800ca0c4	-1.159698e-39
113	0x00038ed2	3.26741e-40
114	0x000e8cc9	1.336201e-39
115	0x80132ef6	-1.761721e-39
116	0x80000000	-0.0
117	0x80004678	-2.528e-41
118	0x80000000	-0.0
119	0x80000000	-0.0
120	0x80000000	-0.0
121	0x80068627	-5.99138e-40
122	0x80000000	-0.0
123	0x80000000	-0.0
124	0x80000000	-0.0
125	0x80000000	-0.0
126	0x80000000	-0.0
127	0x80000000	-0.0
128	0x00000000	0.0
129	0x800f9798	-1.431914e-39
130	0x80137c09	-1.78937e-39
131	0x00000000	0.0
132	0x000ab4e2	9.83243e-40
133	0x00000000	0.0
134	0x00000000	0.0
135	0x80096c2c	-8.65324e-40
136	0x80157aee	-1.972644e-39
137	0x00000000	0.0
138	0x00100e83	1.474574e-39
139	0x00108727	1.517851e-39
140	0x00000000	0.0
141	0x00101fd0	1.48078e-39
142	0x800e7619	-1.328062e-39
143	0x80055923	-4.91154e-40
144	0x80139417	-1.797999e-39
145	0x80000000	-0.0
146	0x80000000	-0.0
147	0x80141be1	-1.846711e-39
148	0x000c605e	1.136596e-39
149	0x80000000	-0.0
150	0x0015cd35	2.00216e-39
151	0x80063eec	-5.73585e-40
152	0x80000000	-0.0
153	0x80000000	-0.0
154	0x0014394f	1.857268e-39
155	0x80000000	-0.0
156	0x80000000	-0.0
157	0x80000000	-0.0
158	0x80144aef	-1.863591e-39
159	0x80000000	-0.0
160	0x80034c55	-3.02889e-40
161	0x0001f456	1.79487e-40
162	0x8010175e	-1.47775e-39
163	0x00000000	0.0
164	0x00000000	0.0
165	0x000f18f4	1.386484e-39
166	0x00000000	0.0
167	0x00000000	0.0
168	0x8015a901	-1.989173e-39
169	0x00000000	0.0
170	0x80110fb4	-1.566837e-39
171	0x00000000	0.0
172	0x000983e7	8.73837e-40
173	0x000e394e	1.306254e-39
174	0x00000000	0.0
175	0x00000000	0.0
176	0x000e6847	1.323105e-39
177	0x8010367f	-1.488917e-39
178	0x8006c36d	-6.21119e-40
179	0x80000000	-0.0
180	0x0000a687	5.9739e-41
181	0x000bf16b	1.096795e-39
182	0x8000b7b3	-6.5899e-41
183	0x80000000	-0.0
184	0x800972cb	-8.677e-40
185	0x0001fb8d	1.82075e-40
186	0x80000000	-0.0
187	0x80000000	-0.0
188	0x000a22f1	9.3089e-40
189	0x80000000	-0.0
190	0x80000000	-0.0
191	0x800f0f87	-1.383103e-39
192	0x00000000	0.0
193	0x00000000	0.0
194	0x8000cfd0	-7.4549e-41
195	0x0001814c	1.38218e-40
196	0x00000000	0.0
197	0x00000000	0.0
198	0x00000000	0.0
199	0x000669a9	5.88917e-40
200	0x00000000	0.0
201	0x00000000	0.0
202	0x00000000	0.0
203	0x00000000	0.0
204	0x0011aed9	1.623927e-39
205	0x00118c41	1.611517e-39
206	0x00005646	3.0949e-41
207	0x00000000	0.0
208	0x80000000	-0.0
209	0x00052221	4.7142e-40
210	0x80000000	-0.0
211	0x000e2900	1.300405e-39
212	0x80000000	-0.0
213	0x80000000	-0.0
214	0x000c8dc9	1.152889e-39
215	0x800d4f45	-1.222298e-39
216	0x80000000	-0.0
217	0x80000000	-0.0
218	0x000f889e	1.426541e-39
219	0x80000000	-0.0
220	0x80000000	-0.0
221	0x8007c5e4	-7.13838e-40
222	0x800fcbc3	-1.450628e-39
223	0x001344db	1.769575e-39
224	0x800ed001	-1.360315e-39
225	0x800962ff	-8.62033e-40
226	0x00000000	0.0
227	0x00034d7f	3.03307e-40
228	0x00000000	0.0
229	0x00161fae	2.031745e-39
230	0x0009b585	8.91636e-40
231	0x8014d18c	-1.911881e-39
232	0x800cc446	-1.172436e-39
233	0x000b7176	1.050893e-39
234	0x800b2131	-1.022097e-39
235	0x000b108f	1.01613e-39
236	0x800bc143	-1.07952e-39
237	0x00000000	0.0
238	0x00000000	0.0
239	0x00000000	0.0
240	0x000bbe31	1.078418e-39
241	0x80000000	-0.0
242	0x80000000	-0.0
243	0x00059e00	5.15857e-40
244	0x800c7a9f	-1.146014e-39
245	0x000b0e9b	1.01543e-39
246	0x000e764b	1.328132e-39
247	0x80000000	-0.0
248	0x800e122f	-1.29222e-39
249	0x80000000	-0.0
250	0x800b38a4	-1.030509e-39
251	0x80000000	-0.0
252	0x80000000	-0.0
253	0x80000000	-0.0
254	0x000c5ce5	1.13535e-39
255	0x80000000	-0.0

encoder.2.bias f4 [64]
0	0x000865c0	7.71185e-40
1	0x00000000	0.0
2	0x000b0bac	1.014378e-39
3	0x3e2a28a0	0.1661706
4	0x00000000	0.0
5	0xb894e133	-7.0991366e-05
6	0x00000000	0.0
7	0xbb08d73b	-0.002088024
8	0x3daa921b	0.08328649
9	0xbc1f0010	-0.009704605
10	0x00000000	0.0
11	0x3ca12c3b	0.019674411
12	0x00040324	3.68469e-40
13	0xbd15c766	-0.036567114
14	0x80000000	-0.0
15	0x3ea9a5ec	0.331344
16	0x00125e6b	1.68691e-39
17	0x3d3f01fa	0.046632744
18	0x3c2c5bb5	0.010519912
19	0x80000000	-0.0
20	0xbce2ab44	-0.027669556
21	0x00000000	0.0
22	0xbd68c778	-0.056830853
23	0xba00636f	-0.0004897629
24	0x3c55cfcd	0.013050032
25	0x3cd03ec0	0.025420547
26	0x0005b360	5.23525e-40
27	0x3d04d76c	0.032432005
28	0x000bdc63	1.08925e-39
29	0xba9cbcfe	-0.001195818
30	0x3d79ba87	0.060968902
31	0xbd870fc9	-0.06594808
32	0xbb5ea9fe	-0.0033975835
33	0x80000000	-0.0
34	0x801044a7	-1.493996e-39
35	0x3d68faa1	0.056879643
36	0x80000000	-0.0
37	0x3c729092	0.014804976
38	0x9974b1fd	-1.2650449e-23
39	0x3cbebcd8	0.023283407
40	0xbc1260c4	-0.008934204
41	0x00000000	0.0
42	0x3d3a01b3	0.045411777
43	0x0013e2c1	1.826218e-39
44	0x8ec38586	-4.819979e-30
45	0x00000000	0.0
46	0xbd4410d9	-0.04786763
47	0x942288ff	-8.2059276e-27
48	0xbd1894b5	-0.037251193
49	0x3e64a05a	0.22326794
50	0xbd03b3d0	-0.032153904
51	0x3e411a54	0.188577
52	0x3c383384	0.011242751
53	0x3ce573d6	0.028009336
54	0x0006be2e	6.19237e-40
55	0x00000000	0.0
56	0x3c664aaf	0.014055892
57	0x3cf79b4c	0.030225419
58	0x3cec2eed	0.02883097
59	0x3d045975	0.032311875
60	0xbd2a2785	-0.041541595
61	0x80000000	-0.0
62	0x3cd47c4e	0.02593818
63	0x80000000	-0.0

encoder.4.weight f4 [32, 64, 2, 2]
0	0x823c06cf	-1.3814013e-37
1	0x822b0f2c	-1.256745e-37
2	0x80c6c042	-1.8252397e-38
3	0x01690383	4.279786e-38
4	0x018e759f	5.233134e-38
5	0x80000000	-0.0
6	0x80d8145c	-1.9843771e-38
7	0x824f5c3a	-1.5234426e-37
8	0x0139ced7	3.4127534e-38
9	0x827b1558	-1.8446693e-37
10	0x02142a76	1.0885508e-37
11	0x81fcb502	-9.2829914e-38
12	0x3dca0b63	0.09865453
13	0xbd9b4b0c	-0.075826734
14	0xbe19d564	-0.15022808
15	0xbeaf8cb4	-0.34287035
16	0xbcda4b5a	-0.026647259
17	0xbe695b64	-0.22788769
18	0x3e1bc523	0.1521192
19	0x3c35c04c	0.01109321
20	0xbba6e47d	-0.005093156
21	0xbb77dbb8	-0.0037820172
22	0xbb8db487	-0.004324499
23	0xbb524b39	-0.0032088293
24	0x8241eb2f	-1.4246895e-37
25	0x82358752	-1.3336615e-37
26	0x82beb2db	-2.8020649e-37
27	0x82dccb4a	-3.2442777e-37
28	0xbb9d279a	-0.0047959806
29	0x3de60d44	0.11232999
30	0xbc8d5d39	-0.017256366
31	0x3d84d09a	0.064851
32	0xbdb54b8f	-0.08852302
33	0xbd9d9507	-0.0769444
34	0x3c9a3ac2	0.018826846
35	0x3d98886f	0.07447898
36	0xbd0d6027	-0.034515526
37	0xbdd946c4	-0.106092006
38	0x3df29f63	0.11846807
39	0x3a863e98	0.0010242043
40	0x0242b496	1.4304695e-37
41	0x011381ed	2.7092853e-38
42	0x8176b1a5	-4.5310518e-38
43	0x00bce3a5	1.7346737e-38
44	0xbe6cac47	-0.23112594
45	0xbd972a74	-0.07381144
46	0x3d3eaa4c	0.046549127
47	0x3e0ecd31	0.13945462
48	0x013dc9ae	3.4858516e-38
49	0x80e156e3	-2.0694156e-38
50	0x801881c6	-2.250606e-39
51	0x82154244	-1.0965808e-37
52	0x3dda58f5	0.106614985
53	0x3e1d9912	0.15390423
54	0xbb60ac0f	-0.0034282242
55	0xbc5f0e7e	-0.013614295
56	0x8293b77c	-2.1705024e-37
57	0x826f92cf	-1.7601079e-37
58	0x82849ef0	-1.9486882e-37
59	0x81a0c6a6	-5.9059764e-38
60	0x3dac17b9	0.08402962
61	0xbca5e41c	-0.020250373
62	0xbcd31252	-0.025765572
63	0xbd93797d	-0.072009064
64	0x82891e80	-2.0147847e-37
65	0x828a03b6	-2.0279408e-37
66	0x811266ff	-2.688986e-38
67	0x808be646	-1.284774e-38
68	0x3d4a7ae2	0.049433596
69	0x3c11ad48	0.008891411
70	0x3e24a152	0.16077164
71	0x3ca6daff	0.020368097
72	0xbcfab27b	-0.030602684
73	0x3b3bae52	0.0028637839
74	0x3dd4b004	0.10385135
75	0x3ccd4fa4	0.02506239
76	0x82221380	-1.1907477e-37
77	0x8145297d	-3.6212952e-38
78	0x8212b3a4	-1.077794e-37
79	0x022c484a	1.265731e-37
80	0xbcc1bb17	-0.023648782
81	0xbd9be06e	-0.07611166
82	0x3d9def8c	0.077117056
83	0xbd81010a	-0.06299026
84	0x828b2ed8	-2.0451101e-37
85	0x80c4ec37	-1.8084495e-38
86	0x82a2c22a	-2.3915205e-37
87	0x01cbe404	7.489761e-38
88	0x3da62ce7	0.08114033
89	0x3db50181	0.088381775
90	0x3e1796f3	0.14803676
91	0x3c913c6f	0.017729012
92	0x3b033c9e	0.0020025144
93	0x3b1a4416	0.0023539118
94	0x3af40563	0.0018617328
95	0x3b25e517	0.002531355
96	0xbd598ec7	-0.05311468
97	0xbd05c108	-0.032654792
98	0x3de7d2d0	0.11319506
99	0xbd8c9724	-0.06864765
100	0xbd177e1d	-0.036985505
101	0xbba170cf	-0.004926778
102	0x3cde2b74	0.02712033
103	0xbcaea158	-0.02131717
104	0x8200a5e0	-9.451559e-38
105	0x821c44f2	-1.1480856e-37
106	0x80eae98e	-2.157329e-38
107	0x81ddc03a	-8.145841e-38
108	0x3e00c995	0.12576897
109	0x3e6f8545	0.23390682
110	0xbdd42be4	-0.10359934
111	0x3cc68594	0.024233617
112	0x802eca64	-4.297037e-39
113	0x81775025	-4.5424236e-38
114	0x013c4e47	3.4586308e-38
115	0x01e211b0	8.304467e-38
116	0xb9ad21d3	-0.00033022332
117	0xba96fbf3	-0.0011519179
118	0xbabafc56	-0.0014265876
119	0xbb154a9e	-0.002278007
120	0x3e83f33a	0.25771505
121	0x3eb48e45	0.35264793
122	0xbde89b62	-0.11357762
123	0x3e893a68	0.26802373
124	0xbc4617f8	-0.0120906755
125	0xbdda7b53	-0.106680535
126	0x3d9efc6c	0.077629894
127	0x3d25dbb7	0.04049274
128	0x3c4e5cbf	0.012595355
129	0xbad33d8f	-0.0016116368
130	0x3e263d3a	0.16234294
131	0x3bf5f4a1	0.0075059687
132	0x38a23ea2	7.736428e-05
133	0x38ba6dd6	8.88963e-05
134	0x384db687	4.90458e-05
135	0x388a8fd9	6.6071465e-05
136	0x8235c934	-1.3355522e-37
137	0x81aaae3b	-6.2698146e-38
138	0x00c86957	1.8404888e-38
139	0x8036643a	-4.995071e-39
140	0xbdfd45f8	-0.12366861
141	0xbd23354d	-0.039845753
142	0x3dbc685c	0.091995925
143	0x3cea3d46	0.02859367
144	0x81cf9fd7	-7.626915e-38
145	0x8244f6b5	-1.4470607e-37
146	0x82469719	-1.4590105e-37
147	0x82d7abd4	-3.1690035e-37
148	0xbc82740a	-0.015924472
149	0xbd4acbad	-0.049510647
150	0xbc59018a	-0.013244996
151	0xbda40554	-0.08008829
152	0x3786eaa1	1.6083302e-05
153	0x36d41666	6.3207e-06
154	0x379fc1cb	1.9044519e-05
155	0x371f66d9	9.501085e-06
156	0xbd43f27e	-0.04783868
157	0x3d080ce5	0.033215422
158	0x3baf12a8	0.0053428
159	0x3dee9274	0.116490275
160	0xbd397927	-0.045281556
161	0xbbde5532	-0.0067850584
162	0x3d34a603	0.044103634
163	0xbda732b2	-0.08163966
164	0x815932e2	-3.9893112e-38
165	0x80b06725	-1.6200049e-38
166	0x0196ca54	5.5391624e-38
167	0x013c31cb	3.456587e-38
168	0x3df11746	0.11772017
169	0x3dfd0b5d	0.12355683
170	0x3e0fa2fb	0.14027016
171	0x3d54655d	0.05185448
172	0x004f0e67	7.260171e-39
173	0x80571352	-7.996619e-39
174	0x8088f8e9	-1.257892e-38
175	0x01c4c2b2	7.2278403e-38
176	0x35e292bb	1.6881016e-06
177	0x372da517	1.03500415e-05
178	0x341847a9	1.4182173e-07
179	0x367bb7ad	3.7508828e-06
180	0x00aa9172	1.566421e-38
181	0x821aa8e4	-1.1362602e-37
182	0x0067c2d6	9.52895e-39
183	0x802caa66	-4.101889e-39
184	0x3d9b1af0	0.07573497
185	0x3cf4b4a9	0.029871302
186	0x3d2c0b55	0.042002995
187	0xbd6a17b9	-0.05715153
188	0xaa2183c5	-1.4345389e-13
189	0xab40727d	-6.8370987e-13
190	0xab05f1bf	-4.758658e-13
191	0xac089103	-1.940726e-12
192	0x3daa7fbc	0.08325145
193	0xbd130e3c	-0.035902247
194	0x3dc997bb	0.098433934
195	0xbd5fb80e	-0.054618888
196	0xbde958c3	-0.11393883
197	0xbd840f8e	-0.06448279
198	0xbd145b43	-0.036219846
199	0x3cb3adc2	0.02193344
200	0x3cacf709	0.02111389
201	0xbaefc2f5	-0.0018292355
202	0x3d179807	0.03701022
203	0xbc21b846	-0.009870594
204	0xbe419b9b	-0.18907015
205	0xbc81b39e	-0.015832718
206	0xbe5a7b18	-0.21336019
207	0xbdc878a0	-0.097886324
208	0xbbbe7304	-0.005812051
209	0x3c42319d	0.011852649
210	0x3d22ff42	0.039794214
211	0x3d946194	0.07245174
212	0xbd4befa8	-0.0497891
213	0x3d449c1e	0.048000447
214	0x00000000	0.0
215	0x3d7e036e	0.06201499
216	0x021ac2f1	1.1370079e-37
217	0x01ffd77c	9.398141e-38
218	0x81202d67	-2.9419933e-38
219	0x01c66b0e	7.288733e-38
220	0x013e6233	3.4967943e-38
221	0x820a1c37	-1.0146736e-37
222	0x0196473f	5.520353e-38
223	0x8034d1a8	-4.850656e-39
224	0x3d35851f	0.044316407
225	0x3df609a7	0.1201356
226	0x3e4367e1	0.19082595
227	0x3e01216f	0.1261041
228	0x3e04296e	0.12906429
229	0x3ded8a70	0.115986705
230	0x3e4e7b09	0.20164122
231	0x3d960276	0.07324688
232	0x3d834537	0.06409686
233	0x39458f28	0.00018840714
234	0x3d7bf8fc	0.061516747
235	0xbda6108f	-0.08108627
236	0x3de1332d	0.10996089
237	0x3e0de049	0.13855089
238	0x3e0143d3	0.12623529
239	0x3db9b12e	0.090669975
240	0x3cfdb446	0.03096975
241	0x3cc81730	0.02442512
242	0x3dee7924	0.116441995
243	0x3db32dc7	0.08748966
244	0x318e1fb0	4.1363464e-09
245	0x31d5fb69	6.227698e-09
246	0x3210fc57	8.439279e-09
247	0x33191ffe	3.5652185e-08
248	0xbcf2a024	-0.029617377
249	0xbddcad90	-0.10775292
250	0x3da0ca67	0.07851105
251	0xbcf258e5	-0.029583404
252	0x02759a54	1.8044047e-37
253	0x01d7bad3	7.9246606e-38
254	0x025844ac	1.5888882e-37
255	0x0109342b	2.5200355e-38

encoder.4.bias f4 [32]
0	0x3c5bfe6f	0.013427361
1	0xb0e9c23e	-1.7008188e-09
2	0x3d1bde9b	0.03805409
3	0xaed0e34d	-9.4991216e-11
4	0xbd2fd1f1	-0.042924825
5	0xbd427b3e	-0.047480814
6	0xbd41c5f0	-0.04730791
7	0x3ce4ff64	0.027953811
8	0x3b286677	0.002569584
9	0x3d0258e5	0.031823058
10	0x3a1a3a24	0.00058832974
11	0x9b201f44	-1.3244992e-22
12	0x3c7908ae	0.015199823
13	0x9d23336d	-2.1599457e-21
14	0x3e7ed547	0.24886046
15	0x3b1a6fc1	0.0023565146
16	0x3cda14e8	0.026621297
17	0xb2ee3bcc	-2.7734039e-08
18	0x8b6ce46a	-4.5623786e-32
19	0xb9b20ca1	-0.00033960215
20	0x3b8d534e	0.004312909
21	0xbd8ae5cf	-0.06782114
22	0xb425ee64	-1.5453548e-07
23	0xa6ab508b	-1.188734e-15
24	0x3d21204f	0.039337453
25	0xbc9776ba	-0.01848923
26	0xab6a0bdc	-8.314996e-13
27	0xba517872	-0.0007990665
28	0x3bc39420	0.0059685856
29	0xbac8f97f	-0.0015333145
30	0xbb045200	-0.0020190477
31	0x3c63bb55	0.013899644

encoder.6.weight f4 [16, 32, 3, 3]
0	0xa645a82c	-6.857602e-16
1	0xa5e58435	-3.9814755e-16
2	0xa9070ddd	-2.9988046e-14
3	0x80051947	-4.68245e-40
4	0x8001fce2	-1.82553e-40
5	0x02b162a9	2.606444e-37
6	0x80006e1e	-3.9503e-41
7	0x000f27c5	1.391799e-39
8	0x8001530b	-1.21626e-40
9	0x80000000	-0.0
10	0x00000000	0.0
11	0x80000000	-0.0
12	0x80000000	-0.0
13	0x80000000	-0.0
14	0x8015d000	-2.003162e-39
15	0x80000000	-0.0
16	0x80000000	-0.0
17	0x8006317c	-5.68765e-40
18	0xa8ffa481	-2.838203e-14
19	0xa8d6f6aa	-2.3865746e-14
20	0xaa9ce4e0	-2.786998e-13
21	0x80018c3d	-1.42144e-40
22	0x00010e6e	9.7012e-41
23	0x00013c16	1.1339e-40
24	0x80011c7e	-1.02057e-40
25	0x001cc443	2.6418e-39
26	0x0011b129	1.624757e-39
27	0x80000000	-0.0
28	0x800b58aa	-1.041997e-39
29	0x00126fbc	1.693122e-39
30	0x8013d335	-1.820641e-39
31	0x0002a47c	2.42677e-40
32	0x00000000	0.0
33	0x000524bf	4.7236e-40
34	0x80000000	-0.0
35	0x800a7007	-9.58543e-40
36	0x950b86df	-2.817722e-26
37	0x958255d2	-5.264198e-26
38	0x9c35cc41	-6.015187e-22
39	0x8001fb79	-1.82047e-40
40	0x800037a8	-1.9966e-41
41	0x0000fbed	9.0374e-41
42	0x80027ab1	-2.27684e-40
43	0x000bc4fe	1.080858e-39
44	0x000398f8	3.30381e-40
45	0x00061d20	5.61461e-40
46	0x00052027	4.70712e-40
47	0x0003849a	3.23075e-40
48	0x871923ef	-1.1521001e-34
49	0x0c420d1f	1.4949165e-31
50	0x0a6ca41d	1.1393853e-32
51	0x0006d215	6.26376e-40
52	0x80043d2b	-3.89285e-40
53	0x8000e076	-8.0521e-41
54	0x9d942d9e	-3.922244e-21
55	0x9d65af43	-3.0398506e-21
56	0x9eea5f80	-2.4815212e-20
57	0x96b4cf81	-2.9211522e-25
58	0x96a0fbfb	-2.6008416e-25
59	0x9bb0bb85	-2.923794e-22
60	0x0c05a2c5	1.0294929e-31
61	0x07369441	1.3735726e-34
62	0x081fd685	4.809949e-34
63	0x0a770f55	1.1895501e-32
64	0x096cbc10	2.8495893e-33
65	0x027b1821	1.8447492e-37
66	0x00075bf0	6.7583e-40
67	0x80037395	-3.1697e-40
68	0x0002aa35	2.4473e-40
69	0x0003b8c3	3.41787e-40
70	0x0007abe9	7.04518e-40
71	0x00098f21	8.77864e-40
72	0x9937ebd6	-9.508505e-24
73	0x9909f9ca	-7.1331785e-24
74	0x9549697d	-4.0674842e-26
75	0x80048088	-4.1345e-40
76	0x8007da10	-7.21075e-40
77	0x80017e1a	-1.37072e-40
78	0x00048dcb	4.18208e-40
79	0x0002d1a5	2.58877e-40
80	0x000c4e8f	1.130207e-39
81	0x0c2e8e89	1.3447365e-31
82	0x8d78e9c3	-7.670228e-31
83	0x9a13e7b8	-3.058607e-23
84	0x80078346	-6.8994e-40
85	0x80077046	-6.83125e-40
86	0x0001c783	1.63407e-40
87	0x80005231	-2.9485e-41
88	0x000b732c	1.051506e-39
89	0x8007bab6	-7.09828e-40
90	0x9d0e3e9e	-1.8825916e-21
91	0x9c16877c	-4.9805946e-22
92	0x9acfcd1d	-8.594457e-23
93	0x86bcb451	-7.098269e-35
94	0x80035bab	-3.08391e-40
95	0x02d20918	3.0861946e-37
96	0x00051f73	4.7046e-40
97	0x0002b0a4	2.47038e-40
98	0x000443a4	3.91607e-40
99	0x0010adf7	1.531775e-39
100	0x000c1e87	1.112977e-39
101	0x0010d579	1.545947e-39
102	0x80075d1d	-6.76251e-40
103	0x8008da59	-8.13012e-40
104	0x80091ab4	-8.36099e-40
105	0x80000000	-0.0
106	0x00000000	0.0
107	0x80000000	-0.0
108	0x8ff5bfcb	-2.4232741e-29
109	0x9317984e	-1.9133971e-27
110	0x98a38d8d	-4.2277442e-24
111	0x00025754	2.14998e-40
112	0x800819f0	-7.43989e-40
113	0x80058c4d	-5.09508e-40
114	0x00022c5d	1.99586e-40
115	0x000d8887	1.242838e-39
116	0x0008b2f0	7.98875e-40
117	0x00087117	7.75253e-40
118	0x00146438	1.872662e-39
119	0x00000000	0.0
120	0x00000000	0.0
121	0x00000000	0.0
122	0x80000000	-0.0
123	0x0009c195	8.95964e-40
124	0x000bd160	1.0853e-39
125	0x800d11ec	-1.20029e-39
126	0x0144daf8	3.6156617e-38
127	0x0038142b	5.150023e-39
128	0x00051ea2	4.70166e-40
129	0x9ca826ca	-1.1127334e-21
130	0x9de70246	-6.114754e-21
131	0x9430982b	-8.915739e-27
132	0x08bf7443	1.1522727e-33
133	0x96ab0e94	-2.763574e-25
134	0x90612f85	-4.4410034e-29
135	0x00000000	0.0
136	0x9f60cfc4	-4.7605705e-20
137	0x00000000	0.0
138	0x000415d7	3.75177e-40
139	0x80000000	-0.0
140	0x016ad13e	4.3129136e-38
141	0x00000000	0.0
142	0x0002b849	2.4978e-40
143	0x00000000	0.0
144	0x8007a020	-7.0029e-40
145	0x800164a4	-1.27939e-40
146	0x0005750a	5.01163e-40
147	0x0007b258	7.06826e-40
148	0x8001d7a7	-1.69197e-40
149	0x80000000	-0.0
150	0x80000000	-0.0
151	0x8006bfb8	-6.19789e-40
152	0x80000000	-0.0
153	0x8014a01a	-1.894144e-39
154	0x000f5b97	1.410389e-39
155	0x8013bb94	-1.812165e-39
156	0x80000000	-0.0
157	0x80007d44	-4.4937e-41
158	0x8004fb54	-4.57502e-40
159	0x00000000	0.0
160	0x80146bcd	-1.875382e-39
161	0x0004042f	3.68843e-40
162	0x0000747e	4.179e-41
163	0x80139e6c	-1.801705e-39
164	0x8005d178	-5.34321e-40
165	0x801434e2	-1.855681e-39
166	0x801314cd	-1.752336e-39
167	0x80009ff9	-5.7387e-41
168	0x800e501f	-1.314439e-39
169	0x000129e1	1.06859e-40
170	0x800842f4	-7.58702e-40
171	0x00000000	0.0
172	0x9432253d	-8.9940474e-27
173	0x00000000	0.0
174	0x80000000	-0.0
175	0x80025cd6	-2.16974e-40
176	0x80000000	-0.0
177	0x80000000	-0.0
178	0x800319df	-2.84787e-40
179	0x00000000	0.0
180	0x0004d73a	4.44551e-40
181	0x80014ce5	-1.1942e-40
182	0x80192868	-2.310382e-39
183	0x088ba410	8.404329e-34
184	0x8000c88a	-7.194e-41
185	0x011531c3	2.740268e-38
186	0x00007b8e	4.4323e-41
187	0x8002d8da	-2.61463e-40
188	0x00045101	3.96401e-40
189	0x91bfa07e	-3.0233398e-28
190	0x8fa7f7bf	-1.65629e-29
191	0x974eb0b8	-6.678524e-25
192	0x00006637	3.6668e-41
193	0x0004eb41	4.51735e-40
194	0x00016549	1.2817e-40
195	0x8007b072	-7.06145e-40
196	0x8001f620	-1.80129e-40
197	0x000b1011	1.015954e-39
198	0x0015863d	1.976701e-39
199	0x80132ea1	-1.761602e-39
200	0x80044c4e	-3.94715e-40
201	0x0011aa37	1.622265e-39
202	0x800a189f	-9.27187e-40
203	0x0015d223	2.003928e-39
204	0x00157919	1.971987e-39
205	0x8004968a	-4.21345e-40
206	0x00010c60	9.6275e-41
207	0x8008e197	-8.1561e-40
208	0x800c8236	-1.148737e-39
209	0x800a3983	-9.38986e-40
210	0x0004ef94	4.53286e-40
211	0x000678d2	5.94355e-40
212	0x80000000	-0.0
213	0x80050409	-4.60625e-40
214	0x00013ba2	1.13228e-40
215	0x0000e8e2	8.3543e-41
216	0xa34f3fa1	-1.12349664e-17
217	0xa25397bc	-2.867616e-18
218	0xa55f3f69	-1.9363651e-16
219	0x0002a511	2.42886e-40
220	0x00070191	6.4341e-40
221	0x02b47804	2.6517508e-37
222	0x8003f930	-3.64898e-40
223	0x00069660	6.04957e-40
224	0x82beaaa1	-2.8015927e-37
225	0x0004e08d	4.47896e-40
226	0x800cfee4	-1.193463e-39
227	0x800bf2b8	-1.097262e-39
228	0x00146f90	1.876731e-39
229	0x80121604	-1.660937e-39
230	0x00137190	1.785613e-39
231	0x0013b3fa	1.809438e-39
232	0x001414dc	1.844193e-39
233	0x8010c709	-1.540768e-39
234	0x8004bf18	-4.35894e-40
235	0x800276d0	-2.26293e-40
236	0x000135e8	1.11173e-40
237	0x0006cb09	6.23848e-40
238	0x80085f14	-7.68792e-40
239	0x80108bb8	-1.51949e-39
240	0x8014e7d6	-1.919877e-39
241	0x00069928	6.05955e-40
242	0x0006c2fb	6.20959e-40
243	0x9dc62493	-5.244798e-21
244	0x9dc36de4	-5.1729694e-21
245	0x9c9fd1e4	-1.0575993e-21
246	0x00003cd4	2.1821e-41
247	0x00073b7f	6.64192e-40
248	0x800832c1	-7.52891e-40
249	0x0002eebc	2.69313e-40
250	0x0007fd2c	7.3367e-40
251	0x000fb7d2	1.443475e-39
252	0x80076da3	-6.82179e-40
253	0x8006f8e4	-6.40298e-40
254	0x80035e4d	-3.09335e-40
255	0x00044ed1	3.95616e-40

encoder.6.bias f4 [16]
0	0x800888c0	-7.8374e-40
1	0x3d16f6fe	0.036856644
2	0x3e0b03bb	0.13575642
3	0x3d74cdd8	0.05976662
4	0xbcc9c1eb	-0.0246286
5	0x80000000	-0.0
6	0x3e4f8a27	0.20267545
7	0x3cbe4942	0.023228291
8	0x3dad8e24	0.08474377
9	0xbd91b4f2	-0.07114591
10	0x3d6acf43	0.057326566
11	0xbcd74431	-0.026277633
12	0x07199171	1.1553182e-34
13	0xbb8eedb8	-0.0043618344
14	0x3ddd47e9	0.108047314
15	0x09749571	2.9440699e-33

encoder.9.weight f4 [8, 16, 3, 3]
0	0x800242d0	-2.07639e-40
1	0x000555a7	4.89904e-40
2	0x80018f75	-1.43298e-40
3	0x1faba697	7.2696917e-20
4	0x1f217f68	3.4198464e-20
5	0x9ea246b4	-1.718166e-20
6	0x8003329e	-2.93665e-40
7	0x8003afd9	-3.38589e-40
8	0x8004c11a	-4.36614e-40
9	0xbda461f8	-0.080264986
10	0xbcc2165f	-0.023692308
11	0xbca4dbc6	-0.020124327
12	0xbdd43e8d	-0.10363493
13	0x3cac2cfb	0.021017542
14	0xbd0121c3	-0.03152634
15	0x3b47c65c	0.0030483222
16	0x3dd22d0d	0.10262499
17	0x3d150ef8	0.03639123
18	0xbd5f4a08	-0.05451396
19	0xbc819858	-0.015819713
20	0x3c1aca8b	0.009447704
21	0xbca533ab	-0.020166239
22	0x3d325033	0.043533515
23	0x3c986747	0.018603934
24	0xbe8dec5a	-0.27719384
25	0xbb944621	-0.0045249616
26	0x3cebf3b9	0.02880274
27	0x3b30bf87	0.0026969628
28	0xbc8f69c3	-0.017506486
29	0xbc9a8610	-0.018862754
30	0x3d91680f	0.07099926
31	0x3d627796	0.055289827
32	0x3c8fbc70	0.017545909
33	0x3e87ce76	0.26524705
34	0x3e1f74c4	0.15571886
35	0xbc9c52ae	-0.019082393
36	0xbd799fbd	-0.060943354
37	0xbd00e7c6	-0.031471036
38	0x3befab20	0.007314101
39	0xbd48e497	-0.049046125
40	0xbda63ef1	-0.08117474
41	0x3d23bda4	0.039975777
42	0x3e0c4b30	0.13700557
43	0x3df7cb84	0.120993644
44	0xbd7908d8	-0.06079945
45	0x272f6b91	2.434444e-15
46	0x2f383748	1.6754342e-10
47	0x00000000	0.0
48	0x38ca87c9	9.6574026e-05
49	0x38680d20	5.5325334e-05
50	0x33d96fd7	1.01251935e-07
51	0x3545f835	7.374941e-07
52	0x358f1c1a	1.0662509e-06
53	0x2706cec9	1.8708334e-15
54	0xbbccb09b	-0.006246639
55	0x3d2cc03e	0.042175524
56	0xbc52f37f	-0.012875437
57	0xbe46ae71	-0.19402482
58	0x3d9e8a35	0.07741205
59	0xbcdd521d	-0.027016694
60	0x3cfa6604	0.030566223
61	0x3e28c8d1	0.16482855
62	0x3cde05de	0.027102407
63	0x3ca03490	0.019556314
64	0xbca93ea8	-0.02065976
65	0x3c71116a	0.0147136245
66	0x3d656c3e	0.05601143
67	0xbc1640d8	-0.009170733
68	0x3b2fc0c2	0.0026817773
69	0x3eb5f786	0.35540408
70	0xbc84515d	-0.016152078
71	0xbcab3bf2	-0.020902608
72	0xbd0e194d	-0.034692097
73	0x3bc1b517	0.00591148
74	0x3cf31554	0.029673256
75	0x3bed5792	0.007243105
76	0xbd93eb54	-0.0722262
77	0xbcc4bd90	-0.024016172
78	0x3e2535f3	0.16133861
79	0xbe5ae7a5	-0.21377428
80	0x3d460f86	0.048354648
81	0x3d13998d	0.03603511
82	0xba22ab8e	-0.0006205373
83	0x3b97444b	0.0046162955
84	0x3d3abe22	0.04559148
85	0xbcf7f671	-0.03026888
86	0xbc41956b	-0.011815409
87	0x3e9d2f95	0.30700365
88	0x3db43f91	0.08801187
89	0x3cb9a84b	0.022663256
90	0x3dcd880f	0.10035717
91	0x3d2c561e	0.042074315
92	0x3c53eb5c	0.012934532
93	0x3cfa98e6	0.030590486
94	0x3e0a3bd1	0.1349938
95	0x3c1c265f	0.009530633
96	0x3e813b3d	0.25240508
97	0x3d57199e	0.052514665
98	0x3dc09f0d	0.094053365
99	0xbde38c90	-0.111107945
100	0xbd40213c	-0.046906695
101	0xbd345977	-0.044030633
102	0xbc85d3ca	-0.01633634
103	0xbd856ada	-0.06514521
104	0xbca63e1f	-0.020293294
105	0x3d828856	0.0637366
106	0xbd395286	-0.045244716
107	0xbdb01d14	-0.08599296
108	0x0002ab74	2.45177e-40
109	0x0007cef8	7.17095e-40
110	0x80040e59	-3.72489e-40
111	0x0003c6ea	3.46863e-40
112	0x00029039	2.35408e-40
113	0x80048058	-4.13383e-40
114	0x80026d4b	-2.22878e-40
115	0x0007e329	7.24338e-40
116	0x80005e29	-3.3778e-41
117	0x3ddf0ddd	0.10891316
118	0xbca34085	-0.019928226
119	0xbd1b584c	-0.037926003
120	0xbe29d265	-0.16584165
121	0xbdaf47ff	-0.08558654
122	0xbd8b7716	-0.06809823
123	0x3e608eae	0.21929428
124	0xbd46c81b	-0.04853068
125	0xbcf4dd32	-0.02989063
126	0x3c561048	0.013065405
127	0xbc9581c0	-0.018250346
128	0x3c1b4011	0.009475724
129	0x3c8da0e2	0.017288629
130	0x3cfea6b4	0.03108535
131	0xbda54a3c	-0.080708
132	0x3e58a96a	0.21158376
133	0x3e4405f5	0.19142897
134	0x3d76ab4b	0.06022195
135	0x3669839e	3.4796317e-06
136	0x80000000	-0.0
137	0x00000000	0.0
138	0x3badf7ca	0.00530908
139	0x00000000	0.0
140	0x00000000	0.0
141	0x00000000	0.0
142	0x00000000	0.0
143	0x390423bc	0.00012601813
144	0x000c8ade	1.151842e-39
145	0x000cc707	1.173424e-39
146	0x00000000	0.0
147	0x0002e09d	2.64247e-40
148	0x000434b3	3.86247e-40
149	0x800a40c3	-9.41587e-40
150	0x8011a655	-1.620872e-39
151	0x000bd271	1.085683e-39
152	0x8000af60	-6.2913e-41
153	0xb64749e0	-2.9696312e-06
154	0xb7ef4349	-2.8522352e-05
155	0xb0a1dab9	-1.1776456e-09
156	0xb73a8941	-1.1118421e-05
157	0xb7c6473d	-2.3636612e-05
158	0xa20c3033	-1.8999054e-18
159	0xb610b665	-2.156384e-06
160	0xb758daf3	-1.2925581e-05
161	0x80078b76	-6.92878e-40
162	0xba9b28b5	-0.0011837693
163	0xbafb62e4	-0.0019179252
164	0xbaa7883a	-0.0012781688
165	0xb89793b6	-7.2277544e-05
166	0xb937b17f	-0.00017518362
167	0xb6e3a428	-6.7842375e-06
168	0xb895362f	-7.114966e-05
169	0xb94654df	-0.00018914368
170	0xb54904dd	-7.488541e-07
171	0xba38469b	-0.0007029564
172	0xb94d0e58	-0.00019555667
173	0xba931841	-0.0011222438
174	0xb49032f7	-2.6859172e-07
175	0x0002ea40	2.67704e-40
176	0xb7041cf8	-7.874558e-06
177	0xb8b417b1	-8.587482e-05
178	0xb7442714	-1.1691609e-05
179	0xb8e5b51a	-0.00010953304
180	0xba3e77bc	-0.00072657666
181	0xba85873d	-0.0010187399
182	0xb9964d58	-0.00028667855
183	0xb8012524	-3.0790587e-05
184	0xb853a756	-5.0462164e-05
185	0xaf36018a	-1.655335e-10
186	0xb4a45087	-3.0605972e-07
187	0xb3f5cdb9	-1.1446122e-07
188	0x9c1d7002	-5.209171e-22
189	0x0009933b	8.79336e-40
190	0x800b096c	-1.01357e-39
191	0x000eec1c	1.370397e-39
192	0x00046c1f	4.06129e-40
193	0x00039cbf	3.31736e-40
194	0x00014a96	1.18592e-40
195	0x800a15d0	-9.2618e-40
196	0x00091c6f	8.3672e-40
197	0x00152a6d	1.943765e-39
198	0xb6664994	-3.4315499e-06
199	0xb898cc3d	-7.285967e-05
200	0xb8af81b8	-8.368812e-05
201	0xb486870c	-2.5057705e-07
202	0xb79d14c9	-1.8725537e-05
203	0xb867c060	-5.5253855e-05
204	0xb69ffbbb	-4.7678745e-06
205	0xb90c2661	-0.00013365738
206	0xb89025d9	-6.873505e-05
207	0xbbbb2f69	-0.005712439
208	0xbb82bb90	-0.0039896443
209	0xbbcc1f15	-0.006229291
210	0xbb14026c	-0.0022584451
211	0xb8121e41	-3.483729e-05
212	0xbb2c38fd	-0.0026279085
213	0xbaf4267b	-0.0018627191
214	0xb97acaed	-0.00023917454
215	0xbb572288	-0.0032826979
216	0xb9c3a473	-0.00037315823
217	0xb6b2d2c5	-5.32935e-06
218	0xb8d8d2ee	-0.00010338971
219	0xb7ae9292	-2.0810669e-05
220	0xb27ba383	-1.4647301e-08
221	0xb6c1c3c8	-5.77464e-06
222	0xb7d3c43d	-2.524454e-05
223	0xb574cf32	-9.119859e-07
224	0xb7807665	-1.531392e-05
225	0xb6c1b992	-5.7734514e-06
226	0xab67618e	-8.220307e-13
227	0xb88ee910	-6.814499e-05
228	0xb7b77d28	-2.187358e-05
229	0xb469bb77	-2.1768015e-07
230	0xb943c94c	-0.00018671638
231	0xb7dda98f	-2.642421e-05
232	0xb708f668	-8.163603e-06
233	0xb9c5b691	-0.0003771079
234	0xb8a48f6f	-7.846846e-05
235	0xb0b22fbc	-1.2964771e-09
236	0xb8b49e19	-8.612517e-05
237	0xaa605c97	-1.992732e-13
238	0x800160f0	-1.2661e-40
239	0xb84bed5c	-4.862003e-05
240	0xaf9b7f55	-2.828481e-10
241	0xa8587d0b	-1.2017523e-14
242	0xb96452e4	-0.00021774654
243	0xbb215631	-0.0024618024
244	0xba1bd650	-0.0005944716
245	0xbb2401ca	-0.002502548
246	0xb9f7a6e9	-0.0004723587
247	0xb20aade8	-8.072199e-09
248	0xbae3e9f0	-0.0017388444
249	0xba18d9c4	-0.00058307895
250	0xb72af2b3	-1.0189297e-05
251	0xbb04fb2d	-0.0020291314
252	0x00083679	7.54225e-40
253	0x8006217d	-5.63026e-40
254	0x800c2f5f	-1.11902e-39
255	0x000678b5	5.94315e-40

encoder.9.bias f4 [8]
0	0x3ca84355	0.020539919
1	0x800b1ca9	-1.020472e-39
2	0x0003fe0a	3.66639e-40
3	0x00029a98	2.39129e-40
4	0x3e549221	0.20758869
5	0xbcb6b5ae	-0.022303429
6	0x8008e565	-8.16975e-40
7	0x3d8720bc	0.065980405

decoder.0.weight f4 [8, 128, 3, 3]
0	0xbc30cb11	-0.010790602
1	0xbda99262	-0.082798734
2	0xbc10c1db	-0.008835281
3	0xaf63dc3d	-2.0723774e-10
4	0x80000000	-0.0
5	0x80000000	-0.0
6	0x80000000	-0.0
7	0x00000000	0.0
8	0xbc07d991	-0.008291618
9	0xbc8cc30a	-0.017182846
10	0x000d51dd	1.223228e-39
11	0x3d6944bf	0.056950327
12	0x80000000	-0.0
13	0x3e081d64	0.13292462
14	0x80000000	-0.0
15	0x3db99142	0.09060909
16	0x80000000	-0.0
17	0xbe4f3005	-0.20233162
18	0xb8ac40bd	-8.2136576e-05
19	0xbed0f77d	-0.4081382
20	0xbe093e99	-0.13402785
21	0x3e54da61	0.2078643
22	0xbe8f8d94	-0.28037703
23	0xbd7be8f3	-0.061501455
24	0xbd792be3	-0.06083287
25	0x3e4a912c	0.19781941
26	0x3cba7add	0.022763664
27	0xbe618516	-0.22023425
28	0x3c8ff50d	0.017572904
29	0x3e994a92	0.29939705
30	0xbc8cc8f6	-0.01718567
31	0x929f73a1	-1.0062815e-27
32	0x3b30991e	0.0026946734
33	0x3d8c5630	0.068523765
34	0x3e91584b	0.28387675
35	0x3c65bf8e	0.014022721
36	0x0001fc2f	1.82302e-40
37	0xbdda2e23	-0.10653331
38	0x80000000	-0.0
39	0x80000000	-0.0
40	0x80000000	-0.0
41	0xb73f4ce4	-1.140239e-05
42	0x00000000	0.0
43	0x00000000	0.0
44	0x00000000	0.0
45	0xbc37b293	-0.011212009
46	0x00026082	2.18291e-40
47	0xbb1b7b5a	-0.0023724646
48	0x80000000	-0.0
49	0x80000000	-0.0
50	0x80000000	-0.0
51	0xbc9e2452	-0.019304428
52	0x8005766b	-5.01658e-40
53	0xbc5c5e9f	-0.013450294
54	0x8000bb37	-6.716e-41
55	0xbdd7c967	-0.10536461
56	0x800c796c	-1.145584e-39
57	0x800fe0b5	-1.458142e-39
58	0x3e39c22f	0.18140481
59	0x80096054	-8.61075e-40
60	0x0005c9f2	5.31622e-40
61	0x3df62b27	0.120199494
62	0x000f008e	1.377731e-39
63	0xbd2fc97a	-0.042916752
64	0xbc4401fc	-0.011963364
65	0xbe4beceb	-0.19914596
66	0xbce7fdef	-0.028319327
67	0xbcaabd91	-0.020842345
68	0xbd2fe6a3	-0.04294456
69	0xbcb5a705	-0.022174368
70	0xbe196316	-0.14979205
71	0xbe3fbac9	-0.18723597
72	0xbc129747	-0.0089472
73	0xbc284214	-0.0102696605
74	0x80000000	-0.0
75	0x80000000	-0.0
76	0xbc99a3ca	-0.018754859
77	0xbca19730	-0.019725412
78	0xbc29f13e	-0.010372458
79	0x80000000	-0.0
80	0xbb9a0dfd	-0.0047013746
81	0xbcc53f9f	-0.024078188
82	0x80000000	-0.0
83	0xbc9c920a	-0.019112606
84	0x80000000	-0.0
85	0x80000000	-0.0
86	0xb38c1906	-6.52381e-08
87	0xbae78b85	-0.0017665481
88	0x80000000	-0.0
89	0xb7983b63	-1.8147466e-05
90	0x3ddd7c27	0.10814696
91	0x80000000	-0.0
92	0x3e93a4ed	0.28836766
93	0x1edbe53f	2.3282341e-20
94	0x0002cf4f	2.5804e-40
95	0x00011f29	1.03014e-40
96	0x3d4628eb	0.048378866
97	0x0008d089	8.09492e-40
98	0xbe82d7c2	-0.25555235
99	0x3dbfebfc	0.09371182
100	0xbca6592b	-0.02030619
101	0xbe07245f	-0.13197468
102	0x3e6668b8	0.22500885
103	0x000b07ac	1.012943e-39
104	0x3e0faaf8	0.14030063
105	0xbd9378bc	-0.07200763
106	0x3e0f30ab	0.13983409
107	0xbdb293dc	-0.08719608
108	0x80000000	-0.0
109	0xa88197a2	-1.4387637e-14
110	0xb86123c1	-5.367748e-05
111	0xb4c73bb5	-3.711008e-07
112	0x80000000	-0.0
113	0xa715ebd8	-2.0805755e-15
114	0xbbf0cdd0	-0.0073487535
115	0xb6b7ef4d	-5.4816833e-06
116	0x80000000	-0.0
117	0xbc8fe3da	-0.017564703
118	0xbd9ae05f	-0.07562327
119	0x80000000	-0.0
120	0xbb07c287	-0.0020715313
121	0xbcad7c13	-0.021177327
122	0xba71fd36	-0.0009231152
123	0xbcaa9050	-0.020820767
124	0xbd0fd7da	-0.03511796
125	0xbc1e4515	-0.009660025
126	0xba1ee384	-0.0006061124
127	0x80000000	-0.0
128	0xbcaa8632	-0.020815942
129	0x80000000	-0.0
130	0xbc730a6d	-0.014834029
131	0x00000000	0.0
132	0xbc58ad5c	-0.013224926
133	0xbc873a13	-0.016507184
134	0xbd0e825c	-0.03479229
135	0xbdcd58b6	-0.10026686
136	0xbe75482c	-0.23953313
137	0xbe9ad4c8	-0.30240464
138	0xbbb8e984	-0.0056430716
139	0x3e205825	0.15658624
140	0xbbb81134	-0.005617285
141	0x3ca9046e	0.020631995
142	0x3e54d2cc	0.20783538
143	0xbe6b1e27	-0.22960721
144	0x3e2fdb84	0.17173582
145	0x00149fd5	1.894047e-39
146	0x3b99fe32	0.004699492
147	0x3a4f73f9	0.00079137046
148	0x80059b6a	-5.1493e-40
149	0x00000000	0.0
150	0x3d2b9ce9	0.041897688
151	0x80018a24	-1.41391e-40
152	0x3e30c691	0.17263247
153	0xbc3042f1	-0.010758148
154	0xbdaa3fc8	-0.083129466
155	0xbaceb94f	-0.0015771779
156	0xbe16ffc7	-0.14746009
157	0x80000000	-0.0
158	0x3de0e2d0	0.10980761
159	0xbc1f63f2	-0.009728419
160	0x3e4769dd	0.19473977
161	0xbce48b83	-0.027898556
162	0xbcd2474b	-0.02566876
163	0xbbeca28e	-0.0072215265
164	0xbdba6da1	-0.09102941
165	0x3e6249fe	0.22098538
166	0xbc5f0b99	-0.013613605
167	0xbe0aa748	-0.13540375
168	0xbe06a848	-0.13150132
169	0xbc87d7f5	-0.016582469
170	0xbd2c3005	-0.042037982
171	0x0010fb43	1.559504e-39
172	0xbd515e67	-0.05111542
173	0x8007c3f4	-7.13143e-40
174	0xbd1a6449	-0.037693296
175	0x801070dd	-1.509856e-39
176	0xbe0f5a53	-0.139993
177	0x800893d7	-7.87719e-40
178	0xbd9c1d53	-0.07622781
179	0x800330f4	-2.93068e-40
180	0x0006bd5d	6.18944e-40
181	0x379be99b	1.858622e-05
182	0x00061397	5.5804e-40
183	0xbbdb4689	-0.006691758
184	0x00000000	0.0
185	0xbb8281c5	-0.003982755
186	0x9f04dcbf	-2.8134684e-20
187	0x80000000	-0.0
188	0x0006747d	5.92801e-40
189	0x3dc7b3fd	0.09751127
190	0x00000000	0.0
191	0x3e1d36d5	0.15352948
192	0x00000000	0.0
193	0x80000000	-0.0
194	0x00000000	0.0
195	0xbd4a9321	-0.04945672
196	0xbc21fc5c	-0.009886827
197	0x80000000	-0.0
198	0x800b8dbe	-1.061038e-39
199	0x000023d8	1.2858e-41
200	0x80000000	-0.0
201	0xbcd39836	-0.025829416
202	0x80000000	-0.0
203	0x3ee35e33	0.44407806
204	0x0008d48a	8.10929e-40
205	0x00086d2a	7.73845e-40
206	0x80000000	-0.0
207	0x000112b4	9.8545e-41
208	0x3d79ebf5	0.06101604
209	0x800e93d8	-1.338733e-39
210	0x800366a1	-3.12323e-40
211	0x00000000	0.0
212	0x800a4c84	-9.45804e-40
213	0x00068920	6.00204e-40
214	0xbc9bbf63	-0.019012159
215	0x00022d36	1.9989e-40
216	0xba9525ac	-0.0011379025
217	0xbc9f848f	-0.019472389
218	0xb6c6c9a5	-5.9243343e-06
219	0xbe30e506	-0.17274866
220	0x3e517f60	0.20458746
221	0xb6f89417	-7.408216e-06
222	0xbb5dd7e9	-0.0033850616
223	0xbcc5e12b	-0.02415522
224	0xba863b1a	-0.0010241002
225	0xbca36d3f	-0.019949554
226	0xbe057144	-0.13031489
227	0xbd1714dc	-0.036885127
228	0xbcd59442	-0.026071671
229	0xbc8ca2e8	-0.017167524
230	0x80000000	-0.0
231	0xbcae49c2	-0.021275405
232	0x00000000	0.0
233	0x00000000	0.0
234	0x00000000	0.0
235	0x00002f29	1.6918e-41
236	0x80000000	-0.0
237	0x80030b1d	-2.79493e-40
238	0x0008a44f	7.93627e-40
239	0x800ed732	-1.362894e-39
240	0xbe698b16	-0.22806963
241	0x00092e25	8.43073e-40
242	0xba38e1a7	-0.0007052668
243	0xbca10316	-0.019654792
244	0xb2bff3ef	-2.2346255e-08
245	0xbc3526c8	-0.011056609
246	0xab4b5004	-7.223113e-13
247	0xb183bdd3	-3.8341823e-09
248	0x80000000	-0.0
249	0x80000000	-0.0
250	0xb768b30d	-1.3869966e-05
251	0x80000000	-0.0
252	0xb6fb6a15	-7.4927325e-06
253	0x80000000	-0.0
254	0xb141020d	-2.8086362e-09
255	0x80000000	-0.0

decoder.0.bias f4 [128]
0	0xbc23c84d	-0.009996486
1	0xbe43d7f5	-0.1912535
2	0x3d23ad86	0.039960407
3	0xbdd20cf6	-0.10256378
4	0xbd855ddc	-0.06512043
5	0xb282c4b0	-1.5223435e-08
6	0xbea34948	-0.31891847
7	0x3e7fb9e3	0.24973254
8	0xbd0ddc33	-0.034633826
9	0xb32c3870	-4.00982e-08
10	0xbdafea66	-0.0858963
11	0xbdd2b641	-0.102886684
12	0xb58e8d06	-1.0620868e-06
13	0x3bc9b3dc	0.006155474
14	0x3f7dd849	0.9915815
15	0x3d87ec3b	0.06636854
16	0xbf228fea	-0.63500845
17	0x3eb90ce1	0.36142638
18	0x3d1ea239	0.038728926
19	0xbe36222d	-0.17786475
20	0x9e84a7e4	-1.4045482e-20
21	0x3dd6dba9	0.104911156
22	0xbf02e605	-0.5113223
23	0xbc77cd88	-0.015124686
24	0xbc46253c	-0.012093838
25	0x3ece4b8c	0.40292013
26	0xbc2853ee	-0.010273917
27	0xb0f0e6c2	-1.7527884e-09
28	0xb65da5ba	-3.3028032e-06
29	0xbe4d6154	-0.20056659
30	0xbd0a0646	-0.03369739
31	0x3ce545d0	0.02798739
32	0xbd792400	-0.060825348
33	0x3f7014dd	0.93781835
34	0x3e401945	0.1875964
35	0xbdc98051	-0.098389275
36	0xbd10b9c4	-0.03533341
37	0x3eaf1126	0.3419277
38	0x3d7d4d66	0.06184139
39	0x3efb20bf	0.4904842
40	0xa31be970	-8.451999e-18
41	0xbc557de4	-0.013030503
42	0x3e846e9d	0.2586564
43	0x9c4e686a	-6.8294634e-22
44	0x80009c11	-5.5986e-41
45	0xbe2c5351	-0.16828658
46	0x3ec96936	0.39338082
47	0x3f22dc68	0.63617563
48	0xbbb10f8a	-0.0054034637
49	0x3f912cde	1.1341817
50	0xb69ef96b	-4.737803e-06
51	0x3e019c75	0.1265734
52	0x3e9a686e	0.301578
53	0x3cb6121e	0.022225436
54	0x3f6c4fcd	0.92309266
55	0xbe91c8d4	-0.28473532
56	0xbed9e17b	-0.4255484
57	0xbe9f100f	-0.3106694
58	0xbe7eca40	-0.2488184
59	0x3de40ef7	0.11135667
60	0xbf6c5ab4	-0.923259
61	0x3e040ddb	0.1289591
62	0x3daee879	0.085404344
63	0xbd9b4333	-0.075811766
64	0x3f489cca	0.7836424
65	0x3e48724a	0.19574848
66	0xbb02367d	-0.0019868903
67	0x3ec65142	0.3873387
68	0xbee02909	-0.43781307
69	0x3f603c9f	0.875925
70	0x3e7105ad	0.23537321
71	0xbebc33c8	-0.36758256
72	0xbdc7f312	-0.09763159
73	0xbd3722d6	-0.044710957
74	0xb93549dd	-0.00017289021
75	0x3f65b1c5	0.8972438
76	0xbcca9b0b	-0.024732133
77	0xbed3b3d9	-0.4134815
78	0xbd8ae8b4	-0.06782666
79	0xbe8e2f90	-0.27770662
80	0xbdf2bc85	-0.118523635
81	0xbd33e405	-0.04391863
82	0x3c2fd2fd	0.010731456
83	0x3cc5d40c	0.024148963
84	0x3ecb8186	0.39747256
85	0x9677a022	-2.000303e-25
86	0xb97bb5dd	-0.00024004975
87	0xbed7fcb8	-0.42184997
88	0xa8bdd6ec	-2.1076423e-14
89	0xbcb1c2e8	-0.021699384
90	0xbd791bc0	-0.06081748
91	0x3e0eb489	0.13936056
92	0x3f4b676f	0.794547
93	0xbe824ba6	-0.2544834
94	0x3eaa1427	0.332185
95	0xbe14c84d	-0.14529534
96	0xbcb00caa	-0.021490414
97	0x3eb9f219	0.36317518
98	0x3f1b0505	0.60554534
99	0xbeaa630a	-0.33278686
100	0xbeb9748f	-0.3622174
101	0x3dcab953	0.09898629
102	0x0005810c	5.05471e-40
103	0xadb0012f	-2.0009409e-11
104	0x3ca0f632	0.019648645
105	0x3ee53552	0.44767243
106	0x00000000	0.0
107	0x3d07db4b	0.03316812
108	0xbebf54d7	-0.37369415
109	0xbd8aff86	-0.067870185
110	0xbeca93db	-0.3956593
111	0x3f2dadbe	0.67843235
112	0xbe47e5c3	-0.19521241
113	0xbcd6b3fc	-0.02620887
114	0x3d0ad6ba	0.033896185
115	0xbef34391	-0.47512487
116	0x3f40314e	0.75075233
117	0xb4fff2e0	-4.7674166e-07
118	0xbe54be0e	-0.20775625
119	0x3f1b143d	0.60577756
120	0x3e3ddb49	0.18540682
121	0xbea8798b	-0.3290523
122	0xbdc3e2a8	-0.095647156
123	0xbd6e31da	-0.05815301
124	0xbd6305c5	-0.055425424
125	0x3d69db43	0.05709387
126	0x3e1098f7	0.14120851
127	0x3c8c105d	0.017097646
