mnist_iter/end_of_5.pth (torch_old, 842197 bytes, 19 tensors)

encoder.0.weight f4 [128, 1, 3, 3]
00000000: e94b 023f 453b 833e e39c d03d e59a b83e
00000010: 5ba2 fabc fefc 0cbe 68c2 75bd c095 83be
00000020: 63cc 64be 3774 bcbd 9993 b5bd ed8d 57be
00000030: 0099 fabd 6dae 8dbb 4796 673d eb11 a93c
00000040: 1695 ca3d d89e b83e 24e8 77be 8a79 b9bd
00000050: 50ca 8fbe 9158 66be 7a43 373e 1c79 813c
00000060: 105b b6be 5df0 d3bc 2c93 58be e10d 6e37
00000070: 2bbb 6a36 49c8 2935 a23e 0037 bd84 7f35
00000080: 3440 0036 1e34 1637 5f6d fa36 b88f 2837
00000090: fb02 0780 db0f 3783 d693 2c86 1aad 1f00
000000a0: 5bd5 bf09 3dfa 8688 4717 0680 994d 5e84
000000b0: d9d2 3300 75e7 8dbe 5c68 a03d 8769 adbc
000000c0: 0c67 eb3d 2a8e 0d3f c828 003f b715 4cbe
000000d0: f1b8 153e 7b55 59bc 0000 0000 0000 0080
000000e0: 0000 0000 0000 0000 0000 0080 0000 0080
000000f0: 0000 0080 0000 0080 0000 0000 283a 9cbe
00000100: 6b4a 903d f205 44bc 12d2 823d 4dfb d73e
00000110: a58d ab3e 9f55 02be 9115 173e 92e2 323e
00000120: 0ed5 543e d64a 0d3e 952b 873e 46c9 3d3e
00000130: 0ca9 2bbd a578 ba3d de99 6ebd 2bf1 65be
00000140: a37e 56bd 6a4f 893e de00 083e bba1 a63e
00000150: f6d9 23bc abea 09be 4bf9 0d3e a1c7 56bd
00000160: 9f21 2ebe c245 81bd d84a 073e 63f2 09be
00000170: bf7f 34be e219 0c3e 4b2d cebd 335c 68be
00000180: a216 b83e 0584 87bc cc23 30be 0000 0080
00000190: 0000 0080 0000 0080 0000 0080 c967 428b
000001a0: 0000 0080 0000 0080 0000 0080 0000 0000
000001b0: 3812 35be c6b7 29be ab55 77be ab82 cd3d
000001c0: 19f8 553e dd22 9bbb 08b3 7bbe d203 083e
000001d0: 648e 06be 776e e43e 76b1 bf3b 42eb ebbd
000001e0: bce2 cb3e 8e28 f7bd 214f 68be 8db2 803e
000001f0: 764a 46be 3f3d 5ebe ad6a a233 c0b1 2633
00000200: 2d24 b933 4fec 3032 fdb9 0cb4 3516 2db3
00000210: 72c1 3434 caef 1633 b73c ec33 01df 9322
00000220: 2fa4 0123 6a44 c121 d078 1823 0ee9 9d23
00000230: 87ef 5822 ddf4 9223 5dc1 2e24 6da2 ab22
00000240: 25a1 b43d 7370 173e 548e ab3e 74e6 663e
00000250: c9ca b43e a5f8 c93e 1b0e 0f3f abdc b53e
00000260: fb22 873e 5b42 873c 6292 b93b 2b27 093c
00000270: 2c92 963b 5d90 6cbb 38bf 003b a49b 033c
00000280: 6716 923b 5adb 183c 77f3 9996 8ca2 5c9a
00000290: 5a9d 3c17 d530 349a 80b5 0f9e 0bc2 8299
000002a0: 7070 0197 4873 9d10 789d 1797 0000 0000
000002b0: 0000 0000 0000 0000 0000 0000 0000 0000
000002c0: 0000 0080 0000 0000 0000 0080 0000 0080
000002d0: ddb1 91bd 6414 19be 2905 9ebe b960 4f3d
000002e0: 3e80 6cbd b145 72be b48f ef3e d2ab 883e
000002f0: 8b90 a0bb df4f b7bd fc23 6abe ab60 76be
00000300: ad6e 663c a985 17be 2ba0 09be 10ab 043e
00000310: 82de 1abe d51b b53d b4d1 e5bd 65c8 34be
00000320: 5ec3 74be f321 533e 9766 63bd d354 e23d
00000330: 6a9c 67bd 93c9 93bd b392 333e 0000 0080
00000340: 0000 0000 0000 0080 1c3d 0c80 0000 0000
00000350: 0000 0080 d422 0200 0000 0080 0000 0000
00000360: e100 0e3d 1725 933d 932a 18be 73c3 0abe
00000370: f8be fdbd 81d9 f0bc 941c b5bd 3e2a 8fbd
00000380: 35c5 a3bd 2a9b 3d3c baca 9c3e ce60 983e
00000390: da71 aabd 16ae d53c 2c5b b63d cac6 90be
000003a0: 7acf e13b 43fa fbbd 98d2 94be 64fb 363e
000003b0: bd00 4e3e 5fe5 cbbd 0ed4 e03d 372e a3bd
000003c0: 7d74 733b 08a5 3ebe 79ca 17be a79f 8fbe
000003d0: 81be a33d afb4 d13d 09a4 1dbe f5d4 dbbc
000003e0: aca4 36be 0612 25be 8209 103e cace 51bd
000003f0: 691b 32be 84d5 21be b9ba 58be 3648 99bd
0.5089708 0.25631157 0.10186174 0.36055675 -0.030594995 -0.13768384 -0.059999853 -0.25700188
-0.22343592 -0.09201854 -0.08866043 -0.21050234 -0.12236214 -0.0043237717 0.0565398 0.020638427
0.09891717 0.36058688 -0.24209648 -0.09056385 -0.2808404 -0.22494723 0.17896834 0.01580482
-0.3561635 -0.02587145 -0.21149892 1.4189137e-05 3.4977663e-06 6.324886e-07 7.643977e-06 9.518806e-07
1.9110857e-06 8.952831e-06 7.463313e-06 1.0047042e-05 -6.43918e-40 -5.3797068e-37 -3.2458217e-35 2.908998e-39
4.6182216e-33 -8.123662e-34 -5.59363e-40 -2.6131606e-36 4.759248e-39 -0.2771565 0.07832405 -0.021168483
0.11494264 0.5529505 0.5006223 -0.19930159 0.14621331 -0.013265009 0.0 -0.0
0.0 0.0 -0.0 -0.0 -0.0 -0.0 0.0 -0.3051312
0.07045444 -0.011964308 0.06387724 0.42183915 0.33506504 -0.12727974 0.1475432 0.17469242
0.20784399 0.13798079 0.26400438 0.18533811 -0.041909263 0.09105042 -0.058252208 -0.2245528
-0.052366864 0.268184 0.13281581 0.32545266 -0.010000696 -0.13468425 0.13864629 -0.052436475
-0.17005013 -0.06312133 0.13212144 -0.1347137 -0.17626856 0.13681749 -0.10067233 -0.22691421
0.35954767 -0.016542444 -0.17201155 -0.0 -0.0 -0.0 -0.0 -3.744112e-32
-0.0 -0.0 -0.0 0.0 -0.17682731 -0.1657401 -0.24153773 0.100346886
0.20895423 -0.0047343806 -0.24580014 0.13282707 -0.13140255 0.44615528 0.0058500124 -0.11519481
0.39821422 -0.12068282 -0.22686435 0.25136223 -0.19364342 -0.21703051 7.563117e-08 3.881155e-08
8.621314e-08 1.0298279e-08 -1.3106178e-07 -4.02999e-08 1.6834181e-07 3.5142683e-08 1.100065e-07 4.0080544e-18
7.027871e-18 1.3096298e-18 8.2655196e-18 1.7120677e-17 2.9400263e-18 1.5933055e-17 3.789402e-17 4.6521618e-18
0.088197984 0.1478899 0.33507025 0.22548848 0.35310963 0.39447513 0.558809 0.3551992
0.26393875 0.016511133 0.005663202 0.008371155 0.0045950618 -0.003609679 0.0019645225 0.008032713
0.004458237 0.009329641 -2.487213e-25 -4.5626238e-23 6.094468e-25 -3.7262574e-23 -7.60789e-21 -1.3520058e-23
-4.1824064e-25 6.21032e-29 -4.8989485e-25 0.0 0.0 0.0 0.0 0.0
-0.0 0.0 -0.0 -0.0 -0.07114003 -0.14949185 -0.30863312 0.05062935
-0.05773949 -0.23659398 0.46789324 0.26693588 -0.0049000434 -0.08950781 -0.2286529 -0.24060313
0.014064473 -0.14797081 -0.13440005 0.1295588 -0.15123942 0.08843199 -0.11221638 -0.1765457
-0.23902652 0.2061842 -0.05551776 0.11051335 -0.056545652 -0.072161816 0.1753643 -0.0
0.0 -0.0 -1.123948e-39 0.0 -0.0 1.96165e-40 -0.0 0.0
0.034668807 0.07184809 -0.14859991 -0.1355112 -0.1238994 -0.029400589 -0.088433415 -0.06990479
-0.07996599 0.0115726385 0.30623418 0.29761356 -0.08322497 0.026083987 0.089041084 -0.28276664
0.006891188 -0.12303593 -0.2906692 0.17869335 0.20117469 -0.099558584 0.10977946 -0.07967799
0.003714829 -0.18617642 -0.14823331 -0.28051493 0.0799532 0.10239541 -0.15394606 -0.026834944
-0.17836255 -0.16120157 0.14066127 -0.0512226 -0.17393269 -0.15804106 -0.21164979 -0.07484476

encoder.0.bias f4 [128]
00000000: 5be2 033f 6caf ea3c 59ca 84be 973c 2eb8
00000010: bc80 4f91 53de f43e f5d1 0d80 941d c03e
00000020: 508d 033f 15c4 de3e 9701 0ebd 0106 ce8b
00000030: d75a 043f 207d 903e 0086 9cb5 29aa cfa3
00000040: 4d09 853c 5f0d 4abd 0c01 10a1 cdf6 97ab
00000050: d40f f8bc 8c3a 05be 8a6d 1b3f 0000 0000
00000060: 7cfc 29be 5dd2 c13e df18 c83e 6be2 133f
00000070: 0402 883d 52bc b4aa e222 c03e c3fa 10bc
00000080: 7025 083f 04f1 043f aeb6 c7bb 2269 8dbd
00000090: 03b7 983e fb0e 93bd b88c 2b3e 86ff f1a9
000000a0: 3bc6 fdbd 07bb 583e 6689 60ba 4d84 f03d
000000b0: 7272 6f90 640a 093f 0000 0000 e971 aabd
000000c0: 9efc 233f f017 1bbe a8ea cd3e 84c2 a53e
000000d0: caa5 e7bd cf2d 7fbe 6d60 7b3e 0000 0000
000000e0: f38a 4ea5 9211 daba 638a fe3e 5fac 13b8
000000f0: 2f27 0fbe d909 0a3e c6a1 193e 4f71 4995
00000100: ba5e 523e 0000 0000 a723 823e bf9d 1f3e
00000110: 0000 0000 592b deac 1a3c ba3e b9e8 ba3e
00000120: fb54 403e 7a79 ca93 0000 0000 c11f 1dbe
00000130: 16b7 4db5 bb45 cdbc 833c 013e 7a4d 76b1
00000140: aa50 013f bafa 03be c84a ca3e 36e1 583f
00000150: 89ea d63e 0a19 913e 63d5 17be 38eb ba3c
00000160: 8359 963d 3877 d896 339d 133d 0000 0000
00000170: a794 ac3e 0000 0080 c57c 05be e091 ff3c
00000180: 92f0 173d 754e e7b0 060e 913e 8fde 5e3e
00000190: c142 fb3e 3b78 6fbc d3bc ee3c bc6c c43e
000001a0: 0ca6 bdbd f519 f7ad f529 3c3f 4994 80bd
000001b0: 2497 8eb2 d420 11be eed6 e93e f896 5c3e
000001c0: 4ffa 34be 9a18 06be d167 2a3e d336 4dbc
000001d0: 9ec7 0cbd c24d 753e d3de 763d 020c fe3e
000001e0: 18f2 d03e 51bd a73e d4fc e5b7 1fe4 ce3e
000001f0: 952e fdbb 3433 66b8 11a9 873e 517f 003f
0.51517266 0.0286481 -0.2593563 -4.154126e-05 -1.636909e-28 0.4782587 -1.26918e-39 0.37522566
0.513875 0.43508974 -0.034669485 -7.935735e-32 0.5170111 0.28220463 -1.1661905e-06 -2.251505e-17
0.016239787 -0.049329158 -4.8790483e-19 -1.0797696e-12 -0.030280985 -0.13010615 0.6071402 0.0
-0.16600221 0.37855807 0.39081475 0.5776736 0.066410094 -3.2105097e-13 0.37526613 -0.008848849
0.53182125 0.5193026 -0.006094775 -0.06904818 0.29827127 -0.07180592 0.16752899 -1.0746876e-13
-0.12391325 0.21165095 -0.0008565396 0.11743984 -4.7222605e-29 0.5353148 0.0 -0.08322508
0.6405734 -0.1514585 0.4021809 0.32374966 -0.11310919 -0.24919818 0.24548502 0.0
-1.791473e-16 -0.0016637316 0.49714956 -3.5208064e-05 -0.13979791 0.13480319 0.15003118 -4.068101e-26
0.20543948 0.0 0.25417826 0.15587519 0.0 -6.314432e-12 0.3637398 0.36505678
0.18782417 -5.1111754e-27 0.0 -0.15344144 -7.6634876e-07 -0.025057664 0.1262074 -3.5841752e-09
0.5051371 -0.12888613 0.3951018 0.84718645 0.4197581 0.28339416 -0.14827494 0.02281724
0.07341292 -3.497192e-25 0.03603859 0.0 0.33707163 -0.0 -0.13035877 0.031197488
0.03709466 -1.6829761e-09 0.28331012 0.21764587 0.49074367 -0.0146160675 0.029142773 0.38364208
-0.092601866 -2.8092176e-11 0.7350152 -0.06278283 -1.6599706e-08 -0.14172679 0.4567179 0.21541965
-0.1767361 -0.13095322 0.16641165 -0.012525278 -0.034370057 0.23955444 0.060271095 0.49618536
0.40809703 0.32761624 -2.741666e-05 0.40408418 -0.0077265003 -5.488396e-05 0.26496175 0.5019427

encoder.2.weight f4 [64, 128, 4, 4]
00000000: 0000 0080 0000 0080 0000 0080 0000 0000
00000010: 0000 0080 0000 0080 0000 0080 0000 0080
00000020: 0000 0000 0000 0000 0000 0080 0000 0000
00000030: 0000 0000 0000 0000 0000 0080 0000 0080
00000040: 0000 0080 0000 0000 0000 0080 0000 0000
00000050: 0000 0080 0000 0000 0000 0000 0000 0080
00000060: 0000 0080 0000 0000 0000 0080 0000 0000
00000070: 0000 0080 0000 0000 0000 0080 0000 0000
00000080: 0000 0080 0000 0080 0000 0080 0000 0080
00000090: 0000 0080 0000 0080 0000 0080 0000 0080
000000a0: 0000 0080 0000 0080 0000 0080 0000 0080
000000b0: 0000 0080 0000 0080 0000 0080 0000 0080
000000c0: 0000 0080 0000 0080 0000 0080 0000 0080
000000d0: 0000 0080 0000 0080 0000 0080 0000 0080
000000e0: 0000 0080 0000 0080 0000 0080 0000 0080
000000f0: 0000 0080 0000 0080 0000 0080 0000 0080
00000100: 0000 0000 0000 0000 0000 0080 0000 0000
00000110: 0000 0080 0000 0000 0000 0080 0000 0000
00000120: 0000 0000 0000 0080 0000 0000 0000 0080
00000130: 0000 0000 0000 0080 0000 0000 0000 0000
00000140: 0000 0080 0000 0080 0000 0080 0000 0080
00000150: 0000 0000 0000 0080 0000 0080 0000 0080
00000160: 0000 0080 0000 0080 0000 0000 0000 0000
00000170: 0000 0000 0000 0000 0000 0080 0000 0000
00000180: 0000 0080 0000 0080 0000 0080 0000 0080
00000190: 0000 0080 0000 0000 0000 0000 0000 0000
000001a0: 0000 0000 0000 0000 0000 0080 0000 0000
000001b0: 0000 0080 0000 0080 0000 0000 0000 0080
000001c0: 0000 0080 0000 0080 0000 0000 0000 0080
000001d0: 0000 0080 0000 0000 0000 0080 0000 0080
000001e0: 0000 0080 0000 0080 0000 0080 0000 0080
000001f0: 0000 0080 0000 0080 0000 0000 0000 0000
00000200: 0000 0080 0000 0080 0000 0080 0000 0080
00000210: 0000 0080 0000 0080 0000 0080 0000 0080
00000220: 0000 0080 0000 0000 0000 0080 0000 0080
00000230: 0000 0080 0000 0000 0000 0080 0000 0080
00000240: 0000 0080 0000 0080 0000 0080 0000 0080
00000250: 0000 0080 0000 0080 0000 0080 0000 0080
00000260: 0000 0080 0000 0080 0000 0080 0000 0000
00000270: 0000 0080 0000 0080 0000 0080 0000 0000
00000280: 0000 0080 0000 0080 0000 0080 0000 0080
00000290: 0000 0080 0000 0080 0000 0080 0000 0080
000002a0: 0000 0080 0000 0080 0000 0080 0000 0080
000002b0: 0000 0080 0000 0080 0000 0080 0000 0080
000002c0: 0000 0080 0000 0080 0000 0080 0000 0080
000002d0: 0000 0080 0000 0000 0000 0080 0000 0080
000002e0: 0000 0000 0000 0080 0000 0080 0000 0080
000002f0: 0000 0000 0000 0080 0000 0080 0000 0000
00000300: 0000 0080 0000 0080 0000 0080 0000 0080
00000310: 0000 0080 0000 0080 0000 0080 0000 0080
00000320: 0000 0080 0000 0080 0000 0080 0000 0080
00000330: 0000 0080 0000 0080 0000 0080 0000 0080
00000340: 0000 0080 0000 0080 0000 0000 0000 0080
00000350: 0000 0080 0000 0000 0000 0000 0000 0080
00000360: 0000 0080 0000 0080 0000 0080 0000 0000
00000370: 0000 0080 0000 0080 0000 0080 0000 0080
00000380: 0000 0080 0000 0080 0000 0080 0000 0080
00000390: 0000 0080 0000 0080 0000 0080 0000 0080
000003a0: 0000 0080 0000 0080 0000 0080 0000 0080
000003b0: 0000 0080 0000 0080 0000 0080 0000 0080
000003c0: 0000 0080 0000 0080 0000 0000 0000 0080
000003d0: 0000 0080 0000 0080 0000 0080 0000 0000
000003e0: 0000 0080 0000 0080 0000 0080 0000 0000
000003f0: 0000 0080 0000 0000 0000 0080 0000 0000
-0.0 -0.0 -0.0 0.0 -0.0 -0.0 -0.0 -0.0
0.0 0.0 -0.0 0.0 0.0 0.0 -0.0 -0.0
-0.0 0.0 -0.0 0.0 -0.0 0.0 0.0 -0.0
-0.0 0.0 -0.0 0.0 -0.0 0.0 -0.0 0.0
-0.0 -0.0 -0.0 -0.0 -0.0 -0.0 -0.0 -0.0
-0.0 -0.0 -0.0 -0.0 -0.0 -0.0 -0.0 -0.0
-0.0 -0.0 -0.0 -0.0 -0.0 -0.0 -0.0 -0.0
-0.0 -0.0 -0.0 -0.0 -0.0 -0.0 -0.0 -0.0
0.0 0.0 -0.0 0.0 -0.0 0.0 -0.0 0.0
0.0 -0.0 0.0 -0.0 0.0 -0.0 0.0 0.0
-0.0 -0.0 -0.0 -0.0 0.0 -0.0 -0.0 -0.0
-0.0 -0.0 0.0 0.0 0.0 0.0 -0.0 0.0
-0.0 -0.0 -0.0 -0.0 -0.0 0.0 0.0 0.0
0.0 0.0 -0.0 0.0 -0.0 -0.0 0.0 -0.0
-0.0 -0.0 0.0 -0.0 -0.0 0.0 -0.0 -0.0
-0.0 -0.0 -0.0 -0.0 -0.0 -0.0 0.0 0.0
-0.0 -0.0 -0.0 -0.0 -0.0 -0.0 -0.0 -0.0
-0.0 0.0 -0.0 -0.0 -0.0 0.0 -0.0 -0.0
-0.0 -0.0 -0.0 -0.0 -0.0 -0.0 -0.0 -0.0
-0.0 -0.0 -0.0 0.0 -0.0 -0.0 -0.0 0.0
-0.0 -0.0 -0.0 -0.0 -0.0 -0.0 -0.0 -0.0
-0.0 -0.0 -0.0 -0.0 -0.0 -0.0 -0.0 -0.0
-0.0 -0.0 -0.0 -0.0 -0.0 0.0 -0.0 -0.0
0.0 -0.0 -0.0 -0.0 0.0 -0.0 -0.0 0.0
-0.0 -0.0 -0.0 -0.0 -0.0 -0.0 -0.0 -0.0
-0.0 -0.0 -0.0 -0.0 -0.0 -0.0 -0.0 -0.0
-0.0 -0.0 0.0 -0.0 -0.0 0.0 0.0 -0.0
-0.0 -0.0 -0.0 0.0 -0.0 -0.0 -0.0 -0.0
-0.0 -0.0 -0.0 -0.0 -0.0 -0.0 -0.0 -0.0
-0.0 -0.0 -0.0 -0.0 -0.0 -0.0 -0.0 -0.0
-0.0 -0.0 0.0 -0.0 -0.0 -0.0 -0.0 0.0
-0.0 -0.0 -0.0 0.0 -0.0 0.0 -0.0 0.0

encoder.2.bias f4 [64]
00000000: 0000 0080 0000 0080 0000 0080 0000 0000
00000010: 0000 0000 0000 0080 0000 0000 0430 cdaf
00000020: 0000 0000 0000 0080 0000 0080 6cce 3fae
00000030: 0000 0080 89bd cd3d 0000 0000 0000 0080
00000040: 0000 0080 42ae 5a3d 7b8b 1ebc 0000 0080
00000050: bcba a73d 0000 0080 5bf7 d8bc eb48 0600
00000060: 52d0 3a3c f5cc 0f00 0000 0080 f046 b93c
00000070: e75e 3d3e 0000 0080 cf09 123e b8de eab4
00000080: fb0f 98bc 0000 0080 0000 0080 0000 0080
00000090: 0000 0000 e02f 94b0 0000 0080 bb43 3d3d
000000a0: b60a 263d 0000 0080 202d 733d 0000 0080
000000b0: 0000 0080 0000 0080 6f52 823c 0000 0000
000000c0: ec79 40bd 4c10 03a1 5618 a13c 0000 0080
000000d0: de47 b7bc bee5 86a5 0000 0080 0000 0000
000000e0: 8cff 23bd 3378 dbba 0000 0000 d87b e53c
000000f0: dbab 00bd 0000 0080 86cb 18ab 0000 0000
-0.0 -0.0 -0.0 0.0 0.0 -0.0 0.0 -3.73234e-10
0.0 -0.0 -0.0 -4.361171e-11 -0.0 0.100459166 0.0 -0.0
-0.0 0.05338884 -0.009676809 -0.0 0.08189914 -0.0 -0.026485136 5.77171e-40
0.0114022065 1.451057e-39 -0.0 0.022616833 0.18493234 -0.0 0.14261554 -4.3747946e-07
-0.018562308 -0.0 -0.0 -0.0 0.0 -1.0782024e-09 -0.0 0.04620717
0.04053756 -0.0 0.059369206 -0.0 -0.0 -0.0 0.015908448 0.0
-0.046991274 -4.4406095e-19 0.019664925 -0.0 -0.022373136 -2.3400974e-16 -0.0 0.0
-0.04003863 -0.0016744196 0.0 0.028013155 -0.031413894 -0.0 -5.4283693e-13 0.0

encoder.4.weight f4 [32, 64, 2, 2]
00000000: 0000 0000 0000 0080 0000 0080 0000 0000
00000010: d93d 5500 0000 0080 61cb 0100 6a9d 0b00
00000020: 03b2 0e80 0000 0080 0000 0080 70f0 0600
00000030: 0000 0080 0000 0000 0000 0080 0000 0000
00000040: cdf5 0882 4e28 a981 ba9d 0582 b477 2581
00000050: 0000 0000 5150 1300 0000 0080 0000 0080
00000060: 0000 0080 0000 0080 0000 0000 0000 0000
00000070: 95e0 7ab3 f88d 49b1 5fe7 c7b0 b101 89af
00000080: 0000 0000 0000 0000 0000 0000 0000 0080
00000090: 0000 0080 9eb2 1700 9039 1c00 8f44 0b80
000000a0: 3de4 a980 242c 8580 be7b db80 a32e 1781
000000b0: 2477 fb34 c37c fc34 318a 4334 f99f 2f34
000000c0: e0df ac3d 0000 0000 40ca f8bd 0000 0000
000000d0: 3af8 a5bd 1cc7 123d 9f3e a3bc ce66 a5bd
000000e0: 55d9 d1bd 14b4 02bd 6f53 73be bc54 18be
000000f0: 538c 0d80 0000 0000 0000 0000 0000 0000
00000100: 0000 0000 0000 0000 0000 0080 0000 0000
00000110: 8d4d aa3c 1085 9c3d 795b 62bd af6c e33c
00000120: ffe5 adbc 0000 0080 0000 0080 0000 0080
00000130: 0000 0000 0000 0080 0000 0080 0000 0000
00000140: a365 c1bc 554f aabd 202a 3abd e91d f9bd
00000150: 0073 6580 04b8 6300 7ceb 4400 222e d600
00000160: f124 8abc ed83 ec3d abc9 1cbd 95a4 1d3e
00000170: 54f3 1601 b056 e400 6c86 3901 7f81 de00
00000180: fa2f 6fbb d62c 423d 10bc 25bb 0827 7cbd
00000190: f2f5 1500 74ff a980 4ff9 9800 a0ad 2400
000001a0: 0000 0000 0000 0000 0000 0080 0000 0000
000001b0: fb81 24be f453 253e 6de4 bdbc 67a3 853e
000001c0: 71d4 673e 405f 54bd 497a 6a3e 67be b2bc
000001d0: fd62 0480 6b3f 0580 180b 0980 0000 0000
000001e0: 1c12 863d d214 ea3d dada 903c 038a 0c3e
000001f0: 503a 60a0 3c10 1218 4c07 ab9f a2a8 eb1b
00000200: 12d9 b53d 36d6 983c 8d9a 003d 7b08 52bd
00000210: 03eb 1d80 68e8 9680 a59f 4800 9d1f dd00
00000220: d626 1100 0000 0080 0000 0000 0000 0080
00000230: 8ce6 8937 d0d2 b236 008e 0137 8ecb 1bb6
00000240: 0000 0000 0000 0080 0000 0000 0000 0080
00000250: cd82 f835 84e9 aa37 2939 0936 9acc 9b37
00000260: a909 2700 6e62 1280 0000 0080 135f 5480
00000270: ca8d 0f3d 3803 95bb f13e 243d 6417 933c
00000280: 0c35 a5bd d6a4 5c3c 5d53 df3d 2334 a03d
00000290: 0000 0080 2563 0780 0000 0080 0000 0000
000002a0: 713e 7d3d 4142 1e3e 22af 173d 0000 0080
000002b0: 70bf 5500 393c 9800 4703 7e00 691c 5a00
000002c0: 0000 0000 0000 0000 0000 0080 0000 0080
000002d0: 0000 0080 0000 0000 0000 0080 0000 0000
000002e0: 809f 823c 14c7 193e aaac 67be d618 92be
000002f0: 376e a700 f190 8b00 f591 3700 5a48 3100
00000300: 9c63 843d a285 b8bd 77b6 943c 63ed bc3c
00000310: ebe0 651f b074 271f aeb4 261f 43fd 171e
00000320: 51b9 283d 7d54 bd3d c56f 3b3b 0884 1e3e
00000330: cc5f 3c80 a8ef 2f00 ef63 3380 35d6 0180
00000340: 2a87 47bd bebe afbd 1aa0 fa3c 3fe0 133d
00000350: 8be0 152c eff5 702c 0000 0000 b61b 242c
00000360: ed83 0780 0000 0000 0000 0000 0000 0000
00000370: 0000 0080 0000 0080 0000 0000 0000 0000
00000380: 6818 0dbe 23e2 193d 2a15 1dbd b19b 363e
00000390: 0000 0000 0000 0000 0000 0000 0000 0000
000003a0: fbcf 1400 0000 0080 0000 0000 0000 0000
000003b0: e2f2 203d c007 703d 72a9 b2bd 1455 d8bc
000003c0: de0a 413a c99b f7bd 2afe 413d d36e 323c
000003d0: 0de3 42a6 152d ee9d 3bb7 c61c f459 a316
000003e0: 94d2 c52b 1173 ee26 98f6 da2a 416c 8a27
000003f0: 0000 0080 0000 0000 0000 0000 3737 0a00
0.0 -0.0 -0.0 0.0 7.828204e-39 -0.0 1.64794e-40 1.06666e-39
-1.349556e-39 -0.0 -0.0 6.37266e-40 -0.0 0.0 -0.0 0.0
-1.0062243e-37 -6.213863e-38 -9.816562e-38 -3.0391597e-38 0.0 1.773687e-39 -0.0 -0.0
-0.0 -0.0 0.0 0.0 -5.8411917e-08 -2.933005e-09 -1.4544915e-09 -2.4921357e-10
0.0 0.0 0.0 -0.0 -0.0 2.176292e-39 2.592043e-39 -1.034785e-39
-1.5602075e-38 -1.2229956e-38 -2.0156364e-38 -2.776778e-38 4.683908e-07 4.7029434e-07 1.8211064e-07 1.6356343e-07
0.08441138 0.0 -0.12147951 0.0 -0.08103986 0.035834417 -0.019927321 -0.08076249
-0.10246531 -0.031910017 -0.23762296 -0.14876074 -1.2442e-39 0.0 0.0 0.0
0.0 0.0 -0.0 0.0 0.020788932 0.07642567 -0.055263016 0.027761785
-0.021227835 -0.0 -0.0 -0.0 0.0 -0.0 -0.0 0.0
-0.023608034 -0.08315913 -0.04545033 -0.12163908 -9.31664e-39 9.157726e-39 6.32929e-39 1.9669346e-38
-0.016863318 0.115486 -0.038278263 0.15394814 2.7725228e-38 2.0969591e-38 3.4075577e-38 2.0433935e-38
-0.0036497102 0.04740604 -0.0025289096 -0.06156066 2.016774e-39 -1.5611838e-38 1.404843e-38 3.368363e-39
0.0 0.0 -0.0 0.0 -0.16065209 0.16145307 -0.023180211 0.2610123
0.22639634 -0.05184865 0.2289821 -0.021819307 -4.02852e-40 -4.81928e-40 -8.30499e-40 0.0
0.06546423 0.114297524 0.017682482 0.13724522 -1.8992832e-19 1.8878254e-24 -7.243339e-20 3.8986465e-22
0.088792935 0.018656831 0.03139739 -0.05127762 -2.747536e-39 -1.3858696e-38 6.669425e-39 2.0306985e-38
1.575135e-39 -0.0 0.0 -0.0 1.643903e-05 5.329355e-06 7.722061e-06 -2.3215284e-06
0.0 -0.0 0.0 -0.0 1.8515508e-06 2.0374318e-05 2.0447862e-06 1.8572715e-05
3.58505e-39 -1.688349e-39 -0.0 -7.748288e-39 0.03504733 -0.004547503 0.040099088 0.01795549
-0.080667585 0.013467034 0.10904572 0.07822444 -0.0 -6.78415e-40 -0.0 0.0
0.061827127 0.15454961 0.037032254 -0.0 7.874692e-39 1.3980599e-38 1.1572448e-38 8.275386e-39
0.0 0.0 -0.0 -0.0 -0.0 0.0 -0.0 0.0
0.015945196 0.15017349 -0.2262446 -0.28534573 1.5376065e-38 1.2817129e-38 5.103312e-39 4.525894e-39
0.064643115 -0.090098634 0.018153412 0.023062414 4.8678684e-20 3.5460147e-20 3.5301322e-20 8.046247e-21
0.041192356 0.092446305 0.0028600555 0.15480053 -5.544495e-39 4.402241e-39 -4.71946e-39 -1.68679e-40
-0.048712887 -0.08581303 0.03059392 0.03610253 2.129882e-12 3.4242572e-12 0.0 2.3321184e-12
-6.90175e-40 0.0 0.0 0.0 -0.0 -0.0 0.0 0.0
-0.13778841 0.037569176 -0.03835026 0.17832829 0.0 0.0 0.0 0.0
1.911319e-39 -0.0 0.0 0.0 0.03929413 0.05860114 -0.087237254 -0.026407756
0.0007363985 -0.120902605 0.04736153 0.01089068 -6.761498e-16 -6.304469e-21 1.3149905e-21 2.6390839e-25
1.4056139e-12 1.6545756e-15 3.8895688e-13 3.8420063e-15 -0.0 0.0 0.0 9.38162e-40

encoder.4.bias f4 [32]
00000000: 29eb 653d d562 3897 c37d 73ba 2911 68bc
00000010: e7f9 243d 0000 0080 1132 c73c 91cd c93c
00000020: eecf 033d 4f2b 693c 8456 933c f08b a83d
00000030: 0ef3 023d 1717 8a3c 9046 cbbb a7c3 a6ba
00000040: 6529 5fad 0000 0080 fb80 78bc 27d3 813d
00000050: 51f5 d43b 4632 143d 4d3b 8f3d 4f78 caa3
00000060: 48c0 ee3b 4533 a839 a2ad dfbc e280 b43c
00000070: e063 2a3d 4232 a23d 362c 2eba e140 0b3d
0.05613247 -5.957835e-25 -0.00092884543 -0.014164248 0.040277388 -0.0 0.024315866 0.024634155
0.03218072 0.014231517 0.01798559 0.08229816 0.031970076 0.016856713 -0.00620348 -0.0012723104
-1.2685274e-11 -0.0 -0.01516747 0.06339102 0.0064989706 0.036180757 0.069937326 -2.1951837e-17
0.0072861053 0.00032081656 -0.027304474 0.022034112 0.041599154 0.07919742 -0.0006644161 0.03399742

encoder.6.weight f4 [16, 32, 3, 3]
00000000: 6cc9 aabc 2d04 99bc 4340 99bc 0000 0080
00000010: 0000 0080 3736 ccbc 0000 0080 daac aabc
00000020: 0000 0080 0000 0000 0000 0000 0000 0000
00000030: 0000 0080 0000 0000 0000 0000 0000 0000
00000040: 0000 0000 0000 0000 128c cabc edd2 ccbc
00000050: b766 c8bc 0000 0080 0000 0080 0000 0080
00000060: 0000 0080 913c cfbc 36ec ddbc 0000 0080
00000070: 0000 0080 0000 0080 0000 0080 0000 0080
00000080: 0000 0080 0000 0080 0000 0080 0000 0080
00000090: 6432 ccbc 6e91 d8bc 069f 98bc 0000 0080
000000a0: 0000 0080 0000 0080 0000 0080 02fb b4bc
000000b0: 0000 0080 0000 0080 0000 0080 0000 0080
000000c0: 0000 0080 0000 0080 0000 0080 0000 0080
000000d0: 0000 0080 0000 0080 cca4 94bc 0000 0080
000000e0: 0000 0080 0000 0080 0000 0080 0000 0080
000000f0: 0000 0080 0000 0080 0000 0080 8241 b1bc
00000100: 8ee3 94bc aa0c 5fbc 0000 0080 0000 0080
00000110: 0000 0080 0000 0080 0000 0080 0000 0080
00000120: 3237 ecbc 0203 dfbc bf4a d6bc 0000 0080
00000130: 0000 0080 0000 0080 0000 0080 0000 0080
00000140: b4f6 01bd 9d33 b8bc 423e b2bc 9b3b 9bbc
00000150: 0000 0080 0000 0080 0000 0080 0000 0080
00000160: 03c6 d0bc 0000 0080 fc85 e3bc 90c5 dfbc
00000170: d611 d5bc ef84 d7bc 0000 0080 5e21 f9bc
00000180: 0000 0080 0000 0080 0000 0080 0000 0080
00000190: 0000 0080 9c08 b0ba 0000 0080 0000 0080
000001a0: 0000 0080 0000 0080 0000 0080 0000 0080
000001b0: 5d6f 00bd 1a77 f7bc c85b ebbc 0000 0080
000001c0: 0000 0080 0000 0080 0000 0080 bdf0 febc
000001d0: 0000 0080 0000 0080 42dc 94bb 0000 0080
000001e0: 0000 0080 0000 0080 0000 0080 0000 0080
000001f0: f093 34bc 73da 37bc 0000 0080 0000 0080
00000200: 0000 0080 0435 e1bc 0000 0080 2b7c e2bc
00000210: 0000 0080 0000 0080 0000 0080 0000 0080
00000220: b2c2 3fbc 0000 0080 0000 0080 0000 0080
00000230: 95b7 a4bc 0000 0080 0000 0080 0000 0080
00000240: 0000 0000 0000 0080 0000 0000 0000 0080
00000250: 0000 0000 0000 0000 0000 0080 0000 0080
00000260: 0000 0000 0000 0000 0000 0000 0000 0000
00000270: 0000 0000 0000 0000 0000 0000 0000 0000
00000280: 0000 0000 0000 0000 0000 0080 b50b c6bb
00000290: 0000 0080 7d60 37bc 6fa0 14bc 0000 0080
000002a0: 7bf8 63bc 0000 0080 0000 0080 0000 0080
000002b0: 073b b4bc 0000 0080 0000 0080 0000 0080
000002c0: 0000 0080 0000 0080 0000 0080 0000 0080
000002d0: 0000 0080 0000 0080 99e1 e3bc 551d d8bc
000002e0: 0000 0080 0adc 05bd 0000 0080 0000 0080
000002f0: 0000 0080 643e bbbc 408a b1bc bcf6 a2bc
00000300: 0000 0080 0000 0080 0000 0080 0000 0080
00000310: 0000 0080 3888 bfbc aa61 bfba 8a1f f7ba
00000320: 0000 0080 0248 18bb f8ef a0bb fbf8 7abb
00000330: 69f3 c2ba 0000 0080 0000 0080 0000 0080
00000340: 0000 0080 0000 0080 0000 0080 0000 0080
00000350: 0000 0080 0000 0080 0000 0080 0000 0080
00000360: 7acc 0abd 95bd 03bd 23a2 00bd 0000 0080
00000370: 0000 0080 1b52 06bd 0000 0080 0000 0080
00000380: 6391 10bd 0000 0080 0000 0080 0000 0080
00000390: 0000 0080 0000 0080 0000 0080 0000 0080
000003a0: 0000 0080 bbf1 c3bc 0000 0080 0000 0080
000003b0: 0000 0080 0000 0080 0000 0080 0000 0080
000003c0: 0000 0080 0000 0080 0000 0080 d182 afbc
000003d0: bf8c 88bc 2560 74bc 0000 0080 0000 0080
000003e0: 0000 0080 0000 0080 0000 0080 f30f aebc
000003f0: 0000 0080 0000 0080 0000 0080 0000 0080
-0.020847999 -0.018678749 -0.0187074 -0.0 -0.0 -0.024928195 -0.0 -0.020834375
-0.0 0.0 0.0 0.0 -0.0 0.0 0.0 0.0
0.0 0.0 -0.024724994 -0.025002921 -0.02446304 -0.0 -0.0 -0.0
-0.0 -0.025297435 -0.027090173 -0.0 -0.0 -0.0 -0.0 -0.0
-0.0 -0.0 -0.0 -0.0 -0.024926372 -0.026436534 -0.018630516 -0.0
-0.0 -0.0 -0.0 -0.022092346 -0.0 -0.0 -0.0 -0.0
-0.0 -0.0 -0.0 -0.0 -0.0 -0.0 -0.018144988 -0.0
-0.0 -0.0 -0.0 -0.0 -0.0 -0.0 -0.0 -0.021637682
-0.018174913 -0.013613859 -0.0 -0.0 -0.0 -0.0 -0.0 -0.0
-0.028834913 -0.027223114 -0.026158689 -0.0 -0.0 -0.0 -0.0 -0.0
-0.031729415 -0.022485549 -0.021758202 -0.01894932 -0.0 -0.0 -0.0 -0.0
-0.025485044 -0.0 -0.02777385 -0.027315885 -0.026009481 -0.026308505 -0.0 -0.030411419
-0.0 -0.0 -0.0 -0.0 -0.0 -0.00134303 -0.0 -0.0
-0.0 -0.0 -0.0 -0.0 -0.031356204 -0.03020816 -0.028730288 -0.0
-0.0 -0.0 -0.0 -0.031120652 -0.0 -0.0 -0.0045428583 -0.0
-0.0 -0.0 -0.0 -0.0 -0.011021599 -0.011221516 -0.0 -0.0
-0.0 -0.0274911 -0.0 -0.027647099 -0.0 -0.0 -0.0 -0.0
-0.011704134 -0.0 -0.0 -0.0 -0.02010707 -0.0 -0.0 -0.0
0.0 -0.0 0.0 -0.0 0.0 0.0 -0.0 -0.0
0.0 0.0 0.0 0.0 0.0 0.0 0.0 0.0
0.0 0.0 -0.0 -0.006043876 -0.0 -0.011192438 -0.0090714535 -0.0
-0.013914223 -0.0 -0.0 -0.0 -0.022000803 -0.0 -0.0 -0.0
-0.0 -0.0 -0.0 -0.0 -0.0 -0.0 -0.027817534 -0.026381174
-0.0 -0.03268055 -0.0 -0.0 -0.0 -0.022856899 -0.021672368 -0.019893043
-0.0 -0.0 -0.0 -0.0 -0.0 -0.023380384 -0.001460125 -0.0018854004
-0.0 -0.002323628 -0.004911419 -0.0038295377 -0.0014873567 -0.0 -0.0 -0.0
-0.0 -0.0 -0.0 -0.0 -0.0 -0.0 -0.0 -0.0
-0.03388641 -0.03216322 -0.031404626 -0.0 -0.0 -0.032793146 -0.0 -0.0
-0.0352949 -0.0 -0.0 -0.0 -0.0 -0.0 -0.0 -0.0
-0.0 -0.023918977 -0.0 -0.0 -0.0 -0.0 -0.0 -0.0
-0.0 -0.0 -0.0 -0.021424683 -0.016668675 -0.014915501 -0.0 -0.0
-0.0 -0.0 -0.0 -0.02124784 -0.0 -0.0 -0.0 -0.0

encoder.6.bias f4 [16]
00000000: 0000 0080 073d 8d3d e6d9 e43c 4375 223d
00000010: cca4 6b3d 0000 0080 5a64 de3c d68f fa3b
00000020: 0baa 6d3d 0000 0080 ab63 093d 3be6 a83b
00000030: 0000 0000 cb53 113c 5204 033d 0000 0080
-0.0 0.06896406 0.027935933 0.03966261 0.05753021 -0.0 0.02714746 0.007646541
0.058023494 -0.0 0.033542316 0.0051543987 0.0 0.008870075 0.031986542 -0.0

encoder.9.weight f4 [8, 16, 3, 3]
00000000: 0000 0000 0000 0000 0000 0000 a2d6 b93c
00000010: 548f 913c aa62 bb3c 0000 0000 0000 0000
00000020: 0000 0000 d998 9fbd 9577 c73c 4ee6 40bc
00000030: f592 9c3d 4f8a f9bd d177 83be 29be 7b3d
00000040: d1ce e13d e25d 0dbc d4f6 943d f13d ab3c
00000050: 9899 6f3c 814f a0bd d6ee 9e3d a691 c8bd
00000060: 9759 0cbe da5d b2bc 1b3d 95bd 590d 013b
00000070: ce0c e6bb 75bb 16bd 06b4 6d3d 98ae 86bd
00000080: 969a 1ebd a0a9 103f 08bb c0bc e8c0 de3d
00000090: 236e 783d e911 0dbd 3b6f 843c 21d3 b43d
000000a0: 377f fb3d 0fb2 183d ff0f 58be 2d3f 063e
000000b0: 7f83 08ba 4999 ffb8 c0f5 d7b9 0000 0080
000000c0: fa91 c4ba 3b46 03bb 0f56 6cbb 7917 87bb
000000d0: 389f b2bb 78be 19bc 24f8 d5bd c362 c9bc
000000e0: c48c b5bc 00d6 0c3d 69f7 b53d 05ce 22bd
000000f0: 21d8 483e d18e 833d 7d10 abbd d1d6 07bd
00000100: 31de 2abd 1b77 a13c ea24 a23d 5def 063c
00000110: dce4 0c3a 90cb bbbd a1b9 a9bc 78db 22bc
00000120: 6763 ffbc b3ac dd3c 962c 3abc 96c8 c53c
00000130: eb51 35bd a3e0 13bc 93bc c63e 2433 bebd
00000140: 671f 2c3c ba2c 902f 0000 0000 0000 0000
00000150: 78e8 5234 baee f433 6df3 ca35 5302 a435
00000160: e317 0635 3634 b836 9798 353d ce1a 88bd
00000170: 0000 0080 29e5 5e3d 5107 303e 7ef6 c53c
00000180: 4e18 84be 2681 203d 606e 1e3b ffb3 8839
00000190: 0619 7a3a 07da 00bd 9da9 19bd af86 463d
000001a0: 0000 0080 158b 3ebe bfc9 58bd ecad aabc
000001b0: 0000 0080 0000 0080 0000 0080 0000 0080
000001c0: 0000 0080 0000 0080 0000 0080 0000 0000
000001d0: 0000 0000 dcaf 21be 4ebb 99bc 2721 cfbc
000001e0: b017 723d 74de 8bbc 3b9d 103c b93f de3d
000001f0: d5e0 b73d 542e babc 6f44 2dbd 10c0 4dbc
00000200: 0ca5 66bc f5e7 93bd b4da 153d 95aa 193d
00000210: 1fa4 9838 7459 2a3d 8862 d1b9 be54 801c
00000220: 0000 0000 0000 0000 8815 a192 0000 0000
00000230: 0000 0000 0000 0080 0000 0000 04a0 8e33
00000240: bdc0 c03c d746 113d 0000 0000 0000 0000
00000250: 0000 0000 fb86 efb9 f366 a03c c5e5 c9bb
00000260: 0000 0080 c0af 5fbb f8f5 743d 2ecc 393d
00000270: 0535 86be ea92 c53e 3787 c4bd 48fd c73b
00000280: ca8e 5fbe 0000 0000 b609 cd3c aca3 4fbc
00000290: 5e28 7abc c957 fdba 5e5d fa3a 7912 7f3e
000002a0: ae14 143c 290e 0bbd 321b b23e 3944 153e
000002b0: 8c59 24bc c6ac bbbd ed21 bd3b 0000 0080
000002c0: 4bf6 0bbe d22b 0abe 04c1 a9bb b7a3 483e
000002d0: d339 93bb 5cc0 533c 7bc4 37bc d07b 1fbe
000002e0: 44a8 6d3d 2d8b dc3d 59a7 993c aee2 7f3d
000002f0: 3644 0cbe 0000 0000 644a 903b ce86 b23b
00000300: 0000 0000 0000 0000 0000 0000 6576 1239
00000310: 0000 0080 89a8 b7b8 f078 c6bc ffbb f5bd
00000320: c775 ec38 856b 9abc 92fe 203d b0fc bc3c
00000330: 4ab8 74bd cf38 2bbd 5df2 083d 3bbc b6bd
00000340: f49c d4bc 04dd e93c 17f2 6ebc 3e21 d93b
00000350: fa99 c93d 2e4b a3bd 69a3 5abd d404 40bd
00000360: c214 053d 2043 eabd c26c 8a3d 2ef6 92bc
00000370: 6973 713d 39df c0bd eb52 95bc cd56 c53c
00000380: c434 4e3e 865b e4a9 b33c ab33 c38e 1036
00000390: f82e cfb1 8dfa 1234 9e82 4e34 f625 08b4
000003a0: 0c6c 2bb2 3026 b133 fa47 4bbd f004 e03d
000003b0: dd87 e2bb 8620 5f3d 0000 0000 62fb 7f3e
000003c0: df10 ceba 65c9 d8bd 0ee5 343e 8bd9 0e3d
000003d0: 6329 a43d 99bc 973c f424 b2bc 3813 a6bd
000003e0: ea61 603e c2b5 4dbd 0000 0080 fba0 87be
000003f0: 0000 0080 0000 0080 0000 0080 0000 0000
0.0 0.0 0.0 0.022685353 0.01776854 0.022874195 0.0 0.0
0.0 -0.07792825 0.024349013 -0.011773659 0.07645217 -0.121845834 -0.2567735 0.061460648
0.11025775 -0.00862834 0.07273641 0.02090356 0.014624022 -0.07827664 0.07760398 -0.09793405
-0.13706051 -0.021773268 -0.072870456 0.0019691794 -0.0070205694 -0.036799867 0.05803301 -0.0657627
-0.038721643 0.5650883 -0.023526683 0.10876638 0.06065191 -0.03444091 0.01616632 0.08829332
0.12280124 0.037279185 -0.21099852 0.13110037 -0.0005207583 -0.00012187899 -0.00041191094 -0.0
-0.0014997118 -0.0020030874 -0.0036062037 -0.004122671 -0.0054511093 -0.00938379 -0.1044772 -0.024583226
-0.022161849 0.034383774 0.0888508 -0.039747257 0.19613697 0.064237244 -0.08352754 -0.03316385
-0.041715804 0.019710114 0.07917197 0.00823578 0.0005374679 -0.09169686 -0.020718398 -0.009940021
-0.031175328 0.027059888 -0.011363169 0.024143498 -0.044267576 -0.009025726 0.38815746 -0.09287098
0.010505534 2.6225228e-10 0.0 0.0 1.9642346e-07 1.14055595e-07 1.5121019e-06 1.2219629e-06
4.995365e-07 5.4897055e-06 0.044334974 -0.066457376 -0.0 0.054417763 0.17190291 0.024165388
-0.25799793 0.039185666 0.0024174675 0.0002607405 0.0009540472 -0.031457927 -0.03751527 0.048468288
-0.0 -0.18607743 -0.052926775 -0.020834886 -0.0 -0.0 -0.0 -0.0
-0.0 -0.0 -0.0 0.0 0.0 -0.15789741 -0.018766072 -0.025284363
0.05910462 -0.017073847 0.008826549 0.10851998 0.0897843 -0.02272717 -0.04230159 -0.012557998
-0.014077436 -0.07221977 0.036585525 0.037516195 7.278495e-05 0.041589215 -0.00039936998 8.492235e-22
0.0 0.0 -1.0165836e-27 0.0 0.0 -0.0 0.0 6.641497e-08
0.023529405 0.03546795 0.0 0.0 0.0 -0.000456862 0.01958034 -0.006161424
-0.0 -0.0034131855 0.059804887 0.045360737 -0.26212326 0.3858865 -0.09596103 0.0061031915
-0.21831813 0.0 0.025029045 -0.0126733 -0.015268413 -0.001932853 0.0019101312 0.2490939
0.009038134 -0.03394905 0.34786373 0.14576806 -0.010031115 -0.09163813 0.0057718665 -0.0
-0.13668172 -0.13493279 -0.00518048 0.19593702 -0.004492977 0.01292428 -0.011216278 -0.15574574
0.0580218 0.10768733 0.018756555 0.062472038 -0.13697895 0.0 0.0044033993 0.005448199
0.0 0.0 0.0 0.0001396775 -0.0 -8.757512e-05 -0.02422759 -0.11998748
0.00011275295 -0.018850097 0.039305277 0.02306971 -0.059746064 -0.041802224 0.03343426 -0.08922621
-0.025953747 0.028547771 -0.014584086 0.006626277 0.09843822 -0.07973324 -0.053378496 -0.046879604
0.0324905 -0.11438584 0.06759025 -0.017939653 0.058947954 -0.09417576 -0.018228015 0.024089241
0.20137316 -1.0141111e-13 7.973849e-08 2.154077e-06 -6.0298326e-09 1.368846e-07 1.9232763e-07 -1.2679797e-07
-9.978077e-09 8.249151e-08 -0.04962919 0.10938442 -0.006913169 0.054474376 0.0 0.24998239
-0.0015721581 -0.10585288 0.17665502 0.034875434 0.080157064 0.018522548 -0.021746136 -0.081091344
0.21912351 -0.050222166 -0.0 -0.26490006 -0.0 -0.0 -0.0 0.0

encoder.9.bias f4 [8]
00000000: 35fc 143d c209 c53c 0000 0080 0000 0080
00000010: 0000 0000 44a1 fb3c 0000 0000 a129 083e
0.036373336 0.024052504 -0.0 -0.0 0.0 0.030716546 0.0 0.1329713

decoder.0.weight f4 [8, 128, 3, 3]
00000000: 9153 c9bc 7fc4 653e 4482 f4bc bce4 e6bc
00000010: 0000 0000 0000 0000 0000 0000 0000 0080
00000020: 0d03 13bb 3fe9 83bd 0000 0080 8507 363d
00000030: 0000 0080 b45a 94bc 0000 0080 4743 c4ba
00000040: 0000 0080 be5d 403d 0000 0000 0000 0000
00000050: 10bf 14be 0000 0080 02d7 093d 0000 0080
00000060: c919 a6bc 0000 0000 0000 0080 198a 0200
00000070: 0000 0080 8ecd 0000 0000 0080 13f8 ffb9
00000080: 0000 0080 8175 4c9d 0000 0000 5254 0280
00000090: 0000 0080 0000 0080 0000 0000 0000 0080
000000a0: 0000 0080 0000 0000 0000 0080 0000 0080
000000b0: 0000 0080 aee2 cebd 0000 0080 432d 1cbe
000000c0: 0000 0080 0000 0080 0000 0080 d4dd 173d
000000d0: 0000 0000 811c dd3c 0000 0080 0000 0000
000000e0: 4472 dd8c 0000 0080 0000 0080 0000 0080
000000f0: 0000 0080 0000 0000 667b b6bb 94e9 8ebd
00000100: 17e1 0e80 82cd f6bb bac3 53bc 5af7 0100
00000110: 58ee a2bd 8798 23be 6e82 0e00 ef15 4d3c
00000120: 89cd 17bc e67b 65a8 0000 0080 0000 0000
00000130: c338 07bc 6437 a7b0 ca39 67bc 0000 0080
00000140: ab85 02bc 0000 0080 0000 0080 0000 0080
00000150: 0000 0080 0000 0080 0000 0080 0000 0080
00000160: 0000 0080 0000 0080 b322 feba 0000 0000
00000170: 0781 903d 6e81 b2ba 0000 0000 0000 0080
00000180: c6bd 1dbe 0000 0000 36b1 c2bd 0000 0080
00000190: 3e2b 13ba 0000 0080 a4e5 0d00 0000 0080
000001a0: 98f4 0880 0000 0080 e549 36bd 0000 0080
000001b0: 0000 0000 0000 0000 19b1 d1ba 7971 87be
000001c0: 0000 0000 6038 78be 9e39 e03d 0000 0000
000001d0: 0000 0080 05c0 b1bc 94fa b5ba 0000 0080
000001e0: b9bf 24be 0000 0000 7e80 823d 017f bebc
000001f0: fcc1 d3bc 440a d9bc 0cc5 943d 0000 0080
00000200: 51b4 1cbe 0000 0000 0000 0000 0000 0000
00000210: cf5b 59bc 0000 0080 ea41 dcbd ec76 0200
00000220: 9817 c3bd c9b3 0b80 b5a8 203d e355 1380
00000230: adc4 833e d635 1280 350c 073e acba 0180
00000240: d10b 563b 0000 0080 7d39 26bd 0000 0080
00000250: 0000 0080 0000 0080 d9be fa3b 0000 0080
00000260: 659d 163e 496b 543d 647b 86ba 1dbd 313e
00000270: 617a 69bd 0000 0080 33eb 133d ea78 34bd
00000280: 0000 0000 597f 8fbc a7af e0b8 d7e5 c8aa
00000290: 00a3 a9b1 0000 0080 7bb8 5dbc 0000 0080
000002a0: 7014 0dba 3f3d a7a9 dbd2 c5b8 0000 0080
000002b0: 3814 0b00 0000 0080 2b20 df3d bb47 543e
000002c0: 2173 f2bd 0000 0080 9eed 0c80 0000 0080
000002d0: 0000 0080 ede7 45be 0000 0000 9812 37be
000002e0: 0000 0080 2d65 843d 819d e7bc 0000 0000
000002f0: 0000 0080 af9a 9c3c 0000 0080 11fc b73d
00000300: 0000 0000 0000 0080 0000 0000 3cf7 5ebd
00000310: 3d4b 20bc 0000 0080 3f6e 8ebd 0000 0080
00000320: 0000 0080 0000 0080 0000 0000 0000 0000
00000330: 0000 0080 0000 0080 0000 0080 0000 0080
00000340: fb8d 87bc c006 3cbe 0000 0000 0000 0000
00000350: 0000 0000 0000 0000 2089 87bc 0000 0080
00000360: 6ae5 d8bd 627c 973c 6f36 96bc 0000 0000
00000370: 0000 0000 0000 0000 adad 813d d9b6 403d
00000380: 0000 0080 9b70 1000 ed01 8abe c984 0180
00000390: 8c79 0f80 07c7 0b00 0000 0000 741d 0000
000003a0: 0000 0080 0000 0080 0000 0080 0000 0080
000003b0: 0000 0080 0000 0000 0000 0080 0000 0080
000003c0: 26ce 4c3b 0000 0080 0000 0080 a675 0500
000003d0: 9b1d 203e 5462 0b00 0000 0080 3b69 0480
000003e0: 0000 0080 0000 0080 bdc3 d93d 0000 0080
000003f0: 3ecf e03d 0000 0000 0000 0000 0000 0080
-0.02457598 0.22438239 -0.029847272 -0.02818524 0.0 0.0 0.0 -0.0
-0.0022432238 -0.064409725 -0.0 0.044440765 -0.0 -0.018109657 -0.0 -0.0014973663
-0.0 0.0469644 0.0 0.0 -0.1452601 -0.0 0.033652313 -0.0
-0.020275967 0.0 -0.0 2.33211e-40 -0.0 7.3739e-41 -0.0 -0.0004882222
-0.0 -2.7059923e-21 0.0 -2.1392e-40 -0.0 -0.0 0.0 -0.0
-0.0 0.0 -0.0 -0.0 -0.0 -0.101018295 -0.0 -0.15251641
-0.0 -0.0 -0.0 0.037076786 0.0 0.02699113 -0.0 0.0
-3.4119213e-31 -0.0 -0.0 -0.0 -0.0 0.0 -0.0055689095 -0.06978145
-1.366444e-39 -0.0075318227 -0.012925083 1.80569e-40 -0.07955617 -0.15976153 1.332486e-39 0.012517436
-0.009265312 -1.273892e-14 -0.0 0.0 -0.008253279 -1.2166592e-09 -0.014112899 -0.0
-0.007966439 -0.0 -0.0 -0.0 -0.0 -0.0 -0.0 -0.0
-0.0 -0.0 -0.0019389003 0.0 0.0705586 -0.0013618895 0.0 -0.0
-0.15404424 0.0 -0.095064566 -0.0 -0.00056140486 -0.0 1.276241e-39 -0.0
-8.22428e-40 -0.0 -0.044504065 -0.0 0.0 0.0 -0.0015998214 -0.2645376
0.0 -0.24240255 0.109484896 0.0 -0.0 -0.021698007 -0.0013883882 -0.0
-0.16088761 0.0 0.06372164 -0.02325392 -0.025849335 -0.026494153 0.07264146 -0.0
-0.1530316 0.0 0.0 0.0 -0.013266518 -0.0 -0.107547596 2.26332e-40
-0.095259845 -1.074685e-39 0.03922339 -1.775685e-39 0.2573599 -1.672352e-39 0.1318825 -1.58801e-40
0.0032660852 -0.0 -0.04058217 -0.0 -0.0 -0.0 0.0076521453 -0.0
0.14708479 0.051860128 -0.0010260162 0.17357297 -0.057001475 -0.0 0.036112975 -0.044060625
0.0 -0.017516779 -0.0001071387 -3.568662e-13 -4.9370783e-09 -0.0 -0.013532753 -0.0
-0.00053817686 -7.426914e-14 -9.432967e-05 -0.0 1.017444e-39 -0.0 0.108948074 0.20730488
-0.11838365 -0.0 -1.187267e-39 -0.0 -0.0 -0.19326754 0.0 -0.17878187
-0.0 0.0646461 -0.028273346 0.0 -0.0 0.019116728 -0.0 0.08983625
0.0 -0.0 0.0 -0.054435 -0.009783563 -0.0 -0.069546215 -0.0
-0.0 -0.0 0.0 0.0 -0.0 -0.0 -0.0 -0.0
-0.016547194 -0.1836195 0.0 0.0 0.0 0.0 -0.016544878 -0.0
-0.10590632 0.018491928 -0.018336503 0.0 0.0 0.0 0.06331954 0.047049377
-0.0 1.509763e-39 -0.26954594 -1.3947e-40 -1.421135e-39 1.081588e-39 0.0 1.0566e-41
-0.0 -0.0 -0.0 -0.0 -0.0 0.0 -0.0 -0.0
0.0031250804 -0.0 -0.0 5.01382e-40 0.15636294 1.045464e-39 -0.0 -4.05092e-40
-0.0 -0.0 0.10633037 -0.0 0.10977028 0.0 0.0 -0.0

decoder.0.bias f4 [128]
00000000: f686 113f a53b 85bb eb5b 6dbd 4de7 919e
00000010: 4830 abbe ea9e fe3b 3afa 8eb7 f126 e8bd
00000020: 9cde af94 0f0a 39bd 08b2 8e3d ff82 c6bc
00000030: 55d4 083d a20b f73d 295f 6d3e ca3f 95be
00000040: b441 18bb bf1c 113e 5331 2bb2 b488 93be
00000050: de0a 3f3e 4572 993d 7dcc 603c 30a5 7f3d
00000060: e34d 883d 4816 38bc 34c6 bd3e e4c1 bcbd
00000070: 5fa8 a73e 6fc1 a53e b7c4 ab3e a094 b03e
00000080: ec54 c93e 224f d4bd a950 163e c9a2 243e
00000090: ad5f 21bc 6ff0 63be 98fe 2dbe 79b0 943e
000000a0: a13f 0f3e bca3 788a 3ff4 06ba 6a79 76bd
000000b0: 0000 0080 7e7b 4abd 4c2f 143e bf5b a53e
000000c0: 65c6 61be 0d9e b0bc 55e2 68be 73eb a83c
000000d0: 5f83 d23e 784a a13d ad1f 4abe b16a 9dbc
000000e0: 2f4d 07bd d595 a0bc 0e44 fc3e a5db 023e
000000f0: cbeb ebb9 020c f93d 5c0c 173e 7982 fdbd
00000100: 8473 913f eaa4 c7bd a383 a13d fc33 13bc
00000110: 5ec7 c93e 6ef5 593e 8d47 8b3b 4cb9 f9bc
00000120: 0439 9cbe 9343 e53d 42d9 74bc 91ca 093e
00000130: 6beb b63e 4e97 943d b364 dd3e 5814 393e
00000140: df4e cc3d 4970 c33e 6880 95bd 47bd db3d
00000150: c0a9 02be 8696 093d 72eb 773e 86a4 863e
00000160: 0673 013b 86fb e2bd 6a0c d43e a8d7 c5bd
00000170: d07c ba3e 7d47 83bd b993 663b 45fb 9f3e
00000180: bb39 97be c576 9c3d dbd8 21ba 5ad4 4d3e
00000190: 473f 05bb 2486 ec3e 0000 0080 17e3 033d
000001a0: 3fc2 5abe 2243 fcbc 0000 0080 8f79 dfbd
000001b0: be42 053f 7d3b 73be a343 153e 8647 093f
000001c0: 218a 19be 7cf9 09be 352c 7cbb 1c0b 8fb9
000001d0: 537d d43e 4d28 fbba 0000 0080 28b0 b5bb
000001e0: 41a4 6cba 5eb3 21bc a48c 78be ee1c 2cae
000001f0: d100 83af 73ff 073d 2d05 79ba e998 64bd
0.5684656 -0.004065948 -0.057948988 -1.5448136e-20 -0.33435273 0.007770409 -1.704424e-05 -0.113355525
-1.7758288e-26 -0.04517561 0.069675505 -0.024232386 0.03340562 0.12062766 0.23180832 -0.2915023
-0.0023232521 0.14171122 -9.964725e-09 -0.28815234 0.18656489 0.07492498 0.013720629 0.062413394
0.06655481 -0.011235781 0.3706528 -0.09216669 0.32745644 0.3237414 0.3354852 0.34488392
0.39322603 -0.10366656 0.14679207 0.16077723 -0.009849471 -0.22259687 -0.16991651 0.29040888
0.13989116 -1.1971561e-32 -0.000514809 -0.060174383 -0.0 -0.049434178 0.14471167 0.3229656
-0.22048338 -0.02155974 -0.22742589 0.020620083 0.41115853 0.07875532 -0.19738646 -0.019215913
-0.033032592 -0.019602695 0.49270672 0.127791 -0.00044998372 0.121604934 0.14750808 -0.12378401
1.1363378 -0.09748252 0.07886436 -0.008984562 0.39409918 0.2128503 0.004250473 -0.030483864
-0.3051225 0.111945294 -0.014944376 0.13456179 0.35726485 0.072554216 0.4324089 0.18074167
0.09975981 0.38171604 -0.07299882 0.10729461 -0.12760067 0.033590816 0.24210909 0.26297396
0.0019752397 -0.110831305 0.4141572 -0.09660274 0.3642335 -0.0641012 0.0035183264 0.3124639
-0.29536232 0.07639841 -0.00061739766 0.20100537 -0.0020331906 0.4619609 -0.0 0.03219899
-0.21363162 -0.03079373 -0.0 -0.10911857 0.52054965 -0.23753162 0.14576583 0.5362476
-0.14994098 -0.13474077 -0.0038478498 -0.00027283363 0.41501865 -0.0019161791 -0.0 -0.005544681
-0.0009027161 -0.009869425 -0.242724 -3.9133967e-11 -2.382934e-10 0.0332026 -0.00094993674 -0.05580989

decoder.2.weight f4 [128, 64, 2, 2]
00000000: 0000 0080 0000 0080 0000 0080 0000 0080
00000010: 0000 0000 0000 0080 0000 0080 0000 0000
00000020: f1bc 483e 641f 21bb bfbe 88bd 1154 4fbd
00000030: 2171 93bc f8c3 91bd 1a97 42bb a34f ebbb
00000040: 4f6e d83c 67b6 b4bc 0000 0000 9311 46ba
00000050: 0000 0000 0000 0080 0000 0080 0000 0000
00000060: d9b5 863e 0db6 3bbe 91fe 083e bc38 823a
00000070: 0000 0080 1814 a8bb 0000 0080 0000 0080
00000080: 0000 0000 f8d9 57be d758 973d ddad 17bd
00000090: 6823 aabd 0000 0080 0000 0080 0000 0080
000000a0: 0000 0000 52e7 e03d 0000 0080 f3ac 2cbe
000000b0: 0000 0080 0000 0000 5d2a 413e 93bd 1e3e
000000c0: 0131 c0bd 0000 0000 432c b63d fc8a 05be
000000d0: 0000 0080 b9b6 13bb 0000 0080 0000 0000
000000e0: 0000 0080 0000 0080 0000 0000 0000 0080
000000f0: a1da babb ed11 a02d 1cb8 8b3d c551 4bba
00000100: 0000 0000 90d7 4e3c 1f84 303d 0000 0080
00000110: 0000 0000 b7c0 ef3d 0000 0000 0000 0080
00000120: 0000 0080 a2c4 a33c 8dde 7fbc 197f 65be
00000130: 0000 0080 dbb8 193e f50e 05be 3c4a c5ba
00000140: ec49 113c 0000 0080 4b49 9abc ccb7 24be
00000150: d836 cabd a17e 033e 994b c13c 3b1e 76bd
00000160: 0000 0080 0000 0000 0000 0080 0000 0080
00000170: 0143 673d eea7 db3b 099a 05bd 9ad0 bd3d
00000180: 0000 0080 0000 0000 e3d0 17be 0000 0080
00000190: 9a40 943c 0000 0000 0000 0080 0000 0080
000001a0: 0000 0000 0000 0080 0000 0080 0000 0080
000001b0: 0000 0080 0000 0000 86f5 b0bd 0000 0080
000001c0: 0480 9dbd 6c4d 92bc 0000 0080 0000 0080
000001d0: 9c0e 8cbd 7687 dbbc 8258 9ebd a777 ac3d
000001e0: 9ea7 de3c 887c 10bd 06a7 fbbc bcd4 b6bb
000001f0: 0000 0080 0000 0000 0000 0080 0000 0000
00000200: 0000 0000 0000 0000 07f2 46be 43f4 afbd
00000210: 0000 0000 0000 0000 0000 0000 0000 0000
00000220: 0000 0000 0000 0000 183a 103e 0000 0000
00000230: 0000 0000 64fe b5bd 33eb bb3d b479 45bd
00000240: 5d21 3e3e 2812 853c 7927 183d 365a cd3d
00000250: 56ed f13d bfbc fa3c ff62 13bd 8cad b7bc
00000260: 5240 4fbc 0000 0080 0000 0080 0000 0080
00000270: d537 1080 0000 0080 7582 1100 0000 0080
00000280: 0000 0080 0000 0080 0000 0080 3119 093e
00000290: 0000 0080 0000 0080 0033 083e 6465 903d
000002a0: fa00 7b3b ccf1 c4bd 0000 0080 038e f23d
000002b0: 0000 0000 0000 0080 0000 0080 0000 0080
000002c0: 0000 0000 0000 0000 0000 0000 0000 0000
000002d0: 0000 0080 0000 0000 b7c5 b13c aad9 293d
000002e0: 0000 0080 0000 0080 0000 0080 0000 0000
000002f0: 0000 0000 0000 0080 0000 0080 0000 0000
00000300: 8c76 aabd 0000 0080 b99b bf3c 2b53 0480
00000310: 0000 0080 0000 0000 0000 0080 0000 0080
00000320: b21a ecbc cb63 78ba 0000 0000 0000 0000
00000330: 0000 0080 a493 2ebc c1a4 21be 1f66 7e3d
00000340: 3ea5 27bb 079c 54bd 5fa7 a0bc 0000 0000
00000350: 1f9b 04bc 1b2a 0280 76b5 493c 213c 173e
00000360: 5d5a abbd 0000 0000 ca9d 08be bcfc 4a3d
00000370: d11b 0d3d 5178 edbd dca2 c93d 0fcf 0ebb
00000380: 2d40 acaf 0000 0080 0000 0080 0000 0000
00000390: 0000 0080 0000 0080 0000 0080 0000 0080
000003a0: 0000 0080 0000 0000 0000 0000 0000 0000
000003b0: 0000 0080 0000 0080 0000 0080 0000 0080
000003c0: 3fb8 643d 4ad0 003b 03b3 3a8b 16a6 df3b
000003d0: 0000 0080 0000 0080 0000 0080 0000 0080
000003e0: 1223 cfbd a7d9 cf3d 2543 6f3d 4de9 31bd
000003f0: 0000 0000 0000 0080 0000 0000 45cd e03c
-0.0 -0.0 -0.0 -0.0 0.0 -0.0 -0.0 0.0
0.19603325 -0.002458536 -0.06677007 -0.05061728 -0.01799828 -0.07117456 -0.0029692114 -0.0071811243
0.026419787 -0.022059632 0.0 -0.00075557193 0.0 -0.0 -0.0 0.0
0.26310614 -0.18331166 0.1337836 0.0009935121 -0.0 -0.0051293485 -0.0 -0.0
0.0 -0.21079242 0.07389992 -0.037031043 -0.083075345 -0.0 -0.0 -0.0
0.0 0.10981621 -0.0 -0.1686285 -0.0 0.0 0.18863817 0.15502004
-0.09384347 0.0 0.08895161 -0.130413 -0.0 -0.002253933 -0.0 0.0
-0.0 -0.0 0.0 -0.0 -0.005702332 1.8197855e-11 0.068222255 -0.000775602
0.0 0.012624636 0.04309475 -0.0 0.0 0.11706679 0.0 -0.0
-0.0 0.019991223 -0.015617025 -0.22411765 -0.0 0.15011923 -0.12993987 -0.0015052031
0.008867722 -0.0 -0.018833777 -0.16085738 -0.09873742 0.12841274 0.023595618 -0.060087424
-0.0 0.0 -0.0 -0.0 0.056460384 0.0067033684 -0.032617602 0.09268303
-0.0 0.0 -0.14825778 -0.0 0.01809721 0.0 -0.0 -0.0
0.0 -0.0 -0.0 -0.0 -0.0 0.0 -0.0864058 -0.0
-0.07690433 -0.017859183 -0.0 -0.0 -0.06838724 -0.026797991 -0.07731725 0.084212594
0.027179535 -0.035275012 -0.030719291 -0.005579559 -0.0 0.0 -0.0 0.0
0.0 0.0 -0.19428264 -0.08591511 0.0 0.0 0.0 0.0
0.0 0.0 0.14084661 0.0 0.0 -0.08886412 0.0917572 -0.04821177
0.18567415 0.01624401 0.03714702 0.10026972 0.11812846 0.03060758 -0.035983082 -0.02242162
-0.0126496125 -0.0 -0.0 -0.0 -1.489397e-39 -0.0 1.608003e-39 -0.0
-0.0 -0.0 -0.0 0.13388516 -0.0 -0.0 0.13300705 0.07050589
0.0038300143 -0.096164316 -0.0 0.11843493 0.0 -0.0 -0.0 -0.0
0.0 0.0 0.0 0.0 -0.0 0.0 0.021700723 0.041467346
-0.0 -0.0 -0.0 0.0 0.0 -0.0 -0.0 0.0
-0.08323392 -0.0 0.023389684 -3.97177e-40 -0.0 0.0 -0.0 -0.0
-0.028821323 -0.00094753195 0.0 0.0 -0.0 -0.010655317 -0.15785505 0.06210911
-0.002558067 -0.05190661 -0.019611059 0.0 -0.008093624 -1.98776e-40 0.01231133 0.14769031
-0.08366845 0.0 -0.13341442 0.049557433 0.034450356 -0.11595214 0.09845516 -0.0021790897
-3.1332217e-10 -0.0 -0.0 0.0 -0.0 -0.0 -0.0 -0.0
-0.0 0.0 0.0 0.0 -0.0 -0.0 -0.0 -0.0
0.055839773 0.00196554 -3.595697e-32 0.006825219 -0.0 -0.0 -0.0 -0.0
-0.10114111 0.10148936 0.058413643 -0.043435384 0.0 -0.0 0.0 0.02744163

decoder.2.bias f4 [64]
00000000: 4878 12b3 5519 633e bbc2 8b3e fc1b 0b3e
00000010: 1a1e 6e3e c994 bd3e 276d 113e 24ce a13d
00000020: 7f37 eabd d279 9d3e 7122 e9bd b4b1 00bd
00000030: 3ac6 ef3c c924 87bc 3fe3 6995 2b52 033d
00000040: 8be8 fa3a e965 15be e744 81be b133 d6be
00000050: e0ce 91be 5d84 a8bd 6c23 163e fe52 0bbd
00000060: 90f0 b3bd da2a d83e 3405 0fbc fb20 dfbd
00000070: 66c0 beb9 2c45 033d 6062 8cbd 10e0 28bd
00000080: b936 43be 3190 c93c 04db c93e 909d 2bbe
00000090: 96be 07be f69b bdbe ebd9 71be a0a4 dcbd
000000a0: 51c8 aabe bb02 6f3b 7415 2f3d f326 39b8
000000b0: 9db2 98bd a613 583d 404c e43e 217f 953c
000000c0: 9bef adbe cff0 ca3d 7433 823e 0752 46be
000000d0: 3340 2fbd 3247 fdbd 3822 a03e c4b3 ff3d
000000e0: 43ec 8aa7 b720 109e 553c f6b7 d435 fbb9
000000f0: 66fc 6cbb a1f4 58ba 62e9 80bc bf5e 593d
-3.410267e-08 0.22177632 0.27297005 0.13584894 0.2325367 0.37027577 0.14201795 0.07900646
-0.11436366 0.30757004 -0.11383522 -0.03141947 0.029269326 -0.016497033 -4.723324e-26 0.032060783
0.001914279 -0.14589657 -0.2524788 -0.41836312 -0.28478146 -0.08228371 0.1466195 -0.034014694
-0.08786118 0.42220193 -0.008729268 -0.108949624 -0.00036382972 0.03204839 -0.06854701 -0.041229308
-0.19063844 0.024604889 0.39424908 -0.16759324 -0.13256297 -0.3703305 -0.23618285 -0.10773587
-0.33355954 0.0036470133 0.04274507 -4.414371e-05 -0.07455943 0.052753113 0.44589424 0.018249096
-0.33971867 0.09909212 0.2542988 -0.19367228 -0.042785835 -0.12367095 0.31276107 0.124854594
-3.855885e-15 -7.630062e-21 -2.935358e-05 -0.00047914556 -0.0036161183 -0.00082761986 -0.015736286 0.053068873
