mnist_iter/end_of_3.pth (torch_old, 842205 bytes, 19 tensors)

encoder.0.weight f4 [128, 1, 3, 3]
000000 c1 b0 0b be a6 bd 0d be 7e e9 b7 bd 94 eb f2 bd
       -0.13641645 -0.13841876 -0.08980082 -0.11861339
000010 46 46 aa bd 75 f1 8e 3d 8b 29 02 3e 57 c0 22 3e
       -0.08314185 0.06979648 0.1271116 0.15893684
000020 58 30 b0 3e 47 03 a4 bc 0b 58 be bb d4 a3 52 3c
       0.34411883 -0.020021094 -0.0058088354 0.0128564425
000030 2b 3f 3c be 91 eb 7d bd 71 ca c5 3d 33 d4 d0 bd
       -0.18383472 -0.06199223 0.09657753 -0.10196724
000040 0a e1 f2 bc 80 96 9b 3e ce 70 47 be f4 80 7f bd
       -0.029648323 0.3038826 -0.19476625 -0.06237884
000050 6f 91 6a be 89 15 06 be 6b a1 4a 3e 52 b3 cb 3c
       -0.22907041 -0.13094153 0.19788139 0.02486578
000060 2e 70 86 be 35 10 c4 bc 10 f4 75 be 53 fa 1b 37
       -0.2625746 -0.02393351 -0.24018884 9.297003e-06
000070 d5 a4 37 36 59 ac 95 36 a8 f9 60 36 f5 df ba b6
       2.736507e-06 4.46061e-06 3.352392e-06 -5.569304e-06
000080 5a 42 38 36 ae 89 63 37 da 7f 08 37 ba 85 bd 37
       2.7456758e-06 1.356231e-05 8.135999e-06 2.2592827e-05
000090 ef 97 2a 98 63 91 85 9c e7 02 bb a1 26 47 03 20
       -2.2048692e-24 -8.838783e-22 -1.2672381e-18 1.1119673e-19
0000a0 c5 65 af 9d 81 39 99 9c 22 bc 49 a3 a6 89 04 a5
       -4.642734e-21 -1.0139555e-21 -1.09360705e-17 -1.1495812e-16
0000b0 06 fb 79 22 39 a7 b4 be 30 61 c2 bd 0c 4a 1d 3d
       3.3878683e-18 -0.3528383 -0.09491193 0.038400695
0000c0 ba 88 b8 bd e8 17 bc 3e 43 45 da 3e 56 26 fb bc
       -0.090104535 0.3673699 0.42630967 -0.030657928
0000d0 4e 0e a5 3e 3a 66 b0 3e 26 ef ad 08 51 5d 4d 19
       0.32237476 0.34452993 1.0468282e-33 1.0617097e-23
0000e0 d5 91 e0 15 ea 35 ea 19 ab 16 a5 a2 65 e6 0a a0
       9.070296e-26 2.4216809e-23 -4.474734e-18 -1.1765286e-19
0000f0 ff 2d 6c 85 19 ae bd 12 3a d9 01 00 43 80 95 be
       -1.1105115e-35 1.1970495e-27 1.69762e-40 -0.29199418
000100 61 83 95 3d aa 50 92 3e ad 7f b6 bd e4 b3 5b 3e
       0.07300449 0.28577167 -0.08911071 0.21455342
000110 c0 36 ba 3e 47 7f 53 be d5 02 bb 3d 09 af 40 3e
       0.36369896 -0.20654021 0.091313995 0.1881677
000120 d9 52 6f be 4a 62 30 3d e7 49 67 bd 82 cb a7 3d
       -0.23371448 0.043062486 -0.056466963 0.08193113
000130 ca 01 c9 3e 7e 42 82 3e c9 92 4f 3c ab 7a 7e 3e
       0.39259177 0.25441355 0.012669274 0.24851482
000140 3f fe c7 3d 1b 71 9a 3e a4 79 0d 3e 64 7d 60 3e
       0.097652905 0.30164418 0.13815933 0.21922833
000150 9a 91 08 3e e0 8d a3 bd 53 9a 62 bc 12 69 39 3d
       0.13336793 -0.07986045 -0.013830739 0.04526622
000160 4b 20 50 be 25 6f 6e be a9 f1 0a 3e 08 ed 23 be
       -0.20324819 -0.23284586 0.13568749 -0.16008389
000170 d4 f7 39 be 06 5f df 3d 07 92 ad bd 9b 16 3a be
       -0.18160945 0.10906796 -0.08475118 -0.18172686
000180 e3 1d aa 3e 5a 83 51 bc 2b 0a 28 be 00 00 00 80
       0.33225927 -0.012787664 -0.16410129 -0.0
000190 00 00 00 80 00 00 00 80 00 00 00 80 f1 58 7c a4
       -0.0 -0.0 -0.0 -5.4719126e-17
0001a0 00 00 00 80 00 00 00 80 00 00 00 80 00 00 00 80
       -0.0 -0.0 -0.0 -0.0
0001b0 10 1c b1 bd 62 98 7b bd 05 50 2b be 3b 81 21 3e
       -0.086479306 -0.06142462 -0.16729744 0.15771954
0001c0 24 b2 8c 3e fd 48 49 3d 5b fa 84 be b6 56 a6 3d
       0.2747966 0.049141873 -0.25972256 0.081220075
0001d0 3e d1 27 be 40 71 d5 3e 03 6a 82 3d 82 6a fb 3d
       -0.16388413 0.41687965 0.063678764 0.12276174
0001e0 86 d5 8a 3e 22 87 40 bc 14 0b fc 3d 2c 8c a8 3e
       0.2711603 -0.011750968 0.123068005 0.32919443
0001f0 d9 da b5 3d 21 b1 2b 3e f4 ac aa bc ed 03 51 bd
       0.088796325 0.16766788 -0.020834424 -0.051029135
000200 d7 c0 77 be 8d 92 07 3e 4b ce 58 3e 99 bb 62 3d
       -0.24194656 0.13239498 0.21172445 0.05535469
000210 86 cf dd bd 35 74 19 bc 24 7a 9e bc 78 d7 0d 01
       -0.108305976 -0.009366085 -0.01934535 2.60522e-38
000220 5e 7c 8a 12 f6 44 98 0d 01 42 4b 8d a9 3b 91 9b
       8.739683e-28 9.384325e-31 -6.2633654e-31 -2.4026792e-22
000230 bb 47 ac 14 5d bd 87 8c df a4 9b 14 cf 81 92 8c
       1.7395854e-26 -2.0914012e-31 1.571603e-26 -2.2572987e-31
000240 46 f6 8d be 6e d2 a7 bd 63 b3 15 be 9f 4c fb 3c
       -0.27726954 -0.08194433 -0.14619212 0.030676184
000250 fa 94 c2 3e 29 73 9b 3e ba 2e 1c bd e7 65 c1 3e
       0.38004285 0.30361298 -0.0381305 0.37773058
000260 c2 26 bf 3e 09 ff 72 32 60 dd 85 b4 e5 68 88 b4
       0.37334257 1.4144242e-08 -2.4934252e-07 -2.5408295e-07
000270 36 a0 b5 b4 c6 50 2b b6 b4 30 9b b4 39 f7 e0 b4
       -3.3830446e-07 -2.5528002e-06 -2.8906436e-07 -4.190313e-07
000280 69 86 6d b4 06 4a 9f 32 cd 2c b8 3c a6 de b6 3c
       -2.2121243e-07 1.8543698e-08 0.0224823 0.022322964
000290 bf 44 b4 3c a5 13 4e 3b 2d 03 88 bc ff 57 97 3b
       0.022005437 0.0031444815 -0.016603077 0.0046186442
0002a0 54 90 19 3d ad 63 57 3c df d4 34 3d f6 52 5f 36
       0.037491158 0.013146323 0.044148322 3.327788e-06
0002b0 1b 76 04 36 d6 f8 8b 36 8f 76 1f b5 cb 8e 14 b6
       1.973828e-06 4.171491e-06 -5.940464e-07 -2.2136835e-06
0002c0 e7 2a 0e 35 f9 a1 9d 36 c8 3b 09 36 92 dc 61 36
       5.2961553e-07 4.6978207e-06 2.0449388e-06 3.3656002e-06
0002d0 a1 d9 13 be e7 19 c9 bd 37 8b 47 be b2 a5 35 3c
       -0.14438488 -0.098193936 -0.194867 0.011086868
0002e0 cb 05 78 bb ca 1a ac bd 0e 11 73 3e b6 ce 33 3e
       -0.003784525 -0.08403547 0.23736975 0.17559323
0002f0 04 74 94 3d bd ad 87 be c1 84 de be b0 ad 83 be
       0.07248691 -0.2649974 -0.43460658 -0.2571845
000300 8a 6b 97 3d f4 bd fb bd d9 ad b1 bc 07 5f 21 3e
       0.07393558 -0.1229209 -0.021689342 0.15758906
000310 88 bf cb bd 04 01 8c 3e f0 6a af bd 15 47 5b be
       -0.09948641 0.27344525 -0.085653186 -0.21413834
000320 5f 19 6c be 01 f0 4f 3e e4 ea 0a bd 40 46 b0 3d
       -0.23056553 0.20306398 -0.033915415 0.08607149
000330 61 52 30 be d3 b7 01 be 2f 43 96 3d 7d 2c e8 08
       -0.17218925 -0.1266778 0.07337033 1.3973451e-33
000340 ae db 10 0c fc 8a 1d 09 9e 77 ae 8c b6 e5 17 90
       1.1159464e-31 1.8963538e-33 -2.6880937e-31 -2.9956462e-29
000350 9a a3 f5 8b 68 67 3a 0f 24 4c 14 10 7f 7b e2 0c
       -9.461673e-32 9.190423e-30 2.924651e-29 3.489514e-31
000360 b7 0a d0 bb 61 51 7c 3d a1 48 d5 bd 50 0c 95 bd
       -0.0063489336 0.061601046 -0.104142435 -0.07277739
000370 05 61 06 bd c2 64 19 3c bf aa 1a bc f2 73 2f 3c
       -0.03280737 0.009362401 -0.009440123 0.010708796
000380 09 25 14 bd 10 61 5f 3d 06 08 e0 3d 2e 5c 1e 3e
       -0.036168132 0.054535925 0.1093903 0.15464851
000390 9d 0e e7 bd cb 47 df bd 23 5b 45 3e 88 4a 8a be
       -0.11282084 -0.10902365 0.19273047 -0.27009988
0003a0 89 74 9d 3d e9 09 5d 3e 0b e4 cf be 3a 5f b2 3d
       0.07688243 0.21585812 -0.4060367 0.08709569
0003b0 d4 0a 79 3e cd 05 67 be cb 1a 81 3d 43 09 34 bb
       0.24320537 -0.22560807 0.063039385 -0.002747134
0003c0 87 53 35 3e ca 16 f7 3d c9 5a 6e 3e 48 13 91 be
       0.17707644 0.120648935 0.2327682 -0.28335023
0003d0 91 23 cc 3c be 0a 4c 3d a0 a7 c0 bd 62 04 c8 39
       0.024919303 0.049814932 -0.09406972 0.00038150238
0003e0 bd c6 29 be e9 7a 29 be d5 88 ff 3d 58 80 9b bd
       -0.16579719 -0.16550793 0.124772705 -0.07592839
0003f0 f2 17 34 be 54 2e 07 be 2b e4 22 be 63 92 05 bd
       -0.1758726 -0.13201267 -0.15907352 -0.03261031

encoder.0.bias f4 [128]
000000 ab b0 02 3e dd b1 62 3c f3 28 77 be 39 77 0d b9
       0.12762706 0.013836351 -0.24136715 -0.00013491222
000010 19 74 dd aa 62 1e fd 3e f7 10 79 ac 90 55 8e 3e
       -3.9338045e-13 0.49437243 -3.5394446e-12 0.27799654
000020 39 b9 ee 3e 6c 33 9a 3e f5 0a 0a be 0c f4 ad a4
       0.4662569 0.30117357 -0.13480742 -7.544022e-17
000030 26 22 d7 3e e1 8e 47 3e 01 b5 d0 bd fa 23 87 a2
       0.4201824 0.19488098 -0.10190774 -3.6629915e-18
000040 05 33 d2 3e 57 6e 87 b8 e4 60 79 bd dc e8 95 b7
       0.4105455 -6.457854e-05 -0.060883418 -1.7870618e-05
000050 af 1f 03 bd 14 b0 70 be 52 ac 04 3f 7a bf 84 91
       -0.032012638 -0.23504668 0.5182544 -2.0943934e-28
000060 0f 76 11 be 80 80 a0 3e 43 85 8e 3e 47 ad 13 3f
       -0.14205192 0.31348038 0.27836046 0.57686275
000070 13 95 88 bc 83 a6 8c bc f3 e6 a3 3c 26 b0 cf bc
       -0.016672647 -0.017169243 0.020007586 -0.025352549
000080 e1 3e 73 3e 54 dc a2 3e 85 1f 2a 3d 91 4c c3 bd
       0.23754455 0.31808722 0.041533966 -0.09536088
000090 b4 e1 9b 3e a6 5d 72 be 74 54 d0 3b 80 33 93 bc
       0.30445635 -0.23668537 0.006357724 -0.017968893
0000a0 d4 b4 13 bd 49 de 3c 3e ee 65 51 ba 4d 8f ca 3c
       -0.036061123 0.1844417 -0.0007987906 0.024726534
0000b0 e5 82 42 3e 99 5c 82 3e eb 82 30 96 48 66 c2 bd
       0.18995245 0.2546127 -1.4258477e-25 -0.09492165
0000c0 51 68 b7 3e d3 6a 2d be 39 d3 a1 3e 8b 9e 28 3e
       0.35821775 -0.16935281 0.31606463 0.1646673
0000d0 83 85 63 bd d9 5c cb bd 85 f4 98 3e 58 a0 e0 b0
       -0.05554725 -0.09929819 0.29874054 -1.6343717e-09
0000e0 fc 0d 23 3e f4 65 32 bd 7e b3 62 3e 22 13 06 bd
       0.15923303 -0.04355426 0.22138783 -0.03273309
0000f0 fe c0 3f be b9 3f 4c bc bc 5b 38 3d a6 04 0f b7
       -0.18725964 -0.012466365 0.04500936 -8.5245465e-06
000100 09 95 b1 3e 53 81 b4 a6 5b 05 9d 3e aa e0 88 3d
       0.34684017 -1.2525062e-15 0.30668148 0.06683476
000110 ad 44 16 b5 ff d8 55 bd 1b 2e f2 3e 96 98 32 3e
       -5.597929e-07 -0.052208897 0.473008 0.1744102
000120 3e 6c 38 3e e8 04 7d 3d 0d 1d d9 a6 be c3 93 bc
       0.18010041 0.061772257 -1.5065274e-15 -0.018037673
000130 6b 56 d1 bd d8 07 d4 bc 63 02 bd 3d 02 c3 a9 ba
       -0.10221561 -0.025882646 0.09228971 -0.0012951794
000140 63 d7 48 3e 00 2b b3 bd e4 84 84 3e 2e ba f0 3e
       0.19613414 -0.08748436 0.25882638 0.47017044
000150 57 be 08 3e 2a 7e 9d 3c a5 f3 20 be 5a c4 43 3e
       0.13353859 0.019225199 -0.15717943 0.19117871
000160 13 f7 a3 3d 74 38 57 b6 d8 16 9e 3d 67 07 64 b1
       0.0800611 -3.2070357e-06 0.07719201 -3.3182574e-09
000170 00 10 62 3e e5 ea cc ac 54 23 b5 bc c5 1a 48 3c
       0.22076416 -5.8241073e-12 -0.022111572 0.012213414
000180 05 9f 64 ba 3d 18 e9 ba eb 1c 98 3e 78 07 1a 3e
       -0.00087212055 -0.0017783713 0.29709563 0.15041912
000190 ab 06 89 3e 26 b3 07 b8 ef 00 1d bc fb 9b 11 3f
       0.267629 -3.2353353e-05 -0.009582742 0.5687863
0001a0 a2 06 28 bd 3c 2c 4f b3 2f 94 b3 3e 57 79 9d bd
       -0.04102195 -4.8236174e-08 0.35073993 -0.07689159
0001b0 d3 a5 2f 3e 98 80 1a be 3e 4c c5 3c 67 95 a0 a6
       0.171531 -0.15088117 0.024084207 -1.1142726e-15
0001c0 de 42 fd 3b 1d a8 56 be c7 35 6e 3e d4 c6 97 bd
       0.0077289185 -0.20962568 0.23262702 -0.0741097
0001d0 6e 9a f0 3d bc 9f ff bb 67 b9 8e bd 10 6e e9 3e
       0.11748205 -0.0078010242 -0.069689564 0.45591784
0001e0 cb 85 a4 3e 67 d3 a4 3e f0 a1 df 3c ed 31 81 3e
       0.32133326 0.32192537 0.027298898 0.25233403
0001f0 8f 9c 1a bb 7e f0 c8 b1 e0 67 13 3e 3b d0 b4 3e
       -0.0023591851 -5.848107e-09 0.14395094 0.35315117

encoder.2.weight f4 [64, 128, 4, 4]
000000 00 00 00 00 00 00 00 00 00 00 00 00 00 00 00 00
       0.0 0.0 0.0 0.0
000010 00 00 00 00 00 00 00 00 4f 57 04 00 00 00 00 00
       0.0 0.0 3.98662e-40 0.0
000020 00 00 00 00 00 00 00 00 00 00 00 00 00 00 00 00
       0.0 0.0 0.0 0.0
000030 00 00 00 00 00 00 00 00 00 00 00 00 00 00 00 00
       0.0 0.0 0.0 0.0
000040 00 00 00 00 00 00 00 00 00 00 00 00 00 00 00 00
       0.0 0.0 0.0 0.0
000050 00 00 00 00 00 00 00 00 9e 23 07 00 00 00 00 00
       0.0 0.0 6.55626e-40 0.0
000060 00 00 00 00 00 00 00 00 00 00 00 00 00 00 00 00
       0.0 0.0 0.0 0.0
000070 00 00 00 00 00 00 00 00 00 00 00 00 00 00 00 00
       0.0 0.0 0.0 0.0
000080 00 00 00 00 00 00 00 00 00 00 00 00 00 00 00 00
       0.0 0.0 0.0 0.0
000090 00 00 00 00 00 00 00 00 0a 01 00 80 00 00 00 00
       0.0 0.0 -3.73e-43 0.0
0000a0 00 00 00 00 00 00 00 00 00 00 00 00 00 00 00 00
       0.0 0.0 0.0 0.0
0000b0 00 00 00 00 00 00 00 00 00 00 00 00 00 00 00 00
       0.0 0.0 0.0 0.0
0000c0 00 00 00 00 00 00 00 00 00 00 00 00 00 00 00 00
       0.0 0.0 0.0 0.0
0000d0 00 00 00 00 00 00 00 00 00 00 00 00 00 00 00 80
       0.0 0.0 0.0 -0.0
0000e0 00 00 00 00 00 00 00 00 00 00 00 80 00 00 00 80
       0.0 0.0 -0.0 -0.0
0000f0 00 00 00 00 00 00 00 00 00 00 00 00 00 00 00 00
       0.0 0.0 0.0 0.0
000100 00 00 00 80 00 00 00 80 00 00 00 80 00 00 00 80
       -0.0 -0.0 -0.0 -0.0
000110 00 00 00 80 00 00 00 80 9a 94 0b 00 a5 48 08 80
       -0.0 -0.0 1.063499e-39 -7.60744e-40
000120 79 90 13 00 00 00 00 80 00 00 00 80 00 00 00 80
       1.796701e-39 -0.0 -0.0 -0.0
000130 00 00 00 80 00 00 00 80 00 00 00 80 52 1c 16 80
       -0.0 -0.0 -0.0 -2.03054e-39
000140 00 00 00 00 00 00 00 00 00 00 00 00 00 00 00 00
       0.0 0.0 0.0 0.0
000150 00 00 00 00 00 00 00 00 00 00 00 00 00 00 00 00
       0.0 0.0 0.0 0.0
000160 00 00 00 00 00 38 0e 80 00 00 00 00 00 00 00 00
       0.0 -1.305786e-39 0.0 0.0
000170 00 00 00 00 00 00 00 00 00 00 00 00 00 00 00 00
       0.0 0.0 0.0 0.0
000180 00 00 00 00 00 00 00 00 d4 d9 0a 00 00 00 00 00
       0.0 0.0 9.96497e-40 0.0
000190 22 4f 08 80 00 00 00 00 00 00 00 00 00 00 00 00
       -7.63071e-40 0.0 0.0 0.0
0001a0 00 00 00 00 00 00 00 00 dd 3c 13 80 00 00 00 00
       0.0 0.0 -1.766708e-39 0.0
0001b0 00 00 00 00 00 00 00 00 00 00 00 00 00 00 00 00
       0.0 0.0 0.0 0.0
0001c0 00 00 00 00 00 00 00 00 00 00 00 00 a7 11 01 00
       0.0 0.0 0.0 9.8168e-41
0001d0 00 00 00 00 00 00 00 00 00 00 00 00 00 00 00 00
       0.0 0.0 0.0 0.0
0001e0 00 00 00 00 00 00 00 00 00 00 00 00 00 00 00 00
       0.0 0.0 0.0 0.0
0001f0 00 00 00 00 00 00 00 00 00 00 00 00 00 00 00 00
       0.0 0.0 0.0 0.0
000200 00 00 00 00 c9 8e 08 00 4a 97 15 80 00 00 00 00
       0.0 7.85906e-40 -1.982818e-39 0.0
000210 d7 c1 0f 00 00 00 00 00 00 00 00 00 00 00 00 00
       1.447069e-39 0.0 0.0 0.0
000220 00 00 00 00 00 00 00 00 e7 c7 12 00 00 00 00 80
       0.0 0.0 1.72475e-39 -0.0
000230 00 00 00 00 44 58 14 00 00 00 00 00 00 00 00 00
       0.0 1.868374e-39 0.0 0.0
000240 00 00 00 00 00 00 00 00 00 00 00 00 00 00 00 00
       0.0 0.0 0.0 0.0
000250 a8 49 14 80 00 00 00 00 00 00 00 00 00 00 00 00
       -1.863133e-39 0.0 0.0 0.0
000260 00 00 00 00 00 00 00 00 da cc 0d 80 00 00 00 00
       0.0 0.0 -1.267348e-39 0.0
000270 00 00 00 00 00 00 00 00 d7 3d 00 00 00 00 00 00
       0.0 0.0 2.2184e-41 0.0
000280 00 00 00 00 00 00 00 00 a9 6c 01 00 00 00 00 00
       0.0 0.0 1.30815e-40 0.0
000290 00 00 00 00 00 00 00 00 00 00 00 00 00 00 00 00
       0.0 0.0 0.0 0.0
0002a0 b9 52 01 00 00 00 00 00 00 00 00 80 00 00 00 80
       1.21511e-40 0.0 -0.0 -0.0
0002b0 00 00 00 00 00 00 00 00 00 00 00 00 00 00 00 00
       0.0 0.0 0.0 0.0
0002c0 00 00 00 80 00 00 00 80 00 00 00 80 00 00 00 80
       -0.0 -0.0 -0.0 -0.0
0002d0 00 00 00 80 00 00 00 00 00 00 00 80 00 00 00 80
       -0.0 0.0 -0.0 -0.0
0002e0 00 00 00 00 00 00 00 80 00 00 00 80 00 00 00 80
       0.0 -0.0 -0.0 -0.0
0002f0 00 00 00 00 00 00 00 80 00 00 00 80 00 00 00 00
       0.0 -0.0 -0.0 0.0
000300 00 00 00 00 00 00 00 00 00 00 00 00 00 00 00 00
       0.0 0.0 0.0 0.0
000310 00 00 00 00 00 00 00 00 00 00 00 00 00 00 00 00
       0.0 0.0 0.0 0.0
000320 00 00 00 00 00 00 00 00 00 00 00 00 00 00 00 00
       0.0 0.0 0.0 0.0
000330 00 00 00 00 00 00 00 00 00 00 00 00 00 00 00 00
       0.0 0.0 0.0 0.0
000340 00 00 00 00 00 00 00 00 00 00 00 00 00 00 00 00
       0.0 0.0 0.0 0.0
000350 00 00 00 00 00 00 00 00 00 00 00 00 00 00 00 00
       0.0 0.0 0.0 0.0
000360 00 00 00 00 00 00 00 00 00 00 00 00 00 00 00 00
       0.0 0.0 0.0 0.0
000370 00 00 00 00 00 00 00 00 e0 28 03 00 00 00 00 00
       0.0 0.0 2.9017e-40 0.0
000380 00 00 00 00 00 00 00 00 00 00 00 00 00 00 00 00
       0.0 0.0 0.0 0.0
000390 00 00 00 00 00 00 00 00 00 00 00 00 00 00 00 00
       0.0 0.0 0.0 0.0
0003a0 00 00 00 00 00 00 00 00 00 00 00 00 00 00 00 00
       0.0 0.0 0.0 0.0
0003b0 42 6d 05 80 00 00 00 00 00 00 00 00 00 00 00 00
       -4.98372e-40 0.0 0.0 0.0
0003c0 00 00 00 00 00 00 00 00 00 00 00 00 00 00 00 00
       0.0 0.0 0.0 0.0
0003d0 00 00 00 00 00 00 00 00 00 00 00 00 00 00 00 00
       0.0 0.0 0.0 0.0
0003e0 00 00 00 00 00 00 00 00 86 a3 0b 00 00 00 00 00
       0.0 0.0 1.068852e-39 0.0
0003f0 00 00 00 00 00 00 00 00 00 00 00 00 00 00 00 00
       0.0 0.0 0.0 0.0

encoder.2.bias f4 [64]
000000 00 00 00 00 00 00 00 80 2c 2d 09 80 7a 32 c0 91
       0.0 -0.0 -8.42724e-40 -3.0323367e-28
000010 00 00 00 80 04 91 0c 80 00 00 00 80 a3 f8 b5 3d
       -0.0 -1.154048e-39 -0.0 0.08885314
000020 a7 db 08 00 b4 86 69 3b 00 00 00 00 f8 e0 f4 b9
       8.1348e-40 0.0035633268 0.0 -0.0004670692
000030 00 00 00 80 23 f3 7f 3c 00 00 00 80 d3 ef 02 00
       -0.0 0.015621933 -0.0 2.69704e-40
000040 b2 c4 01 80 b3 a5 f1 3d dd b5 82 3d 00 00 00 80
       -1.62396e-40 0.11799183 0.06382344 -0.0
000050 6d 4b 63 bd 00 00 00 80 5b 2c f5 bb 62 34 95 bb
       -0.055491854 -0.0 -0.007482094 -0.0045533637
000060 e5 c9 1b bd 27 bd 5f 3d 00 00 00 00 79 45 d8 3d
       -0.03803434 0.05462375 0.0 0.10560126
000070 77 cd 83 bc 1e 59 f2 a0 bb 1e 8d 3d 20 28 ac 3d
       -0.016089184 -4.1055367e-19 0.06890627 0.08406091
000080 62 7f 00 bd 00 00 00 80 b5 b9 15 00 00 00 00 80
       -0.03137148 -0.0 1.995165e-39 -0.0
000090 00 00 00 80 f5 36 a6 3d 00 00 00 80 75 5a f5 bb
       -0.0 0.08115951 -0.0 -0.00748759
0000a0 25 b5 bf bb 00 00 00 00 04 3a d5 3d d3 bc b7 bb
       -0.0058504515 0.0 0.10411456 -0.0056072264
0000b0 00 00 00 80 00 00 00 00 f6 d8 5b b7 ce 6c d3 bb
       -0.0 0.0 -1.3103932e-05 -0.0064521795
0000c0 dd 94 fd 3c 90 a5 eb a2 10 a5 8f 3d 03 4a 63 b1
       0.030954773 -6.3872174e-18 0.07013905 -3.3074918e-09
0000d0 12 84 e8 3d 4e 54 df 3c 00 00 00 80 00 00 00 00
       0.113533154 0.02726188 -0.0 0.0
0000e0 d4 de c2 bc f6 fb 00 3d d8 9a 08 00 51 06 da b3
       -0.023787893 0.03149029 7.90231e-40 -1.0152565e-07
0000f0 40 a1 a8 3d 00 00 00 80 55 ea a3 b6 00 00 00 00
       0.08233881 -0.0 -4.8850584e-06 0.0

encoder.4.weight f4 [32, 64, 2, 2]
000000 f6 ea 16 81 3a 4a 11 81 a9 1b 8e 80 3a ac 10 00
       -2.7719225e-38 -2.668555e-38 -1.3050563e-38 1.531151e-39
000010 f0 23 f2 bd 00 00 00 00 54 b1 d1 bd 1e 81 af 3d
       -0.11823261 0.0 -0.10238901 0.08569549
000020 61 78 0a 01 e3 73 39 01 6a 49 df 00 31 2c 4c 01
       2.5432965e-38 3.4062278e-38 2.0505652e-38 3.7500588e-38
000030 82 14 02 80 e0 0f 05 80 9e 24 07 00 85 3a 04 00
       -1.91028e-40 -4.64872e-40 6.55984e-40 3.88335e-40
000040 eb 53 8e bb 8c db 83 bb 96 c3 97 bb a7 8e 8d bb
       -0.0043435 -0.0040239748 -0.00463147 -0.004319984
000050 9c 7f 45 81 de 7b 3c 01 2a f8 43 80 b7 47 d5 01
       -3.627474e-38 3.4619017e-38 -6.242003e-39 7.834675e-38
000060 5d 03 1a 01 00 cf 7c 00 9a eb 49 01 24 96 ea 00
       2.8287746e-38 1.1461859e-38 3.7086905e-38 2.1543366e-38
000070 60 bf 1a 3c 7b 98 a9 b8 71 8d 85 3e 4b 48 0d 3e
       0.009445041 -8.08695e-05 0.26084474 0.13797109
000080 25 a9 3e 80 56 9c 4e 80 7d 94 16 00 13 d2 22 80
       -5.754478e-39 -7.219251e-39 2.073648e-39 -3.197767e-39
000090 32 90 8f 3d ca 31 e2 bd 58 89 2a 3e d2 64 4e 3c
       0.07009925 -0.11044653 0.16653955 0.01259728
0000a0 68 28 e4 bc 4a c9 61 3c 1d be 21 3b ec 08 00 bd
       -0.027851298 0.013780901 0.0024679967 -0.03125851
0000b0 b7 98 1a b7 b4 96 f5 b6 58 0c 68 b7 e0 d9 3c b7
       -9.214672e-06 -7.319113e-06 -1.3831152e-05 -1.1256401e-05
0000c0 d3 1e b8 b3 53 2c bd b3 cd 2e a0 b3 24 53 0d b4
       -8.5737746e-08 -8.809061e-08 -7.4590936e-08 -1.3161895e-07
0000d0 c7 6a 1c 3d cc 0e 66 ba 0c dd 3b 3e 4d 36 04 3d
       0.03818777 -0.00087760086 0.18346041 0.032278348
0000e0 0c 1c 86 bc 26 f2 3a 3e a2 22 a7 bd 25 c3 4f 3c
       -0.016370796 0.18256435 -0.081609026 0.012680803
0000f0 55 9a 19 81 56 a1 be 81 58 af 92 81 ec ef 22 82
       -2.821239e-38 -7.002648e-38 -5.3883536e-38 -1.1970735e-37
000100 91 13 a6 00 36 7a 45 81 df 15 e7 00 c3 a5 1e 80
       1.5251711e-38 -3.6270868e-38 2.1221845e-38 -2.814529e-39
000110 1b 88 45 3e 58 35 83 3d c4 90 2b 3d 05 69 4b bd
       0.19290201 0.06406659 0.041886106 -0.0496607
000120 99 42 ca 3d 00 00 00 00 00 00 00 00 00 00 00 00
       0.09875984 0.0 0.0 0.0
000130 1b 7e 30 00 59 c5 68 01 89 bb 0b 81 3b 77 83 00
       4.453342e-39 4.275326e-38 -2.5664818e-38 1.2073222e-38
000140 ca 45 f5 bd bb f3 57 3d 27 43 0b be 8c 09 8f bd
       -0.11976202 0.052722674 -0.13599835 -0.06984243
000150 7e 0c 21 b7 0b d4 21 b7 2a 54 96 b6 a0 e2 8e b5
       -9.599256e-06 -9.645718e-06 -4.4801463e-06 -1.0645781e-06
000160 88 1c 6e 3d 83 24 49 3d 6a a6 f8 3b 82 b4 99 3d
       0.05813268 0.049107086 0.0075881975 0.07505132
000170 0d 52 d4 ba f5 39 05 37 14 9e 2a bb 09 7f 84 36
       -0.001619877 7.940912e-06 -0.0026034163 3.9486954e-06
000180 e5 b8 90 3d a9 de 1a bd 77 17 77 3d 94 77 88 3c
       0.07066516 -0.03781 0.060325112 0.016658582
000190 be 38 a0 bd 1d 0e e0 3d c2 53 11 be 67 08 be 3c
       -0.07823323 0.10940192 -0.14192107 0.023197366
0001a0 9d be 33 81 21 06 0e 00 12 10 b0 01 62 e3 54 01
       -3.3013866e-38 1.287896e-39 6.467525e-38 3.910139e-38
0001b0 a7 be e1 3d f0 7c 18 3c 74 3c 98 3d 53 de 76 bd
       0.11022692 0.009307131 0.074334055 -0.06027062
0001c0 ee 52 45 bd d9 ac 0e be 70 e2 12 be 03 5b 8e be
       -0.04817479 -0.13933124 -0.14344192 -0.2780381
0001d0 92 15 61 b7 3a 93 26 b8 3c cb 7b b7 41 64 19 b8
       -1.3416067e-05 -3.97146e-05 -1.5008085e-05 -3.657141e-05
0001e0 18 61 bf bd e8 be 8d 3e 9e aa 43 3c d3 7b 47 3e
       -0.09344691 0.27684712 0.011942534 0.19480829
0001f0 80 bb 6d 3d 3a a9 bb 3d 56 02 ca 3d 34 aa 51 3e
       0.058040142 0.09163137 0.09863727 0.20475084
000200 82 19 90 bc ab 09 84 3d 91 0c bb bc fb fe 7b 3d
       -0.017590288 0.064471565 -0.02283314 0.061522465
000210 0e 01 dd a7 44 8c 8e a7 dc 7c 1d a8 65 3d da a7
       -6.1340966e-15 -3.9564994e-15 -8.742325e-15 -6.057372e-15
000220 40 37 54 01 c6 1e 38 00 85 5b d4 00 f4 58 65 80
       3.897789e-38 5.153827e-39 1.9501956e-38 -9.307295e-39
000230 f1 ac 5d 2a dc 52 aa 2b 62 b2 ab 29 e0 83 9a 2b
       1.9688744e-13 1.2102225e-12 7.62487e-14 1.0978961e-12
000240 8c 86 d7 01 65 55 2a 02 90 fb 0e 02 44 46 db 01
       7.917159e-38 1.2514135e-37 1.0504707e-37 8.054872e-38
000250 ad a7 09 3e 28 a9 0f 3e f0 58 0f 3c 81 ed 0e 3e
       0.1344287 0.14029372 0.008749232 0.13957788
000260 b2 7c d7 bd 3c 88 ed bd c9 6c 38 bd e6 0f 59 bc
       -0.105218306 -0.1159825 -0.04502562 -0.013248419
000270 db 84 2a bc 48 7d 46 bd b3 e2 86 3c 5b 10 1c 3d
       -0.010407652 -0.04845932 0.01646552 0.038101535
000280 2c 5b 85 bd d1 c3 bc 3c 5e 97 6c 3d 8b 95 54 3d
       -0.0651153 0.023042591 0.057761542 0.051900428
000290 6c 4a b6 80 93 78 65 01 38 bf ef 00 7a 41 89 01
       -1.6740758e-38 4.2147165e-38 2.201728e-38 5.0419806e-38
0002a0 38 97 91 39 12 be a8 bb 3e 62 df 3b 00 00 00 00
       0.00027769222 -0.0051496113 0.0068171313 0.0
0002b0 31 9f 52 bb ef a8 5f bb b6 5b 68 bb da 1d 69 bb
       -0.0032138343 -0.0034127792 -0.0035455055 -0.0035570771
0002c0 4b aa 24 80 33 81 20 80 7d d9 2c 00 db b0 11 00
       -3.367167e-39 -2.985084e-39 4.118782e-39 1.624647e-39
0002d0 04 12 8d 00 a4 69 45 00 41 18 72 00 37 f2 54 80
       1.2955268e-38 6.374546e-39 1.0477947e-38 -7.801072e-39
0002e0 05 5f 27 3b 63 0a 23 3b 4e c1 31 3b fb 43 38 3b
       0.0025538814 0.0024878017 0.0027123275 0.0028116691
0002f0 1b 4e 73 36 41 7f b6 b7 ad 71 9b b7 fe e4 d5 b7
       3.6255285e-06 -2.1755348e-05 -1.8530374e-05 -2.5498211e-05
000300 d9 a9 31 3d ee fa fb bd a8 79 02 3e 6b 0c 42 3d
       0.04337487 -0.123037204 0.1274172 0.047375124
000310 9b f2 46 a2 62 ee 3e a2 89 4e ad a0 fc 9b a9 9f
       -2.6962438e-18 -2.5876e-18 -2.935931e-19 -7.183234e-20
000320 b4 12 7e 3c 7e 1f 2f 3d 6c 9f 3c 3d 3d 50 6f 3d
       0.015507389 0.042754643 0.046050474 0.05842613
000330 7a 48 18 31 ab ec 8d 2f af 97 b0 2f ab e4 81 b0
       2.216011e-09 2.5815913e-10 3.212199e-10 -9.450977e-10
000340 c1 04 b1 bc 27 3d 42 3d 7a 87 26 3d f2 4d d1 3d
       -0.021608712 0.0474216 0.040656544 0.10219945
000350 4d 6a 88 3d 05 28 67 3d 00 00 00 00 b0 23 23 3e
       0.066609 0.05643465 0.0 0.15931582
000360 58 fb 3f 01 46 28 b7 00 00 00 00 00 08 f0 4d 01
       3.526149e-38 1.6820343e-38 0.0 3.7824767e-38
000370 5b fd 38 00 1f 17 f3 00 d6 0a 7c 00 dd c3 8c 00
       5.233675e-39 2.232432e-38 1.1391489e-38 1.2927232e-38
000380 16 52 01 be 0b 85 8d bc 0b dc db bd 13 20 c9 bd
       -0.1262897 -0.017275354 -0.10735329 -0.09820571
000390 00 00 00 00 00 00 00 80 00 00 00 00 00 00 00 80
       0.0 -0.0 0.0 -0.0
0003a0 aa 8c 08 81 27 f6 df 80 ec 2f b1 00 2b 9d 3b 81
       -2.5080176e-38 -2.0567618e-38 1.6272074e-38 -3.4459238e-38
0003b0 56 0c 3c 2c ff ee 49 2c 7e 96 c1 2f b5 33 9e 30
       2.6723255e-12 2.8696487e-12 3.5213427e-10 1.1510709e-09
0003c0 8e a1 20 3d 44 1e 58 3c 7b de 4f 3d 72 d9 d4 3d
       0.03921657 0.01319081 0.050749283 0.10393037
0003d0 67 ce 2e ba 83 d3 76 b7 2a 13 27 ba 2f e1 3e b8
       -0.00066683296 -1.4711989e-05 -0.00063734 -4.550925e-05
0003e0 29 4f f9 3b 86 b8 dd 3b 7b 1b ff 3b 31 6b e4 3b
       0.0076083136 0.0067663817 0.0077852583 0.006970786
0003f0 72 2f aa 01 1a f5 b3 01 d8 f7 03 02 30 52 f3 01
       6.251622e-38 6.610592e-38 9.695488e-38 8.9382036e-38

encoder.4.bias f4 [32]
000000 6b db be 3d 2f 82 70 9e c7 a3 0b ba 29 5f 82 3d
       0.093191944 -1.27324155e-20 -0.0005326834 0.063658066
000010 e0 55 03 3d 5f d2 19 94 44 bb 03 bb 68 47 9e 3d
       0.03206432 -7.766014e-27 -0.0020100633 0.077284634
000020 b1 2b 35 3d ba 72 0d 3d da b9 a7 3d 29 b4 ff 3c
       0.04423112 0.03453324 0.08189745 0.031213837
000030 8e 13 b1 3d 72 45 9c 3c 57 0b 2a bd f9 04 ab 3d
       0.08646308 0.019076083 -0.04151472 0.08350558
000040 87 7e 9c 3d 70 95 20 81 1e d2 a4 ba ed 28 34 3d
       0.07641321 -2.9494575e-38 -0.0012574827 0.043984342
000050 ca 60 7d 3d 3b 83 d5 3c f3 4f 5a 3a 8b 7d 92 a5
       0.061859883 0.026063552 0.00083279534 -2.5412034e-16
000060 a6 38 22 ba 1f 3e 91 bb 8a e6 ad 1f 2a 84 88 ba
       -0.0006188251 -0.0044324542 7.3649745e-20 -0.0010415365
000070 1c d0 2f 3d ac ae 4f b7 34 6e cb bb a9 8a 94 3d
       0.042923078 -1.237883e-05 -0.0062082056 0.0725301

encoder.6.weight f4 [16, 32, 3, 3]
000000 63 85 28 b5 4d 5c 08 af f4 c7 1d ad 00 00 00 80
       -6.277898e-07 -1.240192e-10 -8.968815e-12 -0.0
000010 00 00 00 80 17 b6 b3 23 00 00 00 80 db 66 4c a3
       -0.0 1.9484337e-17 -0.0 -1.1080643e-17
000020 00 00 00 80 00 00 00 80 00 00 00 80 00 00 00 00
       -0.0 -0.0 -0.0 0.0
000030 00 00 00 00 00 00 00 00 c4 20 0b 80 00 00 00 00
       0.0 0.0 -1.021945e-39 0.0
000040 00 00 00 80 00 00 00 80 bc 61 f6 ac 8f 3b 2d ae
       -0.0 -0.0 -7.002591e-12 -3.9388545e-11
000050 5b b6 59 b1 00 00 00 80 00 00 00 80 00 00 00 80
       -3.1681313e-09 -0.0 -0.0 -0.0
000060 00 00 00 80 84 99 82 ac a8 0f 46 b0 00 00 00 80
       -0.0 -3.711866e-12 -7.205423e-10 -0.0
000070 00 00 00 80 06 46 48 a3 00 00 00 80 00 00 00 80
       -0.0 -1.085685e-17 -0.0 -0.0
000080 00 00 00 80 00 00 00 80 00 00 00 80 00 00 00 80
       -0.0 -0.0 -0.0 -0.0
000090 c0 db d2 b5 07 34 62 b6 1e 78 7a b5 00 00 00 80
       -1.5710175e-06 -3.3706908e-06 -9.330705e-07 -0.0
0000a0 00 00 00 80 00 00 00 80 00 00 00 80 d8 87 99 b6
       -0.0 -0.0 -0.0 -4.5755696e-06
0000b0 00 00 00 80 00 00 00 00 00 00 00 80 00 00 00 00
       -0.0 0.0 -0.0 0.0
0000c0 00 00 00 80 43 e9 0f 80 f3 8c 11 80 00 00 00 00
       -0.0 -1.461211e-39 -1.611766e-39 0.0
0000d0 00 00 00 00 00 00 00 00 b2 6e a2 23 00 00 00 80
       0.0 0.0 1.7610956e-17 -0.0
0000e0 00 00 00 80 bc 27 15 a3 00 00 00 80 3e 45 89 a6
       -0.0 -8.08572e-18 -0.0 -9.525053e-16
0000f0 00 00 00 80 00 00 00 80 00 00 00 80 b7 70 97 b6
       -0.0 -0.0 -0.0 -4.5132724e-06
000100 d9 3b 59 ad 82 f6 08 a2 00 00 00 80 00 00 00 80
       -1.2348311e-11 -1.8561937e-18 -0.0 -0.0
000110 00 00 00 80 00 00 00 80 00 00 00 80 00 00 00 80
       -0.0 -0.0 -0.0 -0.0
000120 36 fd 7e ac 5d ec 85 a3 7c be a5 23 00 00 00 80
       -3.6236131e-12 -1.4519993e-17 1.7970009e-17 -0.0
000130 00 00 00 80 00 00 00 80 00 00 00 80 00 00 00 80
       -0.0 -0.0 -0.0 -0.0
000140 c0 7d 70 23 b7 36 bd b1 4a e7 c6 24 77 e4 9e 23
       1.3037055e-17 -5.5068443e-09 8.626063e-17 1.7227153e-17
000150 00 00 00 80 00 00 00 80 00 00 00 80 00 00 00 80
       -0.0 -0.0 -0.0 -0.0
000160 50 e7 f9 a1 00 00 00 80 90 27 3e ae 5a 52 57 23
       -1.6934124e-18 -0.0 -4.3236137e-11 1.1672612e-17
000170 4d a7 91 23 93 33 4e 28 00 00 00 80 16 ed 3a a3
       1.5791786e-17 1.14464805e-14 -0.0 -1.0133285e-17
000180 00 00 00 80 00 00 00 80 00 00 00 80 00 00 00 80
       -0.0 -0.0 -0.0 -0.0
000190 00 00 00 80 38 22 9b ac 00 00 00 80 00 00 00 80
       -0.0 -4.409164e-12 -0.0 -0.0
0001a0 00 00 00 80 00 00 00 80 00 00 00 80 00 00 00 80
       -0.0 -0.0 -0.0 -0.0
0001b0 a0 b6 45 b0 65 05 3d a6 e6 5e 12 28 00 00 00 80
       -7.192771e-10 -6.557986e-16 8.125206e-15 -0.0
0001c0 00 00 00 80 00 00 00 80 00 00 00 80 7c d9 ba a3
       -0.0 -0.0 -0.0 -2.0258269e-17
0001d0 00 00 00 80 00 00 00 80 64 28 96 20 00 00 00 80
       -0.0 -0.0 2.5437717e-19 -0.0
0001e0 00 00 00 80 00 00 00 80 00 00 00 80 00 00 00 80
       -0.0 -0.0 -0.0 -0.0
0001f0 b9 46 60 22 10 9a d9 a0 00 00 00 80 00 00 00 80
       3.0395101e-18 -3.686318e-19 -0.0 -0.0
000200 00 00 00 80 c4 e2 7e ac 00 00 00 80 f9 fb af 22
       -0.0 -3.6221451e-12 -0.0 4.770063e-18
000210 00 00 00 80 00 00 00 80 00 00 00 80 00 00 00 80
       -0.0 -0.0 -0.0 -0.0
000220 ca f7 f6 a2 00 00 00 80 00 00 00 80 00 00 00 80
       -6.694079e-18 -0.0 -0.0 -0.0
000230 ec 2b 3e a2 00 00 00 80 00 00 00 80 00 00 00 80
       -2.5773054e-18 -0.0 -0.0 -0.0
000240 00 00 00 80 00 00 00 80 00 00 00 80 00 00 00 80
       -0.0 -0.0 -0.0 -0.0
000250 00 00 00 80 00 00 00 80 00 00 00 80 00 00 00 80
       -0.0 -0.0 -0.0 -0.0
000260 00 00 00 80 00 00 00 80 00 00 00 80 23 75 00 80
       -0.0 -0.0 -0.0 -4.2021e-41
000270 00 00 00 00 00 00 00 80 00 00 00 80 00 00 00 80
       0.0 -0.0 -0.0 -0.0
000280 00 00 00 80 00 00 00 00 00 00 00 80 39 92 42 23
       -0.0 0.0 -0.0 1.0547725e-17
000290 00 00 00 80 41 79 79 a3 95 93 01 23 00 00 00 80
       -0.0 -1.35239936e-17 7.024356e-18 -0.0
0002a0 bf 11 63 23 00 00 00 80 00 00 00 80 00 00 00 80
       1.23094525e-17 -0.0 -0.0 -0.0
0002b0 78 e3 ea b2 00 00 00 80 00 00 00 80 00 00 00 80
       -2.7344626e-08 -0.0 -0.0 -0.0
0002c0 00 00 00 80 00 00 00 80 00 00 00 80 00 00 00 80
       -0.0 -0.0 -0.0 -0.0
0002d0 00 00 00 80 00 00 00 80 a3 0d ef b0 f6 fa 5a b2
       -0.0 -0.0 -1.7393414e-09 -1.2746332e-08
0002e0 00 00 00 80 94 9c 8a a2 00 00 00 80 00 00 00 80
       -0.0 -3.757076e-18 -0.0 -0.0
0002f0 00 00 00 80 f0 96 88 b5 d8 2a 31 ac 4b ef d0 a5
       -0.0 -1.0176718e-06 -2.5176996e-12 -3.62444e-16
000300 00 00 00 80 00 00 00 80 00 00 00 80 00 00 00 80
       -0.0 -0.0 -0.0 -0.0
000310 00 00 00 80 45 6f ed a2 9f 30 ad 21 ac 79 de a2
       -0.0 -6.435679e-18 1.1735806e-18 -6.0302046e-18
000320 00 00 00 80 e4 e4 89 a2 ce f5 8e 22 49 10 60 a3
       -0.0 -3.737627e-18 3.8749433e-18 -1.2146513e-17
000330 a5 12 fe a2 00 00 00 80 00 00 00 80 00 00 00 80
       -6.886658e-18 -0.0 -0.0 -0.0
000340 00 00 00 00 50 2e 10 80 00 00 00 80 00 00 00 80
       0.0 -1.485982e-39 -0.0 -0.0
000350 00 00 00 00 00 00 00 80 00 00 00 80 00 00 00 00
       0.0 -0.0 -0.0 0.0
000360 e6 2a 59 b5 75 be 1c b2 3c 65 02 b0 00 00 00 80
       -8.0901225e-07 -9.1237e-09 -4.7437587e-10 -0.0
000370 00 00 00 80 c0 aa eb a5 00 00 00 80 00 00 00 80
       -0.0 -4.0881706e-16 -0.0 -0.0
000380 ae 0b 0a 25 00 00 00 80 00 00 00 80 9d ea 81 22
       1.1973549e-16 -0.0 -0.0 3.5213927e-18
000390 64 0c 5b 23 00 00 00 80 00 00 00 80 00 00 00 80
       1.1874638e-17 -0.0 -0.0 -0.0
0003a0 2a c6 46 23 82 ed 13 22 00 00 00 00 00 00 00 00
       1.0775564e-17 2.004795e-18 0.0 0.0
0003b0 00 00 00 00 00 00 00 00 00 00 00 00 00 00 00 00
       0.0 0.0 0.0 0.0
0003c0 13 9a 09 00 00 00 00 00 00 00 00 00 48 a8 b9 ab
       8.81791e-40 0.0 0.0 -1.3191748e-12
0003d0 e7 ce 5d 25 c2 d3 71 a6 00 00 00 80 00 00 00 80
       1.9238796e-16 -8.3900657e-16 -0.0 -0.0
0003e0 00 00 00 80 00 00 00 80 00 00 00 80 b0 5a 6f 23
       -0.0 -0.0 -0.0 1.297542e-17
0003f0 00 00 00 80 00 00 00 80 00 00 00 80 00 00 00 80
       -0.0 -0.0 -0.0 -0.0

encoder.6.bias f4 [16]
000000 00 00 00 80 ae e9 2b 3d f2 88 c0 3b 43 3e a5 3d
       -0.0 0.0419709 0.0058757 0.08068516
000010 09 60 ea 3c 00 00 00 80 ec 49 3d 3d f4 a8 68 3d
       0.028610246 -0.0 0.046213076 0.05680175
000020 60 4a 8c 3d 80 73 04 80 f6 cf ca bc b0 f7 c6 3c
       0.068501234 -4.08776e-40 -0.024757367 0.024288028
000030 40 3f 00 00 5a 66 38 3d f1 f8 88 bd a0 00 8b 35
       2.269e-41 0.045019485 -0.06688107 1.0356489e-06

encoder.9.weight f4 [8, 16, 3, 3]
000000 00 00 00 00 00 00 00 00 00 00 00 80 c1 72 34 a3
       0.0 0.0 -0.0 -9.78212e-18
000010 42 df 50 22 e9 9e 2e 1e 00 00 00 80 00 00 00 80
       2.8307448e-18 9.244345e-21 -0.0 -0.0
000020 00 00 00 80 c0 08 d6 bd 06 c2 22 be 2e 3b 46 bd
       -0.0 -0.10450888 -0.15894327 -0.048396282
000030 27 32 5b 3d 32 b2 0e 3d e9 5f e6 bd bf 38 31 be
       0.053514626 0.03483791 -0.11248762 -0.17306803
000040 bb ca 24 bc e8 55 5c bd 65 e0 bb bc 06 4e 00 3d
       -0.0100581 -0.053792864 -0.022934148 0.03132441
000050 34 5e 58 3d e1 3b cc bd 34 87 3d bd e4 b3 0c 3c
       0.052824214 -0.099723585 -0.046271518 0.008587811
000060 5a 2c dd 3c ad 70 f3 3c 68 8d 2b 3c d2 b6 8c 3d
       0.026998688 0.029716814 0.010470726 0.06870808
000070 e3 ab eb bb 65 2a 74 bd d7 1d d4 bc 9f 3e 6e 3d
       -0.0071921214 -0.059610743 -0.025893135 0.05816519
000080 b1 1e c6 bd 4e f5 28 3d 8b a8 31 3d c8 47 9c ba
       -0.09673823 0.041249566 0.043373626 -0.0011923248
000090 ee cd fd 3c 67 85 bb 3c c7 57 20 bd cf cb 1f ba
       0.030981984 0.02289076 -0.03914621 -0.00060957385
0000a0 d1 18 27 bd 95 18 fa 3c cd 4f cb 3d a7 ad 4d 3d
       -0.04079515 0.0305293 0.0992733 0.050214436
0000b0 90 80 49 bd e5 9e 1e bb 62 ee 26 bb 00 00 00 80
       -0.049194872 -0.0024203595 -0.0025471677 -0.0
0000c0 f6 f1 0a b8 5d 6c cc b8 43 c0 b2 3b dd b9 32 39
       -3.3127108e-05 -9.747662e-05 0.0054550483 0.00017044642
0000d0 98 61 f4 3a 45 39 e1 3b 16 13 71 bd e5 ac 35 be
       0.0018644808 0.006873282 -0.058856092 -0.17741735
0000e0 5c e7 68 bd db 99 5d bd ef dd 6e be 7b 8e d5 bd
       -0.056861266 -0.054101806 -0.23326848 -0.104275666
0000f0 af 3f db 3e 41 3a 12 bc d4 9c a3 3c 24 0e 0c bd
       0.42822024 -0.008925022 0.019972242 -0.034193173
000100 72 7e 45 3d 27 80 5c bd d1 ac 8e bc ea e5 d2 bd
       0.04821629 -0.053833153 -0.01741639 -0.10297759
000110 41 76 75 bd ce 06 e6 bd 26 77 d9 3d 07 38 56 bd
       -0.05992723 -0.11231767 0.10618429 -0.052299526
000120 68 fd cc 3c 0e cd 72 3d ae b0 9f 3d cb 26 61 be
       0.025023177 0.059277587 0.07797371 -0.21987455
000130 a7 44 4d bd 99 64 8f bc 26 d1 48 3e 18 bd 8f bd
       -0.0501143 -0.017504023 0.19611034 -0.07018489
000140 8b dd 35 3d 9c 6d ab 95 72 9a b4 05 28 c5 04 80
       0.044400733 -6.923928e-26 1.6983853e-35 -4.38068e-40
000150 86 80 05 af 85 40 8c ad f5 de 3f 9a 2a a5 24 b8
       -1.214194e-10 -1.594481e-11 -3.9677978e-23 -3.9254468e-05
000160 ba df 63 b7 3e 5d cd b3 1b 71 1e 3d 8f 6a ea bc
       -1.3582345e-05 -9.563017e-08 0.038682085 -0.028615264
000170 c1 5a fc bc eb 1d bd 3d 0b c7 58 3d 82 91 c4 bd
       -0.030804994 0.09234222 0.052924197 -0.09598066
000180 4e bb c1 bd 8b 03 9c 3d ee 3c ac bd b9 ae b3 bc
       -0.09459554 0.07617863 -0.08410059 -0.0219339
000190 ca cc c8 bd be ae 60 bd 83 cb 99 bd bc 9f a2 3c
       -0.098046854 -0.054854147 -0.0750952 0.019851558
0001a0 e7 04 67 bc 53 4b c6 3e 8b 69 02 be c3 a9 00 3d
       -0.01410029 0.38729343 -0.12735574 0.031411897
0001b0 00 00 00 80 00 00 00 80 00 00 00 80 00 00 00 00
       -0.0 -0.0 -0.0 0.0
0001c0 00 00 00 00 00 00 00 00 00 00 00 80 00 00 00 80
       0.0 0.0 -0.0 -0.0
0001d0 00 00 00 80 03 02 04 bb 49 72 02 bd f4 75 96 bc
       -0.0 -0.00201428 -0.031847272 -0.018366791
0001e0 f0 fb 09 3d a8 8c 1e be 39 76 40 3d 5a bc 31 3e
       0.033687532 -0.15483344 0.046987746 0.17357007
0001f0 77 89 91 3d 93 24 1b bd 3f d4 bf bd 37 f4 22 bd
       0.071062975 -0.037876677 -0.093666546 -0.039783683
000200 2a 2c a6 bb 1b ad e9 bd c2 ab 1b ba 4d 77 bd bd
       -0.0050711827 -0.114099704 -0.00059383747 -0.092512704
000210 77 b2 8c 3e 9c 37 1e 3d aa 69 5c 3d 1e c4 b5 3c
       0.27479908 0.038627252 0.053811707 0.022188243
000220 00 00 00 00 00 00 00 00 54 73 e0 3c 00 00 00 00
       0.0 0.0 0.027398743 0.0
000230 00 00 00 00 00 00 00 00 00 00 00 00 a3 2e cc 3c
       0.0 0.0 0.0 0.024924582
000240 78 17 96 2f 63 ee 19 33 00 00 00 80 00 00 00 00
       2.7301517e-10 3.58399e-08 -0.0 0.0
000250 00 00 00 00 51 01 62 a2 36 fa ac 23 b4 3e 93 a8
       0.0 -3.0629408e-18 1.8754246e-17 -1.6347472e-14
000260 00 00 00 00 44 13 a5 3e 78 01 82 be 90 42 e0 bc
       0.0 0.3224126 -0.25391746 -0.02737549
000270 62 01 0c bd 94 33 f3 3c 85 b9 b5 3b 1f 80 6f bd
       -0.034181006 0.02968768 0.0055457973 -0.058471795
000280 af 73 88 be 00 00 00 00 10 26 8d 3c 5c db 51 bd
       -0.2665076 0.0 0.017230064 -0.051234588
000290 14 93 28 bd f5 cf 39 3c 70 9d c3 3d 0b 6f a1 bd
       -0.04115589 0.011341085 0.09551513 -0.07882508
0002a0 40 3d 71 bd c1 75 16 3d cf 56 9c bc d2 ac 88 3e
       -0.058896303 0.036733393 -0.019084362 0.2669435
0002b0 dd 63 b5 3d 5e ab 0a 3c 7e 0e 92 3d 00 00 00 00
       0.08856938 0.008463709 0.071316704 0.0
0002c0 0a ad 78 bc c2 56 6a 3c 20 b7 1b bd 5c 12 88 3d
       -0.0151779745 0.014302911 -0.03801644 0.06644127
0002d0 82 da 86 3d e6 43 2c 3e 34 2f b2 bd 68 8e f2 bc
       0.06584646 0.16822776 -0.087004095 -0.02960892
0002e0 eb 1a a5 3d 8a bc a9 3c db 37 80 3d 2b 5a 20 3e
       0.08061775 0.020719785 0.062606536 0.15659396
0002f0 a9 7b 6e bc 00 00 00 80 74 94 68 bc 30 31 5a bc
       -0.01455585 -0.0 -0.01419555 -0.013317391
000300 00 00 00 80 00 00 00 80 00 00 00 80 c3 bd 1d 3c
       -0.0 -0.0 -0.0 0.009627762
000310 00 00 00 00 c3 32 c8 3b 00 37 1a bd 45 7e 9d 3c
       0.0 0.006109567 -0.03765011 0.019225249
000320 0f 6e 9e bd 4c 01 e5 3d f2 32 69 3d 38 74 a3 bd
       -0.07735836 0.11181888 0.05693335 -0.07981151
000330 e1 30 91 3c 77 e2 3e bc ba bd 1d 3c 76 b5 f0 bd
       0.017723503 -0.011650673 0.009627754 -0.11753361
000340 dd 9f a6 3d 29 55 33 bd c3 fa 7c 3e 03 0c be bd
       0.0813596 -0.043782387 0.24705033 -0.09279635
000350 b5 bf 93 3c 38 45 af bd 1a 11 32 bd 29 6f 15 3d
       0.018035749 -0.08558124 -0.04347334 0.036482964
000360 7c 79 c6 be ce 95 c4 3c 1e 3c fa bc c0 05 21 3e
       -0.3876456 0.023997214 -0.030546244 0.1572485
000370 1e f1 c3 3c 3d ad ef bc ae c1 77 bd a3 19 1d 3c
       0.023918685 -0.029257411 -0.06048744 0.009588632
000380 b9 1e 58 3d be 6e c5 0f 17 ea 7a 19 49 2e 2c 34
       0.052763674 1.9468356e-29 1.2971971e-23 1.6035587e-07
000390 d9 af ab b1 04 ca 6b 34 ef 53 8f 38 b9 0d e5 32
       -4.9967466e-09 2.1959573e-07 6.834405e-05 2.6665349e-08
0003a0 ff cb 60 32 aa bb 9e 35 97 f8 08 be 7a 92 39 3e
       1.3084899e-08 1.1826535e-06 -0.1337608 0.18122283
0003b0 19 d3 1f bd e0 ae f9 bd 00 00 00 00 60 aa 07 be
       -0.039019678 -0.12191558 0.0 -0.13248587
0003c0 71 6f 8a bb 82 7b da 3d c3 c1 f6 bc a3 33 6b bd
       -0.0042247106 0.106680885 -0.03012169 -0.05742229
0003d0 4c 86 b9 bd 0d 7e a0 3c 44 cf 44 3c 7a 0f 8d 3d
       -0.09058818 0.019591356 0.012012307 0.068877175
0003e0 fb 79 c0 3b 23 77 cf bd ce c6 7e bd da 9d 90 bd
       0.005873916 -0.101301454 -0.062201314 -0.07061358
0003f0 00 00 00 80 00 00 00 80 6a e5 06 00 00 00 00 80
       -0.0 -0.0 6.33311e-40 -0.0

encoder.9.bias f4 [8]
000000 06 a1 22 bd 5e 3c 07 3e 00 00 00 00 00 00 00 80
       -0.039704345 0.13206622 0.0 -0.0
000010 9b ab 8d 3d ca 04 23 3b 00 00 00 00 fd d5 81 3c
       0.06917497 0.002487468 0.0 0.015849108

decoder.0.weight f4 [8, 128, 3, 3]
000000 4e cf 16 bd fa 63 68 bc bc e3 26 bd e7 5c b4 3d
       -0.036818795 -0.0141839925 -0.04074453 0.08806782
000010 00 00 00 80 00 00 00 00 00 00 00 00 00 00 00 00
       -0.0 0.0 0.0 0.0
000020 9e ae 8b 3d 21 5b 79 bd 7e e7 07 00 4e 29 49 3e
       0.06820415 -0.060877923 7.25892e-40 0.19644663
000030 00 00 00 80 76 6e a4 3d 00 00 00 80 cb d4 9e 3c
       -0.0 0.08028881 -0.0 0.019388577
000040 00 00 00 80 0c b1 cd bc 00 00 00 80 00 00 00 80
       -0.0 -0.025108837 -0.0 -0.0
000050 51 b8 33 ac 00 00 00 00 0b 25 29 3d 00 00 00 00
       -2.5539746e-12 0.0 0.041295093 0.0
000060 1b 0b 5a 3d 00 00 00 80 00 00 00 00 10 be cf 3d
       0.053233247 -0.0 0.0 0.101436734
000070 65 f7 08 80 a1 d7 5b be ae 60 0d 00 81 e5 cb 3d
       -8.23432e-40 -0.21468975 1.228544e-39 0.09955884
000080 e5 ed 01 80 7e 3b 05 be b0 21 05 00 b6 a5 ae bd
       -1.77176e-40 -0.13010976 4.71262e-40 -0.085277006
000090 00 00 00 80 00 00 00 80 00 00 00 80 00 00 00 80
       -0.0 -0.0 -0.0 -0.0
0000a0 00 00 00 00 00 00 00 80 00 00 00 80 00 00 00 80
       0.0 -0.0 -0.0 -0.0
0000b0 00 00 00 80 90 d8 85 3e 00 00 00 80 04 8f 1a bd
       -0.0 0.26141787 -0.0 -0.037734047
0000c0 00 00 00 80 00 00 00 00 00 00 00 80 c1 87 b1 bd
       -0.0 0.0 -0.0 -0.08668471
0000d0 00 00 00 80 16 0d 87 3d 00 00 00 80 00 00 00 00
       -0.0 0.06594293 -0.0 0.0
0000e0 2f 3f 93 3d 34 4c 04 80 00 00 00 80 00 00 00 80
       0.07189786 -3.94679e-40 -0.0 -0.0
0000f0 00 00 00 00 bf ed af 3d 2c 3c ec 3c c4 e0 c5 b7
       0.0 0.08590268 0.028837286 -2.3588895e-05
000100 51 82 14 bc 98 21 7f 3c 28 2e 23 b8 3a c2 bc ba
       -0.009064273 0.015571974 -3.8905215e-05 -0.0014401146
000110 2f da 14 b9 a2 14 be bc 41 f4 44 a5 e5 ee f2 bd
       -0.0001419566 -0.023203198 -1.7083047e-16 -0.11861972
000120 94 72 95 ba 0d ab 91 bc 00 00 00 80 00 00 00 00
       -0.0011401945 -0.017781759 -0.0 0.0
000130 5f 64 5e be ff 4c 43 be 13 a8 6a bc 00 00 00 80
       -0.21717976 -0.1907234 -0.014322299 -0.0
000140 ac b5 9a 3d 8e 7d 0b 80 00 00 00 00 e5 69 0b 80
       0.075541824 -1.055231e-39 0.0 -1.048178e-39
000150 00 00 00 80 00 00 00 80 00 00 00 80 00 00 00 80
       -0.0 -0.0 -0.0 -0.0
000160 00 00 00 00 96 3b 15 80 85 3e 47 0e 00 00 00 80
       0.0 -1.949921e-39 2.4558746e-30 -0.0
000170 99 e3 96 bd 2d 98 68 3d 00 00 00 00 00 00 00 80
       -0.073676296 0.05678575 0.0 -0.0
000180 8e 08 02 be 00 00 00 80 a4 a8 79 bd c4 79 05 00
       -0.12698576 -0.0 -0.060951844 5.02859e-40
000190 18 03 d1 3c 38 bf 08 00 9c db e5 bd 43 bf 0f 80
       0.02551417 8.0328e-40 -0.11223528 -1.446144e-39
0001a0 9f 28 04 be 07 dd 01 00 5a 6a 0d 3c 2c e7 04 80
       -0.1290612 1.71125e-40 0.008631313 -4.50271e-40
0001b0 00 00 00 00 00 00 00 00 6e af 7f be 16 df a6 bd
       0.0 0.0 -0.24969265 -0.08148019
0001c0 00 00 00 80 6a 29 76 3e 30 76 87 bd 00 00 00 00
       -0.0 0.24039236 -0.06614339 0.0
0001d0 00 00 00 00 53 68 a5 bc f4 b9 79 3e 00 00 00 80
       0.0 -0.020191347 0.24387342 -0.0
0001e0 32 c4 18 3e c6 4b 05 80 77 c8 a4 3e 48 e3 55 3d
       0.14918593 -4.8636e-40 0.32184193 0.052218705
0001f0 1b 31 85 bd 5a 90 ff bc ba d8 67 3d 00 00 00 80
       -0.06503507 -0.031196762 0.05660317 -0.0
000200 9f b5 d3 ba 00 00 00 80 9d da 07 00 00 00 00 80
       -0.001615215 -0.0 7.21272e-40 -0.0
000210 23 2f 89 3d 05 69 0f 80 6d 34 24 bc e7 f0 c3 3a
       0.06698444 -1.415206e-39 -0.010022265 0.0014949114
000220 e3 e2 ae bd 00 42 34 bb 2d 46 8c bd 9c d3 27 3e
       -0.08539369 -0.002750516 -0.068493225 0.16389316
000230 1f cf e8 bc fd 37 cf aa 9f b7 0a 3d 4a 7a bf b8
       -0.028419076 -3.6809436e-13 0.03386652 -9.130368e-05
000240 61 f0 bf 3d 00 00 00 80 88 c9 09 bd b1 6d 5a 3d
       0.093720205 -0.0 -0.03363946 0.053327266
000250 00 00 00 00 00 00 00 00 79 30 a4 bd 00 00 00 80
       0.0 0.0 -0.08017058 -0.0
000260 10 d7 42 3d 74 8e 39 3d 59 4c b4 bc 52 f4 7a bc
       0.04756838 0.04530187 -0.022009062 -0.01531704
000270 0d aa 8a 3d 00 00 00 80 a8 8e 92 bd 9d da 18 bc
       0.06770716 -0.0 -0.07156116 -0.009329465
000280 c2 e2 e3 bc 0c a7 d7 bd 2b c1 32 bb fb 4b c3 ac
       -0.027818087 -0.105299085 -0.0027275782 -5.550669e-12
000290 90 d3 97 2f 79 e0 01 00 b9 a0 7b b5 ea cd 06 80
       2.7617064e-10 1.72361e-40 -9.373867e-07 -6.24881e-40
0002a0 7f a7 6e bc 90 25 8d b8 e8 4e b2 bb 2a 23 0a 80
       -0.014566301 -6.7304005e-05 -0.0054415353 -9.3097e-40
0002b0 08 43 d8 bc 00 00 00 80 5c e3 0e 3d 63 a9 45 3e
       -0.02639915 -0.0 0.034884796 0.19302897
0002c0 49 e6 d9 bc 00 00 00 80 cd ee 08 3d 00 00 00 00
       -0.026599066 -0.0 0.033430863 0.0
0002d0 00 00 00 80 9e 1a 00 3c 00 00 00 80 78 a6 44 bd
       -0.0 0.007818846 -0.0 -0.04801032
0002e0 00 00 00 00 98 ca c8 3c dc b9 19 bc 00 00 00 80
       0.0 0.024510667 -0.009382691 -0.0
0002f0 00 00 00 80 d1 a2 38 b9 00 00 00 00 b4 3c f8 bd
       -0.0 -0.00017608261 0.0 -0.12120953
000300 00 00 00 80 00 00 00 80 00 00 00 80 e7 42 fe bc
       -0.0 -0.0 -0.0 -0.03103776
000310 be 72 7d 3e 00 00 00 80 d8 cc 43 3e 00 00 00 00
       0.24750802 -0.0 0.1912111 0.0
000320 00 00 00 00 00 00 00 80 00 00 00 80 00 00 00 80
       0.0 -0.0 -0.0 -0.0
000330 00 00 00 80 00 00 00 80 00 00 00 80 00 00 00 80
       -0.0 -0.0 -0.0 -0.0
000340 f3 10 38 3e 51 f5 27 3d 00 00 00 80 00 00 00 80
       0.17975216 0.041005436 -0.0 -0.0
000350 00 00 00 80 00 00 00 80 b6 02 9b bd 00 00 00 80
       -0.0 -0.0 -0.075688764 -0.0
000360 3a fd 29 bb 76 52 73 bb 18 cf 9d bc 24 53 44 b9
       -0.0025938288 -0.0037128008 -0.019263789 -0.00018722989
000370 ad 3d 26 bf 62 91 37 b9 2d 30 19 bb 4f 6b 44 ba
       -0.6493786 -0.000175064 -0.0023374662 -0.0007492797
000380 8c 66 02 00 61 ef 22 3e 6a ca 20 bb f6 46 c2 3c
       2.20458e-40 0.15911628 -0.002453471 0.023715477
000390 54 55 52 ba 35 60 a8 bd 00 00 00 80 2c 3e b6 3d
       -0.0008023579 -0.08221475 -0.0 0.08898577
0003a0 00 00 00 80 00 00 00 80 00 00 00 00 00 00 00 80
       -0.0 -0.0 0.0 -0.0
0003b0 00 00 00 00 00 00 00 00 00 00 00 00 08 fa 35 3e
       0.0 0.0 0.0 0.1777116
0003c0 8b c6 1a 3d 00 00 00 00 8d d9 83 3d 47 05 8e 3e
       0.037787 0.0 0.06437979 0.277384
0003d0 eb b6 bb 3d f8 f9 08 be 80 61 b5 3d f4 c1 31 3d
       0.09165748 -0.13376606 0.08856487 0.04339786
0003e0 00 00 00 80 00 00 00 80 7e 77 9a 3d 00 00 00 80
       -0.0 -0.0 0.075423226 -0.0
0003f0 52 b8 7b bc 00 00 00 00 88 34 13 00 00 00 00 80
       -0.01536377 0.0 1.763719e-39 -0.0

decoder.0.bias f4 [128]
000000 61 d7 8c 3e 2a be 4a be 74 9e ab be 08 db 5d be
       0.2750807 -0.19799104 -0.33519328 -0.21665585
000010 d8 b2 13 be b9 7a 69 3d 97 33 dd bd eb 1a eb 3c
       -0.14423692 0.057001803 -0.108008556 0.028699359
000020 0e 23 f3 3d bb a5 4d bc ef 6f 05 be d6 0d dc bd
       0.118719205 -0.01255172 -0.1303098 -0.107448265
000030 fa ff 90 3c 1a 06 93 bd 6b 2d 25 be 13 33 e8 3d
       0.017700184 -0.07178898 -0.16130607 0.11337867
000040 46 eb 04 bf 41 c2 85 ba 90 5c 47 ae 3d 41 7a be
       -0.519215 -0.0010204987 -4.5329573e-11 -0.24438949
000050 02 da 63 be 1f 01 2f bd 9b 1e c8 ba a2 3f cd bb
       -0.22251132 -0.04272568 -0.001526791 -0.006263689
000060 0e 12 6e 3e e9 33 15 3d 71 7f 80 3e 94 6d 12 bb
       0.23249075 0.03642646 0.2509723 -0.0022343146
000070 33 14 d5 3c 7f b8 a2 3e 39 e6 e3 3e fb 4f ad bc
       0.026010608 0.31781384 0.44511583 -0.021156302
000080 7e 6e d0 3d ef 60 cd be f3 0c 67 bd e0 5d 39 be
       0.10177325 -0.40113017 -0.056408834 -0.18102217
000090 8c 85 45 be 48 5c 70 be 48 5b 56 bd 21 5f 8b bb
       -0.19289225 -0.23472703 -0.052333146 -0.0042532836
0000a0 a3 41 f7 3b 42 77 e5 be 1d 13 a4 bd 6f 3f ad 3d
       0.0075456663 -0.4481755 -0.08011458 0.084593646
0000b0 00 00 00 80 1f 13 0c bd 1c 8d ea 3d 9c 5f 83 3e
       -0.0 -0.034197923 0.11452696 0.25658882
0000c0 29 27 eb be 63 1e 0a 3e 4e f4 27 3e e8 61 bc 3d
       -0.45928314 0.13488154 0.16401789 0.09198362
0000d0 a0 eb e2 3e 87 71 e2 bb 0a be 8a 3d cc 77 8c be
       0.44320393 -0.006910506 0.06774528 -0.27435148
0000e0 9c a3 29 bd 79 ef 4d be 74 4e a4 bd 00 73 39 3c
       -0.041415796 -0.20110883 -0.08022776 0.011318922
0000f0 2c 5b df 3e 67 d8 e3 3e e2 9e 0a bd 41 c6 3e 3d
       0.43624246 0.4450104 -0.03384293 0.04657579
000100 d6 f7 0f 3d 9c 83 c3 3c 5a c7 5c 3e f6 98 a1 bd
       0.035148464 0.023866467 0.21560422 -0.07890503
000110 b6 f7 72 b7 7d 34 4f 3e f3 d0 0e bf d3 ca ac be
       -1.4481999e-05 0.20234866 -0.5578758 -0.33748493
000120 3b 94 b4 3c ce 63 ab 3e c3 a3 82 a6 48 b9 77 3e
       0.022043338 0.33474582 -9.06495e-16 0.24191773
000130 b7 d3 0d 3d 88 41 26 3d b7 e5 92 3e a1 b9 75 be
       0.034625735 0.04058984 0.28690884 -0.23996593
000140 19 80 52 3e 66 45 a5 3e 75 81 8b 3e 15 a8 c2 3d
       0.20556678 0.3227951 0.27247205 0.09504715
000150 92 cd 66 3e 8a d9 98 3d 70 c4 9f 3d 2a b9 26 bd
       0.22539356 0.07463367 0.07801139 -0.04070393
000160 bb b7 aa 3d 3b 20 9f 3e ed 9a aa 3e 83 b4 04 be
       0.08335825 0.31079277 0.33321324 -0.12959485
000170 ac 13 b3 3e 53 24 89 3e ac fb 59 be 25 40 1a be
       0.34975946 0.26785526 -0.21287411 -0.15063532
000180 b7 84 bc 3c 26 2e 0e 3f ec e0 83 bd 0c 12 30 ba
       0.023012502 0.55539167 -0.06439385 -0.00067165564
000190 0a e3 a6 bc a1 87 c0 bd 00 00 00 00 53 73 0a 3d
       -0.020371933 -0.09400869 0.0 0.033801388
0001a0 03 8f 1b be c6 48 9f bd 00 00 00 80 b2 ea 66 3b
       -0.15191273 -0.07777552 -0.0 0.0035235104
0001b0 e3 5b e9 bd 7c 47 0d 3e b9 db 5b 3e 34 86 be 3e
       -0.11394479 0.137968 0.21470536 0.37211764
0001c0 34 a7 1e 3d 39 c8 25 3e 00 7e f5 bc ec 02 4a bd
       0.038733676 0.1618966 -0.029967308 -0.049319193
0001d0 5f eb ab bd f3 17 ea bd 00 00 00 00 da 72 05 3f
       -0.08394503 -0.11430349 0.0 0.52128375
0001e0 b4 f0 61 b1 1e 11 fc be 26 24 6b bb ae 44 ab bc
       -3.2878633e-09 -0.4923181 -0.00358797 -0.020906772
0001f0 d7 52 b3 3d c6 92 36 3e cb e7 c6 3e de 9e 82 3e
       0.08756035 0.17829427 0.3884872 0.2551183
