mnist_iter/end_of_2.pth (torch_old, 842201 bytes, 19 tensors)

encoder.0.weight f4 [128, 1, 3, 3]
00000000: 6f91 e63d 0e1f 3a3e 2a95 de3d aee6 6a3e
00000010: f01f 8d3e d3e8 623e 837b 05be f005 80bd
00000020: bd54 63be 350c 61bc bb57 1d3d 320a c7bd
00000030: 4a6d 12bd 44ac 943d 3614 873d 9d8c a9bd
00000040: 2adb 0dbd 2072 b43d ec94 62be 92ab e1bd
00000050: 8b46 a3be df05 25be 070d 0c3e bd5c 98bd
00000060: 3d8f a2be ed1a c9bd 10f7 aebe 24b0 973d
00000070: 9aaf df3d 078b 5cbd 74e3 1d3d efb8 543c
00000080: c44b b2bd 07d5 8dbd 7b17 c5bd ecaf c4bd
00000090: 4b5a 3d38 1a1a 0039 6ed6 c839 b063 9db9
000000a0: 1873 33b8 eb53 1f39 02f6 b5b9 49e6 afb8
000000b0: 97ec 0e39 17c7 a03e ff2b e43d 0d44 8fbe
000000c0: 4b4d da3e 309d 123e e41f a7be 0ec3 c33e
000000d0: 7fa5 ce3c fd40 c8be 523f 2e3b ecbb 113e
000000e0: e8e6 e03d 68d1 293d d7d7 113e b48c c03c
000000f0: 7c35 af3d dad1 3f3d 996c 3abd 6c24 8e3c
00000100: b199 373e 4fbc 79bd 3f35 4e3d 82d9 133e
00000110: 95c7 d4bd eba5 83be b7c6 2abd 7dc9 4cbe
00000120: 6905 eb3e 76e3 5b3e e1e4 d63d d540 123e
00000130: 700a e0bd 3226 40be 7c4f 5f3e 6b9c 02be
00000140: f435 b8be b1ec 673e 8118 503e 1c8a af3e
00000150: 4551 733d e1ed 83bd a084 713d 8500 613b
00000160: 04b8 38be 4299 30be 11d5 343d 90b7 3ebe
00000170: 9165 b3be a613 fb3c c7b8 74bb eecf 91be
00000180: 741c 663d c9ed 18be de0a 92be c6b5 0380
00000190: d9a3 0000 cb14 0080 486b 0280 f91c 6b04
000001a0: dd4f 0680 01f2 0480 ca2d 0780 b55b 0300
000001b0: ae4d 8abe 27fb 50be 4dac c2be f89f 453e
000001c0: 83c8 8b3e f259 b6bd d699 ef3d 6fe3 623e
000001d0: 77ec 5ebe b666 b13d 26a1 523e fd19 ad3c
000001e0: 937c 753e 1db5 ae3e 9a42 da3d d793 d13b
000001f0: d856 a73d 6d70 71be 4df3 a5bd 6e08 773d
00000200: cd6e debd ac33 9b3d 6e67 333e 904a 4c3d
00000210: 2eeb 1abe 793d e9bd 76c3 afbd ccff 032a
00000220: a696 322a 405b 042a 435d 252a 8f23 46aa
00000230: 0654 c827 4724 c229 7dfb 8729 15d7 ba28
00000240: 4090 1a3d f446 b13d 4ecb aa3e dee1 833c
00000250: 04b2 273d 0420 423e 4b90 af3e e127 943e
00000260: 8cb1 953e 5f41 543e 9fd9 b43d 9ab6 583e
00000270: 313d 293d 67bb abbd 917b b13d 7e46 8e3e
00000280: 8cf5 473d d376 6b3d 8490 003e 11cb aa3d
00000290: 7a94 393e 0095 193c adfb 9abd fb81 253d
000002a0: 82e3 483e 9431 c83c 9586 b03c 8284 143e
000002b0: 6411 1b3e 3f58 fb3d 3283 eabc 9312 98bd
000002c0: 3254 9ebc 3b38 e83d 5140 013e 2983 273e
000002d0: 4d74 cfbd d89a b4bc dd24 c1bd 58e2 03bd
000002e0: 1844 29bb 9f9d 62bd e133 df3d 52c5 053d
000002f0: 39a5 f6bd 001d 8abe 512b aebe a4bb 98be
00000300: 920e 1cbd b052 e4bd 485d 4dbe 852c a83c
00000310: 6561 41be 296c 453c e44d acbd c541 4dbe
00000320: cfab d1bd 67bf 9f3d 25bd 2cbe 99da 353d
00000330: 155e 91bd 4295 20be 1221 9a3d b024 9c3d
00000340: 241f 923d 4388 af3d 267d 663e 3a6d 093e
00000350: 51d3 623e e6b6 b23d 2741 7e3c 5692 dd3d
00000360: 1f06 cabd dc97 013d 0771 eebd 0c55 d7bd
00000370: 2a41 57bd 3760 1bbc 648c 93bd a927 a1bd
00000380: 33a6 d2bd e959 7bbe 7905 103e eb30 3b3e
00000390: dfd9 dabd 0d7a 4b3e 6370 0f3e 25db e8be
000003a0: baaa 3dbe e4a9 78be 8a50 7fbe c256 a03d
000003b0: c2f5 1dbc 0be7 3dbd 3cbb 5f3e b483 523d
000003c0: 21c4 67be 9b74 e2bd 1f46 47be 5b2e 5bbe
000003d0: a4d9 1ebd e590 1fbe 54f1 523d babe 0e3e
000003e0: eae8 06be 836b f1bb 858f aa3d 8d77 d0bd
000003f0: e5cb 1dbe ba11 14be 6927 4fbe 8c1b 57bd
0.11258208 0.18175909 0.108682945 0.2293956 0.2756343 0.22159128 -0.13035397 -0.062511325
-0.22200294 -0.013735821 0.038413744 -0.097187415 -0.035748757 0.072594196 0.06595652 -0.08278773
-0.03463284 0.0881083 -0.22127122 -0.110190526 -0.31889758 -0.16115521 0.13676845 -0.074395634
-0.31749907 -0.09819589 -0.3417287 0.07406643 0.10922165 -0.053843524 0.038546994 0.012983545
-0.087058574 -0.06925397 -0.09623619 -0.09603867 4.5145203e-05 0.00012216755 0.00038306735 -0.00030019647
-4.2784115e-05 0.00015194684 -0.000347063 -8.387544e-05 0.00013630312 0.31401893 0.11141204 -0.27981606
0.42637095 0.14317775 -0.32641518 0.38234752 0.025225399 -0.39112082 0.0026588035 0.14231843
0.10981542 0.04145947 0.14242493 0.023504592 0.08555123 0.04683099 -0.045513723 0.017351352
0.17929722 -0.0609706 0.05034375 0.14438441 -0.1038963 -0.25712523 -0.041693415 -0.19998737
0.45902565 0.21473488 0.10492874 0.14282544 -0.10939491 -0.1876457 0.21807665 -0.12754981
-0.35978663 0.22648884 0.20321847 0.34285057 0.059403677 -0.06441856 0.05896437 0.0034332585
-0.18038946 -0.17245963 0.04414851 -0.18624711 -0.35038427 0.030649018 -0.0037341581 -0.2847895
0.05617948 -0.14934458 -0.28523916 -3.40715e-40 5.8777e-41 -7.459e-42 -2.22156e-40 2.763742e-36
-5.79663e-40 -4.54157e-40 -6.59274e-40 3.08405e-40 -0.2701239 -0.20408307 -0.3802208 0.19299304
0.27301416 -0.089038745 0.11699264 0.22157072 -0.21769892 0.08662169 0.20569286 0.021130556
0.23973303 0.34122553 0.106572345 0.0063957977 0.08170861 -0.23578043 -0.081030466 0.060310774
-0.10860977 0.07578215 0.17519924 0.049875796 -0.15128776 -0.11388678 -0.08582203 1.1723885e-13
1.5861843e-13 1.1755614e-13 1.46873e-13 -1.759827e-13 5.560225e-15 8.621624e-14 6.0388306e-14 2.0743425e-14
0.037735224 0.08656111 0.33358234 0.016098913 0.040941253 0.18957525 0.34289774 0.28936675
0.2923702 0.20728062 0.088305704 0.21163407 0.041318122 -0.083853535 0.086661465 0.27788156
0.048818156 0.057486366 0.12555128 0.08339513 0.18123046 0.009373903 -0.075675346 0.040407162
0.19618037 0.024437703 0.021548549 0.14503673 0.15143353 0.12272691 -0.028627012 -0.07425418
-0.019327257 0.1133885 0.12622191 0.16358627 -0.101296045 -0.022046492 -0.09430859 -0.03219828
-0.002582794 -0.0553261 0.10898567 0.032658882 -0.120432325 -0.2697525 -0.34017423 -0.29830658
-0.038099833 -0.11148584 -0.20055115 0.020529041 -0.1888481 0.012049713 -0.08413294 -0.2004462
-0.10237848 0.07800179 -0.16869028 0.044397924 -0.07098023 -0.15681937 0.07525839 0.07624185
0.07134846 0.08570912 0.22508678 0.13420573 0.22150923 0.08726291 0.015518463 0.10818927
-0.09864449 0.031638965 -0.11642652 -0.10514268 -0.05255238 -0.009483389 -0.07204512 -0.07868893
-0.10285606 -0.24546017 0.14064588 0.1828038 -0.10686087 0.19870777 0.14007716 -0.45479694
-0.18522158 -0.24283558 -0.24933067 0.07829048 -0.009641113 -0.046362918 0.21848768 0.051395133
-0.22633411 -0.11057397 -0.19460343 -0.21404402 -0.038781777 -0.15582617 0.05149968 0.13939944
-0.13174787 -0.0073675527 0.083281554 -0.101790525 -0.15409811 -0.14459887 -0.20229878 -0.052516505

encoder.0.bias f4 [128]
00000000: 70fb 353f f9fd bb3e 556d 90be be85 f8bd
00000010: b90b 50bb 9083 d63e a17e 453d fe7f 613e
00000020: d74a cd3d 00d6 f33e f852 56bd a914 f293
00000030: 38d0 f8bd 2a0f 1b3f c2df c93d 5b6f 54ad
00000040: 2bec 073e 99ab 9fbe 7bce 20be cba1 06be
00000050: e3dd 3cbe 1fc2 77bb 274e 583e b453 b23e
00000060: fd35 36be 1620 adbc fb1a ea3e d86e be3e
00000070: c1e0 43bd d26c 0d3e a8ef efbd 1981 683d
00000080: 0135 b83d 6799 0a3f f79e a2bd cf63 cebd
00000090: 587b 0bbb 18da e2bd 88e5 8dbe e0ea ae3c
000000a0: f706 5c3e 0bc1 963e 71a5 29ba c227 623e
000000b0: cef0 e798 3bd3 333f 7e11 cd3d 814c 23be
000000c0: 5496 c53e bdc4 51be f507 f13e edbc b13d
000000d0: 4622 283e ccb9 73bd 97c5 273e 5ff8 89bd
000000e0: e9ad 18af eb4b 46be 2597 b43d 5db0 fca5
000000f0: dfc0 41be 40a8 0f3f 0ae9 903d 66c0 1697
00000100: f457 7e3e 1189 e7bd eb99 a53e 7b6a 2d3f
00000110: 9292 cdbe d0fb 083d d637 4ab7 db28 bf3d
00000120: 50eb 02bd dfbd 463d b621 32be 609b e1be
00000130: 2b8b 22bd 042b 56be 6dff 823c e7f5 073c
00000140: 2933 a5ba 4830 e2bd d170 0a3f 83c0 f23e
00000150: 755d 003f b21f 15bd 50aa f9bd b20b 04af
00000160: a44a cf3e c08d 063d a388 06b5 3035 55bb
00000170: e8e2 0ebe afe3 9ebe 578b 85bd 7562 ac3d
00000180: e7d1 383e 933f e8ba 8c24 273f e2d2 87bb
00000190: 719c b53c 600c 093f 8fb9 813c 90ed 613e
000001a0: 85cf 9dbe 6c37 54be 81ee 183f b68a 58be
000001b0: 9c24 b7ae 511e 54be 9a11 563d 6df3 98ba
000001c0: 5ab4 a2be ffd5 e7be fffc ebb9 d72c a6bd
000001d0: ba89 09be 8bd7 193e 16da f7bd 8512 0a3f
000001e0: 1794 313f efaf 973e c53f fcbc bc4e df3e
000001f0: 0efd d9bd d6bf 64bb 4449 883e 77d2 2fbd
0.7108679 0.36717203 -0.28208414 -0.12134884 -0.0031745268 0.4189725 0.048216466 0.22021481
0.1002404 0.47624207 -0.05232522 -6.110976e-27 -0.121490896 0.60570014 0.098571315 -1.2075531e-11
0.13273685 -0.31185606 -0.15703766 -0.13147657 -0.18444018 -0.0037804914 0.21123563 0.34829485
-0.17794032 -0.021133464 0.4572371 0.37193942 -0.047821764 0.13811043 -0.11715633 0.056763742
0.08994485 0.54140323 -0.079404764 -0.10077631 -0.0021283235 -0.11076754 -0.2771418 0.021352232
0.21487032 0.29444155 -0.0006471491 0.22085479 -5.995525e-24 0.7024419 0.10013102 -0.15947153
0.38591254 -0.20485206 0.47076383 0.08678613 0.16419324 -0.05950336 0.16383968 -0.06736826
-1.3886105e-10 -0.19364898 0.08817891 -4.383454e-16 -0.1892123 0.56116104 0.07075699 -4.8710455e-25
0.24838239 -0.1130544 0.32343993 0.677406 -0.40150887 0.033443272 -1.2053139e-05 0.093339644
-0.031962693 0.04852092 -0.17395672 -0.44063854 -0.039683502 -0.20914847 0.015990937 0.008298374
-0.0012603748 -0.11044365 0.54078394 0.474125 0.50142604 -0.03640718 -0.12190688 -1.2009485e-10
0.40486634 0.032850027 -5.011772e-07 -0.0032532923 -0.13953745 -0.31033084 -0.065207176 0.08417217
0.18048821 -0.0017719142 0.6529014 -0.0041450122 0.022169324 0.5353451 0.015835552 0.22063279
-0.30822387 -0.20724267 0.5973893 -0.21146664 -8.3283797e-11 -0.2071469 0.05226288 -0.0011669226
-0.31778222 -0.45280454 -0.0004501119 -0.08114021 -0.13431445 0.1502363 -0.121021435 0.5393451
0.6936659 0.29626414 -0.030792126 0.43614757 -0.106439695 -0.0034904382 0.26618397 -0.042925324

encoder.2.weight f4 [64, 128, 4, 4]
00000000: 40c5 0d00 0000 0000 0000 0000 0000 0000
00000010: 0000 0000 3051 0000 4fbb 0e80 77fe 0880
00000020: 9e08 0c00 0000 0000 0000 0000 7b6b 0a00
00000030: 0000 0000 0000 0000 8004 0700 0000 0000
00000040: 0000 0000 6b87 0380 0000 0000 0000 0000
00000050: 0000 0000 0000 0000 c80e 1000 5104 0600
00000060: fa5b 0580 0000 0000 0000 0000 0000 0000
00000070: 0000 0000 0000 0000 0000 0000 0000 0000
00000080: 0000 0000 0000 0000 0000 0000 0000 0000
00000090: 0000 0000 0000 0000 0b9d 1400 0000 0000
000000a0: 0000 0000 4632 0880 0000 0000 0000 0000
000000b0: 1e66 0700 0000 0000 0000 0000 0000 0000
000000c0: 0000 0000 7741 0200 0000 0000 0000 0000
000000d0: 0000 0000 d17a 0a00 0000 0000 0000 0000
000000e0: 0000 0000 0000 0000 f836 0400 0000 0000
000000f0: 81de 0780 0000 0000 0000 0000 91cf 0800
00000100: 0000 0000 0000 0000 0000 0000 f30a 0a00
00000110: 0000 0000 0000 0000 329d 1500 a0af 1100
00000120: 1ee3 1200 0000 0000 0000 0000 f3d1 0680
00000130: 0000 0000 0000 0000 0000 0000 57de 1580
00000140: 0000 0000 0000 0000 0000 0000 0000 0000
00000150: 0000 0000 0000 0000 0000 0000 0204 0000
00000160: 467c 0c00 e588 1080 0000 0000 f953 0680
00000170: 0000 0000 f8a5 0700 0000 0000 0000 0000
00000180: 0000 0000 0000 0000 4892 1080 0000 0000
00000190: ecac 0e00 0000 0000 0000 0000 0000 0000
000001a0: 0000 0000 0000 0000 09ac 1180 0000 0000
000001b0: 0000 0000 0000 0000 0000 0000 cca3 0d80
000001c0: 3a25 0080 0000 0000 24a1 0400 5b50 1300
000001d0: 0000 0000 0000 0000 0000 0000 0000 0000
000001e0: 0000 0000 0000 0000 0000 0000 0000 0000
000001f0: 0000 0000 0000 0000 0000 0000 0000 0000
00000200: 0000 0000 a580 1080 672c 1180 0000 0000
00000210: 43a3 1180 0000 0080 0000 0000 0000 0000
00000220: 9d36 0c80 0000 0000 1731 1000 5922 0500
00000230: 0000 0000 f5da 0e80 affd 0c80 0000 0000
00000240: a421 0900 0000 0000 0000 0000 2429 0300
00000250: a3f0 1580 0000 0000 89d5 0300 0000 0000
00000260: 0000 0000 0000 0000 8c97 0f00 0000 0000
00000270: 0000 0000 0000 0000 de9e 0e80 0000 0000
00000280: 0000 0000 0000 0000 6137 1400 0000 0000
00000290: 0000 0000 64bd 0a80 0000 0000 0000 0000
000002a0: 717d 1000 0000 0000 b0d3 0880 0000 0000
000002b0: 0000 0000 fe2b 0b00 0000 0000 0000 0000
000002c0: a993 0a00 3b6a 0c00 0000 0000 0000 0000
000002d0: 0000 0000 5453 0d00 0000 0000 0000 0000
000002e0: 0000 0000 0000 0000 0000 0000 0000 0000
000002f0: 3e9e 0800 0000 0000 0000 0000 22c7 0600
00000300: 0000 0000 0000 0000 0000 0000 0000 0000
00000310: 0000 0000 0000 0000 0000 0000 0000 0000
00000320: 0000 0000 0000 0000 0000 0000 0000 0000
00000330: 95fb 0180 2750 0680 0000 0000 0000 0000
00000340: 0000 0000 0000 0000 0000 0000 5bd5 0a00
00000350: 0000 0000 0000 0000 7aff 0280 409f 0700
00000360: 0000 0000 0000 0000 ee6c 0b80 0000 0000
00000370: 0000 0000 0000 0000 e4a3 1380 d3f3 0b80
00000380: 104b 0100 0000 0000 0000 0000 0000 0000
00000390: 0000 0000 4177 0900 0000 0000 2ed8 0980
000003a0: ee66 0d80 bd41 0180 adbb 0b80 20f4 0780
000003b0: 98ba 0f00 0000 0000 0000 0000 0000 0000
000003c0: c54d 0400 0000 0000 0000 0000 0000 0000
000003d0: 1c58 0980 3245 0680 77eb 0a00 0000 0000
000003e0: 57b6 0980 0000 0000 967c 1400 0000 0000
000003f0: 0000 0000 0000 0000 6c06 0380 0000 0000
1.264621e-39 0.0 0.0 0.0 0.0 2.9125e-41 -1.35289e-39 -8.25969e-40
1.105117e-39 0.0 0.0 9.56912e-40 0.0 0.0 6.44463e-40 0.0
0.0 -3.24085e-40 0.0 0.0 0.0 0.0 1.47467e-39 5.52561e-40
-4.92172e-40 0.0 0.0 0.0 0.0 0.0 0.0 0.0
0.0 0.0 0.0 0.0 0.0 0.0 1.893046e-39 0.0
0.0 -7.52719e-40 0.0 0.0 6.79481e-40 0.0 0.0 0.0
0.0 2.07155e-40 0.0 0.0 0.0 9.62413e-40 0.0 0.0
0.0 0.0 3.87061e-40 0.0 -7.22668e-40 0.0 0.0 8.09145e-40
0.0 0.0 0.0 9.22283e-40 0.0 0.0 1.984936e-39 1.624206e-39
1.734513e-39 0.0 0.0 -6.26329e-40 0.0 0.0 0.0 -2.008306e-39
0.0 0.0 0.0 0.0 0.0 0.0 0.0 1.438e-42
1.146607e-39 -1.518476e-39 0.0 -5.81137e-40 0.0 7.02387e-40 0.0 0.0
0.0 0.0 -1.521844e-39 0.0 1.34773e-39 0.0 0.0 0.0
0.0 0.0 -1.622918e-39 0.0 0.0 0.0 0.0 -1.25262e-39
-1.3354e-41 0.0 4.25148e-40 1.7737e-39 0.0 0.0 0.0 0.0
0.0 0.0 0.0 0.0 0.0 0.0 0.0 0.0
0.0 -1.515517e-39 -1.577132e-39 0.0 -1.619771e-39 -0.0 0.0 0.0
-1.121618e-39 0.0 1.486978e-39 4.71499e-40 0.0 -1.364244e-39 -1.19303e-39 0.0
8.38587e-40 0.0 0.0 2.90265e-40 -2.01487e-39 0.0 3.52108e-40 0.0
0.0 0.0 1.431897e-39 0.0 0.0 0.0 -1.342688e-39 0.0
0.0 0.0 1.856576e-39 0.0 0.0 -9.86296e-40 0.0 0.0
1.514368e-39 0.0 -8.10623e-40 0.0 0.0 1.025972e-39 0.0 0.0
9.71325e-40 1.140134e-39 0.0 0.0 0.0 1.223754e-39 0.0 0.0
0.0 0.0 0.0 0.0 7.9145e-40 0.0 0.0 6.22448e-40
0.0 0.0 0.0 0.0 0.0 0.0 0.0 0.0
0.0 0.0 0.0 0.0 -1.82086e-40 -5.79766e-40 0.0 0.0
0.0 0.0 0.0 9.94892e-40 0.0 0.0 -2.75319e-40 6.99977e-40
0.0 0.0 -1.049267e-39 0.0 0.0 0.0 -1.803667e-39 -1.097658e-39
1.18763e-40 0.0 0.0 0.0 0.0 8.693e-40 0.0 -9.0407e-40
-1.230786e-39 -1.15418e-40 -1.077516e-39 -7.30424e-40 1.44447e-39 0.0 0.0 0.0
3.9524e-40 0.0 0.0 0.0 -8.58127e-40 -5.75836e-40 1.002824e-39 0.0
-8.9193e-40 0.0 1.881403e-39 0.0 0.0 0.0 -2.7781e-40 0.0

encoder.2.bias f4 [64]
00000000: 0000 0000 0000 0000 f39c 1180 f9fb 5cbb
00000010: 0000 0080 affa b9b7 0000 0000 8cf1 06b7
00000020: 1a2f 3dba 5a3d 72b5 0000 0080 5182 98b6
00000030: 0000 0000 c6b3 8ab8 0000 0080 1874 a2b2
00000040: b775 1100 274e d2bd 99ab bab9 0000 0000
00000050: ac78 0cb3 0000 0080 d479 583d 066d 81ae
00000060: 5a74 543d 4408 5bb0 0000 0000 e2ca 20b9
00000070: b66d 19ad 7fcf 20bc 1f1a 823d 7753 29bb
00000080: 868a eca4 0000 0080 6326 1100 7afb 0480
00000090: 0000 0080 ebfe ceb5 6200 0a00 90a1 2db8
000000a0: 534f 58a8 0000 0000 4218 b9af 54a1 643e
000000b0: 1a4a 0900 0000 0080 15ae 873d a2fa 1000
000000c0: 498d 11a6 0c98 53ba 8533 58bc 0bfb 603d
000000d0: dbcc 06b8 614f 4bbc 0000 0000 0000 0000
000000e0: 2851 e8b7 e722 0bac ac95 7dba 7630 8992
000000f0: 979e b7bc 0000 0080 8c59 89b5 0000 0000
0.0 0.0 -1.617506e-39 -0.0033719523 -0.0 -2.2170452e-05 0.0 -8.043262e-06
-0.00072167965 -9.0241303e-07 -0.0 -4.545124e-06 0.0 -6.613838e-05 -0.0 -1.8912075e-08
1.603432e-39 -0.102688126 -0.00035604535 0.0 -3.270604e-08 -0.0 0.05285056 -5.885607e-11
0.051868774 -7.968348e-10 0.0 -0.00015334369 -8.721404e-12 -0.009815096 0.063526385 -0.0025837102
-1.0258335e-16 -0.0 1.574974e-39 -4.57555e-40 -0.0 -1.5422387e-06 9.18492e-40 -4.139688e-05
-1.2007609e-14 0.0 -3.366854e-10 0.22327167 8.53102e-40 -0.0 0.066250004 1.559278e-39
-5.049846e-16 -0.0008071668 -0.013195877 0.054926913 -3.2138876e-05 -0.012409062 0.0 0.0
-2.7694346e-05 -1.9772463e-12 -0.0009673487 -8.657862e-28 -0.022414489 -0.0 -1.0233357e-06 0.0

encoder.4.weight f4 [32, 64, 2, 2]
00000000: 9b92 2782 e5c6 fb81 4317 1682 a0d1 1a81
00000010: 2494 b401 0000 0000 8721 d201 2120 be01
00000020: 87a1 9701 27c9 c100 33cc 8a80 802e d300
00000030: acdd 9dba 1aed 33bb 276a a2b9 7b4b c3ba
00000040: 0a13 d324 5aa5 030d dbdb fe33 5544 4d33
00000050: 28a5 1838 d0b1 1235 192c 7139 e520 ec37
00000060: 2e7a d881 2660 2482 ad84 0982 6a29 4382
00000070: e689 09b7 c008 99b7 d9e6 93b8 b401 c6b8
00000080: 76f8 492a 6811 2e2a 868e 541b 1e97 d69a
00000090: f42f 84b5 c2d3 c6b4 99ff 07b5 e255 e832
000000a0: 66b0 5f00 ffb9 3c80 28f9 4181 e6f5 9680
000000b0: cee3 4db6 18ee 83b7 e684 3db7 d75c a4b7
000000c0: b2d7 7f80 796e 2380 76b8 8a00 5410 4001
000000d0: 5547 5db9 5682 83b8 2b3a 19ba 008b 0eba
000000e0: ae1e eab1 e11f dfb2 9513 2fb1 b55a 8fb2
000000f0: e68f 47b1 99a9 1db1 5a74 91b1 2952 43b1
00000100: 62f5 6b80 10cb 5c01 eb3a d580 5ff1 1501
00000110: ef9e 0fbe f0de 553c cf0b 473e 6db2 143e
00000120: 34a1 658b c531 0580 b6fe 0100 845c 0280
00000130: aabb 9a81 f4cb 1702 29b9 8881 2c0f 2d00
00000140: eaae 8a33 ae82 2833 e5d8 3233 9c73 ce32
00000150: 80c0 98ba 0d0a f3b8 7f67 33bb fc09 a2ba
00000160: ee47 fbbc 930b fa3d d753 c1bc b746 10be
00000170: 6956 d7b8 8765 12b9 2f0c a3b7 2863 bcb7
00000180: 84b6 4dbc ff5f 323e 458a 033e 0e59 1a3e
00000190: 1b87 db31 24db f830 34ba ea32 85b5 0032
000001a0: 96cf 9081 0f25 2982 e677 3300 0a6d ff81
000001b0: a260 adb8 b4b1 c3b7 4d6f d8b8 6417 d1b7
000001c0: bf33 1f37 d6d8 c838 01e7 4237 2fb3 2a39
000001d0: be67 98bc d364 81bc a6bb 5abc bc0b 80bc
000001e0: 4123 4abe 8c64 483e 83c0 4c3e 713a 7b3e
000001f0: 9e9f 21b8 9a37 e2b7 7539 8e38 0aa8 4537
00000200: 6a68 bf0e 0277 f624 4830 0481 3582 0314
00000210: a47d 5fa4 c84b 70ae ab68 a6ad 69dc 1ab2
00000220: 695b 5782 554f ae82 3a53 ff81 e4fb 1682
00000230: f2a3 ea80 31f0 1b81 86e5 a381 5b90 6281
00000240: 6126 7e3e 98d7 93bd cc5f 493e 77a8 433e
00000250: dfd9 b237 0ff0 5437 5a61 afb7 8a16 d6b3
00000260: a8b6 2881 e6c4 4f80 2db8 0e00 0fd2 aa00
00000270: d061 0f37 b695 6ab5 9e18 84b6 69fb 2236
00000280: c686 9c30 9d1a 1730 55d6 5e31 6ed5 fa2f
00000290: f1a1 f480 ecc4 ed81 b74f 7681 8e5a f781
000002a0: bfff 06a4 1013 5d8c 06ba 9e0a 7720 0500
000002b0: 835d 0a3e 5551 1e3b dc86 333e 6fcd b5ba
000002c0: 92b3 3280 6f95 ca00 86f9 6201 a2d7 b901
000002d0: 5938 7b00 5401 1082 d6e2 7480 8602 0882
000002e0: 8e88 2f3d 2f02 7b3e 5cb7 593b aed8 013e
000002f0: 1a62 6a01 4aca 7901 feb9 4a01 609f 4601
00000300: 4d59 d2b6 8ba5 dab5 b022 99b7 4b25 85b6
00000310: eab3 bdb9 26f2 52b8 1adc 83ba 187f 16b9
00000320: 4f42 5238 c85e bd37 a45c 2038 29e4 b236
00000330: 54ae 063d 609d 723e 3f0d 333e 7d26 e13e
00000340: c4ea 8b2f bf0d 7eb9 3112 b237 080e 1fb9
00000350: 781e 9dbc 5237 4d3c 0000 0080 a0d8 93bc
00000360: e627 3b01 3fc0 8300 9bb7 0700 f3f4 2d81
00000370: c73e 22bd b2a6 713e 2295 103f bf9c 033f
00000380: 030d b6b4 b0e0 85b3 2c91 1cb5 83d3 26b4
00000390: ad1f 0100 46ec 0380 d687 0680 2a2a 0300
000003a0: 4d5f 3a3b 3172 3e3b 7be6 e73a ca72 97ba
000003b0: a57c a718 94f0 7411 9d2d 4e20 faf6 081d
000003c0: 112a 12be f02c c8bc ef10 a13d ebd8 6dbd
000003d0: 9b8d a9be 13fb f8be 2c29 9fbe e05e 8ebe
000003e0: 8328 bdb7 c458 a8b7 2d92 2638 397b b236
000003f0: acd3 c881 0000 f881 8ac2 4300 b090 e181
-1.2311296e-37 -9.248824e-38 -1.1026935e-37 -2.843573e-38 6.633413e-38 0.0 7.7189926e-38 6.984108e-38
5.570042e-38 1.779641e-38 -1.2746551e-38 1.9393971e-38 -0.0012044213 -0.0027454556 -0.00030978138 -0.0014899814
9.153892e-17 4.0566526e-31 1.1867788e-07 4.779243e-08 3.6393438e-05 5.464799e-07 0.00022999979 2.814871e-05
-7.952119e-38 -1.207641e-37 -1.0103246e-37 -1.4338223e-37 -8.197943e-06 -1.8243096e-05 -7.052505e-05 -9.441693e-05
1.7938588e-13 1.5460344e-13 1.7582281e-22 -8.875247e-23 -9.848723e-07 -3.7034448e-07 -5.066336e-07 2.704741e-08
8.787652e-39 -5.576853e-39 -3.5627262e-38 -1.3863536e-38 -3.067998e-06 -1.5727288e-05 -1.1296221e-05 -1.9593555e-05
-1.1740485e-38 -3.253872e-39 1.273947e-38 3.5276545e-38 -0.00021102776 -6.270844e-05 -0.00058451545 -0.0005437583
-6.813784e-09 -2.5975114e-08 -2.5476983e-09 -1.668864e-08 -2.9040108e-09 -2.2942912e-09 -4.233283e-09 -2.8422937e-09
-9.914425e-39 4.0553309e-38 -1.9582096e-38 2.7540153e-38 -0.14025472 0.013053641 0.19438098 0.14521189
-4.4225071e-32 -4.77031e-40 1.83209e-40 -2.1686e-40 -5.683995e-38 1.115226e-37 -5.02242e-38 4.13804e-39
6.4579424e-08 3.92344e-08 4.164112e-08 2.403413e-08 -0.0011654049 -0.00011589015 -0.002737492 -0.0012362595
-0.030673947 0.12209239 -0.023599548 -0.14089476 -0.00010268094 -0.00013961467 -1.9436788e-05 -2.245752e-05
-0.012555722 0.17419432 0.12845714 0.15073034 6.3890986e-09 1.8106658e-09 2.732586e-08 7.491853e-09
-5.3195117e-38 -1.2426794e-37 4.726622e-39 -9.382867e-38 -8.267282e-05 -2.3328561e-05 -0.00010320414 -2.4925634e-05
9.489187e-06 9.577132e-05 1.1617086e-05 0.00016279214 -0.018604156 -0.015795147 -0.013350403 -0.015630595
-0.19740011 0.19569606 0.19995312 0.24534012 -3.8534046e-05 -2.6967191e-05 6.78179e-05 1.178124e-05
4.7185682e-30 1.068871e-16 -2.427921e-38 6.639489e-27 -4.846184e-17 -5.463699e-11 -1.8918497e-11 -9.014095e-09
-1.5821939e-37 -2.5612536e-37 -9.379163e-38 -1.1092549e-37 -2.1548319e-38 -2.8641333e-38 -6.0206093e-38 -4.1613214e-38
0.24819328 -0.072188556 0.1966545 0.19107233 2.1320708e-05 1.2692078e-05 -2.0906959e-05 -9.9692514e-08
-3.0987776e-38 -7.325638e-39 1.351767e-39 1.5687389e-38 8.546238e-06 -8.738965e-07 -3.9367724e-06 2.428622e-06
1.1388799e-09 5.49713e-10 3.2427085e-09 4.5626386e-10 -2.2465955e-38 -8.734262e-38 -4.5240257e-38 -9.086341e-38
-2.9273244e-17 -1.7030957e-31 1.5284821e-32 4.70824e-40 0.13512234 0.0024157364 0.17531914 -0.0013870428
-4.656192e-39 1.8604377e-38 4.1688669e-38 6.8267685e-38 1.131598e-38 -1.057983e-37 -1.0734291e-38 -9.992426e-38
0.042854838 0.24512552 0.0033220863 0.12680313 4.3049397e-38 4.5879212e-38 3.7234983e-38 3.6481202e-38
-6.2688837e-06 -1.6290445e-06 -1.8255174e-05 -3.9680504e-06 -0.00036182936 -5.029342e-05 -0.0010060102 -0.00014352461
5.0129656e-05 2.2574692e-05 3.823325e-05 5.3313747e-06 0.032881096 0.23692846 0.17485522 0.43974677
2.5450764e-10 -0.00024228448 2.1227725e-05 -0.00015168649 -0.019179568 0.012525396 -0.0 -0.01804763
3.43751e-38 1.2099415e-38 7.08714e-40 -3.1950824e-38 -0.03961065 0.23598745 0.5647756 0.5141105
-3.390961e-07 -6.2341655e-08 -5.832578e-07 -1.5536902e-07 1.03199e-40 -3.60265e-40 -5.99742e-40 2.90632e-40
0.0028438151 0.0029059763 0.001769259 -0.0011554596 4.3294347e-24 1.932234e-28 1.7463971e-19 1.8127134e-21
-0.1427386 -0.02443549 0.07864558 -0.058068197 -0.3311585 -0.48629054 -0.310861 -0.2780676
-2.254942e-05 -2.0068495e-05 3.971362e-05 5.3191584e-06 -7.377213e-38 -9.110081e-38 6.222766e-39 -8.2859563e-38

encoder.4.bias f4 [32]
00000000: 6f67 a43c 00af 003e 16cd c8bb ee31 d7b5
00000010: d3dc e23d c95d a1bc 8c76 3998 0b72 253d
00000020: 94f4 79bc 4c27 1939 509d ad39 b43f 0881
00000030: 96b6 e23c 007a 88be e791 fc9b fd14 b8ba
00000040: 30be b10d 978e dbb5 cdad 93b9 5b6a a43d
00000050: 151d 5dbd 7367 fc3c 124e 0b3e 2cb9 d2a3
00000060: e4f3 543a 0a20 808c a656 28a0 5764 183d
00000070: 23bd 6b38 4bea 9eae 2d78 db3d 450a 403c
0.020068852 0.12566757 -0.006127964 -1.603328e-06 0.11077275 -0.01969804 -2.397054e-24 0.040391963
-0.015256066 0.00014605856 0.00033114338 -2.502496e-38 0.027674954 -0.2665558 -4.178419e-22 -0.0014044341
1.0954253e-30 -1.6358271e-06 -0.00028167517 0.08028098 -0.053982813 0.030811047 0.13604 -2.2846669e-17
0.0008123501 -1.9740805e-31 -1.4258823e-19 0.037205067 5.6204513e-05 -7.226627e-11 0.10716281 0.011721198

encoder.6.weight f4 [16, 32, 3, 3]
00000000: 88bc 01bb 5637 1cbb 0127 07bb 0000 0080
00000010: 0000 0080 6721 84ba 0000 0080 2107 f7b9
00000020: 0000 0080 0000 0080 0000 0080 0000 0080
00000030: 0000 0080 0000 0080 94d7 efa5 0000 0080
00000040: 0000 0080 0000 0080 444b 02b7 e880 02b7
00000050: 4b53 00b6 0000 0080 0000 0080 0000 0080
00000060: 0000 0080 4ffb ebb5 32dd aab5 0000 0080
00000070: 0a68 0600 08f4 0f80 cfe5 0300 0000 0000
00000080: 0000 0000 0000 0000 0000 0080 009e 0000
00000090: 3db8 11b6 1643 cdb6 a36d 35b9 0000 0080
000000a0: 0000 0080 0000 0080 0000 0080 e9bb 84b6
000000b0: 0000 0080 0000 0080 0000 0080 0000 0000
000000c0: 74aa 0b80 ffd5 0e00 0517 0f00 0000 0080
000000d0: 0000 0080 0000 0000 ba5a 1280 aee3 0c80
000000e0: 29d7 0780 7668 1300 4cd5 0c80 8a13 1180
000000f0: b1be 0100 f737 0980 ef69 0480 6976 1bb9
00000100: 9115 16b8 3005 70b8 0000 0080 0000 0080
00000110: 0000 0080 0000 0080 0000 0080 0000 0080
00000120: 071f 1ebb ad84 07bb fb4e f3b9 0000 0080
00000130: 0000 0080 0000 0080 0000 0080 0000 0080
00000140: bef1 b5b9 ebec 9db9 200f 40b8 773c aeb8
00000150: 0000 0080 0000 0080 0000 0080 0000 0080
00000160: e466 a3b5 0000 0080 d6fa 7cba 446d 79ba
00000170: 3666 86ba 5e4d 44ba 0000 0080 296a 5eba
00000180: 0000 0080 0000 0080 0000 0080 7615 0280
00000190: abd3 0580 cc91 1300 0000 0000 0000 0080
000001a0: 0000 0080 0000 0080 0000 0080 0000 0080
000001b0: 6d50 10ba 238e 38ba be49 02ba 0000 0080
000001c0: 0000 0080 0000 0080 0000 0080 3cf9 16b9
000001d0: 0000 0080 0000 0080 d23f 1017 0000 0080
000001e0: 0000 0080 0000 0080 0000 0080 0000 0080
000001f0: 8416 bda5 04f0 53a4 82c9 0580 7456 0980
00000200: 0000 0080 bdef 1300 d410 0880 bd7f 1300
00000210: 858f 0c80 e854 0880 ee51 0400 0000 0080
00000220: b9da 8ab7 0000 0080 0000 0080 0000 0080
00000230: af38 78b7 0000 0080 0000 0080 0000 0080
00000240: 0000 0000 0000 0000 0000 0080 0000 0000
00000250: 0000 0080 0000 0080 0000 0080 0000 0080
00000260: 0000 0080 b42d 0880 8700 0a80 73f4 1580
00000270: 0000 0080 0000 0080 0000 0080 0000 0080
00000280: 03da 0980 0000 0080 0000 0080 c59b 8cb4
00000290: 0000 0080 0399 74aa e3c5 cab4 0000 0080
000002a0: 232d 3fa4 0000 0080 0000 0080 0000 0080
000002b0: 5b75 5eba 0000 0080 0000 0080 0000 0080
000002c0: 0000 0080 0000 0080 0000 0080 0000 0080
000002d0: 0000 0080 0000 0080 3c22 a6b3 ca73 08b6
000002e0: 0000 0080 c484 e2b0 0000 0080 0000 0080
000002f0: 0000 0080 0aaf 0cb8 6532 16b9 1138 dab8
00000300: 0000 0080 0000 0080 0000 0080 0000 0080
00000310: 0000 0080 3f5a 18b5 490d 1bad 0d86 81a6
00000320: 0000 0080 6e57 96ac b94d 39a9 93e5 bba0
00000330: bc07 4ba1 0000 0080 0000 0080 0000 0000
00000340: 8981 0900 9515 1480 0000 0080 0000 0080
00000350: 0000 0080 0000 0080 0000 0080 0000 0000
00000360: a6f5 f3b2 c723 a6ac 2223 89b0 0000 0080
00000370: 0000 0080 3d97 c4b7 0000 0080 0000 0080
00000380: 2d4d 40b0 0000 0080 5766 0980 6ef5 0f80
00000390: 7ed2 1080 5aa0 0c00 c675 0900 6ca4 0400
000003a0: 2cb6 1000 446e 0f80 0000 0080 0000 0000
000003b0: 0000 0000 0000 0080 0000 0080 c61e 0680
000003c0: d9f5 0e00 0000 0000 0000 0080 e8f1 51b7
000003d0: 8ea1 93b7 276c d8b8 0000 0080 0000 0080
000003e0: 0000 0080 0000 0080 0000 0080 2f3d 99b6
000003f0: 0000 0080 0000 0080 0000 0080 0000 0080
-0.0019796211 -0.0023836694 -0.0020622613 -0.0 -0.0 -0.0010080755 -0.0 -0.00047116823
-0.0 -0.0 -0.0 -0.0 -0.0 -0.0 -4.1605972e-16 -0.0
-0.0 -0.0 -7.766128e-06 -7.778617e-06 -1.912197e-06 -0.0 -0.0 -0.0
-0.0 -1.7582005e-06 -1.2730363e-06 -0.0 5.88335e-40 -1.465074e-39 3.57946e-40 0.0
0.0 0.0 -0.0 5.668e-41 -2.1713925e-06 -6.117286e-06 -0.00017302348 -0.0
-0.0 -0.0 -0.0 -3.955782e-06 -0.0 -0.0 -0.0 0.0
-1.071338e-39 1.362464e-39 1.38579e-39 -0.0 -0.0 0.0 -1.685585e-39 -1.183702e-39
-7.20033e-40 1.782348e-39 -1.178542e-39 -1.568213e-39 1.60243e-40 -8.46596e-40 -4.05344e-40 -0.00014826063
-3.5782872e-05 -5.722529e-05 -0.0 -0.0 -0.0 -0.0 -0.0 -0.0
-0.002412738 -0.0020678446 -0.00046407417 -0.0 -0.0 -0.0 -0.0 -0.0
-0.00034703122 -0.0003012189 -4.5790453e-05 -8.308229e-05 -0.0 -0.0 -0.0 -0.0
-1.2174391e-06 -0.0 -0.00096504146 -0.0009514878 -0.001025385 -0.0007488335 -0.0 -0.0008484447
-0.0 -0.0 -0.0 -1.9137e-40 -5.3511e-40 1.797176e-39 0.0 -0.0
-0.0 -0.0 -0.0 -0.0 -0.00055051484 -0.0007040223 -0.0004970095 -0.0
-0.0 -0.0 -0.0 -0.00014397962 -0.0 -0.0 4.660946e-25 -0.0
-0.0 -0.0 -0.0 -0.0 -3.280153e-16 -4.5956633e-17 -5.31465e-40 -8.57533e-40
-0.0 1.830876e-39 -7.40721e-40 1.790698e-39 -1.153511e-39 -7.65143e-40 3.96733e-40 -0.0
-1.6552733e-05 -0.0 -0.0 -0.0 -1.479515e-05 -0.0 -0.0 -0.0
0.0 0.0 -0.0 0.0 -0.0 -0.0 -0.0 -0.0
-0.0 -7.51079e-40 -9.18544e-40 -2.016237e-39 -0.0 -0.0 -0.0 -0.0
-9.04727e-40 -0.0 -0.0 -2.619037e-07 -0.0 -2.172464e-13 -3.7769414e-07 -0.0
-4.1454755e-17 -0.0 -0.0 -0.0 -0.0008486115 -0.0 -0.0 -0.0
-0.0 -0.0 -0.0 -0.0 -0.0 -0.0 -7.7362046e-08 -2.0332977e-06
-0.0 -1.6481398e-09 -0.0 -0.0 -0.0 -3.354162e-05 -0.00014323888 -0.00010405493
-0.0 -0.0 -0.0 -0.0 -0.0 -5.675574e-07 -8.81368e-12 -8.987508e-16
-0.0 -4.272963e-12 -4.1145666e-14 -3.1830952e-19 -6.878931e-19 -0.0 -0.0 0.0
8.72988e-40 -1.844452e-39 -0.0 -0.0 -0.0 -0.0 -0.0 0.0
-2.8400631e-08 -4.721976e-12 -9.978047e-10 -0.0 -0.0 -2.3435447e-05 -0.0 -0.0
-6.9958866e-10 -0.0 -8.63232e-40 -1.465576e-39 -1.544878e-39 1.159549e-39 8.68769e-40 4.26325e-40
1.534719e-39 -1.417088e-39 -0.0 0.0 0.0 -0.0 -0.0 -5.62052e-40
1.37389e-39 0.0 -0.0 -1.2513694e-05 -1.7598995e-05 -0.000103198276 -0.0 -0.0
-0.0 -0.0 -0.0 -4.566878e-06 -0.0 -0.0 -0.0 -0.0

encoder.6.bias f4 [16]
00000000: 0000 0080 abe1 20bd 6cce 353d e283 cc3c
00000010: 478f b33d 0000 0000 bd84 4d3d 043c 8f3d
00000020: ce26 5cba 3196 5c3d e813 b93c 69d4 e31a
00000030: 2ca9 3e3d 25ac 01bd ff81 9b3c 8c54 7bb0
-0.0 -0.039277714 0.044386312 0.02496523 0.08767562 0.0 0.050175417 0.06993869
-0.00083981163 0.05385417 0.0225925 9.4228167e-23 0.046548054 -0.03165831 0.018982885 -9.1433416e-10

encoder.9.weight f4 [8, 16, 3, 3]
00000000: 0000 0080 0000 0080 0000 0080 b890 04b7
00000010: f6b4 8cbb 6ca4 d1bb 0000 0080 0000 0080
00000020: 0000 0080 10ed 21bc 9142 d93c 79cd 30bd
00000030: 602f 85bd 1084 24bd 3b9a e2bc 3056 253d
00000040: 2afe 7c3d a14e 293e 3cd5 e0bd d7c5 36bb
00000050: 9461 23bd 8ad5 6b3d edbc 4bbd 87da 1d3d
00000060: 9b37 94bc 486d 883e 0a93 153f 8d31 ecbd
00000070: de30 86bd bfd4 963c 5b40 eabb db50 7d3b
00000080: 6dc3 b33c ff59 813d e692 c63c f51d ddbc
00000090: 33b1 debd 7ec5 cbbd 3a3a 903c 9988 113d
000000a0: d9f5 54bc 3f54 623d b89a 38bd 80d0 f7bc
000000b0: 43cc d53d 594e 823b 4eaa 273e 0000 0000
000000c0: 0e22 1d3c f5da a3bd 076f af3c fc95 163d
000000d0: 41ab 173f 48c1 0ebe 0c14 71bd 2cd4 843d
000000e0: b897 24bd f76a 10bd a3bc 5a3d 9b09 f3bd
000000f0: a483 d83d 6afa 9fbd ba40 493e 5de3 8bbd
00000100: a2e3 8b3c 4085 eb3c 7741 923d 7c5a 743c
00000110: 138d 53bb a1a9 f83d 3747 b9bd e121 273d
00000120: 0256 9bbd e532 64bc fd67 533d c49b 913d
00000130: b826 c9bc 865f a43d d3d6 de3d 3dcd 9fbe
00000140: e6ed e2bd 1bb0 a1bd 2f77 4cbc 9669 7a3c
00000150: c009 e1bc 7012 3e3c 804a 9dbd c3ea edbb
00000160: 881a 9e3d 7a03 913e cebc f83c 0337 efbc
00000170: 2ea3 bbbc 26b0 98bc dea6 593d c9c3 bf3a
00000180: b0d2 123d bb0e bdbd a630 9e3e c0d0 d21a
00000190: 2aa6 2ca7 ce0e 25ae f7c9 809b b833 f823
000001a0: c736 06ac 3929 889f 2c99 dc1b 039d 239a
000001b0: 0000 0080 0000 0000 0000 0000 0000 0080
000001c0: 0000 0080 0000 0080 0000 0080 0000 0080
000001d0: 0000 0080 5322 dabd 3a27 adbd e020 dfbc
000001e0: 014a 5bbd 2b5c 7fbd df86 eb3b 8c19 dd3d
000001f0: 70bd 53bd ccbe f33c 3936 4ebd 3ae3 0fbc
00000200: 5b78 a23d a6e6 933c 4fc7 7abd 6f19 293a
00000210: 4063 01bc 151f 1a3e 165f 64be 73dc 97bc
00000220: 0000 0080 0000 0080 b901 7bbc 0000 0080
00000230: 0000 0080 0000 0080 0000 0080 bec1 97bc
00000240: a069 f93b 5c17 bb3b 0000 0000 0000 0000
00000250: 0000 0000 b346 653a dc41 533a 49fa 0a3a
00000260: 0000 0000 ceae 9f3e f7fe 063e 78b9 85bd
00000270: 2053 e63d 2761 043c 3014 383d 34db 00be
00000280: ea6c 5d3d 0000 0080 143b a63e 9fc6 283d
00000290: 23d7 2dbd 4aba 4abd e292 093e 814a b4bd
000002a0: c774 b03d 530a 123c 4035 0ab9 5f7d 943d
000002b0: 95f1 1f3c 03bd 39bc 3567 dbbc 0000 0000
000002c0: b98a 2fbd 1be3 113e f0ea c93b 4e7d d1bd
000002d0: 8749 7abc 62c7 633d 4382 5fbc 505a fb3d
000002e0: 57ed 343e 6c1e b1bd 50fd 02bc 8da3 7dbd
000002f0: 6051 b0bd 0000 0000 fa64 313c 6b87 39bd
00000300: 0000 0000 0000 0000 0000 0000 07e7 cdbc
00000310: 0000 0000 a945 02bc bfe4 54be 1efa acbc
00000320: aeb3 153c 184a aa3e 9e41 a33d eb0e bfbd
00000330: fff4 b6bc f70c e0bc dd36 163d 4ffa cbbd
00000340: 0ef5 3ebe 492d ec3c fe91 fc3d 071e e2bd
00000350: b0ff 86bd 293b a33d 9b8a 30bd d796 1f3d
00000360: fcce a2be 14f5 553c decf 52bd 0082 103e
00000370: 8890 a73c 0577 0fbc 58df a63d 809b 203d
00000380: 7f98 503d 4e22 8ebe f3cc 513e b5d9 da3b
00000390: 1a9f eebd b5dd 2b3d acc5 18bd 973e f3bc
000003a0: f59d 93bd 5127 d8bc 33e4 d8bd 9d9a 7b3d
000003b0: 8d34 453e 6ada 70bd 0000 0000 6ad7 95bc
000003c0: 5fe7 7e3b bc26 30bd 8376 b0bb b882 a1b7
000003d0: 1084 a8b7 7896 a4b4 431d 6bba 9d2f 43b9
000003e0: f491 0cb9 ca62 c9af ad9a 26b0 605c 4fa8
000003f0: 0000 0000 0000 0000 3111 ee3d 0000 0000
-0.0 -0.0 -0.0 -7.901508e-06 -0.004294033 -0.0063977744 -0.0 -0.0
-0.0 -0.00988318 0.026521 -0.043164704 -0.06503177 -0.040165007 -0.027661433 0.040365398
0.061765827 0.16533901 -0.10978171 -0.0027888918 -0.03988798 0.057576694 -0.04974072 0.038538482
-0.018092921 0.26645875 0.5842749 -0.115328886 -0.065522894 0.018411992 -0.007148785 0.003865293
0.021943772 0.063159935 0.024239969 -0.026991824 -0.10873642 -0.09949778 0.01760589 0.03553066
-0.012998068 0.055256125 -0.045069426 -0.030250788 0.104393505 0.003976625 0.1637356 0.0
0.009590639 -0.08000747 0.021415247 0.03676413 0.5924569 -0.13940918 -0.05885701 0.06485781
-0.040183753 -0.03525826 0.053402554 -0.118670665 0.105719835 -0.078114346 0.19653597 -0.068304755
0.017076317 0.028750062 0.07141393 0.014914151 -0.0032280132 0.12141729 -0.09046786 0.040803794
-0.07584764 -0.01392815 0.051612843 0.07109788 -0.024554595 0.08026032 0.10880818 -0.31211272
-0.11080532 -0.078949176 -0.012479587 0.015283963 -0.02747047 0.0116010755 -0.07680225 -0.007260652
0.07719904 0.28322965 0.030363467 -0.029201036 -0.022904959 -0.018638682 0.053137653 0.0014630492
0.03584546 -0.09231325 0.3089649 8.719122e-23 -2.3959873e-15 -3.7529806e-11 -2.130634e-22 2.6910118e-17
-1.9072953e-12 -5.766644e-20 3.6494932e-22 -3.3834443e-23 -0.0 0.0 0.0 -0.0
-0.0 -0.0 -0.0 -0.0 -0.0 -0.10651078 -0.084547475 -0.027237356
-0.053537372 -0.062343758 0.0071877087 0.10795888 -0.051694334 0.029754065 -0.05034468 -0.008782202
0.07933112 0.018054318 -0.06122523 0.0006450628 -0.007897198 0.1505092 -0.22301897 -0.018537736
-0.0 -0.0 -0.015320235 -0.0 -0.0 -0.0 -0.0 -0.018525
0.0076114684 0.0057095718 0.0 0.0 0.0 0.0008746192 0.0008058825 0.00053015776
0.0 0.31188053 0.13183199 -0.06529516 0.112463236 0.008079804 0.044941127 -0.1258362
0.054058947 -0.0 0.32466948 0.041205045 -0.0424415 -0.049494065 0.13434938 -0.08803273
0.086160235 0.008913594 -0.00013180543 0.07250475 0.0097621875 -0.011336568 -0.026782611 0.0
-0.042856906 0.1424679 0.00616204 -0.10228978 -0.015276319 0.05561007 -0.013641897 0.12273085
0.17668663 -0.08648381 -0.007994965 -0.061923552 -0.08609271 0.0 0.010827297 -0.04529516
0.0 0.0 0.0 -0.025134576 0.0 -0.007951179 -0.20790385 -0.021115359
0.009137077 0.33259654 0.079715 -0.09329017 -0.02233362 -0.027349932 0.036673415 -0.09959852
-0.18648168 0.028830187 0.12332533 -0.110408835 -0.06591737 0.07970268 -0.043100934 0.03896221
-0.31798542 0.013058919 -0.05146777 0.14112091 0.02045466 -0.008756404 0.08148068 0.039210796
0.05092668 -0.27760547 0.20488338 0.0066787847 -0.1165144 0.041959483 -0.03729789 -0.029692931
-0.07207862 -0.026385935 -0.105904005 0.061426748 0.19258328 -0.058802046 0.0 -0.018291194
0.0038895232 -0.04300569 -0.0053852214 -1.9253566e-05 -2.0088657e-05 -3.065686e-07 -0.0008968899 -0.00018614386
-0.00013405812 -3.663188e-10 -6.0610256e-10 -1.1510839e-14 0.0 0.0 0.11624373 0.0

encoder.9.bias f4 [8]
00000000: a52c afbc c770 db3b 0000 0080 0000 0080
00000010: bd4e b1bd 105f 853d 0000 0080 84c8 dc3d
-0.021383593 0.0066967937 -0.0 -0.0 -0.08657596 0.06512272 -0.0 0.10780433

decoder.0.weight f4 [8, 128, 3, 3]
00000000: a98e 3fbc 207b cc3d 8297 7bbb 8422 8a3e
00000010: 0000 0000 0000 0080 0000 0080 0000 0080
00000020: 2e7d 87bc 0698 1c3c 6050 53bc c284 5a3b
00000030: 0000 0000 0d75 053d 0000 0000 e5d6 1fbd
00000040: 0000 0080 475d 523d 45a7 0600 8f86 0200
00000050: 59da 0f80 42ef 0580 8296 ee3d 9056 0880
00000060: 3366 1380 8601 0b80 10a1 0880 d145 c03c
00000070: afcd ecb2 eaee f53c 435c 15bc 63c7 f6bc
00000080: d630 f7bb 4c02 433d 1c89 9aaa 0acb 31be
00000090: 0000 0000 ba48 0b80 0000 0000 0000 0000
000000a0: 0000 0000 d60b 0b80 0000 0000 0000 0080
000000b0: 0000 0000 f3e4 0bbd 0000 0080 3c4f c9bc
000000c0: 0000 0080 0000 0000 0000 0080 1d4a b4bb
000000d0: 0000 0000 03b6 5abb 0000 0080 aba8 0680
000000e0: c1b1 913d 5f9c 2a3e da50 0d00 0000 0080
000000f0: 0000 0000 3291 0e00 49ed f5bd 5b6e b7bc
00000100: 9872 d23e 5109 863d ec84 e5bc 0626 9fbb
00000110: 4cc9 ddbc 0cf9 a8be 4177 70bc 5ffb a53d
00000120: 87f2 29b8 a8e1 c7b9 0000 0080 0000 0080
00000130: 12a3 dbba 92ba 76bc 1ccb 25a6 0000 0080
00000140: 7279 e924 b9f5 abb6 0000 0080 882a cfb6
00000150: 0000 0080 0000 0080 36de 0680 6c07 0600
00000160: 0000 0080 3048 900e f4f3 663d 0000 0080
00000170: a826 da3d 5606 43bb 0000 0080 0000 0080
00000180: db66 7abd 0000 0080 42eb 4cbd b5be 0d3b
00000190: 6c36 ed3d 2dc5 87bc acdd 99bb f21c c2b8
000001a0: 2e9b 8bbc 6f15 11be 510f e0bd b406 fabd
000001b0: 0000 0080 ca98 0680 fd2b cc3b 43b5 f23d
000001c0: 0000 0080 465c 68bd fc5b c4bc 286b 0700
000001d0: 0000 0080 a55d 06bd 87d4 8dbc 0000 0080
000001e0: 7471 143d f868 f5b9 18e4 fb3c 8775 b9bc
000001f0: fe5e a4bc c7fc f4bc b4de 04be 0000 0080
00000200: 15d5 cdb8 0000 0080 23ba 27b9 0000 0000
00000210: 462b 9d3c 5321 3fb9 469c 93bd c860 b9b7
00000220: dae7 2ebe 7b66 e2b9 588a 9e3d 6d99 87bb
00000230: 4662 8c3d adad 04bb 0f34 f53d b269 16bb
00000240: 5dcb 6abe b340 0280 a7d4 46be 46b1 0d3e
00000250: 0000 0080 0000 0080 e344 d3bd 0000 0080
00000260: 983e 0cbd 9555 0dbe 5b11 12bc 619f b2bd
00000270: f8e9 89bd 0000 0080 c8fb eebc 17e2 143d
00000280: 8d2c 7ebc b6a6 763d 83b4 98b6 bc74 09bc
00000290: d3a2 10b9 3fdc fdab 3b3d 3813 01a1 61ac
000002a0: cee4 cdba a307 90bc d274 b8ba 38aa 9a3d
000002b0: 0387 b0bc 0000 0000 f35a 3bbe 305d 2f92
000002c0: 997a b5bc 0000 0000 60ca 43bd 0000 0080
000002d0: 0000 0080 c83d 4bbc 0000 0080 fb56 5abe
000002e0: 0000 0080 c1e9 e6bd 6f75 333d 0000 0080
000002f0: 0000 0000 b413 01bb 0000 0080 a75e 9bbc
00000300: 0000 0080 0000 0000 0000 0080 0210 e2ba
00000310: a009 ca3c 0000 0080 c8e4 9bbd 0000 0080
00000320: 0000 0080 6cef 0900 0000 0000 553c 0600
00000330: 0000 0000 0000 0080 0000 0000 0000 0000
00000340: 14bb 423e ec73 01be 0000 0080 0000 0080
00000350: 339f 0980 0000 0080 b74b 0c3d 0000 0080
00000360: 6567 4ebb f7e7 7c3d 89fb 0ebb 6a9d c9bc
00000370: 72e4 e1bb 9dbf d9bc 551e 2bbc 8ca2 573d
00000380: a4cc 3cbc 52c8 9fb4 c36c 5bb3 2e4c 7fb8
00000390: 9d70 45b8 3122 a8b9 0000 0000 b8e2 24ba
000003a0: 0000 0080 0000 0080 0000 0080 0000 0080
000003b0: 0000 0000 0000 0000 0000 0000 36da 9fbc
000003c0: ae2c ffbb 0000 0080 b661 c0bb 5e84 dc3d
000003d0: c790 053e 29fb 52bd 251e edb1 0ef0 89b0
000003e0: 0000 0080 0000 0000 c996 2ebc 0000 0000
000003f0: a97b f0bc 0000 0080 b6fa f9bc 0000 0080
-0.011691728 0.09984422 -0.0038389866 0.26979458 0.0 -0.0 -0.0 -0.0
-0.016539183 0.00955773 -0.012897581 0.003334329 0.0 0.03258233 0.0 -0.0390233
-0.0 0.051358487 6.11018e-40 2.31942e-40 -1.455861e-39 -5.45007e-40 0.11649801 -7.65737e-40
-1.781537e-39 -1.010737e-39 -7.92462e-40 0.023470791 -2.756755e-08 0.03002115 -0.009116235 -0.030124372
-0.0075436635 0.047609612 -2.7451034e-13 -0.1736261 0.0 -1.03628e-39 0.0 0.0
0.0 -1.014436e-39 0.0 -0.0 0.0 -0.03415389 -0.0 -0.024573915
-0.0 0.0 -0.0 -0.005501999 0.0 -0.0033372648 -0.0 -6.1152e-40
0.07113982 0.16661213 1.222866e-39 -0.0 0.0 1.337783e-39 -0.12008149 -0.022391489
0.41103053 0.06544746 -0.028017484 -0.0048568277 -0.027073525 -0.33002508 -0.01467687 0.08104586
-4.051861e-05 -0.00038124365 -0.0 -0.0 -0.0016756973 -0.01505913 -5.752114e-16 -0.0
1.0125338e-16 -5.124803e-06 -0.0 -6.174032e-06 -0.0 -0.0 -6.30727e-40 5.53675e-40
-0.0 3.5568255e-30 0.056384996 -0.0 0.10651904 -0.0029758415 -0.0 -0.0
-0.061133247 -0.0 -0.050029047 0.0021628563 0.11582646 -0.016573513 -0.004695615 -9.256032e-05
-0.017041769 -0.14168333 -0.109404214 -0.1220831 -0.0 -6.05823e-40 0.0062308297 0.11850979
-0.0 -0.056728624 -0.023969643 6.81289e-40 -0.0 -0.03280415 -0.017313255 -0.0
0.03624101 -0.0004680825 0.030748412 -0.02263905 -0.020064827 -0.02990569 -0.1297558 -0.0
-9.8148514e-05 -0.0 -0.00015995702 0.0 0.019185673 -0.00018227594 -0.07207541 -2.2098786e-05
-0.17080632 -0.00043182433 0.07741231 -0.004138163 0.06854682 -0.002024512 0.1197282 -0.0022951183
-0.2292914 -2.0688e-40 -0.19417058 0.13837156 -0.0 -0.0 -0.103158735 -0.0
-0.03423938 -0.13802178 -0.008915271 -0.08721805 -0.06734079 -0.0 -0.029172793 0.03634843
-0.015513551 0.06021758 -4.5509673e-06 -0.008389648 -0.00013793567 -1.8037862e-12 2.3254254e-27 -3.2063798e-12
-0.0015708448 -0.017581766 -0.0014072901 0.07551998 -0.021548754 0.0 -0.18296413 -5.5335126e-28
-0.022153186 0.0 -0.04780042 -0.0 -0.0 -0.0124048665 -0.0 -0.21322243
-0.0 -0.11275054 0.043813165 -0.0 0.0 -0.0019695582 -0.0 -0.018966032
-0.0 0.0 -0.0 -0.0017247202 0.024662793 -0.0 -0.07611996 -0.0
-0.0 9.12408e-40 0.0 5.72656e-40 0.0 -0.0 0.0 0.0
0.19016677 -0.12641877 -0.0 -0.0 -8.8363e-40 -0.0 0.034251895 -0.0
-0.0031494733 0.061744656 -0.0021817407 -0.024611194 -0.006893688 -0.026580626 -0.010444243 0.05264525
-0.0115233995 -2.976181e-07 -5.108883e-08 -6.0867686e-05 -4.707334e-05 -0.00032068932 0.0 -0.0006289887
-0.0 -0.0 -0.0 -0.0 0.0 0.0 0.0 -0.01951323
-0.0077873087 -0.0 -0.005871023 0.107674345 0.1304351 -0.051509056 -6.901035e-09 -1.003629e-09
-0.0 0.0 -0.010656067 0.0 -0.02935584 -0.0 -0.030515056 -0.0

decoder.0.bias f4 [128]
00000000: 1bc5 1c3f 2875 01ba d002 afbe 52cb 51bb
00000010: 49f7 63be 143d c73e 465e 15be a564 993c
00000020: 1218 3fb5 9b6b 8db0 a6b0 6e3e b511 af3d
00000030: 7309 96bb 9292 293c 24e3 303b b0e9 6e3c
00000040: 0e8c efba 070e a93d fb49 2fa7 28bf a2bc
00000050: 2b30 f83d 032e 023e 7352 59bd 62e9 29bd
00000060: af05 7a3d cd8d 98b3 2458 893d e80e 53bb
00000070: c00f cdbc 0721 fabd b844 43bd 65eb fc3c
00000080: 3e54 283f 75d1 623d 7fc3 0bbc cadb 7dbe
00000090: f6e5 f23e 91d9 f837 6aea 8aaf bc87 c63d
000000a0: 99ab 50be 2c2d 293e 2ee4 123c 472b 703d
000000b0: 0000 0000 5c6d 0b3e be54 babd d115 6abd
000000c0: cbca a3bd 0952 b6bb 7cd0 eebc 5e31 b93b
000000d0: 1280 7fbc c3f9 df9b bcf9 303c c727 1f3e
000000e0: f3db 053d 29d3 38bd 1fcf b8ba b73c 8a3d
000000f0: b8b1 40bc 8352 0e3f 6520 1c3d 1780 e83e
00000100: 509e f0be fde1 0b3e 9b4d 593e bd19 cd3c
00000110: f855 01ad cfe8 383e a237 e4bd f757 ab3e
00000120: ef38 a23e d697 57bc 1983 a0be ef03 6dbe
00000130: 6467 ae3c 46e4 ae3d d7ae ce3b cf02 163d
00000140: 2501 bcaa 898d 13bc 3450 14bd 4b5a 773c
00000150: 2e01 cebb b161 933d 00e4 e3a6 4405 b73c
00000160: 6bad b2bd 5e57 a53c fe59 5e3b 389e c4be
00000170: e0b4 92bd c08f 6e3e 7ea2 663d 4790 e2bc
00000180: 3de8 593e 85de 2b3e 14ae b73e 3e75 3fbd
00000190: 9014 7b3c c978 a33d 0000 0080 8a9d 5baa
000001a0: de82 063e 9250 183b 0000 0080 7a2f 8abe
000001b0: a736 0ab8 8764 793c 93c5 50b9 1c1b c6bd
000001c0: 26a7 723c f6ed b4bd 5675 c509 e5d8 a73d
000001d0: baa7 a8b5 85f6 34be ea89 0500 3054 97bd
000001e0: f56d 35bd 037a 623e 0f9e 2abd 743f 0d3e
000001f0: 8f75 47bd 7e83 fdbd 6629 3fbd 99b1 523d
0.6123826 -0.0004938417 -0.34181833 -0.0032012057 -0.222623 0.38913786 -0.14586744 0.018724749
-7.118807e-07 -1.0289684e-09 0.23309574 0.08548299 -0.004578763 0.0103498865 0.0026990855 0.014582083
-0.0018275992 0.08254629 -2.4326234e-15 -0.019866541 0.12118562 0.12712865 -0.053057145 -0.041482337
0.061040577 -7.103845e-08 0.067062646 -0.003220493 -0.025031924 -0.12213331 -0.047672957 0.030873964
0.65753543 0.055375535 -0.008530497 -0.24790874 0.4744107 2.9665216e-05 -2.5268615e-10 0.09693858
-0.2037796 0.16521138 0.008965535 0.058635022 0.0 0.13615936 -0.090981945 -0.057149712
-0.07997664 -0.0055639786 -0.029152147 0.005651637 -0.015594499 -3.705366e-22 0.010801729 0.15542518
0.032680463 -0.045123253 -0.0014099813 0.06749862 -0.011761121 0.5559465 0.03811683 0.45410225
-0.46995783 0.13660426 0.2122101 0.025036687 -7.35189e-12 0.1805756 -0.111434236 0.3346555
0.31684062 -0.013158759 -0.3135002 -0.23146032 0.021289535 0.085396335 0.0063074636 0.036623772
-3.3396303e-13 -0.009005913 -0.0362093 0.015097211 -0.0062867617 0.071963675 -1.5813089e-15 0.022341378
-0.08724483 0.020183261 0.0033928151 -0.3840196 -0.071634054 0.23297024 0.05630731 -0.027656687
0.21279998 0.16784103 0.35875 -0.04674267 0.015324727 0.07982022 -0.0 -1.9505765e-13
0.1313586 0.0023241383 -0.0 -0.26989347 -3.2952663e-05 0.0152217215 -0.00019910028 -0.096731395
0.014810359 -0.0883445 4.7536367e-33 0.08195666 -1.256579e-06 -0.17672165 5.08652e-40 -0.07389104
-0.044294316 0.22116856 -0.041654643 0.13793737 -0.048696097 -0.12378596 -0.04667034 0.0514389
