mnist_iter/end_of_0.pth (torch_old, 842137 bytes, 19 tensors)

encoder.0.weight f4 [128, 1, 3, 3]
00000000: 02a4 67be ce0a 00ba 48a0 c0be 2f29 c13d
00000010: 79e0 8e3e 404f c43d 0bfe ca3d 8611 a93e
00000020: b792 8c3e 080b 4cbe 645e f7bd 598b b03b
00000030: da93 44be df68 28bc 3fa0 743e 0847 87bd
00000040: 9864 7d3d 85c7 bd3e d7fc 1ebe 2b12 74bd
00000050: 580e 33be 173e 06be 469c f13d b2aa a0bb
00000060: 92c5 49be b20b afbc 20e3 28be 8e9f 0b3f
00000070: ee7c 543e ce72 9c3d e03a 1a3e 0f19 92be
00000080: 8121 6dbe d6d7 c23e 4a64 97be 3ed3 3ebe
00000090: 93ec 403e e232 0d3e 7faa 0d3e 2e08 0e3e
000000a0: e36a 183e 1217 2f3e a199 013e df91 de3d
000000b0: d179 2f3e 6101 9e37 2519 5736 92f8 c838
000000c0: 531f 7eb7 865e c8b8 19a0 8336 f460 4d38
000000d0: f5ba be37 c1c1 6038 8c3a 243e 77d8 873d
000000e0: d25b c63d 0c6c de3c 3566 55bd 8a89 caba
000000f0: 2afb 043e 2efa 993d 7783 b83d f053 7cbe
00000100: 64ec d1bc c3c9 27be 6fd0 cbbd efde 213e
00000110: e41d 233e 9c68 083e dc73 9a3e ad63 9b3e
00000120: 2599 34be 9043 f5bd 7fe6 673e f451 08be
00000130: a00d 883c 35f9 b23e 0f70 31be 5e6e 3b3c
00000140: f687 b43e 587b 7e3e 20bd cb3d cdb6 2f3e
00000150: d7d7 f63d 6768 a1bd 058a 093d 6dc4 8e3d
00000160: 910c 39be 2381 21be 51de 243c 49dc ed3a
00000170: e66b 3e3c c9f1 0cbc f803 4fbc 35b9 05bc
00000180: 5bb0 803c cd83 103b 592f c6bb 98c0 5a3a
00000190: 84c0 f4bd 3dd3 28be 5f35 d23d 3c13 ee3d
000001a0: bf6b 973d 0626 463d 2eb2 023e 09b9 043e
000001b0: 85f2 9fbd 1319 d0bd 66a0 33be 5d04 dd3d
000001c0: 9092 123e 981f 09bd f053 43be f097 4a3b
000001d0: f19e 3ebe 234b a8bd e37f b5bc 1824 6fbe
000001e0: 6fbe 403e c573 f63e 98c9 d33e 0455 d0bd
000001f0: ac9b ca3d 1ed9 243d 85a9 61be f519 163b
00000200: 04a1 ab3d c1a1 d43c 4b41 ef3d 9f80 393d
00000210: 5e45 fa3d 8163 d03a 9049 67be d72a 2b36
00000220: 639e 4a36 34d6 2a36 bb33 efb5 3cf7 5fb7
00000230: 8085 1736 9d8a a8b5 5664 e6b5 3fa7 1636
00000240: dccd 833a 926e 5d3a f550 b33a 98f5 433a
00000250: 9a3a f338 9e22 193a c3e1 b13a 2b85 5f3a
00000260: 498b f439 92c8 883b 549d f23a 8dac f43b
00000270: 97b6 2f3b b6b5 68ba f0b8 333b 6e36 c23b
00000280: 08c1 383b 4464 793b 94ee 4c3e 961f 703e
00000290: ec85 7f3d 7ff2 213e bae2 503d 1a52 cbbd
000002a0: 4139 4a3e 5ff2 e63c 09fd f1bd 7397 e23d
000002b0: 24e4 13bd bb4d ffbd ed6b c43d f214 d0bd
000002c0: 8b84 0dbe a4f5 433e 746f bd3d 7cc0 3e3e
000002d0: 7d45 0cbe 960c 00be a244 afbe adbd 21be
000002e0: 7b54 13be 5a2d 3abe 672c af3e eec4 bc3e
000002f0: 6ef3 c73e 1d3d 4838 2ea0 43b7 1c76 a337
00000300: a3e5 8f38 9aea 9bb8 a752 4f38 0f73 b938
00000310: 0935 f637 67b1 b038 4f64 91bd 4129 e4bd
00000320: dd34 ccbd 2c47 e53d 2ff4 a7bd c335 1c3d
00000330: 5375 e9bd 714b f4bd 6cfc 1b3d 1c4a 46be
00000340: b73d c63d 4f12 bd3e ea68 c0be cce0 24be
00000350: bb16 393e a240 b1bd f52d 303e f914 e43e
00000360: 4bfc abbc e717 303d 69f5 ddbd da13 bebd
00000370: 6f4b 69bd 921d a0bc 1390 0bbd b9fb 0ebd
00000380: 4b6f b1bd 982b 07bc 51d1 9f3d 1acb fa3d
00000390: 060a 3bbd 0421 9b3b f994 253e 0a2d 2dbe
000003a0: 3883 423c a3de 793d d675 1bbe 9d4f 0a3d
000003b0: 2247 7f3d 9409 6dbd 4152 213d 561c 6d3c
000003c0: 529d e5bb e758 c3bd c701 523c 45a2 24be
000003d0: fcde 4d3d e954 2d3d 13f2 7abd 34d2 5f3c
000003e0: 0b23 d5bd 8ede e6bd 65fa cb3d ecf9 29bd
000003f0: 042a 19be 4c39 d9bd d251 23be fc91 6fbd
-0.22621158 -0.00048844225 -0.37622285 0.09431683 0.27905634 0.09585428 0.09911736 0.33021182
0.27455685 -0.19926083 -0.120785505 0.0053877053 -0.19197026 -0.0102789095 0.23889254 -0.06605345
0.06186351 0.37066284 -0.15526138 -0.05958764 -0.1748594 -0.13109623 0.11797385 -0.004903161
-0.19704273 -0.021367881 -0.16492891 0.54540336 0.20750782 0.07639085 0.15061522 -0.28534743
-0.23157312 0.38055295 -0.29568702 -0.1863527 0.18840246 0.13788942 0.1383457 0.13870308
0.14884524 0.17098644 0.12656261 0.108676665 0.17136313 1.883571e-05 3.2052133e-06 9.583043e-05
-1.5146873e-05 -9.5543495e-05 3.922742e-06 4.8966103e-05 2.2736824e-05 5.358621e-05 0.16037959 0.06633084
0.09685482 0.02715113 -0.052099425 -0.0015452367 0.12986436 0.07518421 0.0900945 -0.24641395
-0.025625415 -0.1638556 -0.09951865 0.15807699 0.15929371 0.13321155 0.3016652 0.30349484
-0.17636545 -0.11975777 0.22646521 -0.13312513 0.01660806 0.34955755 -0.17327903 0.011439888
0.3525998 0.2485174 0.09948182 0.17159577 0.12052887 -0.07881241 0.03357889 0.06971059
-0.180712 -0.15771918 0.01006277 0.0018147315 0.011622405 -0.008602568 -0.012635224 -0.008161833
0.015709093 0.0022051216 -0.0060481247 0.0008344739 -0.11950782 -0.16486831 0.10264086 0.116247624
0.07393598 0.048376106 0.12763283 0.1296121 -0.07809929 -0.101610325 -0.17541656 0.10791848
0.14313722 -0.033477396 -0.19074988 0.0030913316 -0.18615319 -0.08217456 -0.022155708 -0.23353612
0.18822645 0.481352 0.4136474 -0.101724654 0.09892973 0.04024612 -0.22037323 0.0022903655
0.08380321 0.025956037 0.116823755 0.04528868 0.12220262 0.0015898795 -0.22586656 2.5505922e-06
3.0192539e-06 2.5456657e-06 -1.7821943e-06 -1.33493995e-05 2.257846e-06 -1.2557317e-06 -1.7165537e-06 2.2449092e-06
0.0010055858 0.0008446957 0.0013680743 0.0007475256 0.00011598058 0.0005841645 0.001357131 0.00085266185
0.00046643082 0.0041743005 0.0018510022 0.0074668587 0.0026811713 -0.00088771747 0.0027423464 0.0059268987
0.0028191227 0.0038054148 0.20012885 0.23449549 0.062383577 0.15815161 0.050997473 -0.09927769
0.19748403 0.028191743 -0.11815841 0.11064043 -0.036106244 -0.12465998 0.09590898 -0.10160245
-0.13820092 0.19136673 0.092497736 0.18628114 -0.13698383 -0.12504801 -0.3423205 -0.15795012
-0.14387695 -0.18181363 0.34213564 0.36868995 0.3905291 4.7740632e-05 -1.16602005e-05 1.9486113e-05
6.8615445e-05 -7.434674e-05 4.9429622e-05 8.842919e-05 2.9350182e-05 8.425378e-05 -0.070992105 -0.11140681
-0.0997102 0.111952156 -0.08200871 0.03813721 -0.11399331 -0.11928452 0.038082525 -0.19364208
0.0967974 0.3692803 -0.37580043 -0.16101378 0.18075077 -0.08654906 0.17205031 0.4454725
-0.020994326 0.042991545 -0.10837824 -0.0928113 -0.056956705 -0.01954535 -0.034072947 -0.03490803
-0.086638056 -0.00825014 0.07803596 0.1224577 -0.045663856 0.0047341604 0.1617011 -0.16911712
0.011872105 0.06100334 -0.1518167 0.03376733 0.062323697 -0.057870463 0.039385084 0.014472088
-0.0070072794 -0.09538441 0.012817807 -0.16077526 0.050261483 0.042317305 -0.061266016 0.013660956
-0.104070745 -0.11272918 0.09959868 -0.04149811 -0.14957434 -0.10606632 -0.1594918 -0.05848883

encoder.0.bias f4 [128]
00000000: 9f9d 103f a537 b73d 59e7 fdbd 7758 373d
00000010: d045 c4bc 6e6e 06ba d0b6 38be a0e5 013f
00000020: c0f4 b13e 7ebb a43e fa33 b3bb 6e76 30ba
00000030: be1f 1e3e 3e75 143f b2e8 cbbc d36b f5b9
00000040: aee3 c2bb 082b a0bc 626d 283d 8ce2 a03d
00000050: 9a29 4c3c 8425 3abb e3dd 783e c671 af3d
00000060: 123b 97bd 72c6 553e 95b8 ae3e aa02 873e
00000070: 0f82 993d aca5 03ba 34a2 593e 1874 a5bc
00000080: b68c 293e a741 a83e 10cf d73d b745 023c
00000090: c365 163e 0f91 20bc ebef 813e 6d75 3fbe
000000a0: 8cbf ea3c d429 113e 82ba e7bd ad65 483e
000000b0: a575 233f 02bf e3b3 17dc 86bd 2106 4bbc
000000c0: 938c 953e f204 84bd 5f45 8e3e 0e77 de3d
000000d0: 3426 0c3d c659 553e 1084 b23c 278d 12b9
000000e0: 38c6 0ebd 376e 213d 32d8 2b3e b71a 2ebd
000000f0: 074d 5bbd 8b3e 303e 3a2d 58bd ea62 b43c
00000100: 3505 283f 5348 8cbd c65a 863e cb7f 4b3d
00000110: 3055 58be bbc2 173d 6082 da3e b72e 0e3e
00000120: 6af3 293e 8314 3fbd 7a61 963c 92ad 7abd
00000130: 5559 3c3e decc e83c 172c 853d 1313 06be
00000140: 18d3 373e e5e9 ec3d c35e 8a3e fece 973e
00000150: aad2 943e 67f9 db3c df30 e5bc 7809 193f
00000160: 3067 5e3e dec7 b03e f3fa 7a3e 3699 6fb2
00000170: ba24 dd3e ec7c 0a3e fe85 1cbc 8e41 f0bb
00000180: b9dc dd3d 2da7 3abe c84d 163f 6aed 083e
00000190: 0454 f93d 4c24 22bd 8ca7 a13e 036a ab3e
000001a0: cc26 d8b8 53b0 34bd 3e40 bcbb 7163 0abe
000001b0: c2cb c23d 856b 443e 4d02 483d 47c2 f5bd
000001c0: 900b 803d 71e3 b4bd ff7d aa3e 78a7 3f3d
000001d0: b66e b93d 1240 ee3d a0d9 c63c 2f1a 533d
000001e0: 9259 113f f51e 8e3e ad17 e73c 72ad a63e
000001f0: f3e7 5a3d 8951 b5bd 7f36 d13e 5c70 423e
0.5649051 0.0894616 -0.12397642 0.0447621 -0.02395907 -0.00051281496 -0.18038487 0.50741005
0.34757042 0.32174295 -0.0054688426 -0.00067315146 0.15441796 0.579914 -0.024891231 -0.00046810377
-0.0059475517 -0.019551769 0.04111994 0.078557104 0.01246109 -0.0028403709 0.24303393 0.085666224
-0.07384314 0.20876482 0.341252 0.2636922 0.0749551 -0.00050219405 0.21253282 -0.02019696
0.16557583 0.3286259 0.10537541 0.007951192 0.14687257 -0.00980021 0.25378355 -0.18697138
0.02865579 0.14176112 -0.113148704 0.19570036 0.63851386 -1.0605255e-07 -0.065849476 -0.012391598
0.29208812 -0.06446256 0.277873 0.10862552 0.03421612 0.20835027 0.021791488 -0.00013976228
-0.034857005 0.03941175 0.1678169 -0.042505946 -0.053540256 0.17211358 -0.052777506 0.022019822
0.65632945 -0.06849732 0.2624113 0.04968242 -0.21126246 0.037050944 0.42677593 0.13885008
0.16596761 -0.04665042 0.018357027 -0.061200686 0.18393452 0.028418 0.0650255 -0.13093214
0.1795162 0.11568049 0.27025422 0.2965011 0.29066974 0.026852323 -0.027977405 0.59780073
0.2171905 0.34527487 0.24509792 -1.3946467e-08 0.43192083 0.13524216 -0.009553431 -0.0073320335
0.10833115 -0.18227835 0.58712435 0.13371816 0.12174228 -0.039585397 0.3157314 0.33479318
-0.00010306909 -0.04411347 -0.005744963 -0.13514496 0.0951152 0.1918164 0.04883032 -0.11999946
0.06252205 -0.088324435 0.33299252 0.04679057 0.090543196 0.11633314 0.024273694 0.051538642
0.567773 0.27757993 0.028209532 0.32554203 0.05344386 -0.08853442 0.4086189 0.18988174

encoder.2.weight f4 [64, 128, 4, 4]
00000000: 8d7c 1080 0000 0080 dee0 0d00 ece2 0580
00000010: bc3b 0300 928e 1380 1512 1300 19f6 1380
00000020: d9ae 0d00 e3b5 0700 0000 0080 5509 1680
00000030: e054 0b80 8582 1580 9775 1180 1588 0780
00000040: 0000 0080 eb4e 1380 0000 0080 0000 0000
00000050: 87d2 1000 0000 0080 3b83 0c00 2f60 1080
00000060: 15b3 1480 3040 0780 f8ff 0000 b170 0a00
00000070: 0000 0080 9bfd 0480 0000 0080 90e5 0500
00000080: 0000 0080 58c8 0580 c9a5 0500 0000 0000
00000090: 1d37 0000 8e3f 0080 5546 0880 0000 0080
000000a0: b362 0680 e19c 0d80 5a9b 0680 5fd4 0000
000000b0: 2a57 1180 a83f 0e00 56e4 0f00 0000 0080
000000c0: 0000 0080 6101 0c00 1e6a 1380 0000 0080
000000d0: 452a 0280 fddc 0c00 a776 0500 39ae 1300
000000e0: 467f 0c80 8b1c 0e00 0559 1000 0000 0080
000000f0: 9244 0a80 0000 0080 a735 0300 ea78 0800
00000100: 3c07 0380 0000 0080 0000 0000 a9fb 0a00
00000110: 0564 1300 0000 0080 4cc2 1000 299c 1580
00000120: 9f2d 1100 0000 0080 0000 0080 85cf 0c00
00000130: 0000 0080 0000 0080 b0e0 0b80 65d7 0f80
00000140: f132 0600 0000 0080 b476 1000 0000 0080
00000150: 0000 0080 1fd6 0600 064b 0080 7571 0c00
00000160: 851c 1580 7ca9 1400 0000 0080 f665 1400
00000170: 878a 0400 0ed8 1580 7891 0680 e358 0600
00000180: 0000 0080 bc84 1000 93fc 0800 0000 0080
00000190: 5157 0c80 3307 0400 0000 0080 0000 0080
000001a0: 0a91 0300 0a49 1480 4269 1380 0000 0000
000001b0: 0000 0000 757e 0100 7f58 0300 83e3 1080
000001c0: 78e6 0f00 0edd 0d00 cf80 0e80 9bdd 0d00
000001d0: 68d1 0080 7669 1100 0000 0080 3c04 0000
000001e0: 864d 0000 bc48 1000 89f2 0680 8b06 0280
000001f0: 0000 0080 0000 0080 0000 0080 0000 0080
00000200: 0000 0080 833a 1180 e57e 1580 0000 0080
00000210: 6a3c 1180 0000 0080 0000 0080 a623 1580
00000220: f011 1100 0000 0080 8bdd 0c00 4fd2 0780
00000230: 0000 0080 276f 0900 8462 0900 368d 1100
00000240: ceec 0c00 0000 0080 0000 0080 c597 0700
00000250: 3c30 0b00 0000 0080 3cf9 0e80 a740 0d00
00000260: c445 0600 0000 0080 53a6 0880 0000 0080
00000270: 0000 0080 0000 0080 9203 0980 0c3e 0380
00000280: acbf 0e00 6b2a 0b00 6a36 0d00 0000 0080
00000290: 0000 0080 607e 0800 16c2 0080 1cdb 0500
000002a0: ace7 0a00 0000 0080 48e0 0f00 0000 0080
000002b0: 1f25 0c00 17bf 0b00 e65b 0280 d717 0500
000002c0: 1375 1480 4c17 0b00 4372 1380 22e9 0500
000002d0: 7555 0f80 56c2 0980 d30b 0c80 9e0a 0500
000002e0: c6d0 0880 6b58 0d80 0000 0080 0000 0080
000002f0: 0979 1480 5fb8 0080 0000 0080 f82e 0980
00000300: 0000 0080 0000 0080 1eda 0d00 b372 0b00
00000310: 0000 0080 0000 0080 0000 0080 2f54 0e00
00000320: 0000 0080 0000 0080 a0bb 0100 0000 0080
00000330: 18f7 0a00 abb5 0d00 49ea 0b00 0000 0080
00000340: 069c 0200 af06 0a80 0000 0080 8455 0b00
00000350: e588 0480 0000 0080 d7fb 1300 d312 0d80
00000360: 0000 0080 0000 0080 5a50 0d00 0000 0000
00000370: 6633 0480 14b7 0900 bc72 0c00 8c9d 0c80
00000380: 42e6 1580 dfe8 1380 0000 0080 cd2d 1200
00000390: 0000 0080 4d2a 0f00 7746 0980 4ff8 0c80
000003a0: bc8a 1580 3bb9 1000 b5f4 0d80 4307 1600
000003b0: c76b 1480 0000 0080 0000 0080 a91e 0600
000003c0: 9bc4 1200 0000 0080 0000 0080 c550 0b00
000003d0: ec88 1180 2641 1000 4da4 0e80 0000 0080
000003e0: 59e9 1280 0000 0080 85cf 1080 0000 0080
000003f0: 0a65 0300 0000 0080 9d4b 1100 3007 0380
-1.514048e-39 -0.0 1.274529e-39 -5.40582e-40 2.96935e-40 -1.796019e-39 1.751361e-39 -1.833158e-39
1.256585e-39 7.08097e-40 -0.0 -2.023729e-39 -1.040638e-39 -1.975367e-39 -1.603387e-39 -6.91666e-40
-0.0 -1.773185e-39 -0.0 0.0 1.544891e-39 -0.0 1.149103e-39 -1.503872e-39
-1.900952e-39 -6.65875e-40 9.1824e-41 9.58781e-40 -0.0 -4.58318e-40 -0.0 5.41529e-40
-0.0 -5.31047e-40 5.1865e-40 0.0 1.9771e-41 -2.2799e-41 -7.59914e-40 -0.0
-5.8642e-40 -1.250139e-39 -6.06743e-40 7.6184e-41 -1.592472e-39 1.308533e-39 1.459444e-39 -0.0
-0.0 1.10252e-39 -1.782942e-39 -0.0 -1.98834e-40 1.181302e-39 5.01742e-40 1.807374e-39
-1.147683e-39 1.295936e-39 1.501302e-39 -0.0 -9.42953e-40 -0.0 2.94753e-40 7.7806e-40
-2.78102e-40 -0.0 0.0 1.008634e-39 1.780755e-39 -0.0 1.539069e-39 -1.984565e-39
1.577569e-39 -0.0 -0.0 1.17647e-39 -0.0 -0.0 -1.090793e-39 -1.454801e-39
5.69287e-40 -0.0 1.51195e-39 -0.0 -0.0 6.27825e-40 -2.6913e-41 1.142727e-39
-1.938776e-39 1.89751e-39 -0.0 1.873287e-39 4.17036e-40 -2.006051e-39 -6.03197e-40 5.829e-40
-0.0 1.516984e-39 8.2529e-40 -0.0 -1.133349e-39 3.69925e-40 -0.0 -0.0
3.27537e-40 -1.862911e-39 -1.782634e-39 0.0 0.0 1.372e-40 3.07253e-40 -1.550984e-39
1.460209e-39 1.273161e-39 -1.331905e-39 1.273359e-39 -7.5121e-41 1.599036e-39 -0.0 1.519e-42
2.781e-41 1.49546e-39 -6.38018e-40 -1.86018e-40 -0.0 -0.0 -0.0 -0.0
-0.0 -1.582193e-39 -1.974067e-39 -0.0 -1.582876e-39 -0.0 -0.0 -1.941334e-39
1.567638e-39 -0.0 1.1815e-39 -7.18293e-40 -0.0 8.66393e-40 8.6186e-40 1.61186e-39
1.186975e-39 -0.0 -0.0 6.97293e-40 1.027494e-39 -0.0 -1.375105e-39 1.217054e-39
5.7604e-40 -0.0 -7.9435e-40 -0.0 -0.0 -0.0 -8.278e-40 -2.97765e-40
1.354456e-39 1.025407e-39 1.213382e-39 -0.0 -0.0 7.80019e-40 -6.9625e-41 5.37779e-40
1.001463e-39 -0.0 1.45799e-39 -0.0 1.115342e-39 1.07874e-39 -2.16638e-40 4.6773e-40
-1.878708e-39 1.018548e-39 -1.785864e-39 5.4281e-40 -1.408189e-39 -8.96234e-40 -1.106268e-39 4.62986e-40
-8.09578e-40 -1.22558e-39 -0.0 -0.0 -1.880129e-39 -6.614e-41 -0.0 -8.43369e-40
-0.0 -0.0 1.272107e-39 1.051337e-39 -0.0 -0.0 -0.0 1.315896e-39
-0.0 -0.0 1.59143e-40 -0.0 1.006995e-39 1.259032e-39 1.094236e-39 -0.0
2.39642e-40 -9.20753e-40 -0.0 1.040868e-39 -4.1645e-40 -0.0 1.835218e-39 -1.200614e-39
-0.0 -0.0 1.222686e-39 0.0 -3.8578e-40 8.92196e-40 1.143185e-39 -1.158543e-39
-2.011146e-39 -1.828413e-39 -0.0 1.669469e-39 -0.0 1.392707e-39 -8.51797e-40 -1.191102e-39
-1.978314e-39 1.535816e-39 -1.281646e-39 2.022986e-39 -1.875373e-39 -0.0 -0.0 5.62012e-40
1.723568e-39 -0.0 -0.0 1.039165e-39 -1.610322e-39 1.492739e-39 -1.344637e-39 -0.0
-1.736748e-39 -0.0 -1.543812e-39 -0.0 3.11752e-40 -0.0 1.588328e-39 -2.78085e-40

encoder.2.bias f4 [64]
00000000: e70a 0f00 0000 0080 3737 0f80 2144 80ba
00000010: 4bfc 0680 a89a 0f00 0000 0080 0205 6ab4
00000020: 4396 d5b2 4973 928d 20ee 0000 64d8 d83c
00000030: 9d5a 1200 bb15 a1a9 4ecb 0080 5515 42b0
00000040: 7e99 0b80 cc17 b694 93cb 0abb 0000 0000
00000050: b1ba 18bc 0000 0080 9394 9c9e d701 c5b8
00000060: 4567 2eb6 d28b a6af da29 0c80 8a5a 28ba
00000070: 5f10 9fb3 b84a 2fbc 3c08 9abb 43df 1790
00000080: 446f dcb5 0000 0080 4d42 0800 3460 eda4
00000090: 0000 0080 109f 879d 167c 903d 18f6 83a8
000000a0: 2991 bbb7 3827 0680 9fe3 0d80 7a47 1280
000000b0: cd33 cfbb b253 0480 5001 f0bd aa6c dab1
000000c0: 8f66 30b5 4752 0900 ecdf dfab 7b6e d0a8
000000d0: e826 7bac eb56 0780 5d40 0880 0000 0000
000000e0: 24c2 b7bc a3a9 163d a008 979c 4cdc b53d
000000f0: 19e6 8ba4 ff05 0500 3f50 3bba 0000 0000
1.381443e-39 -0.0 -1.39734e-39 -0.0009785929 -6.41519e-40 1.433013e-39 -0.0 -2.179477e-07
-2.4864795e-08 -9.025699e-31 8.5423e-41 0.02647037 1.685545e-39 -7.153606e-14 -7.2932e-41 -7.0607103e-10
-1.065253e-39 -1.838669e-26 -0.0021178469 0.0 -0.009321854 -0.0 -1.6578591e-20 -9.394035e-05
-2.5988131e-06 -3.0294572e-10 -1.11704e-39 -0.0006422183 -7.406992e-08 -0.010698967 -0.0047006886 -2.9951494e-29
-1.642366e-06 -0.0 7.58468e-40 -1.0294534e-16 -0.0 -3.589867e-21 0.070549175 -1.4650648e-14
-2.2359733e-05 -5.65082e-40 -1.275517e-39 -1.67868e-39 -0.006323314 -3.97366e-40 -0.11719 -6.3569887e-09
-6.571435e-07 8.56035e-40 -1.5907254e-12 -2.3140552e-14 -3.5690843e-12 -6.74029e-40 -7.57773e-40 0.0
-0.02243144 0.036782872 -9.994571e-22 0.08879909 -6.067144e-17 4.61328e-40 -0.00071454415 0.0

encoder.4.weight f4 [32, 64, 2, 2]
00000000: e3e1 6702 75da 4402 cd6b 3602 48e2 0e02
00000010: a6d2 e781 1037 0580 4315 9c81 4672 9800
00000020: d7a0 0e00 7fd7 7080 9c2c d600 32b9 dc01
00000030: b0e7 49b6 d3c1 49b7 3b27 4ab3 761b 99b4
00000040: 6c00 9501 1830 3f02 98b3 6900 ccc9 0e01
00000050: 92ea 9102 b0cd 0e02 b8ee 3102 5e38 0401
00000060: 1cb6 a501 edf3 3181 fab5 8602 fb26 1502
00000070: 7b3a 9539 009a 3039 79b7 d939 d0e6 1b3a
00000080: 5df8 fab4 b238 4fb6 c775 88b5 d05b 63b6
00000090: c826 5aaf a0a9 0ab0 272e 1cb0 281a 6db0
000000a0: 9947 4181 844f 5880 4c45 8580 6a9b 3900
000000b0: eeee 993d 9234 e03a 62e5 c03d d0c2 58bd
000000c0: d768 3001 ebe9 8302 82ed 1082 3692 8201
000000d0: d45d f539 6ea8 183a 0749 de39 3e11 0b3a
000000e0: 7385 8b80 04ca af81 f2ce 2982 d632 d381
000000f0: ea7a e136 7867 a836 0dbe 6136 26bd 1ab3
00000100: bb93 9101 17bb 3402 2ae4 3782 a9e1 1900
00000110: 79f5 7cb7 f48f 6cb7 fb4a 9db7 849c 05b7
00000120: 41be a4bb 33f6 69bb 5a0d a5bb 1754 82bb
00000130: 5dd7 d500 2b6e b280 df49 3a80 246b ec01
00000140: 8639 963b 7336 5d3c 0d8c e13b 8639 f1ba
00000150: 4325 b180 2072 af01 2c20 2480 7e4a 5d01
00000160: 5adb 45bb f7ad 72bb 9e9c 0dbb b10c 39bb
00000170: 32ba 92bb c849 0bbb 13b1 d8bb c0f3 81bb
00000180: 5c9a 8bb9 387e 3a3b 3d88 0b3a 57d0 5e3b
00000190: bef9 6731 754a 7e31 3da6 0e31 a16d 2f31
000001a0: a67d 2d02 ce66 9702 04a4 3702 41db 9902
000001b0: 94f6 22bc 0687 2cbc 3329 42bc 645e 3fbc
000001c0: c880 62b5 df45 52b5 0425 86b5 95fb 09b5
000001d0: a6a6 43bc 6490 80bc 7884 68bc f89e a3bc
000001e0: aa76 a1be 5a39 ea3b 50a8 57be d7fa 0abe
000001f0: 259a d622 3004 6128 cc29 8824 1750 7629
00000200: 2dbb b2b8 499c c1b8 809a 7bb8 5f32 78b8
00000210: 2390 cfb4 8d57 e1b3 6421 abb4 11b6 47b3
00000220: 2adb ca01 b8ab 5201 9970 5c81 dafb 6081
00000230: f015 4daf a71b 09b2 8c5e eeae f01e 0cb1
00000240: 7aa4 923d 2818 ba3d 7a0b ef3d 3991 fd3d
00000250: 13a0 3195 ce3e bd17 c0f2 989e 5d1e dba0
00000260: c315 21be 844b 72be 9a7b ddbc 33f1 64bd
00000270: fa32 85b4 1510 a195 b6e3 44b4 a389 1589
00000280: 1075 adb6 5fd3 cfb6 8a4d cdb4 d671 b8b5
00000290: 9186 0d82 96c9 d901 9f24 6c82 39c4 b401
000002a0: 23f5 8601 21cb a601 acea 6001 2b46 c001
000002b0: a957 1280 5e1d 7a80 fdab ab01 20e3 ab01
000002c0: 938c 27bc f425 e8bb 9a5a 3dbc 9bff 0bbc
000002d0: 6aa8 f201 62b4 6202 02fb e100 63e8 0002
000002e0: d7b1 23be b527 2bbe 7199 84be 2869 42bc
000002f0: 87d3 4338 a427 083b d95e b236 4b96 063a
00000300: 449e 77bb e9a7 8bbb e3ef 57bb 29b6 77bb
00000310: 91ad d300 1970 b201 7d81 8701 f3ca 7201
00000320: 94fb 2237 95c5 13b9 9036 1238 e2dc ccb8
00000330: f1c7 2a31 0ac1 3d2d 8533 da2f 616e 8d2d
00000340: f38c 7f33 c399 2034 77a8 0833 1e98 c933
00000350: 37ba ce80 11f8 6e01 ff07 0480 c4ad ab01
00000360: f717 8201 546e 0501 d3bf d601 9751 a201
00000370: cf7a 7c02 5b1b a602 456b 4b02 7f31 5002
00000380: 942b 9abc b1a3 9dbc 2d33 74bc 1f93 69bc
00000390: b1c5 293e cb83 0f3e 673f 203e 3c37 dc3d
000003a0: dff3 aab5 2165 45b4 c22f 21b6 96f9 22b6
000003b0: b6c0 c83d 5f45 dd3d 37df 283c 3fdb e23d
000003c0: 4e5e 1e37 8612 3b38 3661 b635 f67d 3837
000003d0: 234f ae02 273f 8b02 bcee 9802 8d88 2902
000003e0: 821b d03b 6c74 8c3b 9dec 703b e2cb 603b
000003f0: 62d0 35bd eba7 ef3c 028d 6fbe 342c 513e
1.7036026e-37 1.44625e-37 1.3402186e-37 1.0497452e-37 -8.5158264e-38 -4.7893e-40 -5.733586e-38 1.3999989e-38
1.343395e-39 -1.0362881e-38 1.9668799e-38 8.108098e-38 -3.0086194e-06 -1.2025662e-05 -4.706747e-08 -2.851845e-07
5.473456e-38 1.4046266e-37 9.707153e-39 2.6226063e-38 2.1440472e-37 1.0491542e-37 1.3072415e-37 2.4285012e-38
6.087274e-38 -3.2684774e-38 1.979398e-37 1.0957978e-37 0.00028463066 0.00016842037 0.00041526163 0.00059471745
-4.6746837e-07 -3.0878405e-06 -1.0167067e-06 -3.3879078e-06 -1.9840762e-10 -5.044516e-10 -5.6818056e-10 -8.625727e-10
-3.549987e-38 -8.110048e-39 -1.223898e-38 5.290375e-39 0.07516275 0.0017105511 0.09418751 -0.052920163
3.2401314e-38 1.9382982e-37 -1.064761e-37 4.796426e-38 0.0004679995 0.0005823438 0.0004239755 0.00053049985
-1.2813007e-38 -6.4574726e-38 -1.247555e-37 -7.7582105e-38 6.7198316e-06 5.0188355e-06 3.3638237e-06 -3.602795e-08
5.347657e-38 1.3278004e-37 -1.3510197e-37 2.376839e-39 -1.5077524e-05 -1.4100213e-05 -1.8750774e-05 -7.963859e-06
-0.005027563 -0.0035699725 -0.005036992 -0.0039773094 1.9638218e-38 -1.6386239e-38 -5.352959e-39 8.684645e-38
0.004584494 0.013501751 0.0068831504 -0.0018403984 -1.626825e-38 6.444861e-38 -3.317619e-39 4.0644735e-38
-0.0030190558 -0.003702996 -0.0021608244 -0.0028236324 -0.0044777626 -0.0021253694 -0.0066129058 -0.003965825
-0.00026627153 0.002845658 0.000532273 0.0033998692 3.3756886e-09 3.7004189e-09 2.0758215e-09 2.5528168e-09
1.2746092e-37 2.2246463e-37 1.3491787e-37 2.2607175e-37 -0.009946484 -0.010530239 -0.011850643 -0.011680219
-8.437896e-07 -7.833277e-07 -9.994551e-07 -5.1402577e-07 -0.011941588 -0.01569385 -0.014191739 -0.019973263
-0.31535846 0.00714795 -0.210603 -0.1357225 5.8168023e-18 1.2490917e-14 5.9051405e-17 5.469244e-14
-8.5225656e-05 -9.2320675e-05 -5.9986953e-05 -5.917472e-05 -3.8661628e-07 -1.04933044e-07 -3.1875527e-07 -4.6498887e-08
7.4517566e-38 3.869411e-38 -4.0488403e-38 -4.1322997e-38 -1.8652435e-10 -7.980737e-09 -1.0839782e-10 -2.0390267e-09
0.07160278 0.09086639 0.11672111 0.12381215 -3.5871142e-26 1.2229693e-24 -1.6194025e-20 -3.7120136e-19
-0.15730958 -0.2366162 -0.027036477 -0.055894088 -2.481027e-07 -6.5052755e-26 -1.8336763e-07 -1.7999939e-33
-5.1694296e-06 -6.1936876e-06 -3.8240643e-07 -1.3742199e-06 -1.0397663e-37 8.000247e-38 -1.7349051e-37 6.6403123e-38
4.957558e-38 6.1270245e-38 4.131067e-38 7.0630347e-38 -1.684485e-39 -1.1214465e-38 6.306227e-38 6.314139e-38
-0.010226387 -0.0070846025 -0.011557246 -0.008544828 8.913842e-38 1.6655625e-37 2.0753031e-38 9.470647e-38
-0.1598581 -0.16714366 -0.25898317 -0.0118658915 4.6688623e-05 0.002077558 5.315855e-06 0.000513409
-0.0037783543 -0.00426196 -0.003294938 -0.0037797785 1.9439554e-38 6.5547726e-38 4.9776974e-38 4.459399e-38
9.714528e-06 -0.00014092617 3.4859928e-05 -9.768621e-05 2.485191e-09 1.07862694e-11 3.9690576e-10 1.6078862e-11
5.9500007e-08 1.49571e-07 3.1818185e-08 9.387462e-08 -1.8984914e-38 4.3891675e-38 -3.7021e-40 6.306482e-38
4.7788846e-38 2.4507399e-38 7.888644e-38 5.9626477e-38 1.854928e-37 2.440721e-37 1.4944869e-37 1.5295631e-37
-0.018819608 -0.019243093 -0.014904779 -0.014256268 0.1657932 0.14015119 0.15649186 0.107527226
-1.2736963e-06 -1.8383845e-07 -2.4018668e-06 -2.428516e-06 0.09802382 0.10804247 0.010307125 0.11076974
9.439491e-06 4.4601526e-05 1.3588349e-06 1.0996582e-05 2.5612424e-37 2.0460462e-37 2.247142e-37 1.2455347e-37
0.0063509354 0.0042863395 0.0036762126 0.003430121 -0.044388182 0.029254874 -0.23393634 0.20427018

encoder.4.bias f4 [32]
00000000: 35a5 2f3e 3086 3105 cbc3 f03d 0ec8 2180
00000010: 351a f33d 6fb5 843d 0042 26b5 142f 333e
00000020: 9e6c 303e d9bf b83d 0829 743d 1cfa 46b6
00000030: 2ea6 0a3e df27 4784 04e0 7ebd 89a1 4bb8
00000040: 3009 c280 fb67 f0b4 d982 6205 71d1 abbc
00000050: 9bd9 173e e01b 133e ca27 55b2 92c3 303d
00000060: c27e 453d bdd1 d7bc b1b6 433d 9dd9 c73d
00000070: 12df 233d d462 64ad 502b e53e c1ff bdba
0.17152865 8.347146e-36 0.117560945 -3.102337e-39 0.11870233 0.06479918 -6.193586e-07 0.17498428
0.17228934 0.09020967 0.059609443 -2.9649882e-06 0.13539955 -2.3410645e-36 -0.062225357 -4.8549413e-05
-1.7819382e-38 -4.477914e-07 1.0650502e-35 -0.020973893 0.14829104 0.14366102 -1.2407279e-08 0.04315526
0.04821659 -0.026345128 0.04778165 0.09758303 0.04000766 -1.2982244e-11 0.44759607 -0.0014495776

encoder.6.weight f4 [16, 32, 3, 3]
00000000: 6a15 1abb ebd1 5fbb 5c73 88bb 66aa 54b0
00000010: 4ab6 28b0 232d 50b0 96c1 5034 c097 1830
00000020: 10a2 efb7 0000 0080 776b 0580 bca3 0080
00000030: 0000 0000 0000 0080 941e 1180 c9d8 0180
00000040: 0000 0080 e776 1500 e896 baba 6e3f 08bb
00000050: 08f4 1cbb cea1 ad30 689b 8caf ed79 0530
00000060: e423 d632 8757 98af bfcd fe30 8665 0080
00000070: 0a1a 0c00 e2b5 0b80 1351 1100 82d8 1200
00000080: 2069 0180 45c3 0880 e1cf 0180 fea1 1300
00000090: 732b 3631 eddb d431 5b1a b931 637d 0631
000000a0: 7335 ceb0 6b42 14b0 09f7 03b4 4902 18b1
000000b0: c63b 06b1 0237 cc29 2647 fa2e 4d54 c925
000000c0: 699a c2af 17a3 f030 4b77 1330 9791 9126
000000d0: 8d6e 2130 1b4f ec25 970e c795 9b8a f3a0
000000e0: 74c9 3996 1edb 40a2 724c 5fa2 724c 5fa2
000000f0: fe53 5414 fe53 d493 fe53 d413 9a09 6d31
00000100: 9215 112f a177 d930 db1c cf2f 1c9f b72e
00000110: bed3 5630 b263 d4b3 1fe9 7531 d5df d7b8
00000120: 4a2b 98b8 3bb0 97b9 1b11 96b9 7846 b5ae
00000130: 42a2 c0b0 f64b 37b0 7951 f332 7c61 b6b0
00000140: d41f 0eb1 2b23 01ba a33d a4b9 6b86 a1ba
00000150: cc3c a5b0 e4ed 08b0 933a ec2f 1851 04b4
00000160: d1d7 a7b0 8e87 3cb4 882f 9930 e383 3bb0
00000170: 6f5a 04b1 2a92 91b0 66db c6b0 63f1 7eaf
00000180: 3941 0833 3a52 a530 1d96 3430 bf54 0f80
00000190: 6409 0c80 44df 0e80 379a 0b00 5e01 1080
000001a0: 04db 0c80 e723 0680 fa5f 0180 ff02 0300
000001b0: 305c 40ba 8f5a 07bb 1605 21bb a0c7 4330
000001c0: 9457 462f 7479 992f 7acf f8b3 c107 3d30
000001d0: c602 2b31 2c4f 1180 5fe2 0f80 775d 0680
000001e0: 262b 0700 0000 0080 0000 0080 cf5e 0f80
000001f0: 3eac 1080 c0a9 0c80 04c5 f930 c40d 04af
00000200: 260c fd30 6a08 78a6 1bbc 8225 b9e0 ac25
00000210: 9cf1 adae 1e45 4a26 4e89 fd2e 0000 0000
00000220: 3551 3e8d 0000 0000 7bc7 ca8e 0000 0080
00000230: b77f ae8e 0000 0000 9747 d08d 0000 0000
00000240: c7ca 0e00 6add 1100 733c 1080 f6ce 1500
00000250: 1c92 0c00 7398 0500 0000 0000 006c 1180
00000260: 0000 0000 76f9 1400 a844 1300 5ab3 1400
00000270: 3fa4 0180 2d05 1300 9e5c 0c80 b617 0580
00000280: cc05 0880 390c 0880 9e61 0e00 4711 0c00
00000290: 3e7c 1580 b6f8 0c80 3acb 0c80 b61e 0d80
000002a0: 5664 0800 e726 0c00 9b7f 0700 0000 0080
000002b0: 3452 aeb0 0000 0080 0000 0080 979f 9da4
000002c0: 0000 0080 0000 0080 35d7 8326 0000 0080
000002d0: 0de1 21b9 9c6f 02b8 9296 6fb7 8958 7530
000002e0: b7b4 fcaf a458 4130 0cce 21b3 af81 3fb1
000002f0: 8fe9 09b7 ed8f e6b9 e819 72ba 4b77 6dba
00000300: 1a02 0a31 dc71 b730 300e 2eb0 3704 6b33
00000310: 6586 3031 a675 7331 be23 0d00 6660 0880
00000320: 3251 0b80 76d5 1100 7964 0d80 f877 0f80
00000330: 4971 0f80 17ba 1300 f995 0a80 a336 5bba
00000340: 0114 12ba b9a7 87ba 8b8d ae2f e866 ff2f
00000350: 0000 0080 fb6a eb32 4dc3 ae2f f14e 5fb5
00000360: ab42 e3b4 b852 abaf f29e 9230 47e0 8630
00000370: 631e 5430 20a3 06af 3c6d 2833 35d1 fbaf
00000380: 1f47 bcb7 af77 4731 cd88 9fb0 09c9 edb0
00000390: aa8a 0fa7 6398 c2a5 bc60 00a4 db42 efa9
000003a0: 0aa4 24a5 2b54 3723 f989 4fb9 6178 60ba
000003b0: 8ae8 afba fd33 6eb0 c1f7 d32e c7fc 5d2f
000003c0: c00a 52b1 5998 7f30 fe94 bda7 827c 10b1
000003d0: 6160 c3b1 d510 9832 dee5 a8b0 2cdc fa2f
000003e0: cc03 f42f e793 0a34 6ddc 5db0 b1e2 55b0
000003f0: e03a 9db0 c169 d230 efce 4a31 347b 5faf
-0.00235113 -0.003415222 -0.0041641425 -7.73673e-10 -6.137709e-10 -7.57341e-10 1.9441936e-07 5.551293e-10
-2.8566486e-05 -0.0 -4.97729e-40 -5.8737e-41 0.0 -0.0 -1.572173e-39 -1.69603e-40
-0.0 1.9712e-39 -0.0014235647 -0.002078976 -0.0023949165 1.2633394e-09 -2.5576274e-10 4.8558385e-10
2.49292e-08 -2.771083e-10 1.8539409e-09 -3.642e-41 1.111367e-39 -1.075438e-39 1.590287e-39 1.730707e-39
-1.29547e-40 -8.04733e-40 -1.66408e-40 1.802986e-39 2.6509184e-09 6.1950147e-09 5.387205e-09 1.957084e-09
-1.5003664e-09 -5.393647e-10 -1.2290197e-07 -2.212021e-09 -1.9533544e-09 9.068962e-14 1.1381322e-10 3.4925066e-16
-3.539811e-10 1.7508651e-09 5.3647814e-10 1.0100858e-15 5.872856e-10 4.0993078e-16 -8.039848e-26 -4.1257523e-19
-1.5007748e-25 -2.6136852e-18 -3.0262605e-18 -3.0262605e-18 1.0719829e-26 -5.3599147e-27 5.3599147e-27 3.4493497e-09
1.3195336e-10 1.5822829e-09 3.7673584e-10 8.35014e-11 7.815365e-10 -9.890154e-08 3.5784706e-09 -0.00010293691
-7.255988e-05 -0.00028932266 -0.00028622974 -8.243445e-11 -1.4015955e-09 -6.668296e-10 2.8325973e-08 -1.326995e-09
-2.0681812e-09 -0.00049262 -0.0003132644 -0.0012323385 -1.202261e-09 -4.9814575e-10 4.296977e-10 -1.232296e-07
-1.2212188e-09 -1.7558179e-07 1.1145724e-09 -6.8217626e-10 -1.9259934e-09 -1.0591681e-09 -1.4468753e-09 -2.3186923e-10
3.1724287e-08 1.20287e-09 6.569694e-10 -1.407934e-39 -1.105395e-39 -1.36579e-39 1.065512e-39 -1.469858e-39
-1.180594e-39 -5.63892e-40 -1.26265e-40 2.76581e-40 -0.0007337956 -0.0020653342 -0.0024569682 7.122427e-10
1.8039109e-10 2.7916836e-10 -1.158614e-07 6.876882e-10 2.4885352e-09 -1.589605e-39 -1.458739e-39 -5.84542e-40
6.58327e-40 -0.0 -0.0 -1.411543e-39 -1.531157e-39 -1.162921e-39 1.817313e-09 -1.201022e-10
1.8411626e-09 -8.605369e-16 2.267887e-16 2.9989522e-16 -7.9100476e-11 7.01765e-16 1.1529498e-10 0.0
-5.864602e-31 0.0 -4.9988937e-30 -0.0 -4.3017297e-30 0.0 -1.2836224e-30 0.0
1.35844e-39 1.640632e-39 -1.491053e-39 2.002789e-39 1.15444e-39 5.13866e-40 0.0 -1.599947e-39
0.0 1.9262e-39 1.769504e-39 1.901049e-39 -1.50756e-40 1.746731e-39 -1.135251e-39 -4.67683e-40
-7.36763e-40 -7.39069e-40 1.320715e-39 1.108224e-39 -1.973115e-39 -1.191247e-39 -1.17493e-39 -1.204878e-39
7.70678e-40 1.115981e-39 6.88625e-40 -0.0 -1.268353e-09 -0.0 -0.0 -6.835825e-17
-0.0 -0.0 9.148283e-16 -0.0 -0.00015437994 -3.109836e-05 -1.42805675e-05 8.9256297e-10
-4.5966939e-10 7.0338957e-10 -3.7673132e-08 -2.7867875e-09 -8.220216e-06 -0.00043976252 -0.0009235428 -0.00090586086
2.0082838e-09 1.3347363e-09 -6.3320993e-10 5.4719035e-08 2.5687765e-09 3.542803e-09 1.206683e-39 -7.69265e-40
-1.039318e-39 1.637779e-39 -1.229904e-39 -1.420569e-39 -1.418171e-39 1.811631e-39 -9.72155e-40 -0.00083623285
-0.0005572439 -0.0010349668 3.1750988e-10 4.645735e-10 -0.0 2.740625e-08 3.1789185e-10 -8.318885e-07
-4.2330552e-07 -3.1163494e-10 1.0668073e-09 9.813527e-10 7.7168333e-10 -1.2245183e-10 3.9214896e-08 -4.5805285e-10
-2.2444465e-05 2.9026344e-09 -1.1607654e-09 -1.7301157e-09 -1.9920407e-15 -3.3756897e-16 -2.7837513e-17 -1.062533e-13
-1.4280311e-16 9.938273e-18 -0.00019792457 -0.000856286 -0.0013420742 -8.6657775e-10 9.639179e-11 2.0189637e-10
-3.0565133e-09 9.298496e-10 -5.2619576e-15 -2.1025532e-09 -5.686204e-09 1.7702783e-08 -1.2288941e-09 4.5631177e-10
4.438604e-10 1.2906058e-07 -8.0712576e-10 -7.7811096e-10 -1.1439987e-09 1.5309568e-09 2.9512497e-09 -2.0325502e-10

encoder.6.bias f4 [16]
00000000: b148 3332 1ff2 953d f12c 003e f151 863d
00000010: b924 d13d 0000 0080 d4b6 4b3c eab9 0a3e
00000020: ebea 79bc 6bae b03d 261c 393d dd8a fc3a
00000030: 81bb e7ba e5de 573c 903d 343d 6e2c 0a9e
1.0435699e-08 0.073215716 0.12517144 0.06558598 0.102120824 -0.0 0.012433726 0.13547483
-0.015253763 0.086270176 0.04519286 0.0019267459 -0.0017679782 0.013175701 0.044004023 -7.314847e-21

encoder.9.weight f4 [8, 16, 3, 3]
00000000: 80a5 81ad ad81 8ab2 e34e deb3 863c 67b4
00000010: c6c9 c339 c0d5 24b8 94d5 8ab9 c095 66ba
00000020: 0f30 19ba 394b 9fbd 2a12 35bc 3b96 a13d
00000030: 8d04 27bd fd81 df3e 459b 1abd 1404 e6bd
00000040: 0019 193e 1c9e 9e3d 5367 adbc e800 8abc
00000050: 6cd8 c93d 464c 17bd f7ea b93e c583 4cbe
00000060: af01 ab3b 8f40 61bd cec9 393d aa37 5ebd
00000070: 2e3b 74bd dc48 05bc 7991 db3d 5495 ca3d
00000080: 3414 99bd 47c2 7fbd af24 10bc fd80 ea3c
00000090: b382 cd3c 5c85 073b 1848 fc39 ce0d 1a3d
000000a0: ef29 8a3e eaf2 36bd 2975 a8bc 94d6 8a3d
000000b0: c4de 09bd 9dc4 8437 a951 c43a 0000 0000
000000c0: 330a 653b c290 f33b 905f 413c 293a 9e3b
000000d0: 0dda 103c 0277 623c 8e22 823d 430a a1bc
000000e0: 6c4a 14bd e713 62be 6f3c d03d d26d d3bd
000000f0: 153f 6b3e 0976 4f3a 4c4f 94bd aaf5 043d
00000100: 54fd 363c a395 50bc 6f44 233e a3d5 c23d
00000110: da90 b3bd 7151 c43d 900a 96bc c4a8 c8bc
00000120: c7d5 aabd f7c3 adbd 5e83 ccbc 3cd0 583c
00000130: 197c 10bd f48b c73c 2093 023f 9899 39be
00000140: ae4c 9f3d ed94 0b3d 8ea6 3dbe ec08 6abd
00000150: 1320 163c 2061 193e bb6d 993b 0259 e53d
00000160: e051 1f3d e895 b1bc ec25 24bd 5bcd 0fbe
00000170: cf08 3e3d 8be8 963d 1223 c33d 56b6 afbd
00000180: 1902 10be b745 10be c5c6 243e 656c 8cbd
00000190: a875 353d 0d4d afbc ec60 b9bd 2d34 643c
000001a0: ff4b 823d 454b 85bb 17c1 163d f95e 923d
000001b0: 67f3 463d b4dc ec3c 16f2 93bc 1af2 d1bd
000001c0: 6e09 75be 61ef 333d 5e83 543e d0ab 113d
000001d0: 5c5d 67bd ebfe d03d 8905 783c 5c5b 64bd
000001e0: 091d b1bd d380 703c 3de5 0cbe 5550 963c
000001f0: 93ec 2b3d 95e7 6f3c 1ff5 15be 2aa9 013c
00000200: 3477 313d 12bc 11bd 2cef 68bb 6ca2 8dbd
00000210: 9dc6 9f3d ca37 163d c180 89bd 6b3f 3a1c
00000220: 78f1 0180 4088 0280 b07a 0700 9f00 0780
00000230: 0819 0780 3cb6 0180 7ee4 0580 1059 0700
00000240: 53b7 a9b9 0859 9cb4 58f1 0580 b0f7 0dbb
00000250: 36fa ec3a 4b4c 8aaf 2595 c4bb 37a0 e8ba
00000260: 79dc 14b8 333d a2bc 7161 c3bc d1a8 cbba
00000270: b715 e63d 44ec aa3c 3079 eebd c27d 403e
00000280: 9ee1 0ebd 00d3 133b 0984 1e3d 0d1f a5bd
00000290: ce7d 6c3b bd59 52bd 8c67 bebc 4a45 abbd
000002a0: b0ff d13e c802 153d 05d3 883d 7df5 853b
000002b0: ab1a 3ebd 3d63 c5b9 3387 183e 50f0 9dbb
000002c0: b5d8 d9bc b822 593e eee4 3a3d 59c4 07bb
000002d0: 3d79 0cbd e12b dabd 932f bbbb b73f 6f3c
000002e0: 9ead 7f3d 31f9 c2bd 0b93 8e3e 233d dd3d
000002f0: 63df 9336 ee2e 1e3b 3321 083a 8a57 0800
00000300: bda3 883b cd48 0e3b 7328 a4b8 d698 363b
00000310: 77cc 413a 03c6 ddba 2d46 86bc ce0a e6bd
00000320: 0814 82bb e0ab dfbd 2429 023d cc8d 92bc
00000330: d7d2 41be 2833 963d 5cca 88bd 5b80 4ebd
00000340: c52b fabd 06bd 67bc 9a56 6d3d 8cf8 27bd
00000350: b07e babd f1be e63e 2716 2ebd a696 a1bd
00000360: bc48 08bd 7167 9ebd 8ad5 57bb 1320 183d
00000370: f03f 903c a544 34bd 46ad a33d 5fa7 c53d
00000380: 0122 fabd acaf c0bd 99de d3bd 6702 6db6
00000390: 932d 113e dd13 a4bb f63b ddbd 546f 0ebd
000003a0: 8bd5 883c 43fb 72bc e382 29bd 0d3e 7cbc
000003b0: ea9d f1ba 6039 6d3c a01f 683d 760b 93bd
000003c0: ea14 893d fbc1 34be 6e67 abbb ecb3 ac3b
000003d0: 53c4 2ebe c652 a5b9 c1bd c5bd fc29 ffbd
000003e0: 516b 853c 108d bf3e 46c9 0cbb 761f 2e3d
000003f0: 8e7a 10bd a5ce 55be 251c 04bc 3b66 15bd
-1.4739099e-11 -1.6124284e-08 -1.035203e-07 -2.153557e-07 0.0003734363 -3.9299717e-05 -0.0002648054 -0.0008796118
-0.0005843648 -0.077780195 -0.011051694 0.07889982 -0.040775824 0.4365386 -0.037745733 -0.112312466
0.14950943 0.07745001 -0.021167433 -0.016846135 0.09855732 -0.036937974 0.36312076 -0.19972141
0.0052187066 -0.05499321 0.04535847 -0.054252304 -0.05962675 -0.008135047 0.10721106 0.09891763
-0.074745566 -0.062441137 -0.008797809 0.02862596 0.025086736 0.0020678854 0.000481189 0.03761082
0.26985118 -0.044665255 -0.020563679 0.06779209 -0.03365971 1.5827181e-05 0.001497795 0.0
0.0034948706 0.007433028 0.011802569 0.0048287106 0.00884105 0.013822319 0.06354247 -0.019658213
-0.036203787 -0.22077905 0.10167777 -0.10323681 0.22973283 0.0007914012 -0.07241687 0.032460846
0.011168797 -0.012730989 0.15944074 0.09513404 -0.087678626 0.09585846 -0.018315583 -0.024494536
-0.08341556 -0.08484643 -0.024964985 0.013233241 -0.0352746 0.024358727 0.51005745 -0.18124998
0.07778297 0.034077574 -0.18520567 -0.057137415 0.0091629205 0.14978456 0.0046822703 0.111986175
0.03889644 -0.021677926 -0.040075228 -0.1404318 0.04639512 0.07368573 0.095281735 -0.085797
-0.140633 -0.14089094 0.1609145 -0.06856612 0.04430166 -0.021399045 -0.090516895 0.013928455
0.06362151 -0.0040678107 0.03680524 0.07147021 0.04857197 0.028913833 -0.018059772 -0.10251255
-0.23929378 0.04392946 0.20753238 0.035564244 -0.05648552 0.10204872 0.015138038 -0.05575119
-0.08648116 0.014679152 -0.13759322 0.018348852 0.04197366 0.014642616 -0.14644288 0.007913867
0.04332657 -0.03557975 -0.0035542948 -0.06915745 0.07801554 0.0366743 -0.06714011 6.1624203e-22
-1.78458e-40 -2.32548e-40 6.8686e-40 -6.43071e-40 -6.51828e-40 -1.57209e-40 -5.41145e-40 6.74798e-40
-0.0003237078 -2.9122043e-07 -5.45755e-40 -0.0021662526 0.001807994 -2.5156263e-10 -0.0059992247 -0.0017747943
-3.549128e-05 -0.019804573 -0.023850175 -0.0015537982 0.112346105 0.020864613 -0.116442084 0.18797973
-0.034883134 0.0022556186 0.038700137 -0.08062563 0.0036085728 -0.051355112 -0.023242734 -0.08362825
0.41015387 0.036379606 0.06680874 0.0040881024 -0.04641215 -0.00037648706 0.14895324 -0.0048199072
-0.026592592 0.2120465 0.04562848 -0.0020716398 -0.03429531 -0.106529005 -0.0057124584 0.014602593
0.062421434 -0.09520186 0.2784656 0.108026765 4.406947e-06 0.002413686 0.00051929354 7.66087e-40
0.0041699097 0.0021710873 -7.827664e-05 0.0027862093 0.00073928334 -0.0016919974 -0.016390884 -0.112325296
-0.003969673 -0.109214544 0.031777516 -0.01788988 -0.18928085 0.07333976 -0.06679222 -0.050415378
-0.122153796 -0.014144188 0.057943918 -0.041008517 -0.09106195 0.45067552 -0.042501595 -0.07890062
-0.03327249 -0.07734574 -0.0032933676 0.037139963 0.017608613 -0.044010777 0.07992034 0.09651064
-0.12213517 -0.09408507 -0.103451915 -3.531715e-06 0.14177541 -0.0050072507 -0.10802452 -0.03477414
0.016703388 -0.014830413 -0.04138459 -0.015395653 -0.0018433903 0.014479011 0.056670785 -0.071799204
0.06693442 -0.17652123 -0.0052308356 0.005270472 -0.17067079 -0.00031532923 -0.09655333 -0.1245918
0.016286524 0.3741231 -0.0021482273 0.042510472 -0.035273127 -0.2087961 -0.008063351 -0.036474448

encoder.9.bias f4 [8]
00000000: 7824 c03d e43c 433d 7e2c b9bd a91c c83d
00000010: bbbf 6abc 2c21 1b96 2758 1d3d c255 1d3e
0.09381956 0.04766549 -0.09041689 0.097710915 -0.014327939 -1.2531267e-25 0.038414147 0.15364745

decoder.0.weight f4 [8, 128, 3, 3]
00000000: b28e 0780 1f3e ad3e bdaa 0780 11ca 0f80
00000010: 0000 0080 f266 0080 cc18 0300 0000 0080
00000020: 53a1 1400 c632 65be 1afa 863a 3f08 163c
00000030: 0000 0080 bbae 68bb 0000 0080 d936 263d
00000040: 0000 0000 62eb 42be ea4a afbb 49c8 43b9
00000050: 5268 f1b9 8ff8 81be c229 c2bc 045f dcbb
00000060: 04cd e1bc 81f8 0bba 0e75 893a 409a 8a3c
00000070: 38d8 70bc 9aa3 e9bd f5df f9bb b3ea dbbb
00000080: ca23 02bb a4a7 bfbd cdf6 4bbe 9f74 8e3e
00000090: 7d39 d6bd 199b 0d80 0000 0000 0000 0080
000000a0: 8cf3 0180 00f1 f03c 0000 0000 5eff 0600
000000b0: 0000 0080 3c47 293d 6c2b 753d 2e3a 81bc
000000c0: fdc8 0580 6943 0000 040b 0280 e48f 853d
000000d0: 49f8 78bd 8c97 fdbd a4d6 89bc e756 81bd
000000e0: 2836 c4bc 4109 ed3d 9897 c5bb 6c57 8fbc
000000f0: 0f80 f5bc d0b6 5c3d 8415 44bc 26ea b93d
00000100: 7975 13bc 4f0a adbe 23fa 3bbd ab04 e2bc
00000110: e669 a03d dfdf 2e3d 1388 90bb ceb4 68bd
00000120: 7fd5 73bb e186 47b9 0000 0080 0000 0080
00000130: 5abe 1cb9 f90f b6bc 7441 0ebc 0000 0080
00000140: 97ba 64bb e5e5 133d 0000 0000 6b33 b3bd
00000150: 0000 0000 0000 0080 f7b6 213d d43f 00bd
00000160: 0000 0000 db9a 543d f821 a8bc 0000 0080
00000170: ed59 183e 39df 0eba f860 a5bc bd85 223d
00000180: 3bb0 d3bc 7ea4 3ebc b7c0 5bbe 711f a8bc
00000190: f522 a0bc 69e7 8cbc b695 4cbc 4a84 02bd
000001a0: a718 9cbb 7bbb a8bc df76 f5bd 2c12 f2bb
000001b0: c9bd 0380 ce49 0700 b66e 0a80 9923 9dbc
000001c0: 2a09 0280 c793 4dbd 0afc 1300 daf1 0a80
000001d0: fef0 0600 07c0 a3a8 647a f0bb 5498 0580
000001e0: d79a 24b9 a1f4 d0b7 81b1 33b9 543c 42ac
000001f0: 4594 49bc 9a7d e8a0 05b4 afbd 0000 0080
00000200: 75b0 273e 0000 0080 3620 0f80 0000 0080
00000210: e14c f9bd f8ee 23be b89b 183a 31f6 443d
00000220: df7d afbc 5d15 f5bd 87cb 883d 9a1f 0ebd
00000230: db56 a43c 91ec 26bc 1b5c 9cbc 30ef 22ba
00000240: 7150 bfbd 19c8 d4bc 1b94 d4bc 3f06 1180
00000250: f93a 0c80 eb18 0500 68c7 28bc 8142 3dbd
00000260: 001b fcbc 4536 f7bd b048 e3bc 8d52 b23d
00000270: 69ef 6fbd 0000 0080 b091 efbc b4fa a33b
00000280: 2c19 b8bc a6e6 58bd aef7 1dbd 6972 403d
00000290: f3d4 5cbe fd34 9e3c 1662 c9bb b10a adbd
000002a0: 20f3 1f3c 9a8b 383d 1d55 4ebd 23ab ad3c
000002b0: 7e87 fbbc 45ea 15bd a422 4aba 95b4 b3bc
000002c0: e798 4dbc 8d42 3ebe f809 c5bc b545 a3bd
000002d0: 42e4 c4ba b145 ddbd 875b 09bd d920 60bd
000002e0: 0000 0080 5340 153d 5b1e 3ebd 0000 0000
000002f0: b631 683d 3963 fa3d c464 0000 bb34 a43e
00000300: e151 0380 4a16 0380 c796 0480 2296 7f3d
00000310: 16e1 0d00 0000 0080 73a7 b7bb c6be d5bc
00000320: 0000 0080 6306 c7b6 0000 0080 975b 5db2
00000330: c10e 59bb a5a2 00bd 0000 0080 4179 c5bd
00000340: 5f34 033e 3932 dbbc 8ad0 edbd 0000 0080
00000350: e45d 743d fc86 24bd ef69 4c3d 59f1 843d
00000360: 691f 6bbc cdee 9abb 5534 aabb 6a06 1fbe
00000370: e47e adbc 2768 93bb 30b5 79bc 6f91 16bc
00000380: 9e26 8cbc fde6 01bd ff9b 9db6 09e2 f3bc
00000390: e349 6cba bf8c ecbc 0000 0080 1bb2 01bd
000003a0: 0000 0080 0000 0080 0000 0000 0dfd 293e
000003b0: 0000 0000 e13e aa3c 87be 0900 e0e4 ff3d
000003c0: a900 18bd 7f93 cfbd d41d 86bc ba66 1fbe
000003d0: f22b 833e a142 afbc 3599 2dbe c75f e5bc
000003e0: 0000 0080 0000 0080 27c1 debc 0000 0080
000003f0: 842d 83bc 0000 0080 dc0a 07bc 0000 0000
-6.94038e-40 0.33836457 -7.04098e-40 -1.45002e-39 -0.0 -3.693e-41 2.84402e-40 -0.0
1.894582e-39 -0.2238265 0.0010297925 0.009157239 -0.0 -0.0035504538 -0.0 0.04057965
0.0 -0.19035104 -0.0053495066 -0.00018671261 -0.00046044827 -0.25384948 -0.023701552 -0.006725194
-0.02756358 -0.0005339459 0.0010487156 0.016919255 -0.014699988 -0.11408158 -0.0076255747 -0.006711328
-0.0019857758 -0.09358147 -0.19918366 0.2782335 -0.10460184 -1.2495e-39 0.0 -0.0
-1.79204e-40 0.029411793 0.0 6.42621e-40 -0.0 0.0413277 0.059855863 -0.015774813
-5.31278e-40 2.4182e-41 -1.87623e-40 0.065215856 -0.06078366 -0.12382421 -0.016825981 -0.063154034
-0.023951605 0.11574031 -0.0060300343 -0.01749774 -0.02996829 0.05388528 -0.01196802 0.090778634
-0.009000176 -0.33796927 -0.045892846 -0.027590116 0.078326985 0.04269397 -0.0044107526 -0.056813054
-0.003720611 -0.00019028365 -0.0 -0.0 -0.00014948231 -0.022224413 -0.008682597 -0.0
-0.0034901255 0.036107916 0.0 -0.087500416 0.0 -0.0 0.03948113 -0.03131087
0.0 0.051905494 -0.02052401 -0.0 0.14878054 -0.0005450133 -0.02018784 0.039678324
-0.02584087 -0.011635898 -0.21460234 -0.020522805 -0.019547919 -0.017200189 -0.012486866 -0.031864442
-0.004763681 -0.02059721 -0.119855635 -0.00738742 -3.43589e-40 6.69325e-40 -9.5807e-40 -0.019182013
-1.86958e-40 -0.05018976 1.835289e-39 -1.005115e-39 6.37465e-40 -1.8179914e-14 -0.007338809 -5.13823e-40
-0.00015697941 -2.4909446e-05 -0.00017136896 -2.7602547e-12 -0.012303417 -3.9385445e-19 -0.08579258 -0.0
0.16375907 -0.0 -1.389088e-39 -0.0 -0.121728666 -0.16009128 0.0005821544 0.04808635
-0.021422325 -0.11966965 0.06679445 -0.034698106 0.020060947 -0.010188238 -0.019086888 -0.0006215451
-0.09341515 -0.02597432 -0.025949528 -1.563444e-39 -1.123181e-39 4.68116e-40 -0.010301448 -0.046206
-0.030774593 -0.12070898 -0.027744621 0.087071516 -0.05857793 -0.0 -0.029244274 0.0050042514
-0.02247294 -0.05295434 -0.038566284 0.04698411 -0.21565609 0.019312376 -0.006145726 -0.08449305
0.009762555 0.04505501 -0.05037414 0.021199768 -0.030704256 -0.03660037 -0.00077108503 -0.021936694
-0.012548662 -0.18580075 -0.024052605 -0.0797228 -0.0015021639 -0.10804308 -0.033534553 -0.054718826
-0.0 0.036438297 -0.046415668 0.0 0.056688033 0.122259565 3.6148e-41 0.3207148
-3.04879e-40 -2.83502e-40 -4.21431e-40 0.062399037 1.274607e-39 -0.0 -0.0056046783 -0.026091944
-0.0 -5.9314057e-06 -0.0 -1.2884718e-08 -0.0033120366 -0.03140511 -0.0 -0.09642268
0.12812947 -0.026757346 -0.11612041 -0.0 0.059659854 -0.040167794 0.049905714 0.06491346
-0.0143507505 -0.0047281743 -0.0051942267 -0.1552979 -0.02117867 -0.0044985 -0.015240952 -0.0091899475
-0.017108258 -0.03171443 -4.697125e-06 -0.029770868 -0.00090136955 -0.028875707 -0.0 -0.031663995
-0.0 -0.0 0.0 0.16600437 0.0 0.020781936 8.94868e-40 0.12494826
-0.037110005 -0.101355545 -0.016371645 -0.15566531 0.25619465 -0.021394076 -0.16952975 -0.027999772
-0.0 -0.0 -0.027191712 -0.0 -0.016012914 -0.0 -0.008242335 0.0

decoder.0.bias f4 [128]
00000000: 9836 86be 8ec1 693d 674c 053c df46 d53c
00000010: 7a37 0bbd 9059 99bd 40b8 723d 33fb 9a3d
00000020: d266 9bb4 561e 113e af69 0f3d 02e5 9a3d
00000030: 85fd 7fbc 9dd2 14ac 23a0 62bd 6b6a 2a3e
00000040: 5150 3fbc 71fc 903f 2381 9e3d 4872 493b
00000050: f93b a93d ce98 b7bd 8a2d e3b5 465f 7f3d
00000060: 89c7 943a fb00 80ba b4b3 7ebd c401 05bf
00000070: 51ae 053e 0e32 453e ab62 003e f26c 3b3d
00000080: baae 413d 2924 1cbc e5e7 863d ad3b 383d
00000090: c0e8 0e3d ff28 7bbd 9b4a 323d 71bc 913d
000000a0: 0986 99be 72b8 74be 32ec 263d a335 8c3c
000000b0: ea9d 0d3d 4382 6c3d 457e acbd 4d50 3fbb
000000c0: 7db3 40be bd4b 223f 6254 1dbe 5b95 9f3d
000000d0: 8944 0a3d 9d2d 19be c92c 1ebc 3c1b f83c
000000e0: 1951 b93d a9e1 633d 6c36 c1bd a88c 003d
000000f0: aa24 fbbd ebae a4be c975 86bd df07 083c
00000100: 3207 5cbe 03b7 263d 4809 d73b 95dd ecbc
00000110: 7b4e 0435 a82d 0abd d1c7 adbc 4d84 46bb
00000120: 45f9 f23d f23e d23d 6862 4eba c5de 9bbe
00000130: e4ae 193d bdb3 8a3d 92b7 9cb9 b803 afbb
00000140: 6673 073e 2968 053e 6095 5fbc 1b64 393e
00000150: be33 8a3c fa19 3c3d f3d8 1bab 4aae 77bb
00000160: cccf b23d fd43 86bd d5da d23d e15e bcad
00000170: 448f 8bbd 38e4 563d 6721 7c3d 3420 01bd
00000180: 8dff 3d3c d6db 8ebd 0269 cdbb 1bc0 64bd
00000190: eb14 d73c 8ef3 8b3d 39ad 423b df93 4dbe
000001a0: c98c 173d 13ad afbc bea4 0480 1b6a 5cb7
000001b0: 81f1 ccbb 2377 3c3d 9206 df3c 5b7c f43c
000001c0: 5e29 f73d 9df8 55bc 18f1 d83d 844e 1dbe
000001d0: 6f96 21bc d883 fabc 4820 643c 4638 a9bd
000001e0: f817 d3ac c5e3 88be 8058 84bd 51dc 13bd
000001f0: 65a0 9c3d 9944 33be 89f5 52bd 4d36 2cbd
-0.26213527 0.057069354 0.0081358915 0.02603477 -0.033988453 -0.07487786 0.059257746 0.07567444
-2.8945811e-07 0.14171728 0.035012897 0.07563211 -0.015624409 -2.1148979e-12 -0.0553285 0.16642158
-0.011676864 1.1327039 0.077394746 0.0030738283 0.08263392 -0.08964692 -1.6926072e-06 0.06234672
0.001135097 -0.0009765917 -0.062183097 -0.5195582 0.13054778 0.19257376 0.12537639 0.045758195
0.047285773 -0.009530106 0.06587199 0.044978786 0.034889936 -0.061318394 0.04352818 0.071160205
-0.29985073 -0.23898485 0.040752597 0.01711542 0.034574427 0.057741415 -0.084225215 -0.002919215
-0.1881847 0.6339682 -0.1536422 0.07792159 0.033756766 -0.14958806 -0.009654232 0.030286424
0.09048671 0.05563513 -0.09434208 0.03138414 -0.122628525 -0.32164702 -0.065654345 0.008302658
-0.2148712 0.040701877 0.0065623857 -0.028914252 4.9288036e-07 -0.033734947 -0.021213444 -0.003029126
0.11863951 0.10265912 -0.000787294 -0.30443397 0.037520304 0.067725636 -0.0002989141 -0.0053410195
0.13227615 0.13028015 -0.013646454 0.18104593 0.016870376 0.04592321 -5.536814e-13 -0.0037793093
0.0873104 -0.065559365 0.10295645 -2.141526e-11 -0.06814435 0.05246374 0.061555292 -0.031524852
0.011596573 -0.06975524 -0.0062686214 -0.05584727 0.026255092 0.06833564 0.00297053 -0.2007594
0.036999498 -0.021444833 -4.2644e-40 -1.31377265e-05 -0.0062543754 0.046012055 0.027224813 0.029844454
0.12068437 -0.013059762 0.1059286 -0.15361983 -0.009862526 -0.030580446 0.013923712 -0.082626864
-5.9996418e-12 -0.26736274 -0.064621925 -0.036098782 0.0764778 -0.17506637 -0.05150369 -0.042043973
