mnist_iter/end_of_4.pth (torch_old, 842197 bytes, 19 tensors)

encoder.0.weight f4 [128, 1, 3, 3]
0.3989062 0.007852799 -0.28159496 0.38083005 -0.023526773 -0.35846153 0.3936088 -0.058468547
-0.34288782 0.115687676 0.053355336 -0.0659871 -0.03336673 0.0036067686 -0.008396779 -0.083377436
0.019184621 0.11394426 -0.19185978 -0.080829844 -0.2786347 -0.14326173 0.21465869 0.028784811
-0.2454727 -0.019951686 -0.27061984 0.000360844 0.00035726727 0.00029320398 0.000102221944 0.00020357134
0.0001484054 0.00036502274 0.00042470434 0.00049177225 0.004138942 0.0037808653 0.006277425 0.0015616344
-0.0017304316 0.0024458547 0.0031912094 -0.0014568691 0.0047479263 0.47139448 0.17312348 0.36441058
0.32484645 0.035928324 0.41186035 0.44185147 0.117894456 0.5064841 -2.07347e-40 3.91053e-40
9.19894e-40 -9.78954e-40 -1.098775e-39 1.099254e-39 1.065528e-39 -1.104014e-39 0.0 0.03512078
-0.10556657 -0.15575331 0.10038593 -0.007941178 0.0058998866 0.09336918 0.052607983 0.12605904
-0.121344306 0.0747418 -0.09539292 0.20900579 0.32404327 0.13810042 0.05043119 0.19773701
-0.11085237 0.23775727 0.14727129 0.2828225 0.053084467 -0.12226068 0.03993934 0.10616705
-0.19122346 -0.2700259 0.22643825 -0.08108053 -0.21045472 0.15056482 -0.083740495 -0.24174951
0.30090013 -0.07562861 -0.20405498 0.0 0.0 0.0 0.0 3.1634184e-33
0.0 0.0 0.0 0.0 -0.06602071 -0.0037359344 -0.20253791 0.18106058
0.31349716 0.06181498 -0.24840991 0.09849791 -0.14903629 0.41693723 0.04482807 -0.17332995
0.38196883 0.021990607 -0.2652042 0.307759 -0.06547126 -0.33369407 0.0070480574 0.0064222272
0.006309415 0.0066375816 0.006283263 0.006136796 0.0065443804 0.006429351 0.0061785304 8.727236e-05
9.1442475e-05 8.542571e-05 9.167266e-05 9.3618975e-05 8.3854036e-05 9.008341e-05 8.984492e-05 7.644629e-05
-0.32121116 0.0025548313 0.077467345 0.109451726 0.22820108 0.37843406 0.22721586 0.254958
0.18688098 0.0006539102 0.003915184 0.0026983744 0.0035978116 0.0024902136 0.0009911491 0.0022706285
0.001728152 -0.00020552288 7.9745975e-13 -4.0336004e-13 4.9582178e-14 1.0206882e-12 1.6139724e-13 2.0083315e-13
9.720022e-14 -3.8110062e-14 1.0390401e-13 5.944e-41 -6.11028e-40 -6.73952e-40 -2.77265e-40 8.93499e-40
5.26919e-40 4.82952e-40 -2.68562e-40 -4.0291e-40 -0.11885577 -0.088071525 -0.19107924 -0.08841482
-0.127844 -0.17383859 0.34918174 0.1826918 0.037610497 -0.20111099 -0.2842943 -0.28832096
0.15919435 -0.03960093 -0.11677757 0.26723987 -0.091428384 0.09242516 -0.043994814 -0.10762498
-0.21140425 0.2239411 -0.049256943 0.045411848 -0.015729655 -0.015778005 0.1474697 -1.77306e-40
8.30704e-40 3.51942e-40 1.877357e-39 -1.04342e-40 1.488426e-39 1.681314e-39 -1.530173e-39 -4.91525e-40
-0.025924938 0.0915284 -0.13786241 -0.12665722 -0.086724535 0.027979614 0.0043782378 -0.0014016749
-0.035248198 -0.1156499 0.111431845 0.19194934 -0.044105943 0.048974067 0.28176814 -0.12993899
0.15845491 0.14218481 -0.448525 -0.14809658 -0.02957434 -0.065769486 -0.075950004 -0.00014467766
0.49019966 0.08389297 0.4638934 -0.2992723 0.015810294 0.060919818 -0.12343223 -0.08815815
-0.23832823 -0.13456765 0.14334668 -0.07844129 -0.21784963 -0.16077742 -0.19984356 -0.02936808
00000000: 6f3d cc3e 07a9 003c 372d 90be 28fc c23e
00000010: 38bb c0bc 4588 b7be 1887 c93e b77c 6fbd
00000020: fe8e afbe a9ed ec3d 208b 5a3d 3f24 87bd
00000030: 8dab 08bd 895f 6c3b a592 09bc cac1 aabd
00000040: 1129 9d3c 9c5b e93d e476 44be 1e8a a5bd
00000050: 35a9 8ebe 34b3 12be 7dcf 5b3e 20ce eb3c
00000060: 325d 7bbe b871 a3bc af8e 8abe a92f bd39
00000070: 9a4f bb39 2cb9 9939 fd5f d638 c475 5539
00000080: 459d 1b39 8660 bf39 daaa de39 47ea 003a
00000090: f69f 873b 65c8 773b dcb2 cd3b c1af cc3a
000000a0: a6cf e2ba a24a 203b 9c23 513b 6af4 beba
000000b0: 7e94 9b3b 9e5a f13e 4847 313e 0694 ba3e
000000c0: 4652 a63e 9429 133d 5cdf d23e 5b3a e23e
000000d0: a672 f13d f1a8 013f 0042 0280 1942 0400
000000e0: 4a04 0a00 eda8 0a80 f0f6 0b80 46f8 0b00
000000f0: 429a 0b00 8b05 0c80 0000 0000 cfda 0f3d
00000100: 4933 d8bd cc7d 1fbe 2397 cd3d b71b 02bc
00000110: d653 c13b 5738 bf3d 787b 573d 9f15 013e
00000120: 5d83 f8bd 3b12 993d 5d5d c3bd 9d05 563e
00000130: 00e9 a53e 326a 0d3e ef90 4e3d 927b 4a3e
00000140: 9106 e3bd a476 733e 49ce 163e 1cce 903e
00000150: 196f 593d cf63 fabd 6f97 233d 1c6e d93d
00000160: 15d0 43be d640 8abe 6edf 673e 8d0d a6bd
00000170: 7181 57be aa2d 1a3e 2380 abbd 2f8d 77be
00000180: 950f 9a3e 2ce3 9abd caf3 50be 0000 0000
00000190: 0000 0000 0000 0000 0000 0000 3c67 8309
000001a0: 0000 0000 0000 0000 0000 0000 0000 0000
000001b0: de35 87bd 94d6 74bb 1966 4fbe f267 393e
000001c0: b382 a03e b431 7d3d 2b5f 7ebe 46b9 c93d
000001d0: f89c 18be cc78 d53e a39d 373d 687d 31be
000001e0: 6b91 c33e a525 b43c d8c8 87be 9692 9d3e
000001f0: cc15 86bd f3d9 aabe 64f3 e63b 8c71 d23b
00000200: 36bf ce3b 1280 d93b d5e3 cd3b 2d17 c93b
00000210: 3e72 d63b 4ead d23b 4575 ca3b fe05 b738
00000220: cec4 bf38 9426 b338 6240 c038 4e55 c438
00000230: cbda af38 2aeb bc38 206b bc38 ca51 a038
00000240: ca75 a4be f56e 273b 33a7 9e3d 3a28 e03d
00000250: 8bad 693e 1cc2 c13e 46ab 683e db89 823e
00000260: ba5d 3f3e 2c6b 2b3a f24a 803b 36d7 303b
00000270: 43c9 6b3b da32 233b 72e9 813a d3ce 143b
00000280: 2983 e23a a181 57b9 0877 602b 4f12 e3aa
00000290: 5c4c 5f29 2ba6 8f2b 96b7 352a 371e 622a
000002a0: 1de0 da29 e9a1 2ba9 95f8 e929 b2a5 0000
000002b0: 4ca7 0680 b456 0780 e704 0380 b6ba 0900
000002c0: d6bc 0500 4642 0500 a4ec 0280 2663 0480
000002d0: a76a f3bd d85e b4bd 47aa 43be d412 b5bd
000002e0: 8ae9 02be be02 32be f3c7 b23e 8f13 3b3e
000002f0: 770d 1a3d 0af0 4dbe 068f 91be ce9e 93be
00000300: d803 233e 9634 22bd 1429 efbd aad3 883e
00000310: ce3e bbbd 6749 bd3d e833 34bd 7c6a dcbd
00000320: 5b7a 58be d150 653e a6c1 49bd c601 3a3d
00000330: 7adb 80bc e040 81bc 4c02 173e 42ee 0180
00000340: aa0b 0900 12d5 0300 4f71 1400 dd22 0180
00000350: 2035 1000 d24e 1200 80a9 1080 2c5a 0580
00000360: 8960 d4bc 3e73 bb3d ce2b 0dbe 6eb2 01be
00000370: a29c b1bd 8135 e53c 5277 8f3b 68b8 b7ba
00000380: 6a60 10bd dbd9 ecbd 6136 e43d 5e8e 443e
00000390: 6fa8 34bd 0899 483d ea43 903e ba0e 05be
000003a0: 0142 223e e598 113e 12a5 e5be a1a6 17be
000003b0: e345 f2bc 27b2 86bd ad8b 9bbd 9db4 17b9
000003c0: 73fb fa3e 14d0 ab3d 7083 ed3e 383a 99be
000003d0: 9784 813c 0f87 793d 09ca fcbd 438c b4bd
000003e0: 510c 74be 1acc 09be 79c9 123e d4a5 a0bd
000003f0: f913 5fbe d6a2 24be caa3 4cbe 5495 f0bc

encoder.0.bias f4 [128]
0.39332876 0.005299839 -0.23355864 -0.0018852465 -0.018455362 0.5439077 -1.975878e-39 0.13160853
0.47465354 0.27655298 -0.1139897 -3.3461134e-33 0.31170613 0.39634827 -0.022192001 -8.6984706e-05
0.7864906 -0.008624248 -9.854728e-12 -2.487969e-27 -0.21580672 -0.24965636 0.5352736 -1.390253e-39
-0.16775319 0.3036094 0.2656813 0.7573582 0.05189476 -8.689026e-09 0.042824294 -0.00722572
0.24632081 0.2921254 0.09074013 -0.06523452 0.19754055 -0.05979456 0.22365552 -8.341977e-12
-0.0155923385 0.08952929 -7.5352907e-19 0.09769691 0.27334946 0.5892783 -8.5651e-40 -0.105919
0.4745176 -0.2194169 0.25070193 0.19760875 -0.0021411728 0.13372946 0.15890248 -6.1243e-40
0.061100125 -0.0401999 0.23253666 0.053652547 -0.2178924 0.06613335 -0.023575468 -6.608091e-06
0.36563748 1.398242e-39 0.26526025 0.11264625 -9.68055e-40 -3.0983313e-07 0.24210969 0.2368039
-0.06004879 -6.1958585e-06 -2.06223e-40 0.0035083513 -0.2217223 -0.12265724 -0.00026573244 0.2668887
0.18186587 0.07389936 0.43188208 0.34747836 0.16415526 -0.109297104 -0.09316687 0.3135715
0.24566948 -1.1632479e-07 -0.010130643 9.68673e-40 0.11922706 -3.28921e-40 -0.010376981 -0.00033582086
-0.1275809 -1.1894554e-15 0.6628752 0.16706039 0.13595304 -0.09829771 0.24034476 0.27641135
-0.040640805 -2.0439798e-10 0.61047363 0.049164914 -1.02722694e-07 -0.18228449 0.013070286 -3.271606e-15
0.12287144 -0.13777289 0.20987426 -0.08959987 0.02335244 0.022825265 0.010058402 0.334188
-0.078860976 0.14969242 0.009549082 0.4232602 0.04082416 -1.2613512e-18 -0.14529602 0.25041637
00000000: 6362 c93e 46aa ad3b ff29 6fbe 601a f7ba
00000010: b32f 97bc 893d 0b3f f283 1580 63c4 063e
00000020: ca05 f33e 5a98 8d3e 6f73 e9bd fbfd 8a89
00000030: f297 9f3e 29ee ca3e 00cc b5bc 8f6b b6b8
00000040: 7357 493f b84c 0dbc c05d 2dad 021e 4593
00000050: 70fc 5cbe eba5 7fbe b107 093f 7623 0f80
00000060: 7ec7 2bbe b172 9b3e 6107 883e 3ae2 413f
00000070: 9a8f 543d be46 15b2 8768 2f3d bcc5 ecbb
00000080: 863b 7c3e 7691 953e f6d5 b93d ad99 85bd
00000090: 1248 4a3e 24eb 74bd f405 653e edc0 12ad
000000a0: 0277 7fbc 225b b73d 0c67 5ea1 5115 c83d
000000b0: 76f4 8b3e f1da 163f 9a53 0980 10ec d8bd
000000c0: f9f3 f23e d3ae 60be 015c 803e f359 4a3e
000000d0: eb52 0cbb 60f0 083e 55b7 223e 35ab 0680
000000e0: 2044 7a3d a6a8 24bd 171e 6e3e c6c2 5b3d
000000f0: 2f1f 5fbe ec70 873d 5721 c1bc 12bb ddb6
00000100: d634 bb3e bb39 0f00 31d0 873e 14b3 e63d
00000110: 8b8a 0a80 2457 a6b4 9aeb 773e b97c 723e
00000120: b8f5 75bd 05e6 cfb6 de3e 0280 5eec 653b
00000130: 2c0b 63be b833 fbbd 0152 8bb9 a3a5 883e
00000140: 0c3b 3a3e 8c58 973d a61f dd3e afe8 b13e
00000150: 5118 283e 29d7 dfbd 46ce bebd 728c a03e
00000160: c890 7b3e 3bce f9b3 fffa 25bc 448c 0a00
00000170: 512d f43d e694 0380 3704 2abc 1d11 b0b9
00000180: 91a4 02be 296b aba6 30b2 293f e111 2b3e
00000190: 4637 0b3e 4f50 c9bd f01c 763e ca85 8d3e
000001a0: f976 26bd ebbc 60af 0048 1c3f 2661 493d
000001b0: 6698 dcb3 c9a8 3abe c124 563c 7bbe 6ba7
000001c0: 06a4 fb3d 5614 0dbe 47e9 563e 2380 b7bd
000001d0: 9e4d bf3c 0dfc ba3c ffcb 243c b11a ab3e
000001e0: dd81 a1bd f848 193e c173 1c3c 90b5 d83e
000001f0: 3c37 273d 8024 baa1 7bc8 14be 9336 803e

encoder.2.weight f4 [64, 128, 4, 4]
-0.0 -0.0 -0.0 0.0 -0.0 -0.0 -0.0 -0.0
0.0 0.0 -0.0 0.0 0.0 0.0 -0.0 -0.0
-0.0 0.0 -0.0 0.0 -0.0 0.0 0.0 -0.0
-0.0 0.0 -0.0 0.0 -0.0 0.0 -0.0 0.0
-0.0 -0.0 -0.0 -0.0 -0.0 -0.0 -0.0 -0.0
-0.0 -0.0 -0.0 -0.0 -0.0 -0.0 -0.0 -0.0
-0.0 -0.0 -0.0 -0.0 -0.0 -0.0 -0.0 -0.0
-0.0 -0.0 -0.0 -0.0 -0.0 -0.0 -0.0 -0.0
0.0 0.0 -0.0 0.0 -0.0 0.0 -0.0 0.0
0.0 -0.0 0.0 -0.0 0.0 -0.0 0.0 0.0
-0.0 -0.0 -0.0 -0.0 0.0 -0.0 -0.0 -0.0
-0.0 -0.0 0.0 0.0 0.0 0.0 -0.0 0.0
-0.0 -0.0 -0.0 -0.0 -0.0 0.0 0.0 0.0
0.0 0.0 -0.0 0.0 -0.0 -0.0 0.0 -0.0
-0.0 -0.0 0.0 -0.0 -0.0 0.0 -0.0 -0.0
-0.0 -0.0 -0.0 -0.0 -0.0 -0.0 0.0 0.0
-0.0 -0.0 -0.0 -0.0 -0.0 -0.0 -0.0 -0.0
-0.0 0.0 -0.0 -0.0 -0.0 0.0 -0.0 -0.0
-0.0 -0.0 -0.0 -0.0 -0.0 -0.0 -0.0 -0.0
-0.0 -0.0 -0.0 0.0 -0.0 -0.0 -0.0 -0.0
-0.0 -0.0 -0.0 -0.0 -0.0 -0.0 -0.0 -0.0
-0.0 -0.0 -0.0 -0.0 -0.0 -0.0 -0.0 -0.0
-0.0 -0.0 -0.0 -0.0 -0.0 0.0 -0.0 -0.0
0.0 -0.0 -0.0 -0.0 0.0 -0.0 -0.0 0.0
-0.0 -0.0 -0.0 -0.0 -0.0 -0.0 -0.0 -0.0
-0.0 -0.0 -0.0 -0.0 -0.0 -0.0 -0.0 -0.0
-0.0 -0.0 0.0 -0.0 -0.0 0.0 0.0 -0.0
-0.0 -0.0 -0.0 0.0 -0.0 -0.0 -0.0 -0.0
-0.0 -0.0 -0.0 -0.0 -0.0 -0.0 -0.0 -0.0
-0.0 -0.0 -0.0 -0.0 -0.0 -0.0 -0.0 -0.0
-0.0 -0.0 0.0 -0.0 -0.0 -0.0 -0.0 0.0
-0.0 -0.0 -0.0 0.0 -0.0 0.0 -0.0 0.0
00000000: 0000 0080 0000 0080 0000 0080 0000 0000
00000010: 0000 0080 0000 0080 0000 0080 0000 0080
00000020: 0000 0000 0000 0000 0000 0080 0000 0000
00000030: 0000 0000 0000 0000 0000 0080 0000 0080
00000040: 0000 0080 0000 0000 0000 0080 0000 0000
00000050: 0000 0080 0000 0000 0000 0000 0000 0080
00000060: 0000 0080 0000 0000 0000 0080 0000 0000
00000070: 0000 0080 0000 0000 0000 0080 0000 0000
00000080: 0000 0080 0000 0080 0000 0080 0000 0080
00000090: 0000 0080 0000 0080 0000 0080 0000 0080
000000a0: 0000 0080 0000 0080 0000 0080 0000 0080
000000b0: 0000 0080 0000 0080 0000 0080 0000 0080
000000c0: 0000 0080 0000 0080 0000 0080 0000 0080
000000d0: 0000 0080 0000 0080 0000 0080 0000 0080
000000e0: 0000 0080 0000 0080 0000 0080 0000 0080
000000f0: 0000 0080 0000 0080 0000 0080 0000 0080
00000100: 0000 0000 0000 0000 0000 0080 0000 0000
00000110: 0000 0080 0000 0000 0000 0080 0000 0000
00000120: 0000 0000 0000 0080 0000 0000 0000 0080
00000130: 0000 0000 0000 0080 0000 0000 0000 0000
00000140: 0000 0080 0000 0080 0000 0080 0000 0080
00000150: 0000 0000 0000 0080 0000 0080 0000 0080
00000160: 0000 0080 0000 0080 0000 0000 0000 0000
00000170: 0000 0000 0000 0000 0000 0080 0000 0000
00000180: 0000 0080 0000 0080 0000 0080 0000 0080
00000190: 0000 0080 0000 0000 0000 0000 0000 0000
000001a0: 0000 0000 0000 0000 0000 0080 0000 0000
000001b0: 0000 0080 0000 0080 0000 0000 0000 0080
000001c0: 0000 0080 0000 0080 0000 0000 0000 0080
000001d0: 0000 0080 0000 0000 0000 0080 0000 0080
000001e0: 0000 0080 0000 0080 0000 0080 0000 0080
000001f0: 0000 0080 0000 0080 0000 0000 0000 0000
00000200: 0000 0080 0000 0080 0000 0080 0000 0080
00000210: 0000 0080 0000 0080 0000 0080 0000 0080
00000220: 0000 0080 0000 0000 0000 0080 0000 0080
00000230: 0000 0080 0000 0000 0000 0080 0000 0080
00000240: 0000 0080 0000 0080 0000 0080 0000 0080
00000250: 0000 0080 0000 0080 0000 0080 0000 0080
00000260: 0000 0080 0000 0080 0000 0080 0000 0000
00000270: 0000 0080 0000 0080 0000 0080 0000 0080
00000280: 0000 0080 0000 0080 0000 0080 0000 0080
00000290: 0000 0080 0000 0080 0000 0080 0000 0080
000002a0: 0000 0080 0000 0080 0000 0080 0000 0080
000002b0: 0000 0080 0000 0080 0000 0080 0000 0080
000002c0: 0000 0080 0000 0080 0000 0080 0000 0080
000002d0: 0000 0080 0000 0000 0000 0080 0000 0080
000002e0: 0000 0000 0000 0080 0000 0080 0000 0080
000002f0: 0000 0000 0000 0080 0000 0080 0000 0000
00000300: 0000 0080 0000 0080 0000 0080 0000 0080
00000310: 0000 0080 0000 0080 0000 0080 0000 0080
00000320: 0000 0080 0000 0080 0000 0080 0000 0080
00000330: 0000 0080 0000 0080 0000 0080 0000 0080
00000340: 0000 0080 0000 0080 0000 0000 0000 0080
00000350: 0000 0080 0000 0000 0000 0000 0000 0080
00000360: 0000 0080 0000 0080 0000 0080 0000 0000
00000370: 0000 0080 0000 0080 0000 0080 0000 0080
00000380: 0000 0080 0000 0080 0000 0080 0000 0080
00000390: 0000 0080 0000 0080 0000 0080 0000 0080
000003a0: 0000 0080 0000 0080 0000 0080 0000 0080
000003b0: 0000 0080 0000 0080 0000 0080 0000 0080
000003c0: 0000 0080 0000 0080 0000 0000 0000 0080
000003d0: 0000 0080 0000 0080 0000 0080 0000 0000
000003e0: 0000 0080 0000 0080 0000 0080 0000 0000
000003f0: 0000 0080 0000 0000 0000 0080 0000 0000

encoder.2.bias f4 [64]
-0.0 -0.0 -0.0 1.4516e-41 -0.0 -0.0 0.0 -3.2064797e-06
0.0 1.001023e-39 -0.0 -6.5376486e-16 -0.0 0.077140205 -0.0 -0.0
-0.0 0.029497208 -2.198339e-11 -0.0 0.024203781 -0.0 0.0030220689 -2.6218988e-25
0.16625293 2.4033083e-37 -0.0 -0.037093002 -7.837178e-09 -5.38946e-40 -2.9777342e-05 -0.0015549068
-0.003542801 -0.0 -0.0 -0.0 -0.0 -8.5419436e-15 -0.0 -0.015818777
0.036098957 -0.0 0.12325591 1.419061e-39 -0.0 -0.0 0.15770377 -5.99527e-40
0.0655782 -6.7247536e-12 0.044375718 -1.15746e-40 0.09299889 -3.6596397e-24 -0.0 0.0
0.045413133 -4.8533816e-12 0.0 0.027448092 0.0114278775 -0.0 -0.017143324 0.0
00000000: 0000 0080 0000 0080 0000 0080 7728 0000
00000010: 0000 0080 0000 0080 0000 0000 e72e 57b6
00000020: 0000 0000 72e6 0a00 0000 0080 556f 3ca6
00000030: 0000 0080 affb 9d3d 0000 0080 0000 0080
00000040: 0000 0080 21a4 f13c 325e c1ad 0000 0080
00000050: 0247 c63c 0000 0080 e70d 463b a549 a296
00000060: 353e 2a3e 898f a302 0000 0080 d5ee 17bd
00000070: 46a4 06b2 5dde 0580 5bca f9b7 04ce cbba
00000080: 562e 68bb 0000 0080 0000 0080 0000 0080
00000090: 0000 0080 c3e0 19a8 0000 0080 6196 81bc
000000a0: 80dc 133d 0000 0080 986d fc3d c473 0f00
000000b0: 0000 0080 0000 0080 197d 213e 3d87 0680
000000c0: dd4d 863d 329b ecac 50c3 353d a742 0180
000000d0: 3476 be3d 5193 8d98 0000 0080 0000 0000
000000e0: 1f03 3a3d 60c3 aaac 0000 0000 d2da e03c
000000f0: fe3b 3b3c 0000 0080 2870 8cbc 0000 0000

encoder.4.weight f4 [32, 64, 2, 2]
-1.19378e-39 -6.05776e-40 0.0 0.0 2.3779463e-38 -0.0 3.0643516e-38 -2.7350403e-38
1.75821e-39 -8.04659e-40 -1.490331e-39 1.788878e-39 0.0 0.0 0.0 0.0
-2.8559143e-24 4.776485e-20 -1.1776787e-22 7.9482984e-20 -5.04e-41 2.00843e-39 -0.0 -7.09934e-40
-1.528524e-39 -0.0 6.45278e-40 1.174714e-39 3.4481761e-06 3.1876702e-06 2.7464307e-06 2.875479e-06
0.0 0.0 0.0 -0.0 1.608e-40 -1.9108958e-38 -1.176435e-38 -2.5521633e-38
0.07974508 0.02746818 0.074662395 -0.10226989 -2.09337e-05 -2.9487028e-05 -1.8159239e-05 -2.3181552e-05
1.8080227e-21 -6.13105e-40 -1.8326581e-26 1.17956e-40 -0.050071668 0.19233538 0.022702895 0.07051139
4.033693e-05 4.4851797e-05 8.91375e-05 4.2136653e-05 -1.742803e-39 -5.78142e-40 1.349973e-39 -4.33429e-40
0.0 -6.95448e-40 -1.371144e-39 0.0 0.05008469 -0.041708913 -0.11536884 0.23540245
-0.00028786907 -0.0 -0.0 -0.0 0.0 -1.0787e-39 1.39408e-39 0.0
0.13658477 -0.23009646 0.22876242 0.2375123 1.2572161e-38 5.9281466e-38 -8.377368e-38 -1.837666e-38
0.019347554 0.083667055 0.06984815 0.083837956 1.6385587e-11 2.0260185e-12 2.7038372e-12 9.3021484e-14
-0.080102034 -0.0038978008 0.0617379 -0.010160718 -3.062747e-08 -1.7518685e-08 -9.182357e-08 -2.5630182e-08
-5.15985e-40 0.0 7.31904e-40 -8.70491e-40 -0.102092735 0.0051392606 0.046614796 -0.029124053
-2.4694207e-09 -2.7003133e-09 -3.5387915e-09 -2.898551e-09 -3.5927426e-38 -1.9787782e-38 1.962045e-39 -1.36268e-40
-0.00016501735 0.0009067582 3.550075e-06 0.00077390135 -0.0001492088 -5.4041534e-06 -0.00038788508 -9.413842e-06
0.025053782 0.022508914 -0.03787211 -0.055892218 -1.1610323e-09 -1.8577645e-09 -3.5866405e-09 -5.474977e-09
1.59882e-39 -0.0 1.225494e-39 -0.0 -0.021213742 -0.021056566 -0.016288787 -0.018822374
9.44002e-40 -1.36168e-40 -1.485385e-39 1.225964e-39 -9.448062e-19 -3.8117276e-19 -2.7573425e-17 -3.58996e-18
-1.5883727e-38 -1.8725128e-38 4.80788e-40 2.501096e-39 -0.030754177 -0.12669775 0.052160617 -0.09118611
-0.28239802 -0.10343037 0.059046123 0.13900508 4.90464e-40 1.682236e-39 1.145888e-39 -1.509696e-39
0.11156899 0.018507987 -0.102780856 0.0 2.9974478e-38 4.344967e-38 8.430031e-38 -1.0560175e-38
0.0 0.0 -0.0 -0.0 -0.0 0.0 -0.0 0.0
0.023948744 0.012537229 -0.0040073544 -0.1113382 -8.213469e-39 -1.6805585e-38 -1.0116708e-38 -2.1271126e-38
0.09118899 -0.110429235 -0.02538618 -0.12992363 2.0164946e-12 1.1937499e-12 2.4904306e-12 2.0582492e-12
0.07113136 0.15793075 0.2560599 0.25254938 -3.8597911e-38 -1.9541967e-38 -2.1456133e-38 -1.188505e-38
-0.024004148 0.02985762 0.102938056 0.06284142 4.1177805e-35 -5.301891e-39 -0.0 -2.349953e-30
1.785358e-39 1.369303e-39 0.0 1.317679e-39 -0.0 -2.61114e-40 0.0 0.0
-0.057540346 -0.039560247 0.2587961 0.32102022 0.0 -0.0 0.0 0.0
1.997715e-39 -1.117949e-39 1.156186e-39 5.43845e-40 0.16641644 0.15771212 -0.065010734 -0.07772482
-0.1221134 0.1218339 0.024396013 0.19734055 -1.3417664e-37 -1.8109928e-37 -1.9263753e-37 -1.5809404e-37
-0.032223355 -0.03208513 -0.031145625 -0.030941123 6.38858e-40 -9.53874e-40 1.36433e-40 1.597005e-39
00000000: c6ff 0c80 a898 0680 0000 0000 0000 0000
00000010: bc77 0101 0000 0080 d4d6 2601 e6e8 1481
00000020: 2d25 1300 10c3 0880 703a 1080 aa7a 1300
00000030: 0000 0000 0000 0000 0000 0000 0000 0000
00000040: 36f7 5c98 2990 611f 645f 0e9b 84ac bb1f
00000050: 7f8c 0080 b0de 1500 0000 0080 02bb 0780
00000060: e7a4 1080 0000 0080 c606 0700 a0ca 0c00
00000070: 3767 6736 c2eb 5536 524f 3836 5af8 4036
00000080: 0000 0000 0000 0000 0000 0000 0000 0080
00000090: 3fc0 0100 0014 d080 391a 8080 f7f3 0a81
000000a0: 6351 a33d f304 e13c 99e8 983d e072 d1bd
000000b0: c79a afb7 e95a f7b7 ab54 98b7 0176 c2b7
000000c0: 3f9c 081d 16ad 0680 677f b594 d048 0100
000000d0: f317 4dbd 91f3 443e 6cfb b93c 4768 903d
000000e0: 732f 2938 401f 3c38 55ef ba38 e3bb 3038
000000f0: 3afa 1280 a04b 0680 2db3 0e00 39b8 0480
00000100: 0000 0000 a092 0780 31ee 0e80 0000 0000
00000110: 9b25 4d3d f7d6 2abd 8046 ecbd 570d 713e
00000120: 22ed 96b9 0000 0080 0000 0080 0000 0080
00000130: 0000 0000 fabe 0b80 212e 0f00 0000 0000
00000140: e1dc 0b3e 689e 6bbe b240 6a3e 6d36 733e
00000150: 12e6 8800 2761 a101 bc0d e481 a71a c880
00000160: c37e 9e3c a259 ab3d 8c0c 8f3d 3cb3 ab3d
00000170: 1021 902d 8191 0e2c 0044 3e2c 3c77 d129
00000180: 890c a4bd 3f72 7fbb e1e0 7c3d 2479 26bc
00000190: 428b 03b3 ff7b 96b2 8b30 c5b3 5e29 dcb2
000001a0: 5b9e 0580 0000 0000 40f8 0700 937a 0980
000001b0: ff15 d1bd 3e67 a83b 28ef 3e3d 9195 eebc
000001c0: 82b2 29b1 6a90 39b1 142f 73b1 d92f 47b1
000001d0: 869b 4381 4978 d780 625d 1500 dc7b 0180
000001e0: 8208 2db9 83b3 6d3a d33d 6e36 a4df 4a3a
000001f0: ef74 1cb9 5355 b5b6 0e5d cbb9 25f0 1db7
00000200: 973d cd3c 9d64 b83c c91f 1bbd 3def 64bd
00000210: 3192 9fb0 4754 ffb0 d978 76b1 681e bcb1
00000220: dc68 1100 0000 0080 2e58 0d00 0000 0080
00000230: 71c8 adbc d27e acbc 1070 85bc 6131 9abc
00000240: 7e47 0a00 957b 0180 a62c 1080 7d59 0d00
00000250: c56d 8ba1 3301 e1a0 e951 fea3 3772 84a2
00000260: 5ef5 ac80 0ae6 cb80 3e3c 0500 0a3c 1b00
00000270: 2ff0 fbbc 0ebd 01be 5fa6 553d c9bf babd
00000280: 7996 90be 4dd3 d3bd 59da 713d 5957 0e3e
00000290: 3757 0500 6451 1200 457a 0c00 6b70 1080
000002a0: 487e e43d 109e 973c c57e d2bd 0000 0000
000002b0: 5332 2301 0090 6c01 be7c e501 79fd 7280
000002c0: 0000 0000 0000 0000 0000 0080 0000 0080
000002d0: 0000 0080 0000 0000 0000 0080 0000 0000
000002e0: 2830 c43c f368 4d3c 2050 83bb 4805 e4bd
000002f0: cf6f 5980 22ff b680 4429 6e80 3f9f e780
00000300: 4bc1 ba3d b928 e2bd aef6 cfbc b30a 05be
00000310: f0e5 0d2c 5f01 a82b 9c3f 2f2c 1fd6 102c
00000320: 52ad 913d 99b8 213e 491a 833e 274e 813e
00000330: a325 5281 0ecb d480 f8a2 e980 af6a 8180
00000340: 59a4 c4bc f897 f43c 30d1 d23d 01b3 803d
00000350: 53f0 5a06 84bb 3980 0000 0080 9da6 3e8e
00000360: da70 1300 0fe9 0e00 0000 0000 2759 0e00
00000370: 0000 0080 e1d7 0280 0000 0000 0000 0000
00000380: 6daf 6bbd ed09 22bd ec80 843e c35c a43e
00000390: 0000 0000 0000 0080 0000 0000 0000 0000
000003a0: d1c0 1500 632c 0c80 fa96 0c00 05ec 0500
000003b0: 1269 2a3e 497f 213e 5924 85bd 312e 9fbd
000003c0: 9716 fabd 0d84 f93d 26da c73c a413 4a3e
000003d0: bca1 3682 e47f 7682 311a 8382 bc2f 5782
000003e0: a3fc 03bd b36b 03bd 1c25 ffbc 3d78 fdbc
000003f0: e0f4 0600 0363 0a80 527c 0100 cd63 1100

encoder.4.bias f4 [32]
0.09673424 -8.3113764e-36 0.0800466 -2.4914701e-15 -0.0007116013 3.48814e-40 -5.475e-33 0.038950864
0.09580594 0.050163183 -0.010102779 0.19683778 0.047956035 0.0011436982 0.14197317 -0.03163243
-6.2323924e-10 -6.63142e-40 0.05475643 7.933312e-05 0.018728133 -0.02591635 -0.036515 -9.769019e-23
-0.0013488462 -1.612779e-11 -6.806171e-08 0.044435892 0.026436064 -1.9363003e-17 -0.0005169637 0.04399696
00000000: 9a1c c63d 70c3 3085 79ef a33d 8387 33a7
00000010: c18a 3aba 5acc 0300 306c e389 f18a 1f3d
00000020: e835 c43d e977 4d3d 2086 25bc d88f 493e
00000030: 8c6d 443d 25e8 953a 6a61 113e 0291 01bd
00000040: 9050 2bb0 9238 0780 4748 603d a55f a638
00000050: be6b 993c 864e d4bc c190 15bd 4c33 ec9a
00000060: c5cb b0ba 8edc 8dad 5229 92b3 6902 363d
00000070: 7290 d83c 9997 b2a3 d984 07ba 2836 343d

encoder.6.weight f4 [16, 32, 3, 3]
-1.4307582e-09 -3.4559983e-11 -3.0995836e-10 -0.0 -0.0 -2.8161063e-17 -0.0 -3.715949e-14
-0.0 -0.0 -0.0 -0.0 -0.0 -0.0 -0.0 0.0
-0.0 -0.0 -3.755888e-13 4.529498e-21 -2.3897667e-14 -0.0 -0.0 -0.0
-0.0 -5.790387e-10 -3.982168e-10 -0.0 -0.0 5.69006e-40 0.0 0.0
0.0 -0.0 -0.0 -0.0 -2.0018362e-30 -1.0120676e-30 1.18260255e-27 -0.0
-0.0 -0.0 -0.0 -6.54002e-09 -0.0 0.0 0.0 -0.0
0.0 0.0 -0.0 0.0 0.0 0.0 1.887286e-39 0.0
0.0 -5.7891e-40 -0.0 -1.047504e-39 -0.0 0.0 -0.0 -3.4359066e-10
-1.2113982e-11 -3.3570666e-10 -0.0 -0.0 -0.0 -0.0 -0.0 -0.0
-4.5658147e-19 -1.8078901e-20 1.6093951e-21 -0.0 -0.0 -0.0 -0.0 -0.0
-1.03276374e-10 1.5753912e-22 2.6307365e-27 -8.84059e-29 -0.0 -0.0 -0.0 -0.0
-4.9168776e-09 -0.0 2.8240415e-22 2.1260612e-25 9.6251664e-32 5.2123117e-33 -0.0 4.3260723e-33
-0.0 -0.0 -0.0 -0.0 -0.0 -1.8085038e-34 -0.0 -0.0
-0.0 -0.0 -0.0 -0.0 -3.8859547e-09 -6.6298617e-10 -3.4671227e-10 -0.0
-0.0 -0.0 -0.0 -6.5742967e-09 -0.0 -0.0 -9.817829e-34 -0.0
-0.0 -0.0 -0.0 -0.0 1.3808793e-34 -1.2870723e-35 -0.0 -0.0
-0.0 -3.341551e-33 -0.0 -3.146402e-33 -0.0 -0.0 0.0 -0.0
1.3283667e-32 -0.0 -0.0 -0.0 -7.545085e-34 -0.0 -0.0 -0.0
0.0 0.0 0.0 0.0 0.0 -0.0 -0.0 -0.0
-0.0 -0.0 -0.0 -0.0 -0.0 -0.0 -0.0 -0.0
-0.0 -0.0 -0.0 -3.7645215e-32 -0.0 1.0227292e-32 -1.041766e-34 -0.0
-1.8735533e-24 -0.0 -0.0 -0.0 -1.7714695e-32 -0.0 -0.0 -0.0
-0.0 -0.0 -0.0 -0.0 -0.0 -0.0 -1.4381443e-30 -6.840823e-33
-0.0 5.1998048e-33 -0.0 -0.0 -0.0 -7.4955375e-09 -4.881396e-10 -8.158922e-09
-0.0 -0.0 -0.0 -0.0 -0.0 2.9213703e-33 -5.245096e-32 -4.4465994e-33
-0.0 -2.2523675e-34 -1.841297e-35 -2.912588e-33 9.830123e-34 -0.0 -0.0 0.0
-0.0 -0.0 0.0 -0.0 -0.0 -0.0 -0.0 -0.0
2.6735467e-21 3.0890784e-27 9.28792e-25 -0.0 -0.0 -1.2228615e-32 -0.0 -0.0
-1.1374879e-30 -0.0 -0.0 -1.541007e-39 -1.83612e-40 0.0 0.0 -0.0
-1.09803e-40 -1.858801e-39 -0.0 0.0 -0.0 -0.0 -0.0 -0.0
-0.0 0.0 -0.0 -5.929164e-12 -9.571559e-16 -2.6798664e-14 -0.0 -0.0
-0.0 -0.0 -0.0 -1.4683947e-09 -0.0 -0.0 -0.0 -0.0
00000000: 54a4 c4b0 15ff 17ae c366 aaaf 0000 0080
00000010: 0000 0080 b7de 01a4 0000 0080 fa59 27a9
00000020: 0000 0080 0000 0080 0000 0080 0000 0080
00000030: 0000 0080 0000 0080 0000 0080 0000 0000
00000040: 0000 0080 0000 0080 0d70 d3aa 9e1e ab1d
00000050: 4540 d7a8 0000 0080 0000 0080 0000 0080
00000060: 0000 0080 3a2a 1fb0 08ec daaf 0000 0080
00000070: 0000 0080 2832 0600 0000 0000 0000 0000
00000080: 0000 0000 0000 0080 0000 0080 0000 0080
00000090: 8368 228e a537 a48d 0f64 bb12 0000 0080
000000a0: 0000 0080 0000 0080 0000 0080 a0b6 e0b1
000000b0: 0000 0080 0000 0000 0000 0000 0000 0080
000000c0: 0000 0000 0000 0000 0000 0080 0000 0000
000000d0: 0000 0000 0000 0000 fc8c 1400 0000 0000
000000e0: 0000 0000 c44d 0680 0000 0080 0468 0b80
000000f0: 0000 0080 0000 0000 0000 0080 16e4 bcaf
00000100: 861c 55ad 838e b8af 0000 0080 0000 0080
00000110: 0000 0080 0000 0080 0000 0080 0000 0080
00000120: 52c2 06a1 1ac0 aa9e 7534 f31c 0000 0080
00000130: 0000 0080 0000 0080 0000 0080 0000 0080
00000140: 6e1b e3ae ff73 3e1b ad6d 5013 b622 e090
00000150: 0000 0080 0000 0080 0000 0080 0000 0080
00000160: 50f1 a8b1 0000 0080 edb3 aa1b c998 8316
00000170: 34e2 f90b ce82 d809 0000 0080 b1b2 b309
00000180: 0000 0080 0000 0080 0000 0080 0000 0080
00000190: 0000 0080 3264 7087 0000 0080 0000 0080
000001a0: 0000 0080 0000 0080 0000 0080 0000 0080
000001b0: 3885 85b1 813d 36b0 6a9b beaf 0000 0080
000001c0: 0000 0080 0000 0080 0000 0080 20e4 e1b1
000001d0: 0000 0080 0000 0080 6d20 a388 0000 0080
000001e0: 0000 0080 0000 0080 0000 0080 0000 0080
000001f0: e38c 3707 71dd 8885 0000 0080 0000 0080
00000200: 0000 0080 77cd 8a89 0000 0080 49b2 8289
00000210: 0000 0080 0000 0080 0000 0000 0000 0080
00000220: 0bf2 890a 0000 0080 0000 0080 0000 0080
00000230: 7cba 7a88 0000 0080 0000 0080 0000 0080
00000240: 0000 0000 0000 0000 0000 0000 0000 0000
00000250: 0000 0000 0000 0080 0000 0080 0000 0080
00000260: 0000 0080 0000 0080 0000 0080 0000 0080
00000270: 0000 0080 0000 0080 0000 0080 0000 0080
00000280: 0000 0080 0000 0080 0000 0080 1377 438b
00000290: 0000 0080 9d69 540a 7679 0a87 0000 0080
000002a0: 8cf5 1098 0000 0080 0000 0080 0000 0080
000002b0: bdf5 b78a 0000 0080 0000 0080 0000 0080
000002c0: 0000 0080 0000 0080 0000 0080 0000 0080
000002d0: 0000 0080 0000 0080 2d5a e98d 0e14 0e8a
000002e0: 0000 0080 cffd d709 0000 0080 0000 0080
000002f0: 0000 0080 b9c5 00b2 c52d 06b0 522b 0cb2
00000300: 0000 0080 0000 0080 0000 0080 0000 0080
00000310: 0000 0080 adb2 7209 a42b 888b 5bb4 b889
00000320: 0000 0080 0cb2 9587 dfcc c385 e5f7 7189
00000330: b854 a308 0000 0080 0000 0080 0000 0000
00000340: 0000 0080 0000 0080 0000 0000 0000 0080
00000350: 0000 0080 0000 0080 0000 0080 0000 0080
00000360: ea01 4a1d f4bd 7413 3eb9 8f17 0000 0080
00000370: 0000 0080 78fa 7d8a 0000 0080 0000 0080
00000380: 6691 b88d 0000 0080 0000 0080 b3c7 1080
00000390: d6ff 0180 0000 0000 0000 0000 0000 0080
000003a0: 1632 0180 953d 1480 0000 0080 0000 0000
000003b0: 0000 0080 0000 0080 0000 0080 0000 0080
000003c0: 0000 0080 0000 0000 0000 0080 299d d0ac
000003d0: d2f0 89a6 8361 f1a8 0000 0080 0000 0080
000003e0: 0000 0080 0000 0080 0000 0080 8cd0 c9b0
000003f0: 0000 0080 0000 0080 0000 0080 0000 0080

encoder.6.bias f4 [16]
-0.0 0.060206953 0.0044633 0.051018424 0.08091974 0.0 -0.008969206 0.08915132
0.030458227 -0.0 -0.022602744 -1.1676032e-09 -0.0 -0.01857933 0.066019066 -1.72957e-40
00000000: 0000 0080 919b 763d e040 923b b2f8 503d
00000010: 40b9 a53d 0000 0000 94f3 12bc f894 b63d
00000020: 8883 f93c 0000 0080 6429 b9bc 6379 a0b0
00000030: 0000 0080 ae33 98bc 0135 873d 22e2 0180

encoder.9.weight f4 [8, 16, 3, 3]
-0.0 -0.0 -0.0 -1.5440226e-05 -1.7512003e-06 -1.3134706e-08 -0.0 -0.0
-0.0 -0.018241836 0.0049174447 -0.004377081 0.019150496 -0.04784024 0.00040437686 0.365218
-0.036200736 -0.024483468 -0.0596718 0.017084679 -0.01771956 0.029982146 0.055870477 -0.05865801
-0.030843625 0.11276833 -0.11828873 0.022421028 -0.104444176 -0.005226955 0.07078003 -0.030543419
-0.14595756 -0.030367328 -0.09541743 -0.0202668 -0.02305608 -0.03481487 -0.016313227 0.099344924
0.17323582 -0.040371045 0.05694007 -0.016832575 0.018615916 -0.09775392 -0.18424852 -0.0
-0.05053058 0.15559982 0.005930905 -0.16554312 -0.07378099 -0.0013485809 -0.029623175 -0.0015805198
-0.028644687 -0.056223575 -0.06682105 -0.108906806 0.4348474 0.056319617 -0.08705327 0.024940135
-0.01486611 -0.038271252 -0.046792034 -0.101186216 -0.17180394 0.37493426 -0.022845019 -0.043263856
-0.03437727 -0.0835246 -0.022218306 0.021084806 0.08090131 -0.006223653 0.16531956 -0.098628506
-0.020420263 4.30509e-21 4.95436e-40 -0.0 -9.26308e-23 -6.823624e-14 -1.1012127e-11 -6.281726e-08
-1.7269955e-06 -1.5051397e-06 0.03341811 0.032759357 -1.84084e-40 0.035642125 0.033810914 0.019952653
0.036650408 0.035710823 0.026925405 3.6163588e-06 3.446752e-09 1.913696e-39 1.5773181e-06 5.304974e-09
4.65483e-40 3.5166727e-06 3.07137e-08 4.00176e-23 -0.0 -0.0 -0.0 -0.0
-0.0 -0.0 -0.0 -0.0 -0.0 0.07229295 -0.003592894 -7.074954e-06
-0.04104601 -0.07662646 -0.059034206 0.04457559 0.19235796 -0.0329459 0.03138161 0.0818131
-0.010935943 0.034513734 -0.1053253 -0.0068492778 0.3286239 -0.016930068 0.086824514 7.7492916e-19
0.0 -0.0 1.2326505e-11 0.0 0.0 0.0 0.0 1.18342886e-17
-7.816726e-08 -1.0054996e-09 -0.0 -0.0 -0.0 -1.016496e-09 -1.823854e-09 -9.884099e-28
-0.0 0.22669433 -0.07128665 0.050132737 0.05503173 -0.12028583 0.048960786 -0.12307558
0.095953666 0.0 0.23331052 0.12825522 -0.12735027 -0.1529437 0.046654537 0.047408547
0.019033667 -0.07752968 0.01855802 -0.16162379 -0.091543384 -0.0182049 0.15154548 -0.0
0.028210424 0.05709954 -0.031479083 -0.042918094 0.055149555 0.1324202 0.051414378 0.18294398
-0.0055618268 0.025641158 0.15253235 -0.04586162 0.016343964 0.0 0.08081516 0.008080273
0.0 0.0 -0.0 -0.07921446 0.0 -0.065492555 0.32078877 0.06352055
0.0064475643 0.05713084 0.008704427 0.067772076 -0.138811 -0.01158725 -0.035939015 -0.0001375395
0.0005946159 -0.1081585 0.42896622 -0.024748225 -0.06285981 -0.12551722 -0.064916305 -0.03854081
-0.16598167 0.06572381 -0.082571626 0.24881546 0.018147867 0.058840137 -0.08556358 0.03587666
-0.06366439 9.2731005e-07 6.5706374e-09 2.755067e-09 1.8016377e-06 7.3718426e-10 2.4920147e-10 2.6379507e-06
5.5712336e-12 1.7683598e-12 0.024799597 0.024966957 0.025663087 0.025812753 0.0 0.027436174
0.02423947 0.02388411 0.017052393 -5.0990206e-12 -8.3487706e-08 -3.3375814e-05 2.2491608e-14 -1.0803734e-08
-1.850917e-05 1.1442491e-09 1.2473e-40 -2.4772058e-07 0.0 -0.0 0.0 0.0
00000000: 0000 0080 0000 0080 0000 0080 a285 81b7
00000010: c90a ebb5 0ca7 61b2 0000 0080 0000 0080
00000020: 0000 0080 e76f 95bc 8422 a13b 9e6d 8fbb
00000030: 80e1 9c3c 21f4 43bd 8b02 d439 dbfd ba3e
00000040: 3947 14bd 8e91 c8bc 6b6a 74bd 2bf5 8b3c
00000050: 9c28 91bc 1e9d f53c 71d8 643d 6243 70bd
00000060: c5ab fcbc 15f3 e63d 5d41 f2bd 4eac b73c
00000070: d4e6 d5bd e046 abbb 1ff5 903d 3136 fabc
00000080: e675 15be e7c4 f8bc 376a c3bd 8f06 a6bc
00000090: 1be0 bcbc 0a9a 0ebd 51a3 85bc 5a75 cb3d
000000a0: bb64 313e 1c5c 25bd fe39 693d 78e4 89bc
000000b0: 6880 983c 3533 c8bd a5ab 3cbe 0000 0080
000000c0: 27f9 4ebd 8f55 1f3e 0a58 c23b 2384 29be
000000d0: 7d1a 97bd dec2 b0ba 4dac f2bc 7229 cfba
000000e0: 43a8 eabc b14a 66bd 7ad9 88bd 880a dfbd
000000f0: 52a4 de3e 66af 663d fc48 b2bd 414f cc3c
00000100: fc90 73bc 51c2 1cbd 01a9 3fbd b83a cfbd
00000110: 5fed 2fbe 62f7 bf3e 7a25 bbbc 7135 31bd
00000120: 2ecf 0cbd f20e abbd 2a03 b6bc 0bba ac3c
00000130: 96af a53d c9ef cbbb 8849 293e befd c9bd
00000140: 6548 a7bc 47a4 a21d 1365 0500 0000 0080
00000150: b0f7 df9a 84a7 99a9 36ba 41ad 27e6 86b3
00000160: 1dcb e7b5 3504 cab5 6ee1 083d ad2e 063d
00000170: 2701 0280 7afd 113d 507d 0a3d bf73 a33c
00000180: bd1e 163d 8345 123d ab92 dc3c 92b0 7236
00000190: e7db 6c31 9bd6 1400 3db4 d335 0b47 b631
000001a0: 9411 0500 faff 6b36 12ea 0333 6483 411a
000001b0: 0000 0080 0000 0080 0000 0080 0000 0080
000001c0: 0000 0080 0000 0080 0000 0080 0000 0080
000001d0: 0000 0080 530e 943d c276 6bbb 6465 edb6
000001e0: dc1f 28bd 55ee 9cbd dacd 71bd e594 363d
000001f0: 7cf9 443e 48f2 06bd 018a 003d a08d a73d
00000200: ab2c 33bc 465e 0d3d cab4 d7bd e86f e0bb
00000210: 6441 a83e edb0 8abc 0dd1 b13d feb7 6421
00000220: 0000 0000 0000 0080 a5d9 582d 0000 0000
00000230: 0000 0000 0000 0000 0000 0000 d94d 5a23
00000240: e8dc a7b3 df31 8ab0 0000 0080 0000 0080
00000250: 0000 0080 c6b4 8bb0 28ab fab0 ab9e 9c92
00000260: 0000 0080 8f22 683e bcfe 91bd fc57 4d3d
00000270: f468 613d 6b58 f6bd 1b8b 483d 0d0f fcbd
00000280: 5b83 c43d 0000 0000 f4e8 6e3e 5655 033e
00000290: 1c68 02be 469d 1cbe d418 3f3d 772f 423d
000002a0: 7eec 9b3c e2c7 9ebd fd06 983c b580 25be
000002b0: 197b bbbd 7122 95bc bd2e 1b3e 0000 0080
000002c0: 8c19 e73c 35e1 693d 36f0 00bd e2ca 2fbd
000002d0: 80e4 613d 2999 073e e297 523d ab55 3b3e
000002e0: fc3f b6bb 680d d23c 7131 1c3e 65d9 3bbd
000002f0: c7e3 853c 0000 0000 6b82 a53d 1f63 043c
00000300: 0000 0000 0000 0000 0000 0080 313b a2bd
00000310: 0000 0000 f620 86bd 6d3e a43e 1017 823d
00000320: 1746 d33b 0702 6a3d 039d 0e3c 16cc 8a3d
00000330: 7924 0ebe 73d8 3dbc ca34 13bd 7a38 10b9
00000340: ffdf 1b3a 3482 ddbd 76a1 db3e cabc cabc
00000350: a5bc 80bd 9687 00be d7f2 84bd f8dc 1dbd
00000360: 19f7 29be 349a 863d 501b a9bd 7bc9 7e3e
00000370: d6aa 943c 5b02 713d f53b afbd 68f3 123d
00000380: 7a62 82bd 43ec 7835 f0c3 e131 a753 3d31
00000390: cdcf f135 bba2 4a30 fdff 882f a607 3136
000003a0: 3605 c42c e0df f82b 8628 cb3c 8187 cc3c
000003b0: 653b d23c 4475 d33c 0000 0000 d4c1 e03c
000003c0: da91 c63c 9ca8 c33c 76b1 8b3c e567 b3ac
000003d0: da49 b3b3 02fd 0bb8 1e96 ca28 539b 39b2
000003e0: 2444 9bb7 b043 9d30 b25b 0100 75fe 84b4
000003f0: 0000 0000 0000 0080 0000 0000 0000 0000

encoder.9.bias f4 [8]
-0.011670168 -0.030081267 0.0 -0.0 5.21154e-40 -0.1358111 -0.0 0.18713912
00000000: 3b34 3fbc fd6c f6bc 0000 0000 0000 0080
00000010: c4ac 0500 1112 0bbe 0000 0080 66a1 3f3e

decoder.0.weight f4 [8, 128, 3, 3]
0.10752664 0.21507075 0.095591374 -0.16607744 0.0 0.0 -0.0 0.0
-0.003375679 -0.18334483 -0.0 0.12905213 -0.0 0.09729777 -0.0 -0.17844233
-0.0 -0.19878504 -0.0 0.0 0.020777304 -0.0 -0.0121058365 -0.0
0.12339045 0.0 0.0 0.33287185 0.0 0.05716582 0.0 -0.023328235
0.0 0.033431727 0.0 -0.033579234 0.0 0.0 -0.0 -0.0
0.0 -0.0 -0.0 -0.0 -0.0 0.041331943 -0.0 0.018543925
-0.0 -0.0 -0.0 -0.1684713 -0.0 -0.064435 -0.0 -0.0
-0.1874839 0.0 -0.0 0.0 -0.0 -9.0196e-41 -0.022614922 -0.035135187
-0.009692725 -0.59254867 -0.022837074 -0.013447674 -0.014787267 -0.034079634 -0.019119866 0.03154383
0.007935003 -0.061398488 -0.0 0.0 -0.16815439 -0.078537755 -0.07782063 0.0
-0.0066625047 -0.0 -0.0 -0.0 -0.0 -0.0 -0.0 0.0
0.0 -0.0 0.023545714 -0.0 -0.11954683 0.18761413 -0.0 0.0
-0.03381127 -0.0 -0.05250108 -0.0 -0.0048910873 -0.0 0.19647071 -0.0
-0.12687114 -0.0 -6.558331e-05 -0.0 -0.0 0.0 0.18128683 0.057060707
-0.0 -0.012597906 0.096664526 -0.0 -0.0 0.06877071 0.23512395 -0.0
-0.00035596604 0.0 -0.0090804 -0.109201215 -0.13662948 -0.0069743143 0.03671415 -0.0
0.009145861 -0.0 0.0 -0.0 -0.027073294 -0.0 -0.060195845 -0.0035269766
-0.19933636 -0.007427155 -0.00911896 -0.034774404 -0.21642175 -0.16367227 -0.06787701 0.0477227
0.11220383 -0.0 0.15136403 1.159692e-39 0.0 -0.0 -0.008665958 -0.0
-0.03424642 -0.07689355 0.24616644 0.34914342 0.18380463 -0.0 -0.07912484 -0.18691508
-7.86145e-40 0.09372697 0.13437851 -0.081250526 -0.22372119 0.0 0.119966134 0.0
-0.07233924 -0.011236316 0.0010546132 -0.0 -0.22256906 -0.0 -0.087515056 0.020287175
0.10148767 -0.0 -0.113266446 -0.0 0.0 -0.13588709 -0.0 -0.084228136
0.0 0.013371021 0.14345813 0.0 -0.0 -0.0021719565 0.0 -0.037893906
0.0 0.0 0.0 -0.12724079 -0.015040069 0.0 -0.23791686 0.0
0.0 0.0 -0.0 0.0 0.0 0.0 -0.0 -0.0
0.10328898 -0.07893876 -0.0 -0.0 -0.0 -0.0 -0.053299267 -0.0
-0.14717703 0.17717887 -0.06681245 -3.65121e-40 -9.23237e-40 -9.7697e-41 -0.2288157 -0.0005895993
-0.0 -0.0047725663 0.055637527 -0.01914933 -0.010784621 0.003579007 -0.0 -0.037125774
-0.0 -0.0 0.0 0.0 0.0 0.0 -0.0 1.75378e-40
-0.0027304976 0.0 -2.10149e-40 0.18428399 -0.2188977 -0.19103879 6.07418e-40 0.07387181
-0.0 -0.0 -0.064717084 -0.0 0.010136788 -0.0 0.0 -0.0
00000000: ed36 dc3d 823b 5c3e 69c5 c33d 3410 2abe
00000010: 0000 0000 0000 0000 0000 0080 0000 0000
00000020: 7f3a 5dbb bfbe 3bbe 0000 0080 3e26 043e
00000030: 0000 0080 0e44 c73d 0000 0080 96b9 36be
00000040: 0000 0080 4e8e 4bbe 0000 0080 0000 0000
00000050: 2a35 aa3c 0000 0080 8f57 46bc 0000 0080
00000060: 22b4 fc3d 0000 0000 0000 0000 2e6e aa3e
00000070: 0000 0000 b526 6a3d 0000 0000 db1a bfbc
00000080: 0000 0000 b5ef 083d 0000 0000 618a 09bd
00000090: 0000 0000 0000 0000 0000 0080 0000 0080
000000a0: 0000 0000 0000 0080 0000 0080 0000 0080
000000b0: 0000 0080 af4b 293d 0000 0080 6ee9 973c
000000c0: 0000 0080 0000 0080 0000 0080 be83 2cbe
000000d0: 0000 0080 7ff6 83bd 0000 0080 0000 0080
000000e0: c8fb 3fbe 0000 0000 0000 0080 0000 0000
000000f0: 0000 0080 6efb 0080 ee42 b9bc eae9 0fbd
00000100: 3cce 1ebc 45b1 17bf d114 bbbc a253 5cbc
00000110: 4b46 72bc 1697 0bbd 44a1 9cbc 1a34 013d
00000120: d101 023c fb7c 7bbd 0000 0080 0000 0000
00000130: aa30 2cbe 67d8 a0bd 6c60 9fbd 0000 0000
00000140: 2451 dabb 0000 0080 0000 0080 0000 0080
00000150: 0000 0080 0000 0080 0000 0080 0000 0000
00000160: 0000 0000 0000 0080 f1e2 c03c 0000 0080
00000170: f8d4 f4bd eb1d 403e 0000 0080 0000 0000
00000180: b07d 0abd 0000 0080 5f0b 57bd 0000 0080
00000190: 6a45 a0bb 0000 0080 9e2f 493e 0000 0080
000001a0: 82ea 01be 0000 0080 c589 89b8 0000 0080
000001b0: 0000 0080 0000 0000 41a3 393e 7db8 693d
000001c0: 0000 0080 7367 4ebc 0df8 c53d 0000 0080
000001d0: 0000 0080 a8d7 8c3d 55c4 703e 0000 0080
000001e0: f4a0 bab9 0000 0000 f5c5 14bc e3a4 dfbd
000001f0: 99e8 0bbe ca88 e4bb 9461 163d 0000 0080
00000200: 85d8 153c 0000 0080 0000 0000 0000 0080
00000210: d0c8 ddbc 0000 0080 eb8f 76bd d924 67bb
00000220: d51e 4cbe 7e5f f3bb b167 15bc 9b6f 0ebd
00000230: aa9d 5dbe b499 27be 1a03 8bbd e178 433d
00000240: 1fcb e53d 0000 0080 2cff 1a3e c0a0 0c00
00000250: 0000 0000 0000 0080 aafb 0dbc 0000 0080
00000260: f945 0cbd 5e7a 9dbd 0e13 7c3e edc2 b23e
00000270: 4837 3c3e 0000 0080 340c a2bd ab66 3fbe
00000280: 748f 0880 edf3 bf3d 859a 093e ad66 a6bd
00000290: 2b17 65be 0000 0000 ceb0 f53d 0000 0000
000002a0: 9826 94bd 8618 38bc f23a 8a3a 0000 0080
000002b0: 25e9 63be 0000 0080 183b b3bd 4a31 a63c
000002c0: c4d8 cf3d 0000 0080 3df8 e7bd 0000 0080
000002d0: 0000 0000 fc25 0bbe 0000 0080 cd7f acbd
000002e0: 0000 0000 2012 5b3c b0e6 123e 0000 0000
000002f0: 0000 0080 6257 0ebb 0000 0000 a436 1bbd
00000300: 0000 0000 0000 0000 0000 0000 694b 02be
00000310: 9f6a 76bc 0000 0000 7aa0 73be 0000 0000
00000320: 0000 0000 0000 0000 0000 0080 0000 0000
00000330: 0000 0000 0000 0000 0000 0080 0000 0080
00000340: 2c89 d33d a5aa a1bd 0000 0080 0000 0080
00000350: 0000 0080 0000 0080 5550 5abd 0000 0080
00000360: 93b5 16be 616e 353e f7d4 88bd cff9 0380
00000370: 9c0d 0a80 5710 0180 aa4e 6abe 578f 1aba
00000380: 0000 0080 3063 9cbb 2de4 633d 0edf 9cbc
00000390: fbb1 30bc c68d 6a3b 0000 0080 3211 18bd
000003a0: 0000 0080 0000 0080 0000 0000 0000 0000
000003b0: 0000 0000 0000 0000 0000 0080 e2e8 0100
000003c0: 26f2 32bb 0000 0000 cf49 0280 f1b4 3c3e
000003d0: b826 60be ac9f 43be 3c9d 0600 1b4a 973d
000003e0: 0000 0080 0000 0080 648a 84bd 0000 0080
000003f0: c514 263c 0000 0080 0000 0000 0000 0080

decoder.0.bias f4 [128]
0.5866646 -0.5900564 0.24816424 0.028024198 -0.39425802 0.41645542 -0.15992382 0.12791938
0.6323336 0.74281865 -0.07116089 0.14510903 -0.0133387195 0.0063233743 0.1434688 0.5821208
-0.20475607 -0.010011382 -0.24184215 0.2606609 -0.23374341 -0.24877477 0.01042631 0.40181246
-0.19060476 0.12793572 -0.4007134 -0.18568283 -0.12970027 0.2863384 0.72241485 0.48102972
0.7023739 -0.008053257 0.008837964 -0.28998184 0.57005495 0.5081092 0.59245604 -0.1684597
0.21671566 -0.5646158 -0.13802072 -0.25434366 -0.0 -0.06859099 0.6015059 -0.008238287
-0.0016525747 0.417392 0.064571045 -0.1302943 0.21483675 0.10100328 0.05230049 -3.8792505e-06
-0.50875014 0.0038326967 -0.001342673 0.21384579 -0.22374554 0.297628 0.0017321855 0.25357753
-0.0005563708 0.10416445 -3.410956e-05 -0.037694275 -7.3328824e-06 0.26404247 0.13354611 0.8142334
-0.28726262 0.62069947 -0.20167413 0.14282861 -0.115339994 -0.18258189 0.041007563 0.6248741
0.21979347 0.6538837 0.45021033 -0.2993433 -0.44740912 -0.008092783 -0.13921873 0.4229372
0.03303403 0.48448452 -0.029583078 -0.0035316967 0.75196314 0.18697584 0.8285009 0.6567344
-0.077664755 -0.0011920611 0.82309544 0.048312884 0.2787018 0.51590085 -0.0 -0.030117452
0.42584255 0.015823804 0.0 -0.3923312 -0.13258992 0.10799711 -0.22935641 0.5098382
0.054339033 0.28254595 0.16052842 -0.610317 0.77204186 0.3112773 -0.0 0.48544216
-1.5160896e-10 0.22591138 -0.0032014742 -0.0019051954 0.22897467 0.24819317 0.49291188 -0.04613823
00000000: a72f 163f f00d 17bf c41e 7e3e 0193 e53c
00000010: 30dc c9be a539 d53e 12c3 23be 4cfd 023e
00000020: 9de0 213f 5d29 3e3f cdbc 91bd 7697 143e
00000030: a58a 5abc 4f34 cf3b 7ce9 123e de05 153f
00000040: 93ab 51be c806 24bc 78a5 77be 5875 853e
00000050: 6f5a 6fbe d0be 7ebe 1dd3 2a3c 5dba cd3e
00000060: e52d 43be 9501 033e 4f2a cdbe a423 3ebe
00000070: 26d0 04be f29a 923e 2ef0 383f 8749 f63e
00000080: c7ce 333f cff1 03bc 1ccd 103c 8078 94be
00000090: 1fef 113f 7213 023f 33ab 173f b380 2cbe
000000a0: b6ea 5d3e a98a 10bf 4e55 0dbe 5539 82be
000000b0: 0000 0080 6f79 8cbd 4afc 193f e1f9 06bc
000000c0: 359b d8ba 67b4 d53e d33d 843d de6b 05be
000000d0: 2afe 5b3e cfda ce3d 0a39 563d 822a 82b6
000000e0: 733d 02bf fb2d 7b3b a1fc afba 64fa 5a3e
000000f0: 8d1d 65be b262 983e 800a e33a ead4 813e
00000100: 6ad9 11ba 2c54 d53d dc10 0fb8 5065 1abd
00000110: fb0c f6b6 9330 873e 50c0 083e 9a71 503f
00000120: 1614 93be 29e6 1e3f aa83 4ebe aa41 123e
00000130: 6037 ecbd bff6 3abe 8cf7 273d c0f7 1f3f
00000140: 8a11 613e ec64 273f f881 e63e 8643 99be
00000150: cf12 e5be 9897 04bc 5b8f 0ebe 3a8b d83e
00000160: b14e 073d 5b0e f83e 3658 f2bc 0a74 67bb
00000170: a880 403f 9876 3f3e a318 543f bf1f 283f
00000180: b30e 9fbd ef3e 9cba 62b6 523f bbe3 453d
00000190: 01b2 8e3e 1412 043f 0000 0080 e0b8 f6bc
000001a0: 0908 da3e eca0 813c 0000 0000 a3df c8be
000001b0: a7c5 07be 972d dd3d 68dc 6abe c284 023f
000001c0: 9b92 5e3d dda9 903e 9061 243e bc3d 1cbf
000001d0: 89a4 453f bd5f 9f3e 0000 0080 e08b f83e
000001e0: 21b2 26af 5055 673e d3cf 51bb c0b7 f9ba
000001f0: 5678 6a3e 5a26 7e3e f25e fc3e 71fb 3cbd

decoder.2.weight f4 [128, 64, 2, 2]
1.265672e-39 -1.16471e-39 4.02037e-40 -0.0 0.0 -0.0 2.66221e-40 -2.07804e-40
-0.00532666 4.6942003e-07 -0.012165974 -0.0058296476 0.1051841 -0.051840857 0.050939854 -0.0375116
-0.0008484259 -0.06325352 -0.0 -0.029628607 -0.0 -0.0 -0.0 -0.0
0.11197728 -0.003248259 -0.041628264 -0.1374393 -0.0 -0.028147945 -0.0 0.0
-0.0 0.038564153 -0.019033166 -0.10445922 -0.17230976 -0.0 -5.9569e-41 2.82688e-40
-0.0 -0.070717126 -0.0 -0.13438575 1.351414e-39 -0.0 0.22804146 -0.0055341707
0.16933788 -0.0 0.12001394 0.08157509 -0.0 9.580078e-35 4.67507e-40 -8.47019e-40
-0.0 -0.0 0.0 -0.0 0.13903762 0.08812688 -0.09154623 -0.116906755
1.157524e-39 -0.016476143 -0.3906292 -3.03027e-40 -0.0 0.054014705 -0.0 0.0
-0.0 -0.011279534 -0.13475965 -0.034382176 -0.0 0.032539163 -0.1089166 -0.057683352
7.372049e-36 9.98043e-40 -1.1534284e-31 -8.028956e-06 0.054606326 -0.037848715 -0.07117741 0.110983096
4.78548e-40 8.60048e-40 -0.0 0.0 0.070852965 0.1603533 -0.030796995 0.06908065
-1.067201e-39 -2.5407e-41 -0.085492134 -6.4683e-41 -0.018889759 0.0 0.0 -0.0
0.0 -0.0 0.0 -0.0 -1.158472e-39 -5.46747e-40 0.07089414 0.0
0.04857802 -0.0015759058 -0.0 -0.0 0.13994956 -0.0074982285 0.02621547 0.18495749
0.028781231 -0.01985284 -0.005858954 -0.0013321681 -0.0 -0.0 -0.0 -0.0
-0.0 0.0 -0.026504949 0.16514523 1.35127e-40 6.20948e-40 -0.0 4.3695e-41
0.0 0.0 1.909677e-39 -0.0 0.0 0.0019044671 -0.014123524 -0.02960001
0.04954588 -0.002646626 -0.033131987 0.026512753 -0.08533523 0.07704359 -0.026712295 -0.08998106
0.085496716 -6.90657e-40 0.0 -0.0 0.08088296 4.0657e-41 0.12750697 -0.0
-0.0 0.0 0.0 -9.882545e-10 0.0 0.0 -0.034532964 -0.0012604474
-0.01759577 0.053935573 0.0 -0.000686506 -4.35993e-40 -0.0 -1.334187e-39 8.48722e-40
-0.0 -0.0 -0.0 -0.0 -0.0 0.0 -0.009250552 0.018757608
-0.0 0.0 -0.0 -0.0 -0.0 -0.0 -0.0 -0.0
-0.0016770662 -0.0 -1.3363954e-10 -1.4661228e-08 0.0 0.0 -0.0 0.0
0.010231446 -0.021342592 -0.0 -0.0 0.0 0.07010796 0.3827837 0.05680784
-0.013323116 -0.071661465 -0.008569516 -0.0 -0.076550625 -0.13824834 0.030207917 -0.24793582
-0.0032062626 0.0 0.13171284 -0.09213153 -0.06792539 -0.07818724 0.23814222 0.23381212
-0.00015839873 0.0 0.0 -0.0 -0.0 0.0 0.0 1.42791e-40
-0.0 0.0 -0.0 -0.0 -0.0 -0.0 -0.0 6.74172e-40
-0.23089923 -0.06299213 -0.002760402 -0.042391572 -0.0 -0.0 -0.0 0.0
-2.4762573e-25 1.0746081e-35 -3.1289831e-15 -1.5253829e-32 -1.07568e-40 7.27382e-40 -5.48926e-40 -0.25979164
00000000: 2ec8 0d00 bdae 0c80 b760 0400 0000 0080
00000010: 0000 0000 0000 0080 1ee6 0200 4643 0280
00000020: 438b aebb 9904 fc34 cb53 47bc a106 bfbb
00000030: c36a d73d 1457 54bd 4fa6 503d c3a5 19bd
00000040: e668 5eba 108b 81bd 0000 0080 b1b7 f2bc
00000050: 0000 0080 0000 0080 0000 0080 0000 0080
00000060: 5854 e53d bee0 54bb 6682 2abd e3bc 0cbe
00000070: 0000 0080 8596 e6bc 0000 0080 0000 0000
00000080: 0000 0080 72f5 1d3d 71eb 9bbc b7ee d5bd
00000090: f871 30be 0000 0080 0ea6 0080 0514 0300
000000a0: 0000 0080 24d4 90bd 0000 0080 6b9c 09be
000000b0: 31b7 0e00 0000 0080 b383 693e fd57 b5bb
000000c0: e966 2d3e 0000 0080 dec9 f53d d710 a73d
000000d0: 0000 0080 a2ae fe06 3817 0500 2539 0980
000000e0: 0000 0080 0000 0080 0000 0000 0000 0080
000000f0: e15f 0e3e de7b b43d 977c bbbd cf6c efbd
00000100: b59a 0c00 faf8 86bc 8d00 c8be b74c 0380
00000110: 0000 0080 863e 5d3d 0000 0080 0000 0000
00000120: 0000 0080 cbcd 38bc 6ffe 09be 53d4 0cbd
00000130: 0000 0080 c947 053d ab0f dfbd 6145 6cbd
00000140: 41c9 1c05 23de 0a00 3cb9 158c 1ab4 06b7
00000150: e2aa 5f3d 4107 1bbd 76c5 91bd 1b4b e33d
00000160: ff35 0500 775d 0900 0000 0080 0000 0000
00000170: 5c1b 913d a833 243e fb49 fcbc 287a 8d3d
00000180: ec9e 0b80 d346 0080 8016 afbd 4fb4 0080
00000190: b2be 9abc 0000 0000 0000 0000 0000 0080
000001a0: 0000 0000 0000 0080 0000 0000 0000 0080
000001b0: 599d 0c80 1cf4 0580 f230 913d 0000 0000
000001c0: bff9 463d a08e ceba 0000 0080 0000 0080
000001d0: f04e 0f3e b3b3 f5bb d3c1 d63c 7f65 3d3e
000001e0: 9ec6 eb3c 6ca2 a2bc 78fc bfbb 259c aeba
000001f0: 0000 0080 0000 0080 0000 0080 0000 0080
00000200: 0000 0080 0000 0000 e820 d9bc d51b 293e
00000210: ae78 0100 f3c2 0600 0000 0080 ce79 0000
00000220: 0000 0000 0000 0000 67cb 1400 0000 0080
00000230: 0000 0000 509f f93a 5a66 67bc b87b f2bc
00000240: 9ff0 4a3d 0473 2dbb 68b5 07bd 4631 d93c
00000250: 3dc4 aebd 08c9 9d3d bed3 dabc fd47 b8bd
00000260: e718 af3d 4585 0780 0000 0000 0000 0080
00000270: f7a5 a53d 5671 0000 3091 023e 0000 0080
00000280: 0000 0080 0000 0000 0000 0000 1dd3 87b0
00000290: 0000 0000 0000 0000 7072 0dbd 9935 a5ba
000002a0: 0125 90bc 8ceb 5c3d 0000 0000 a3f6 33ba
000002b0: 5fbf 0480 0000 0080 2c87 0e80 e43d 0900
000002c0: 0000 0080 0000 0080 0000 0080 0000 0080
000002d0: 0000 0080 0000 0000 a18f 17bc 8ea9 993c
000002e0: 0000 0080 0000 0000 0000 0080 0000 0080
000002f0: 0000 0080 0000 0080 0000 0080 0000 0080
00000300: 01d1 dbba 0000 0080 30f0 12af c3e0 7bb2
00000310: 0000 0000 0000 0000 0000 0080 0000 0000
00000320: cba1 273c a9d6 aebc 0000 0080 0000 0080
00000330: 0000 0000 c394 8f3d 3afc c33e 56af 683d
00000340: 3349 5abc 3fc3 92bd 2867 0cbc 0000 0080
00000350: 93c6 9cbd f990 0dbe 9876 f73c e3e2 7dbe
00000360: 2920 52bb 0000 0000 bbdf 063e 75af bcbd
00000370: 781c 8bbd a220 a0bd 8edb 733e 726c 6f3e
00000380: d617 26b9 0000 0000 0000 0000 0000 0080
00000390: 0000 0080 0000 0000 0000 0000 0b8e 0100
000003a0: 0000 0080 0000 0000 0000 0080 0000 0080
000003b0: 0000 0080 0000 0080 0000 0080 5157 0700
000003c0: d970 6cbe 0502 81bd dce7 34bb c9a2 2dbd
000003d0: 0000 0080 0000 0080 0000 0080 0000 0000
000003e0: dd45 9996 3b8b 6405 8d77 61a7 a267 9e8a
000003f0: db2b 0180 a5eb 0700 2ffa 0580 6903 85be

decoder.2.bias f4 [64]
-0.01843909 -2.2168799e-12 -0.031847 -0.02930173 0.021287048 0.036939334 0.09298293 0.121207654
0.30075747 -0.19517888 -0.056602057 -0.06315114 0.21968476 -1.516748e-10 -0.19123031 0.3217886
-0.3611874 -0.23526472 -0.5637576 0.08646253 -0.001082517 -0.038643684 -0.07813539 0.27332875
-0.034569245 0.075674534 0.5317027 -0.08775798 0.0037626848 0.0065228622 0.118619554 -2.9328996e-07
-0.4645447 -3.2023488e-26 -0.06449716 0.004678751 0.113010444 -0.13623759 -0.2146323 -0.039547835
-2.8260476e-07 0.04848044 -0.008186307 -3.1331332e-25 0.35795322 0.255164 -0.1408001 -0.0143641895
-0.017820356 0.044122066 -0.0654496 0.36808822 0.20122825 -0.3417798 0.112846665 -0.6141796
0.023402091 -0.10015075 -1.1579496e-16 -1.3800161e-20 0.23627032 -3.7896743e-20 -0.0003350037 -0.14397609
00000000: 930d 97bc c2ff 1bac 0072 02bd 2f0a f0bc
00000010: 2d62 ae3c b34d 173d d66d be3d b83b f83d
00000020: e2fc 993e f9dc 47be 8fd7 67bd 6355 81bd
00000030: 0bf5 603e a9c4 26af e1d1 43be 7ac1 a43e
00000040: 8eed b8be 3ce9 70be 6b52 10bf 4413 b13d
00000050: 3ee3 8dba d748 1ebd 7305 a0bd bff1 8b3e
00000060: 7b98 0dbd 40fb 9a3d ab1d 083f 75ba b3bd
00000070: 6097 763b bcbd d53b cfee f23d 7775 9db4
00000080: ced8 edbe 9892 1e95 1617 84bd 3550 993b
00000090: 0572 e73d de81 0bbe 92c8 5bbe e9fc 21bd
000000a0: e7b8 97b4 6d93 463d dc1f 06bc 7aee c196
000000b0: a545 b73e dba4 823e e72d 10be c757 6bbc
000000c0: fffb 91bc 57b9 343d 710a 86bd 0f76 bc3e
000000d0: c70e 4e3e c3fd aebe 271c e73d e03a 1dbf
000000e0: beb5 bf3c d61b cdbd a480 05a5 be56 829e
000000f0: d9f0 713e 5af6 329f 6fa3 afb9 786e 13be
