mnist/autoencoder.pth (torch_old, 842137 bytes, 19 tensors)

encoder.0.weight f4 [128, 1, 3, 3]
000000 3e 9f 80 3e 4b 46 cf 3d 91 6a fe 3d b8 86 43 3e
       0.25121492 0.10120829 0.1242267 0.1909436
000010 55 fc ca 3d 91 41 0f 3e 26 39 2b 3e 74 56 da 3d
       0.0991141 0.13989855 0.16721019 0.10661021
000020 a0 59 2f 3e ed 80 9b 3e d2 dd 3b bc f0 91 7c be
       0.17124033 0.303718 -0.01146646 -0.24665046
000030 d6 42 c6 bd a7 b3 90 bc dc 3f ec 3d dc 70 81 be
       -0.09680717 -0.01766379 0.11535618 -0.25281417
000040 24 2c b7 bd 95 7a a7 3e 1b 44 55 be d4 ed 8b bd
       -0.08943966 0.3271071 -0.20826761 -0.068324715
000050 19 de 58 be 06 b6 2a be 12 8a 32 3e 8b 6d 31 3c
       -0.21178474 -0.16670999 0.17435482 0.01082934
000060 b1 d4 94 be 5a f9 34 bd 9b 9c 71 be 81 28 1e 3e
       -0.2906852 -0.044183113 -0.23594896 0.15445139
000070 b6 57 8e 3d 12 cd d4 3b b3 fe 15 be 11 e5 34 be
       0.06950323 0.006494173 -0.14647941 -0.17665507
000080 9f 01 6d be 65 67 f6 3d 08 36 07 3d b2 4b 68 3c
       -0.2314515 0.1203144 0.033010513 0.014178203
000090 91 55 23 2e ce 87 55 2e bc f5 da 2f e7 26 ee ad
       3.7137907e-11 4.855121e-11 3.9828574e-10 -2.7074743e-11
0000a0 60 a9 7a af d3 59 51 2f ad 0c 1f 2f b0 f9 5f 2e
       -2.2797542e-10 1.9040351e-10 1.4465469e-10 5.0926097e-11
0000b0 f3 7f 0b 2f c5 7b 8c be b6 17 9b bd 3d 1b c7 3d
       1.2687433e-10 -0.2743818 -0.07572882 0.09721992
0000c0 54 40 77 be 01 29 99 3d 01 2d 91 3e 07 0c d3 bd
       -0.24145633 0.07478524 0.28354648 -0.103050284
0000d0 3d 3e 60 3e 5d fb d9 3e 69 5e 0a 38 f6 5d 4a 37
       0.21898742 0.42574587 3.298969e-05 1.2062015e-05
0000e0 b4 2b 82 37 17 93 2d 38 15 1c de b7 8a f3 03 37
       1.5517558e-05 4.1383402e-05 -2.6477539e-05 7.864912e-06
0000f0 11 f2 68 37 83 7a ec b6 b0 45 af 35 fc fa 0f 3e
       1.3884638e-05 -7.0476103e-06 1.3058798e-06 0.14060587
000100 e4 02 79 bd 8a 2c 10 be bb 33 4a 3e ee 34 ba 3b
       -0.060793772 -0.1407949 0.19746296 0.0056825792
000110 bb cb 3e bd cc c5 5d 3e 1c 35 22 3d 33 18 13 ba
       -0.04658101 0.21657485 0.03960143 -0.0005611211
000120 6a 49 7a 3e 54 23 44 3e 5b e2 06 3e 1d b6 41 3e
       0.24442068 0.19154102 0.13172285 0.18917127
000130 13 9a 92 3d 4f ef b5 bd d0 31 3a 3d 23 0d 13 be
       0.071582936 -0.08883535 0.04545766 -0.1436048
000140 ff 71 99 be e0 03 b3 3e f5 d4 e3 3d f8 19 8e 3e
       -0.29969785 0.34963894 0.11124603 0.27754188
000150 b1 b5 d2 3d 8c 5a 3b be 42 fc db 3c 2c 83 da 3d
       0.10288561 -0.1829626 0.026853684 0.1066955
000160 80 59 81 be 2b 24 67 be c8 52 3a 3e 8e 5e 45 bd
       -0.25263596 -0.2257239 0.18195641 -0.048185878
000170 b4 2b 6e bd e4 e1 92 bb 11 8c fd bd ef 2f 37 be
       -0.058147147 -0.0044824947 -0.12380231 -0.17889379
000180 b7 24 46 3e b2 38 14 bd c6 d9 b6 bd cb 06 bb 3b
       0.19349943 -0.03618688 -0.08928256 0.005707597
000190 d9 d7 a3 3b 23 c7 1f 3c 4f 96 b1 3a f6 82 10 b7
       0.0050000963 0.009752068 0.0013548824 -8.613561e-06
0001a0 da 34 22 3b 9e cb 00 3c f1 06 a3 3b 2d df b5 3b
       0.002475074 0.007861046 0.0049751927 0.0055502863
0001b0 f8 05 25 be 53 db 8c bd 4a 3d 5e be 96 ad b1 3d
       -0.16115558 -0.0687777 -0.21703067 0.08675687
0001c0 34 67 9b 3e 7d d5 94 3c 85 5e a3 be 6f e5 ef 3d
       0.30352175 0.018168205 -0.3190805 0.11713683
0001d0 2d e4 1e be ff 49 8d 3e 13 bd 17 3e e8 71 43 3e
       -0.1551673 0.27595517 0.1481822 0.1908642
0001e0 48 88 03 3e 57 76 32 3d 4c 0a b3 3d c9 c7 52 3d
       0.12844956 0.04356989 0.08742198 0.05146006
0001f0 66 b1 1c 3c f8 67 85 3d 92 b7 f9 3a 4f 20 d1 b8
       0.009563779 0.06513971 0.0019051901 -9.9719146e-05
000200 5b 6f e2 3a ec 67 04 3a 7f d6 05 bb 36 49 2b 3a
       0.0017275618 0.0005050886 -0.002042204 0.00065340416
000210 eb bd 03 3b e8 20 70 39 12 09 58 3b 03 09 72 be
       0.0020102214 0.00022900442 0.003296439 -0.2363625
000220 39 b1 cd bd 26 22 b7 3e 52 be 6d be fb 69 a2 bd
       -0.10043568 0.3576824 -0.23217133 -0.079303704
000230 02 08 aa 3e 00 d9 14 be 7d c9 a3 3c 98 56 ae 3e
       0.33209234 -0.14535904 0.019993538 0.3405044
000240 0f a1 c0 be 47 2e 4e be 20 9d 36 bd 24 5e c0 3c
       -0.37622878 -0.20134841 -0.04458344 0.02348239
000250 a5 f9 21 3e 19 87 66 3e be c0 71 3e 83 81 a5 3e
       0.15817888 0.22512473 0.23608682 0.32325372
000260 cc f5 c0 3e 3b 5e fa 36 fe 88 4c 36 91 66 a2 37
       0.37687528 7.4615505e-06 3.0478109e-06 1.9359666e-05
000270 59 b6 14 b6 89 bf f5 b6 60 ee ef 35 87 06 4b 37
       -2.215986e-06 -7.3238666e-06 1.7876264e-06 1.2101263e-05
000280 0e a4 01 37 01 c1 24 37 74 14 7a 33 8b bf a2 33
       7.727196e-06 9.820099e-06 5.8226263e-08 7.578554e-08
000290 3d d3 bb 34 c5 75 c9 b1 78 16 b2 b2 86 0c 42 35
       3.498516e-07 -5.8632588e-09 -2.0732145e-08 7.2288856e-07
0002a0 21 01 69 34 a3 1d 71 34 d9 10 26 36 17 a6 7a be
       2.1700227e-07 2.2455656e-07 2.4745734e-06 -0.24477421
0002b0 c4 79 8e be 52 cc 8a be 78 0e 5b bd fd cd cb bd
       -0.27827275 -0.2710901 -0.053480595 -0.099513985
0002c0 35 42 f0 bc 9a 36 d9 3e 32 92 91 3e b6 c4 a4 3e
       -0.029328445 0.4242447 0.2843185 0.3218133
0002d0 3e e0 68 be 31 f6 5f bd ed fc c5 be 0e bb 96 ba
       -0.22741792 -0.054678146 -0.3866953 -0.0011499838
0002e0 c4 ff 1c bc b4 61 5c be 45 f4 b0 3e a9 13 18 3e
       -0.009582464 -0.21521646 0.34561363 0.1485125
0002f0 47 87 81 bd a0 14 a1 bd dc ec 3a be cb 7f 31 be
       -0.0632463 -0.07865262 -0.18254417 -0.17333905
000300 69 98 a0 3d 76 d5 8b bd b2 90 62 bd 66 43 63 3e
       0.0784157 -0.06827824 -0.055313773 0.22193679
000310 44 7b 91 bc 01 46 9b 3d 20 62 5e bd f4 a8 b8 bd
       -0.017758973 0.075817116 -0.054292798 -0.090166
000320 11 af aa bd 21 6d 1a 3e d5 fe 89 bb 97 6f f4 3d
       -0.083341725 0.15080692 -0.0042112865 0.119353466
000330 ee 8d ae bd a9 87 de bc e9 d5 27 3e b2 10 2d 39
       -0.08523165 -0.027164297 0.16390194 0.00016504785
000340 d8 55 35 39 d5 09 91 39 8f fc e9 38 61 42 9f b7
       0.00017293484 0.0002766388 0.000111573485 -1.8985187e-05
000350 85 f8 20 39 19 5e a2 39 b0 dc 79 39 9b 82 34 39
       0.0001535137 0.00030969156 0.00023828703 0.00017214792
000360 a6 07 da bc 02 04 ca 3d 4e ac 09 be 29 a6 fa bd
       -0.026614975 0.09864046 -0.13444635 -0.12238724
000370 87 30 a2 bd 98 59 0c 3c f8 4a 24 bd fa b4 78 bd
       -0.07919412 0.008566283 -0.04011056 -0.060719468
000380 5b a2 cc bd 03 88 56 3d 86 e2 1d 3e 58 1c 62 3e
       -0.09991904 0.052375805 0.15418443 0.22081125
000390 f1 9d c5 bd c4 73 9e bd bb 5d 77 3e 5c 1e 9b be
       -0.096492656 -0.07736924 0.24156849 -0.302966
0003a0 50 f4 46 3b 34 5d 91 3d 3d a6 4a be 91 32 e6 3d
       0.0030358024 0.07097855 -0.19789977 0.112401135
0003b0 c7 14 bc 3d 72 83 84 bc a1 de b8 3d b5 79 c2 bd
       0.091836505 -0.01617596 0.09026838 -0.0949587
0003c0 1d 9e 17 3d 03 a8 8d bd 5b ea 94 bd a5 30 97 be
       0.037016023 -0.06916811 -0.07271262 -0.295293
0003d0 47 c9 ff 3c c5 ed 75 3d c4 8c 90 bd 5b 39 46 3d
       0.031223906 0.060041208 -0.07058099 0.048394542
0003e0 3b 70 fc bd 7a 50 19 be 1e eb ee 3d c5 be a9 bd
       -0.12326094 -0.14972106 0.11665939 -0.082883395
0003f0 92 75 32 be d3 e2 ca bd c0 09 0b be 8c fb f2 bc
       -0.17427662 -0.099065445 -0.13577938 -0.029660963

encoder.0.bias f4 [128]
000000 c0 f3 5e 3d 81 0b 46 3c 8f 29 20 be 67 44 1b be
       0.054431677 0.012087704 -0.15640853 -0.15162812
000010 d9 13 a2 b2 ad f2 c7 3e 66 3a b2 ba 74 6a b7 3e
       -1.8868308e-08 0.39052334 -0.0013597726 0.35823405
000020 cb 2b ac 3e 03 ff 96 3e dd 74 17 be 9e 4f 17 bd
       0.3362716 0.29491434 -0.14790674 -0.036941163
000030 80 a5 c9 3e 51 cd a9 3c 2f 4c bd bc c3 3c 83 3e
       0.3938408 0.020727785 -0.023107616 0.25632295
000040 4e 88 d9 3e 95 38 08 b9 dd 11 00 b7 b3 f6 72 3d
       0.42486805 -0.00012991049 -7.633554e-06 0.059317302
000050 48 3b 39 be 6b c1 1f be 78 dd df 3e 11 85 45 bb
       -0.1808902 -0.15601127 0.43723655 -0.0030139128
000060 6a 7c 23 be 58 15 83 3e e0 3a ee 3d db 32 e8 3e
       -0.15965429 0.2560222 0.11632323 0.453513
000070 f3 81 4f 3d 6f 4d 0e af 48 d2 70 3c 10 7a cb bd
       0.05066104 -1.2942335e-10 0.014698572 -0.09935391
000080 8c 9c a2 3e 31 51 a1 3e 2e 58 ea bc 2b 85 3b bd
       0.3176006 0.31507257 -0.0286065 -0.045781296
000090 00 30 9b 3e a4 9d b3 bd 49 c2 7a 3e ef ce bc 3e
       0.3031006 -0.08770302 0.24488176 0.36876628
0000a0 5c 9c 93 bc 25 20 e3 3d fa 97 fc 3c d4 ca 97 bc
       -0.018018894 0.110901155 0.030834187 -0.018529333
0000b0 b3 0c cd 3e 04 b3 7f 3d 14 22 33 bb da cb 46 bd
       0.4004875 0.062426582 -0.0027333545 -0.04853425
0000c0 49 db 88 3e 96 c7 29 be d9 cf 89 3e e7 9d 84 3e
       0.267298 -0.16580042 0.26916388 0.2590172
0000d0 c2 93 92 bd 17 f2 85 be a5 00 3b 3e ad 79 25 a0
       -0.07157089 -0.26161262 0.18261965 -1.4016303e-19
0000e0 35 13 a8 bc dd 4b 0d bd d8 b5 cd 3e f3 21 21 b7
       -0.020516971 -0.034496177 0.40177798 -9.604252e-06
0000f0 e1 c4 f1 bd dd e0 aa ba 29 8a b4 3c 5e 52 cb a1
       -0.1180513 -0.0013036985 0.022038536 -1.3777617e-18
000100 f3 c8 a2 3d 8d c3 0e b7 8e 24 a5 3e ae fc 6d bb
       0.07948484 -8.50939e-06 0.32254452 -0.003631394
000110 fb b7 1d bd fb b0 03 bd 17 8b da 3e ff e5 70 3e
       -0.038505536 -0.032151204 0.42684242 0.23525237
000120 b6 25 1b 3d e6 58 ca ac e4 28 ee bb 06 2d f8 bd
       0.03787776 -5.751055e-12 -0.007268058 -0.121179625
000130 2c 83 94 be 6e 80 dc bc 3f b9 74 3e c7 bd 86 bd
       -0.29006326 -0.026916709 0.23898791 -0.06579166
000140 00 21 b2 3e c7 2e d7 bb 42 ea 7e 3e 6b a1 4c 3d
       0.34790802 -0.0065668556 0.2489405 0.049958628
000150 29 7f 6f 3e 16 52 2d 3c b0 df ae bd cc b8 27 3f
       0.23388352 0.010578653 -0.08538759 0.6551635
000160 29 27 57 bc 4d f9 56 b8 68 ed 08 3c 68 ef c7 9c
       -0.013131895 -5.1253755e-05 0.008357383 -1.32306e-21
000170 28 ec 3e 3e 24 4d 23 3d a1 35 b7 bd 88 4d 34 be
       0.18644774 0.03986849 -0.08945776 -0.17607701
000180 5f d0 c6 3c 7b 24 a5 9a ef 2a ec 3e a1 ab 23 3e
       0.024269281 -6.830134e-23 0.46126506 0.1598344
000190 54 15 d6 3e 8d 21 74 be bb 20 b6 3d b5 0d 96 3e
       0.41813147 -0.23840924 0.088929616 0.29307333
0001a0 78 1f af bd ba 0e d5 bb 11 3d 94 bc f8 37 be 3c
       -0.08550924 -0.0065019997 -0.018095525 0.023220047
0001b0 75 1e 53 bd ac 93 51 be 72 84 6d 3d ef ba 22 ba
       -0.051542718 -0.20466489 0.057987638 -0.0006207665
0001c0 66 4c 5e 3d 2f 68 5f be 5d 01 89 3e 8b 77 21 bc
       0.054272078 -0.21817087 0.26758853 -0.009855161
0001d0 da bb 02 be f6 15 0f 3d a5 82 12 bc e0 e6 ac 3e
       -0.12766972 0.034933053 -0.008942281 0.33769894
0001e0 d8 da 3c 3e 1d cd 12 bb 53 de 04 b2 37 75 c7 3d
       0.18442857 -0.002240009 -7.733962e-09 0.09739154
0001f0 19 77 89 3d 2b 4a 74 bd d5 3c 21 bc 40 a5 d6 3e
       0.06712169 -0.059641045 -0.009841164 0.4192295

encoder.2.weight f4 [64, 128, 4, 4]
000000 bd fa 10 00 4c 15 06 80 fd 02 10 00 a3 83 0c 00
       1.559316e-39 -5.58653e-40 1.47044e-39 1.149248e-39
000010 19 45 12 00 cc 94 12 80 6e 3a 0e 00 f1 6c 0e 80
       1.677826e-39 -1.706417e-39 1.306658e-39 -1.324778e-39
000020 62 57 12 00 f5 51 0e 80 65 50 02 80 db ad 12 00
       1.684386e-39 -1.315098e-39 -2.12511e-40 1.715407e-39
000030 2a 74 08 00 be 77 0b 00 50 43 14 00 37 a1 0b 80
       7.76356e-40 1.053146e-39 1.860857e-39 -1.068023e-39
000040 40 d2 01 00 82 a3 0c 80 8a 42 03 80 da 8a 01 80
       1.67259e-40 -1.160682e-39 -2.99376e-40 -1.41646e-40
000050 74 b3 13 00 57 90 02 00 c0 2a 08 80 07 c5 09 80
       1.80925e-39 2.3545e-40 -7.5002e-40 -8.972e-40
000060 81 ce 14 80 37 b8 08 00 44 9f 0f 80 0b b0 08 00
       -1.91079e-39 8.00768e-40 -1.434666e-39 7.97836e-40
000070 f9 68 05 80 0b 75 0c 80 ba 7b 00 00 ab aa 12 80
       -4.96835e-40 -1.144013e-39 4.4385e-41 -1.714263e-39
000080 e6 26 06 80 d6 8e 13 80 00 53 12 00 f2 b5 06 80
       -5.64967e-40 -1.796114e-39 1.682814e-39 -6.16283e-40
000090 f9 e2 12 80 c4 5c 14 00 58 4e 13 80 14 11 03 00
       -1.734461e-39 1.869988e-39 -1.772979e-39 2.81633e-40
0000a0 7c 34 0a 00 dd e7 0c 00 67 70 11 80 a2 46 0c 80
       9.37183e-40 1.185203e-39 -1.601526e-39 -1.127364e-39
0000b0 d6 45 08 80 d1 bb 0b 80 61 4f 15 80 2a bd 01 00
       -7.59736e-40 -1.077566e-39 -1.957021e-39 1.59695e-40
0000c0 6e 32 03 80 ea d1 15 80 f5 26 0a 80 6a 36 00 80
       -2.93597e-40 -2.003848e-39 -9.3233e-40 -1.952e-41
0000d0 9e e7 0d 80 05 5e 0f 00 43 38 10 80 2a 4a 0b 80
       -1.27695e-39 1.41126e-39 -1.489551e-39 -1.036796e-39
0000e0 f8 df 0c 80 d4 a3 08 80 e2 f2 0c 00 c6 fe 02 80
       -1.182371e-39 -7.93454e-40 1.189156e-39 -2.75066e-40
0000f0 af d5 0c 00 40 c7 06 00 53 31 0d 00 cb 7a 0a 80
       1.178681e-39 6.2249e-40 1.211556e-39 -9.62405e-40
000100 47 92 0e 00 cb d3 04 00 19 7f 03 00 9c 31 13 00
       1.338171e-39 4.43319e-40 3.211e-40 1.762671e-39
000110 3c ef 0a 80 0e 57 00 00 50 34 13 00 33 22 0c 00
       -1.004176e-39 3.123e-41 1.76364e-39 1.114294e-39
000120 42 bf 08 80 50 c3 00 00 9e a4 04 00 4b 8c 08 00
       -8.03294e-40 7.0065e-41 4.26396e-40 7.85012e-40
000130 77 a1 05 80 a1 40 01 00 e2 13 0f 00 ed 5a 0d 00
       -5.171e-40 1.1502e-40 1.384665e-39 1.22648e-39
000140 23 07 08 00 c2 66 00 80 54 39 11 00 f7 53 05 80
       7.37244e-40 -3.6863e-41 1.581769e-39 -4.89298e-40
000150 b8 6f 02 00 8f 07 14 80 f2 26 15 80 58 2f 0b 80
       2.23748e-40 -1.839421e-39 -1.942516e-39 -1.027174e-39
000160 6b 8e 0c 00 1e a4 0f 80 d5 3f 04 00 c9 36 11 00
       1.153116e-39 -1.436407e-39 3.9024e-40 1.580857e-39
000170 f9 b8 0b 80 40 80 0a 80 7a 5f 12 80 58 e0 0a 00
       -1.076546e-39 -9.64362e-40 -1.68729e-39 9.98834e-40
000180 e0 d8 04 00 3b 52 0b 80 24 80 08 00 c3 71 07 80
       4.45142e-40 -1.039689e-39 7.80652e-40 -6.83658e-40
000190 23 57 10 80 26 e5 0b 00 91 fa 03 00 0a 53 06 00
       -1.500627e-39 1.092393e-39 3.65393e-40 5.80802e-40
0001a0 50 f0 0c 80 96 2a 08 80 56 48 10 00 ae 28 01 00
       -1.188234e-39 -7.49961e-40 1.495317e-39 1.06429e-40
0001b0 4f c3 06 80 ff 47 10 00 87 68 0a 80 24 0d 11 80
       -6.21076e-40 1.495195e-39 -9.55852e-40 -1.565917e-39
0001c0 c3 a0 0b 00 40 ea 0c 80 18 fd 0b 00 0d 67 0b 80
       1.067861e-39 -1.186059e-39 1.100983e-39 -1.047158e-39
0001d0 3a b4 07 00 57 a2 0c 80 4c cc 02 00 e2 b5 10 00
       7.07502e-40 -1.160263e-39 2.56959e-40 1.534615e-39
0001e0 9b db 12 80 47 28 15 00 d5 66 15 00 b4 0b 09 00
       -1.731819e-39 1.942994e-39 1.965435e-39 8.30718e-40
0001f0 32 d3 06 00 39 ab 01 80 68 5a 01 80 c8 d2 01 80
       6.26776e-40 -1.53259e-40 -1.24267e-40 -1.6745e-40
000200 9e 55 07 80 21 4b 10 00 8a 5a 11 00 6b 06 02 00
       -6.73562e-40 1.496319e-39 1.593683e-39 1.85973e-40
000210 43 e6 0c 80 44 ae 06 80 c3 d3 05 80 2d 21 0e 80
       -1.184628e-39 -6.13528e-40 -5.35143e-40 -1.297598e-39
000220 1f 67 15 80 65 d0 05 00 27 f5 0e 00 13 83 08 00
       -1.965538e-39 5.33935e-40 1.373641e-39 7.81705e-40
000230 0c b7 05 00 8e f8 0a 00 e8 27 11 00 07 46 12 00
       5.24842e-40 1.00752e-39 1.575519e-39 1.67816e-39
000240 4a d2 0d 80 7f 8e 06 00 69 34 05 80 c3 cf 0b 00
       -1.269299e-39 6.02131e-40 -4.77979e-40 1.084721e-39
000250 e7 a7 0c 80 f9 d1 01 00 5f 65 10 00 a2 1c 12 00
       -1.162258e-39 1.6716e-40 1.505733e-39 1.66331e-39
000260 22 e4 0b 80 48 9e 00 00 3f a9 0f 80 13 a9 01 00
       -1.092029e-39 5.678e-41 -1.438247e-39 1.52488e-40
000270 1f 38 01 80 27 23 03 00 b6 f4 0a 00 42 d3 11 00
       -1.11968e-40 2.88117e-40 1.006141e-39 1.636988e-39
000280 d1 88 12 00 13 d3 0b 00 4d 35 0b 80 f5 2f 00 80
       1.70212e-39 1.08591e-39 -1.029311e-39 -1.7204e-41
000290 7a 0e 02 00 21 32 10 00 00 5b 12 00 31 b0 0b 80
       1.88864e-40 1.487351e-39 1.685684e-39 -1.073396e-39
0002a0 63 d9 0e 80 31 c0 06 80 8f ca 12 00 a3 29 02 80
       -1.36368e-39 -6.19958e-40 1.725703e-39 -1.98607e-40
0002b0 60 6c 0c 00 92 ed 07 00 33 7b 0f 00 c0 da 0f 00
       1.140904e-39 7.28073e-40 1.421728e-39 1.456005e-39
0002c0 28 6c 09 80 b3 43 11 00 9b ae 0c 80 f6 2c 08 80
       -8.65319e-40 1.58549e-39 -1.164663e-39 -7.50813e-40
0002d0 eb 86 11 00 7c 53 0a 80 95 a4 0e 00 8a 6a 0d 80
       1.609603e-39 -9.48304e-40 1.344738e-39 -1.23208e-39
0002e0 27 0a 0c 80 a6 33 0f 80 c9 3c 07 00 64 10 07 00
       -1.105668e-39 -1.39606e-39 6.64654e-40 6.48728e-40
0002f0 1e 28 0c 00 dc 29 15 00 f2 eb 00 00 3f 95 07 80
       1.116417e-39 1.943562e-39 8.4641e-41 -6.96388e-40
000300 be 27 03 80 52 7d 05 00 c4 56 0f 00 47 cb 0e 00
       -2.89763e-40 5.04134e-40 1.408658e-39 1.358619e-39
000310 d6 9e 03 80 94 f2 00 80 ae 21 03 80 8d e0 10 00
       -3.32486e-40 -8.702e-41 -2.87588e-40 1.549922e-39
000320 b3 54 04 00 86 ff 01 00 b2 e3 0b 80 76 22 07 00
       3.97726e-40 1.835e-40 -1.091872e-39 6.55211e-40
000330 a1 86 13 80 f5 4c 0a 80 b3 be 0c 00 8d 0c 06 80
       -1.79317e-39 -9.45962e-40 1.170436e-39 -5.55515e-40
000340 c7 b1 07 80 88 9f 13 00 6c a1 05 80 60 bc 0d 00
       -7.06623e-40 1.802103e-39 -5.17085e-40 1.261438e-39
000350 f8 bb 14 80 8b 73 06 80 35 ab 0f 80 80 89 08 00
       -1.90414e-39 -5.92462e-40 -1.43895e-39 7.8401e-40
000360 e9 05 03 00 e0 89 05 80 6c 19 13 80 7c a9 00 00
       2.77627e-40 -5.08638e-40 -1.753994e-39 6.08e-41
000370 a5 fe 10 80 49 5f 14 80 44 5d 0b 00 98 30 10 80
       -1.560717e-39 -1.870892e-39 1.043648e-39 -1.4868e-39
000380 03 79 13 80 ef 6a 13 00 e5 0a 00 00 93 55 08 80
       -1.788285e-39 1.783235e-39 3.908e-42 -7.65382e-40
000390 ed 63 03 00 c2 37 0c 00 e0 75 10 00 3f d3 14 80
       3.11353e-40 1.122028e-39 1.511654e-39 -1.912491e-39
0003a0 2f a5 0f 80 5e 3d 0c 80 c6 d8 0c 80 f0 91 14 80
       -1.436789e-39 -1.12404e-39 -1.17979e-39 -1.889062e-39
0003b0 21 81 0c 00 08 97 02 80 90 5d 06 00 2e 41 0d 00
       1.148349e-39 -2.37851e-40 5.84577e-40 1.217244e-39
0003c0 e1 eb 10 80 b2 38 03 80 b8 1b 01 00 5e 35 0c 00
       -1.553985e-39 -2.95845e-40 1.01779e-40 1.12117e-39
0003d0 87 2e 11 00 b8 fe 0b 80 fb 42 0c 80 49 5c 04 80
       1.577894e-39 -1.101566e-39 -1.126054e-39 -4.00448e-40
0003e0 68 21 11 00 ce d5 05 80 03 27 0b 80 19 84 01 80
       1.573187e-39 -5.35876e-40 -1.024185e-39 -1.39223e-40
0003f0 63 b3 0c 00 43 f7 00 00 c2 9f 0b 80 c5 c8 10 00
       1.166378e-39 8.8701e-41 -1.067501e-39 1.54139e-39

encoder.2.bias f4 [64]
000000 f9 c2 11 80 45 7d 01 80 20 9a 11 00 6d 7d 0e 8e
       -1.631146e-39 -1.36774e-40 1.616493e-39 -1.7563242e-30
000010 40 9b b4 b8 56 10 08 80 45 4e 05 00 16 90 9b ba
       -8.6119864e-05 -7.40544e-40 4.87255e-40 -0.0011868502
000020 13 8c 86 9e 13 fe 05 b0 32 c0 0b 00 1c a0 f3 a5
       -1.4245735e-20 -4.874618e-10 1.079137e-39 -4.2262275e-16
000030 b0 7c 09 80 2e 96 1e ba 06 4c 14 80 06 80 ba a4
       -8.71249e-40 -0.00060496 -1.863982e-39 -8.088152e-17
000040 d1 53 0b 80 da 14 7c bc 3c ee e1 3c be 7a 01 80
       -1.040258e-39 -0.015385831 0.02757942 -1.35867e-40
000050 2c 66 47 b5 d1 ce 02 00 73 94 88 3d 45 ce 0e 80
       -7.4281957e-07 2.57863e-40 0.066689394 -1.359693e-39
000060 f9 2f de 3c 68 51 90 b1 96 80 46 3c 9d f8 e8 3c
       0.027122485 -4.2002064e-09 0.012115618 0.02843886
000070 01 01 0d 80 5b 6c c1 ab 19 c9 31 a9 0c 6b 69 bc
       -1.194222e-39 -1.374355e-12 -3.947632e-14 -0.014246713
000080 da a9 6f 3d db 0c 05 00 7b 9d 13 80 a2 c5 1b b8
       0.058511592 4.63789e-40 -1.801368e-39 -3.713894e-05
000090 1a 0f 03 00 24 06 7d bb e7 0d c3 af be 56 dd a3
       2.80924e-40 -0.0038608396 -3.5480172e-10 -2.3997605e-17
0000a0 7c 26 4b 3d c6 04 0d 80 ec 32 82 bc 44 72 0e 00
       0.04959725 -1.195574e-39 -0.015893422 1.326688e-39
0000b0 a1 32 35 b2 d9 0b 14 80 8b 34 8c ab d2 f8 6e bc
       -1.0547098e-08 -1.84096e-39 -9.962182e-13 -0.014585691
0000c0 ff 27 c9 bd 5e e2 03 94 66 ea 42 bd 06 ab e9 99
       -0.09822082 -6.658453e-27 -0.04758682 -2.4160711e-23
0000d0 f2 ff b0 ba 41 a8 5b bb 58 61 11 80 71 c3 05 80
       -0.0013504012 -0.0033517035 -1.596124e-39 -5.29289e-40
0000e0 a1 be 18 bd 4a 7f 14 3d 81 12 03 3d 30 36 80 3d
       -0.037291173 0.036254205 0.03200007 0.062603354
0000f0 5e 45 f2 bb 69 8f 0f 00 ad 08 2a 9f b7 79 00 00
       -0.007393523 1.428978e-39 -3.6006077e-20 4.3663e-41

encoder.4.weight f4 [32, 64, 2, 2]
000000 45 fc 29 01 72 88 3a 01 70 cb 28 02 e1 85 ac 01
       3.1221392e-38 3.42607e-38 1.2401074e-37 6.337493e-38
000010 68 bb 0a 82 26 cb cc 01 57 7b 12 82 ac 07 ee 81
       -1.0192422e-37 7.522927e-38 -1.0761783e-37 -8.74384e-38
000020 e2 e2 cb 80 c3 ef ed 00 f6 fe 95 81 94 06 de 81
       -1.8723996e-38 2.1851023e-38 -5.5099807e-38 -8.155936e-38
000030 95 7b 8a b6 39 7d dd b7 43 bf 8c b7 33 5f a6 b8
       -4.1271073e-06 -2.6403564e-05 -1.6778364e-05 -7.933229e-05
000040 84 e2 44 3b 29 21 87 3b 5a f5 0f 3b 90 68 41 3b
       0.003004224 0.004123826 0.002196631 0.0029511787
000050 90 51 9e 00 95 ad 8b 01 cd fc ab 01 e4 2c f9 00
       1.4539268e-38 5.1309614e-38 6.317823e-38 2.2883142e-38
000060 2e 55 e4 01 94 3b d5 01 84 e4 75 02 2e 55 7e 01
       8.38762e-38 7.8329333e-38 1.8065338e-37 4.6713545e-38
000070 91 9d 5f 3b 23 a6 9e 3b 64 63 bf 3b 46 8a f6 3b
       0.0034121017 0.0048415824 0.0058407057 0.0075238077
000080 7f b3 af 97 19 2b 72 a1 c4 83 bf 9a 3f 3e ef a2
       -1.1354421e-24 -8.204983e-19 -7.920863e-23 -6.4846985e-18
000090 85 35 24 34 fc 23 e0 b4 af 51 8a 36 72 2b ac b3
       1.529316e-07 -4.1749433e-07 4.1222297e-06 -8.017277e-08
0000a0 78 bb ff 80 90 88 47 00 fc 8c 09 81 0e 79 b9 81
       -2.3485303e-38 6.56931e-39 -2.5264077e-38 -6.813197e-38
0000b0 15 f4 62 b7 08 4c ca b7 b4 f0 43 b6 ce c0 47 b6
       -1.35274795e-05 -2.4115681e-05 -2.9197372e-06 -2.9765538e-06
0000c0 13 d6 7c 01 b2 5e 13 00 02 2e 35 01 9d 1b 39 80
       4.643868e-38 1.778845e-39 3.3277459e-38 -5.244529e-39
0000d0 f2 89 dc ba 0d f7 57 38 1e 8f a8 bb db aa 0f bb
       -0.0016825779 5.149008e-05 -0.005144014 -0.0021921906
0000e0 ef 82 15 00 6b 4f 79 01 d5 0b 34 00 ab ee 89 81
       1.975516e-39 4.5791057e-38 4.77969e-39 -5.0668324e-38
0000f0 48 90 26 ba 1f ce 63 ba 64 e0 3d ba e1 c4 7c ba
       -0.0006353897 -0.0008690077 -0.00072432146 -0.00096423744
000100 9f 39 10 02 e0 73 dc 01 4c 02 d9 01 98 60 59 02
       1.0595986e-37 8.098151e-38 7.9716507e-38 1.5970363e-37
000110 52 1e 06 be 98 76 3d bd 24 6d fb 3d 5b 84 fd 3d
       -0.13097504 -0.046255678 0.12276676 0.123787604
000120 a8 2c b3 bc ed 27 bd bd 86 b2 4a 3e 65 df 4a 3d
       -0.02187188 -0.09236131 0.19794664 0.049529452
000130 d2 7f 5f 01 9d 91 67 02 d5 9f f1 01 6e 79 b2 02
       4.1050338e-38 1.7012989e-37 8.8758766e-38 2.6224447e-37
000140 d3 e7 8e 3a 0c 31 03 3a f8 cd af 3a 50 eb 88 3a
       0.0010902829 0.0005004562 0.0013412824 0.0010446105
000150 9c 40 16 02 13 f5 0a 02 6a 51 e0 01 09 72 8d 01
       1.1038802e-37 1.0208972e-37 8.240143e-38 5.195885e-38
000160 00 56 23 3e af 3e 1a 3e 21 d6 9d 3d b4 ce 8c 3d
       0.15950775 0.15062974 0.077068575 0.06875363
000170 c6 eb 46 00 93 bd 35 00 1f b5 cf 01 a9 ad 95 01
       6.513064e-39 4.935288e-39 7.6299687e-38 5.4983146e-38
000180 60 3e 72 3c e3 1b 2f bd f7 11 66 3d 4b f4 40 3b
       0.014785379 -0.042751204 0.056169476 0.0029442485
000190 12 61 7d 3a 86 34 1e 3b d7 0a 07 3a 2b c5 dd 3a
       0.00096656487 0.0024140193 0.00051514566 0.0016919723
0001a0 c0 99 2c bc 0c cd 33 3d 27 dd ae 3b 18 1c 04 be
       -0.010534704 0.04389672 0.005336422 -0.12901342
0001b0 e4 35 78 3e 17 44 de 3d 53 e3 df 3d 85 ca 17 3b
       0.24239308 0.10852831 0.109320305 0.0023161483
0001c0 e8 13 4d 01 40 62 17 01 0b 7c 49 00 0c b4 12 00
       3.7666835e-38 2.780481e-38 6.74849e-39 1.717628e-39
0001d0 0a f8 6a 06 5e d8 0d 9c 51 ee ab a2 b3 82 62 a7
       4.419274e-35 -4.6932635e-22 -4.660197e-18 -3.1434653e-15
0001e0 ea f6 45 2c 6e 6e de 33 f3 66 32 09 f6 fb 28 30
       2.8132449e-12 1.03577676e-07 2.1474377e-33 6.14761e-10
0001f0 f3 b3 27 3c cb c6 9d bd e9 6c 1c 3e d9 7c 1a 3d
       0.010235774 -0.077039324 0.15275921 0.03771672
000200 64 76 d8 bd 74 2f 55 3d 70 c4 a8 bc 53 79 55 3d
       -0.10569456 0.052047208 -0.020601481 0.052117657
000210 ff 1d ed 00 7c 27 d3 00 96 3d 7a 01 0a 80 4f 81
       2.1775773e-38 1.9391454e-38 4.5961934e-38 -3.811176e-38
000220 19 2b 43 00 4e 14 ea 01 f5 68 9b 01 53 6a 2e 02
       6.168439e-39 8.598716e-38 5.7088614e-38 1.2814015e-37
000230 bc b9 6c b9 69 72 db b9 08 16 b2 b9 62 c4 14 ba
       -0.00022575905 -0.00041856177 -0.0003396722 -0.0005675015
000240 23 4b 7d 02 2f 34 55 02 4e 63 97 01 0a 67 d5 01
       1.8609068e-37 1.5663745e-37 5.5611135e-38 7.8391697e-38
000250 97 fb 04 38 24 4c 4b 3a 02 32 e7 b8 92 d8 6a 39
       3.1705564e-05 0.0007755181 -0.00011024253 0.00022396658
000260 04 9f 6a b6 57 79 e6 b6 23 f5 66 b6 99 4c a6 b6
       -3.4961276e-06 -6.86866e-06 -3.441536e-06 -4.9561027e-06
000270 c3 32 ad 35 74 07 6c 36 cc 05 cb 35 bd b4 53 36
       1.2904278e-06 3.5171079e-06 1.5126366e-06 3.1546654e-06
000280 ba 42 d4 bd 20 7a c9 3d 29 88 03 bc 2e d0 22 3d
       -0.103642896 0.098377466 -0.008028069 0.039749317
000290 8d 9b 14 02 1a 30 20 02 25 65 22 02 05 2d ed 01
       1.0917964e-37 1.1768748e-37 1.1930907e-37 8.712465e-38
0002a0 77 bf a4 bc 88 3a 90 bc 4c 8c 0d bc 3b c6 dd ba
       -0.020110829 -0.017606035 -0.008639406 -0.0016920039
0002b0 9a cf 55 80 00 2a 40 02 03 0e 8a 02 3d 01 a9 02
       -7.88049e-39 1.4117986e-37 2.028532e-37 2.483303e-37
0002c0 10 fe c7 35 a4 17 85 37 2f 9b 0e b3 79 64 76 36
       1.4900597e-06 1.5865844e-05 -3.320309e-08 3.671534e-06
0002d0 4a a6 cf 01 3b 1f c4 00 40 d2 2a 02 9d 56 fb 00
       7.6278404e-38 1.801096e-38 1.2549966e-37 2.308178e-38
0002e0 65 e8 ac b2 d6 fe 77 b3 c6 85 17 b4 38 2f c0 b4
       -2.0129116e-08 -5.774094e-08 -1.4111637e-07 -3.5797143e-07
0002f0 d8 92 bf 3d 89 74 b3 bd 3b ed 04 be e4 0d f0 bd
       0.0935418 -0.08762462 -0.12981121 -0.117213994
000300 83 ab e7 3c c4 75 0f bd 73 e3 ba bb ee 0e 0e 3c
       0.028280025 -0.03502442 -0.0057033836 0.008670552
000310 78 dd 15 8f 9c 2f c4 a1 71 fc 4e 9e b6 5b 4d 2c
       -7.3889205e-30 -1.3294079e-18 -1.0957753e-20 2.9183162e-12
000320 fc cd bc bd 95 09 87 bd 8d 9e 02 be 54 bd 0d bd
       -0.09218976 -0.065936245 -0.12755795 -0.034604385
000330 2b c5 a4 ab 4a d1 9a 2d 25 28 80 a9 65 22 96 2d
       -1.1707626e-12 1.7600716e-11 -5.691306e-14 1.70683e-11
000340 d0 1d 4e 3d db 6e c4 3d ae 4d 26 bd ce 0f 16 3d
       0.0503214 0.095914565 -0.040601425 0.036636166
000350 ad a7 31 b7 86 32 0c b8 ed 9c ab b8 48 5f f0 b8
       -1.0589062e-05 -3.3425655e-05 -8.183145e-05 -0.00011461839
000360 4c a4 ca 01 23 19 31 02 9c 0b 37 02 1c 63 0c 02
       7.4438835e-38 1.301112e-37 1.3448048e-37 1.0314019e-37
000370 c3 43 4c 02 7b f8 16 02 e1 64 0a 02 2e aa 34 02
       1.5007e-37 1.109157e-37 1.016759e-37 1.3273151e-37
000380 42 73 5e bc ad ff b6 bd 3b 5b 28 3e 48 79 bd 3d
       -0.013577284 -0.08935485 0.16441052 0.09251648
000390 59 2f 34 3e 45 63 8e bd e8 02 6a 3d 07 d4 20 bd
       0.17596187 -0.06952528 0.057131678 -0.039264705
0003a0 8a c2 16 3e 1e c5 fe bc c8 82 45 3d 9f 1f ee bd
       0.14722648 -0.031099852 0.048220426 -0.11627125
0003b0 18 4c c5 3d 3b ac 18 3d e3 c4 fb bd b1 2f 9f 3d
       0.09633654 0.037273627 -0.122934125 0.07772768
0003c0 b2 5f b9 bd 70 e4 d6 3b fc 36 bb 3d da 20 ea 3d
       -0.090514556 0.0065579936 0.09141347 0.11432047
0003d0 c6 71 be 01 b5 7a bc 01 33 28 0c 02 0b 0f 3d 02
       6.9958234e-38 6.923637e-38 1.0297112e-37 1.3889844e-37
0003e0 69 5f b3 b5 bf fa f8 b5 11 88 be b5 bb d6 75 b5
       -1.3364307e-06 -1.8550417e-06 -1.4195704e-06 -9.1582086e-07
0003f0 50 ed 8f 02 fc 43 c9 01 b5 2f 78 02 0e d7 5c 01
       2.1148172e-37 7.393329e-38 1.8233854e-37 4.0561912e-38

encoder.4.bias f4 [32]
000000 0d b2 75 3d 6a f8 a1 b6 b3 47 4f 3d a5 d0 f8 a7
       0.059984256 -4.827093e-06 0.050605487 -6.906004e-15
000010 ab 05 04 b5 e0 a8 c2 3c bb 54 48 3d fe e6 22 3a
       -4.918208e-07 0.023762167 0.04890893 0.000621423
000020 e5 23 46 3d 5c 4c 7e 3d b0 c5 26 ba 29 50 89 3d
       0.048374075 0.06208454 -0.0006361855 0.067047425
000030 bf 6a 0f 3c cf 6c 35 9a 91 a1 09 3e bf 39 70 a7
       0.008753478 -3.7517818e-23 0.13440539 -3.3337995e-15
000040 74 fa 89 ad 21 e5 63 bb cf 1a 0d bd 85 72 33 a8
       -1.568632e-11 -0.0034774023 -0.034449395 -9.9613285e-15
000050 81 06 f1 3d db fc 99 3d c6 a1 9e 3d ad 17 05 9e
       0.11768819 0.075189315 0.077456996 -7.0458574e-21
000060 57 f0 39 bb 9d 4f b7 3b c1 02 d8 3c a8 c0 b4 3d
       -0.0028372013 0.0055942074 0.0263685 0.08825809
000070 c7 87 35 3d b0 f7 1c 3d 7d bb d7 b1 ee 74 d4 3c
       0.04431894 0.03832215 -6.2786385e-09 0.025934663

encoder.6.weight f4 [16, 32, 3, 3]
000000 c4 a4 08 bb a0 10 2d bb b9 c4 b9 ba 65 a1 30 bb
       -0.002085016 -0.0026407614 -0.0014173008 -0.0026951667
000010 97 18 56 bb 7e c0 f6 ba 7f f8 b2 ba 87 c2 b4 ba
       -0.0032668465 -0.0018825678 -0.001365438 -0.0013790884
000020 6d f3 79 ba 06 8f 07 80 16 2b 10 80 a4 a9 13 00
       -0.00095348695 -6.94156e-40 -1.484824e-39 1.80573e-39
000030 c8 37 00 80 b0 6d 06 80 b2 34 08 00 55 c4 07 80
       -2.001e-41 -5.90361e-40 7.53587e-40 -7.13279e-40
000040 f2 5d 01 00 12 7d 13 00 59 8c a5 bb ef 93 c9 bb
       1.25537e-40 1.789741e-39 -0.005052131 -0.0061516683
000050 f5 98 87 bb 10 bb dd bb 7a 34 fd bb c7 7e b6 bb
       -0.004138107 -0.0067666844 -0.007727203 -0.0055693123
000060 78 43 c1 bb 7e bf d8 bb b6 e0 9e bb 23 72 10 00
       -0.0058979355 -0.0066146245 -0.004848565 1.510312e-39
000070 87 0b 09 80 31 c1 11 00 fe 6f 0e 80 64 62 0d 80
       -8.30655e-40 1.630507e-39 -1.325872e-39 -1.229157e-39
000080 32 55 0d 80 9d 80 13 00 55 cd 14 00 75 05 11 00
       -1.224424e-39 1.791012e-39 1.910369e-39 1.563161e-39
000090 9a 50 0d 00 a9 3e 10 80 28 64 10 00 86 aa 10 00
       1.222776e-39 -1.491846e-39 1.505297e-39 1.53054e-39
0000a0 ca 0d 10 80 0e 0b 14 00 d2 46 0d 00 81 28 15 80
       -1.474315e-39 1.840676e-39 1.219267e-39 -1.943075e-39
0000b0 3e 5a 0d 00 49 21 d0 ba 71 5f fb b8 5e 45 63 b6
       1.226234e-39 -0.001587906 -0.0001198639 -3.3866013e-06
0000c0 b1 41 86 ba f8 a2 d9 b6 6d 68 27 b4 16 93 cb b9
       -0.0010242966 -6.486076e-06 -1.5591077e-07 -0.00038828765
0000d0 03 99 30 b7 63 fa a9 b4 8e 46 98 bb ca 68 df bb
       -1.0526043e-05 -3.1660883e-07 -0.0046470826 -0.0068179118
0000e0 6e a5 c1 bb 0a b1 a7 bb e3 0f e8 bb 14 5e ba bb
       -0.0059096133 -0.0051175402 -0.007081972 -0.0056874845
0000f0 82 4d 4d bb 1f 62 6a bb 6a 4d 15 bb 94 8d dd ba
       -0.0031326716 -0.003576405 -0.0022781738 -0.0016903155
000100 3f f3 1c bb 66 87 11 bb 99 97 a0 ba bf 4a d9 ba
       -0.0023948697 -0.0022205948 -0.0012252211 -0.0016578062
000110 4e ae b7 ba a6 02 ce b9 d4 73 f8 b9 b6 90 69 b9
       -0.0014013739 -0.00039293355 -0.00047388545 -0.0002227452
000120 ab a3 91 bb da 5e a9 bb 07 42 46 bb ff bb 9d bb
       -0.0044445596 -0.005168778 -0.0030251758 -0.0048136706
000130 e8 69 b0 bb 26 d1 24 bb 05 db 51 bb c3 74 4d bb
       -0.0053837188 -0.0025149076 -0.0032021415 -0.0031350113
000140 9e 3e c5 ba 6a 65 7c bb ba f0 aa bb 38 be 7d bb
       -0.0015048569 -0.0038512596 -0.005216685 -0.0038718116
000150 91 d5 b3 bb 5f d5 e0 bb b0 2e ad bb dd cf a5 bb
       -0.0054881056 -0.0068613733 -0.0052851066 -0.0050601796
000160 72 05 c5 bb cf 24 94 bb 61 8b e4 bb 1c a0 e2 bb
       -0.006012612 -0.0045209895 -0.006974623 -0.006916059
000170 e4 23 8e bb ea 88 f7 bb 9c af f8 bb da 71 9a bb
       -0.0043377746 -0.007554163 -0.0075892936 -0.004713279
000180 07 f8 ae bb bb e0 ae bb 2b 38 6c bb 30 93 df b4
       -0.0053396258 -0.0053368486 -0.003604422 -4.164408e-07
000190 28 28 10 ba 41 f0 05 bb 89 ad 81 b9 a3 36 13 bb
       -0.0005499148 -0.0020437392 -0.0002473409 -0.0022462986
0001a0 a4 e2 5d bb 2e 67 ca ba 81 57 73 bb 32 49 83 bb
       -0.0033857012 -0.0015442127 -0.0037131014 -0.0040065283
0001b0 e5 a2 59 bb 9f 21 81 bb 53 9e c4 ba 71 aa 9d bb
       -0.0033208665 -0.0039407755 -0.0015000798 -0.004811578
0001c0 d8 9f aa bb 22 12 1a bb 04 23 83 bb e2 a3 8c bb
       -0.005207043 -0.0023509343 -0.004001977 -0.0042919973
0001d0 bc 1c 3d bb c7 95 07 00 f0 e3 07 00 75 10 08 00
       -0.0028856238 6.96578e-40 7.24617e-40 7.40588e-40
0001e0 bf ec 12 00 aa 17 07 00 4a 2e 07 00 55 f8 09 00
       1.737967e-39 6.51338e-40 6.59454e-40 9.15604e-40
0001f0 d6 f5 0e 00 c9 dc 13 00 f8 3a 07 ba 5f 79 75 b9
       1.373886e-39 1.824077e-39 -0.00051586283 -0.00023410235
000200 8f cc 51 ba 71 be 3c b9 f7 fc a2 b9 d5 82 95 ba
       -0.0008003199 -0.00018000022 -0.0003108752 -0.0011406789
000210 44 ba 8a b9 0b 6b 37 ba 01 59 88 ba 51 6c 04 00
       -0.0002646019 -0.00069968466 -0.0010402502 4.06199e-40
000220 aa 06 16 80 fd 63 00 00 f7 cd 09 00 c3 2c 02 00
       -2.022772e-39 3.5869e-41 9.00406e-40 1.99728e-40
000230 72 c9 0b 00 3b 18 00 00 f8 7e 0a 80 48 16 06 80
       1.082455e-39 8.692e-42 -9.63903e-40 -5.59006e-40
000240 b3 e6 0b 00 ae 78 11 00 3a ea 0b 00 90 83 0e 80
       1.09295e-39 1.604495e-39 1.094215e-39 -1.332893e-39
000250 6b b2 0a 00 bd 27 13 80 1e f4 06 80 b1 34 0a 00
       9.82359e-40 -1.75913e-39 -6.38586e-40 9.37257e-40
000260 42 a2 05 80 af 9f 11 00 a7 16 0f 00 4d e4 11 00
       -5.17385e-40 1.618487e-39 1.385659e-39 1.643102e-39
000270 64 06 0a 00 20 58 0c 00 5a 72 0e 80 10 cc 0c 00
       9.20647e-40 1.133639e-39 -1.326719e-39 1.17523e-39
000280 1e e1 0b 00 39 ea 14 00 4f fb 08 ba 0f 8a 47 ba
       1.090947e-39 1.920733e-39 -0.0005225436 -0.000761182
000290 f2 6a bd ba 14 c9 35 b8 61 ce da b9 03 ef c4 ba
       -0.0014451428 -4.334103e-05 -0.00041733964 -0.0015024844
0002a0 12 98 07 b9 bf 13 30 ba 5a 9f 8d ba 9a 95 06 80
       -0.00012931254 -0.00067168096 -0.0010804937 -6.0468e-40
0002b0 65 39 0a 00 46 30 06 80 d6 cd 05 80 93 18 0a 00
       9.38944e-40 -5.6833e-40 -5.33018e-40 9.2717e-40
0002c0 1a 5b 05 80 78 ce 05 80 e5 c3 0a 00 5e 32 06 80
       -4.91859e-40 -5.33245e-40 9.88629e-40 -5.69081e-40
0002d0 43 7a 41 bb 11 bd 7c bb 23 60 4d bb 18 85 0c ba
       -0.0029522337 -0.003856484 -0.003133782 -0.00053604087
0002e0 43 6b b2 b9 43 cb e6 b9 52 47 11 b4 56 a4 53 b1
       -0.00034030722 -0.0004402046 -1.3530124e-07 -3.0797955e-09
0002f0 be 7f 8b b4 c8 53 6e ba 27 a4 15 ba 03 ff 93 b9
       -2.5983712e-07 -0.0009091464 -0.00057083595 -0.00028228023
000300 9b df f5 b9 9c f1 a7 b9 8f d5 51 b9 c1 4c 07 b9
       -0.0004689664 -0.00032032735 -0.0002001135 -0.00012903196
000310 28 43 a0 b8 4a a7 96 b8 7a 0a 4d bb 2f 89 65 bb
       -7.641903e-05 -7.1837174e-05 -0.0031286762 -0.0035024395
000320 4e 36 97 bb f4 d6 05 bb 5f 04 6b bb 65 1d b7 bb
       -0.004614628 -0.0020422311 -0.003586076 -0.005588221
000330 9c d1 fc ba 72 97 74 bb 19 f7 82 bb 86 8f 10 80
       -0.0019288543 -0.0037321714 -0.0039967415 -1.520854e-39
000340 b7 b9 15 00 97 07 11 80 3c f8 0f 80 b7 b9 15 00
       1.995167e-39 -1.563926e-39 -1.466582e-39 1.995167e-39
000350 c9 ab 00 00 9d 72 14 80 b7 b9 15 00 c6 25 13 80
       6.1625e-41 -1.877825e-39 1.995167e-39 -1.758425e-39
000360 e1 a1 11 bc 59 97 0f bc ff de be bb 1e 09 26 bc
       -0.008888693 -0.008764111 -0.005824923 -0.01013401
000370 4e 40 1f bc 02 18 df bb 9c 89 0a bc 68 f0 05 bc
       -0.009719921 -0.006808282 -0.00845566 -0.008174993
000380 37 77 c3 bb 15 d4 aa b8 e9 6d 09 b8 36 7f ca b2
       -0.0059651393 -8.145735e-05 -3.2765707e-05 -2.3573744e-08
000390 b8 34 1c bb a1 d9 cc ba 9f d4 5c b9 76 99 7e bb
       -0.0023835134 -0.0015628823 -0.00021060042 -0.0038848794
0003a0 53 08 68 bb 97 48 e0 ba 7d 80 91 ba 30 03 89 ba
       -0.0035405352 -0.0017111477 -0.0011100915 -0.001045322
0003b0 31 12 01 bb 1b 0c fa ba a1 c8 2a bb b1 83 5a bb
       -0.001969468 -0.0019077094 -0.0026059526 -0.0033342654
0003c0 7e b7 85 bb 13 68 a8 bb 2e d2 91 bb b0 0c 9e b9
       -0.004080712 -0.0051393597 -0.004450104 -0.0003014556
0003d0 ef a5 57 ba 55 01 75 ba bd 37 bd ba fc 14 1f bb
       -0.0008226325 -0.0009346207 -0.0014436167 -0.0024273982
0003e0 91 2d 21 bb 66 be 22 bb 14 52 70 bb 43 dc 61 bb
       -0.002459381 -0.0024832725 -0.0036670016 -0.0034463562
0003f0 7d b8 ab ba f8 02 3b bb 8f af 10 bb 24 fe 18 bb
       -0.0013101246 -0.0028535705 -0.0022077297 -0.002334484

encoder.6.bias f4 [16]
000000 87 fd 60 b6 92 fc bb 3c 2c b0 75 3d 13 db 63 3d
       -3.3526173e-06 0.022947583 0.059982464 0.055628847
000010 06 64 95 3d 97 64 05 80 00 eb c4 3c fc 63 7b 3d
       0.072944686 -4.95262e-40 0.024037838 0.06137465
000020 5e 51 33 3d d8 6a a1 3b 75 ae ad 3c d2 bb bb 3d
       0.04377877 0.004926067 0.021201352 0.09166683
000030 69 ad c8 b1 d4 2d cb 3d 9c da de bc 09 f8 63 ac
       -5.8404805e-09 0.099208504 -0.02720385 -3.2396327e-12

encoder.9.weight f4 [8, 16, 3, 3]
000000 19 a6 de b5 80 5d 13 b7 f6 c4 0b 80 b9 e1 39 bc
       -1.658863e-06 -8.783652e-06 -1.080847e-39 -0.01134532
000010 e5 58 33 bc b4 02 c0 bb 74 2f 88 bc 4e f4 85 bc
       -0.010946487 -0.0058596972 -0.01662419 -0.016351845
000020 2c 81 20 bc 4f 82 a6 3c b2 36 3b bd 8e 13 5b bd
       -0.009796422 0.020325808 -0.04570646 -0.053485446
000030 29 f1 72 be cd 51 48 3e 44 77 55 be 17 94 09 be
       -0.23724808 0.19562455 -0.20846277 -0.13435398
000040 d0 6a f9 ba c3 c7 58 3d 7e 8c b8 bd 59 15 ea bd
       -0.0019029025 0.052924883 -0.09011172 -0.11429853
000050 78 b3 b3 bd b6 db fb 3c 6e 8c 1f 3d 37 9a 8f bd
       -0.08774465 0.030744415 0.038952284 -0.07011836
000060 c0 f4 39 3e f8 3f aa 3e 11 53 ee bd 71 3e 5f bd
       0.18159771 0.3325193 -0.116369374 -0.05450291
000070 75 e7 c0 bb a2 ce 88 bd 17 58 61 3d 69 f3 82 bd
       -0.005886967 -0.06680037 0.05501565 -0.06394083
000080 72 0b d9 bd 0e 82 74 3d c7 c8 6f bb 13 1b 18 3c
       -0.10597886 0.059694342 -0.0036588178 0.009283799
000090 71 00 dc bd 3e fc d5 bd e3 b4 a1 bd 63 1a 30 3e
       -0.10742272 -0.10448502 -0.078958295 0.17197566
0000a0 ea bd 40 b9 e2 63 5c 3d 68 0b 57 3d 7e 27 13 3d
       -0.00018381295 0.053806193 0.052501112 0.035926335
0000b0 a5 71 bc bd bb 2c 0e b9 d6 5a e0 b5 5f ce 06 00
       -0.092013635 -0.00013558839 -1.6715737e-06 6.25045e-40
0000c0 5a fd c8 bb 05 99 52 bb c3 f7 af b9 99 9c c3 bb
       -0.0061337175 -0.0032134664 -0.00033563198 -0.0059695956
0000d0 89 62 ce ba 70 34 28 b8 18 3c 7f bc 43 09 07 bc
       -0.0015745918 -4.0103158e-05 -0.015578292 -0.008241954
0000e0 41 fb bb bd ab cf 9b bd 27 35 18 3d ab 48 61 be
       -0.09178782 -0.07607969 0.037160065 -0.22000377
0000f0 59 24 b0 3d 06 94 83 3b 7e e7 60 be ac 1d cf 3b
       0.08600683 0.0040154485 -0.21963307 0.006320676
000100 fc f9 59 3c 4b ac be bd cd b9 da 3c 91 86 d7 bd
       0.01330423 -0.09310206 0.026699925 -0.105237134
000110 1a be a4 bd db c7 5d bc 81 9e f7 bd c3 10 93 bd
       -0.080440715 -0.013536419 -0.12090779 -0.071809314
000120 04 2f 02 3c d8 2b 7c 3d 37 c5 a0 bd 49 7c 72 3e
       0.00794578 0.06156525 -0.07850116 0.23680224
000130 22 04 4a bd fb 3a bd 3d 61 29 8b 3c 63 cd 24 bc
       -0.049320348 0.09239765 0.016987504 -0.010058734
000140 e1 44 df bd 7d 27 15 3c f8 ff ac bd e1 00 9a bd
       -0.109018095 0.009103653 -0.0844726 -0.07519699
000150 2c 9d fd 3c 10 36 b1 3d 6c a8 08 be c8 2a e6 3d
       0.030958734 0.0865289 -0.13345498 0.112386286
000160 44 fb 12 3d 1f 87 c7 3d 3a b2 93 bd 0f fe 6f 3d
       0.035884157 0.09742569 -0.072117284 0.0585919
000170 31 de 9a bd 61 27 4b 3e 6c 89 a1 3d 6d c9 d8 3c
       -0.07561911 0.1983924 0.07887539 0.026463235
000180 5d 5e 2a be 3e b4 03 bc bb 30 ba 3c f3 57 ad 39
       -0.16637559 -0.008038579 0.022728315 0.0003306266
000190 c9 f4 e7 bd c2 6e c2 bd 7c f5 0e 3e a2 a6 1b bc
       -0.11325986 -0.094937816 0.13960832 -0.009500178
0001a0 99 b3 5e 3a a2 a2 72 3d dc 40 d9 bd d1 da 7f bc
       0.000849539 0.05923713 -0.10608074 -0.015616135
0001b0 13 d9 23 33 cc 4f 9a 25 bf a9 08 80 61 b9 b7 32
       3.8148823e-08 2.6768814e-16 -7.95577e-40 2.1388304e-08
0001c0 cf 02 26 b2 ae 13 bc 31 49 5b 36 32 12 71 75 36
       -9.66311e-09 5.4737574e-09 1.061455e-08 3.657366e-06
0001d0 b1 d9 11 38 9e 2b 38 3d d6 8b 2d bc 0f 9f b1 bd
       3.4773435e-05 0.04496347 -0.0105924215 -0.08672916
0001e0 9a 53 63 3e 3d e7 2e be a3 4f 2d bd b6 c8 d9 3d
       0.2219986 -0.17080398 -0.042312276 0.10633986
0001f0 eb 99 89 bd 74 19 98 3d dd f2 36 3d f8 0a f5 3c
       -0.06718811 0.0742673 0.044665206 0.029912457
000200 38 04 39 be ee b2 8c be cd b6 62 3e 01 35 9a bd
       -0.18068016 -0.27480263 0.22140045 -0.07529641
000210 f9 3d 70 3e e5 6c 60 bd 9f f8 cb bc 02 9b 8f ba
       0.2346114 -0.05479135 -0.024898825 -0.001095623
000220 83 0f 0b b8 20 b6 08 00 44 10 08 bc 7c c9 e6 bb
       -3.315463e-05 8.00018e-40 -0.008304659 -0.007043062
000230 88 c5 e0 bb 95 1f 1e bc ce b7 00 bc 20 ab 92 bb
       -0.006859485 -0.009651084 -0.007856322 -0.004475966
000240 92 17 09 3c ca 28 fd 3b 37 fa 9f 3b 33 8a 2e 3c
       0.008367436 0.0077258097 0.004882123 0.010653066
000250 3e ea 36 3c a9 c1 39 3c 9c 18 52 3c d8 8f 5f 3c
       0.011164246 0.011337676 0.01282325 0.013645135
000260 fa ad 60 3c b6 81 20 3b b1 38 59 bd 11 60 02 bd
       0.013713354 0.0024491376 -0.05303258 -0.031829897
000270 3b 6b 04 bd 16 aa 86 3b 4a 70 0a bb 00 52 91 3d
       -0.032328825 0.0041096313 -0.0021124058 0.070957184
000280 dc 0a 44 bd b8 3b 4c 3d 17 fa f8 bd 6b 70 86 bd
       -0.04786192 0.04986164 -0.12157076 -0.06564411
000290 da 8a 12 bd 87 7f e4 3c fb 3a fd bb f9 4a 9b bc
       -0.03577695 0.027892841 -0.0077279783 -0.018956648
0002a0 a3 7a 7b 3e 5a 90 4c 3e c0 c4 68 bc bb 14 0d bd
       0.24558501 0.19976941 -0.014207065 -0.0344436
0002b0 8d f8 22 bd 0b 0f 2e 3d 36 ae d3 3c 1b 0d 3c bc
       -0.039787818 0.042494815 0.025839906 -0.011477734
0002c0 48 97 30 3d a1 96 d1 bd a0 30 52 bd 51 1e f8 bc
       0.043113023 -0.10233808 -0.051315904 -0.030287893
0002d0 7a d2 7a bd ad 4d eb bd 53 02 15 3d 28 27 8e 3d
       -0.061235882 -0.11489425 0.03637917 0.06941062
0002e0 42 aa 05 3e 66 3f c3 bb 7c 5a c5 bd f5 a5 80 3e
       0.1305323 -0.0059584854 -0.09636399 0.25126615
0002f0 3b 67 af 3c 97 80 0c 39 63 76 8d 37 90 d6 4a 37
       0.021411529 0.00013399344 1.6863638e-05 1.2090095e-05
000300 4f 6e 66 3b 1c de f0 3a b0 3e 0f 3a 90 e3 89 3b
       0.0035160964 0.0018376741 0.0005464358 0.0042080358
000310 4a 63 e6 3a 8c 6b 94 3a cf 3a 1c bd 12 a9 c3 3c
       0.0017577198 0.0011323555 -0.03814202 0.02388433
000320 9e 85 cd bc 8c a0 d8 3c c4 9e 84 3c 63 3d 9a bd
       -0.025088128 0.026443742 0.016188987 -0.0753124
000330 ba 2c 85 3d 9a f8 45 3d 58 42 71 bc 8d 8d 7f 3b
       0.065026715 0.048332788 -0.01472529 0.0038994283
000340 96 38 cd 3a 3a 78 3d bd 3f 56 1d 3d e2 33 37 bd
       0.0015657123 -0.046257235 0.03841233 -0.044727214
000350 b4 9e 1a bc 4b 96 b3 3e 71 7e a9 bd c0 1d 13 3d
       -0.009437252 0.35075602 -0.0827607 0.035917044
000360 2a 6f 63 bd 84 28 5f bc e3 67 6d 3b 35 2c 0e 3e
       -0.055525936 -0.0136204995 0.0036225251 0.13884051
000370 b1 2e f3 3c 11 f1 53 3d 41 8a fe bd ff 5c 81 bd
       0.02968535 0.05174357 -0.124287136 -0.06316566
000380 e0 90 d4 3c 32 25 1a 3c bf db a7 bb 3a db dd 3c
       0.025947988 0.009408282 -0.0051226313 0.027082074
000390 99 9d 39 bd b6 ca 7d 3d ae b3 04 3b bf 98 0e be
       -0.045316312 0.0619609 0.00202487 -0.13925456
0003a0 cf 20 4e 3d f6 9d 4d 3d 17 4c b3 bd 3b 87 9f bd
       0.050324257 0.05019947 -0.08754747 -0.07789465
0003b0 26 de ad 3d 56 1c c4 3c 2a c6 05 3e e8 4c 54 3d
       0.08489637 0.023939293 0.13063875 0.051831156
0003c0 b5 be 95 bd 42 4e 93 bc a5 1e e4 bc 76 99 94 bc
       -0.07311765 -0.017981652 -0.027846644 -0.018139582
0003d0 39 a4 af bb b6 b4 bf 3c c9 a2 cc 3d 6b b0 65 3d
       -0.005360153 0.0234016 0.09991986 0.05607645
0003e0 5a 35 b8 bd 49 05 01 be 4c b5 fb 3b af 9f 5e bd
       -0.08994551 -0.12599672 0.0076815244 -0.054351505
0003f0 15 45 86 3b c7 6e 64 38 e4 f6 a8 b0 b5 99 74 3c
       0.0040975907 5.4462605e-05 -1.2293779e-09 0.014929225

encoder.9.bias f4 [8]
000000 1d 4b 3c 3b 01 87 2d 3d 0c c8 fe bc 13 d3 31 be
       0.0028731294 0.042365078 -0.03110125 -0.17365675
000010 67 09 39 3d b3 30 ba 3d 38 c8 bc 3d 21 0c 6c 3d
       0.045174982 0.0909132 0.09217876 0.057628755
