mnist/before_train.pth (torch_old, 842533 bytes, 19 tensors)

encoder.0.weight f4 [128, 1, 3, 3]
-0.10900855 0.17689064 -0.32560596 0.08771145 -0.21766004 0.060141206 0.10155448 -0.12478614
-0.28460342 -0.1311181 0.012674332 0.12133622 -0.3185092 0.17617622 0.13008228 0.15387878
0.28819934 -0.16545348 -0.29546136 -0.20668694 -0.12272391 -0.30482817 -0.3324511 0.24943349
0.07681331 0.18705705 0.09045267 0.18360826 -0.28350696 0.07142758 0.20595148 -0.27974495
0.27295348 0.1490978 0.015129775 0.01183787 -0.02292049 -0.3011908 0.14774713 0.23885646
0.32222095 0.32651892 0.16050336 0.31745526 -0.21859571 0.10390937 0.051470608 -0.10462034
-0.083474725 -0.18819794 0.035932332 0.2015666 -0.093027875 -0.12341957 0.067269444 -0.29196808
0.2208651 0.073813945 0.22415534 0.3294265 -0.29280847 0.0036540926 0.32255998 -0.18162668
-0.048021466 0.17161497 0.25058857 -0.2895752 -0.21876419 0.0408417 -0.14514005 -0.3223042
0.100290895 0.006731063 0.075303584 0.12341192 0.07029691 -0.22106194 0.17100564 -0.02097705
0.20592883 -0.09580538 0.20870766 -0.21501371 0.0938144 -0.053918928 -0.26183075 -0.10821962
0.27234194 -0.11247167 0.23312542 0.06439033 0.06434548 0.15500286 -0.29159993 -0.22351348
0.009949207 0.20895514 -0.040331364 0.19116148 0.021712035 -0.074991554 0.14695442 -0.11609273
-0.075240016 0.15494654 -0.062238455 -0.20135865 -0.014077753 0.30395082 -0.1825881 0.22806719
0.27010503 -0.009504765 0.29697797 0.23688146 0.017953753 0.31138596 0.26590994 -0.060876727
0.19966158 -0.272876 0.026770324 0.026893884 -0.12124038 0.18972132 -0.24366355 0.26635686
-0.13662653 0.24464217 0.21684101 -0.09145531 0.27447364 -0.14850304 0.31543717 0.064554095
-0.038487554 -0.2622013 0.2712995 -0.07112774 0.006192833 0.17155221 0.23501691 -0.15168998
-0.27923012 -0.13852188 -0.074677706 0.16182217 -0.2774709 -0.043519825 -0.07011035 -0.071455926
0.2871776 -0.21083844 -0.12179506 0.14327607 0.04601884 0.013328344 -0.074982285 -0.14937536
0.08402085 -0.17011862 -0.096594214 -0.055481553 -0.0983448 -0.06738123 -0.16228235 -0.1491234
0.28550485 -0.27371424 0.037781805 0.25582662 0.10957548 0.25934598 -0.17362134 0.25343505
0.23850027 -0.19145405 -0.24605946 0.101076216 -0.31431386 -0.268615 0.241079 -0.29863745
-0.028179854 0.0008420944 -0.3076839 0.29548338 0.25443777 0.25620583 0.11093143 0.2639521
0.3302566 -0.23601922 -0.018893331 0.129542 -0.2603055 0.12992585 0.29542997 0.21891108
0.058609337 -0.13599837 -0.12705748 -0.080877304 0.22797695 0.23938766 0.10441935 -0.27790472
0.19227597 -0.055730134 0.30381605 0.027771562 -0.10394411 0.08693078 0.27983263 0.09149173
-0.30097494 -0.08587146 -0.029489875 0.27766702 -0.3249181 0.006095022 -0.17067651 0.16049841
0.302004 0.27328077 -0.27895218 -0.33210796 -0.25280854 0.07295489 -0.1530606 0.220359
-0.23562047 0.069950074 -0.09409611 -0.3163972 -0.24590945 -0.2781176 -0.17194836 -0.247944
0.0011702776 0.23549458 0.31293276 0.18054006 0.20209602 0.3283364 -0.2736548 -0.12191805
-0.018827766 0.034336895 -0.24722144 0.12453678 -0.047780424 -0.057471514 0.028920203 -0.04463038
00000000: e03f dfbd d222 353e d3b5 a6be 10a2 b33d
00000010: 46e2 5ebe a056 763d ccfb cf3d e08f ffbd
00000020: 8ab7 91be d343 06be 00a8 4f3c 207f f83d
00000030: a313 a3be 8a67 343e 4a34 053e 6692 1d3e
00000040: dd8e 933e a36c 29be b646 97be bea5 53be
00000050: ac56 fbbd 7012 9cbe 0837 aabe 7e6b 7f3e
00000060: 4c50 9d3d e28b 3f3e 403f b93d ce03 3c3e
00000070: d327 91be a048 923d f2e4 523e bb3a 8fbe
00000080: 8fc0 8b3e 18ad 183e e0e2 773c a0f3 413c
00000090: c0c3 bbbc ae35 9abe 064b 173e ca96 743e
000000a0: 25fa a43e 7d2d a73e fe5a 243e 7f89 a23e
000000b0: 8ed7 5fbe 70ce d43d d8d2 523d 3043 d6bd
000000c0: ccf4 aabd f6b6 40be c82d 133d 7a67 4e3e
000000d0: 6685 bebd 66c3 fcbd 90c4 893d d77c 95be
000000e0: 762a 623e c42b 973d fa88 653e 97aa a83e
000000f0: feea 95be 8079 6f3b 9526 a53e 58fc 39be
00000100: 28b2 44bd d6bb 2f3e 254d 803e 3343 94be
00000110: b803 60be a049 273d 989f 14be 0e05 a5be
00000120: 5065 cd3d 4090 dc3b c438 9a3d 64bf fc3d
00000130: d4f7 8f3d 105e 62be 1a1c 2f3e 10d8 abbc
00000140: 02df 523e 9c35 c4bd 76b7 553e 8e2c 5cbe
00000150: c421 c03d 18da 5cbd ae0e 86be 40a2 ddbd
00000160: 6770 8b3e 8c57 e6bd 6eb8 6e3e 14df 833d
00000170: 90c7 833d 12b9 1e3e 964c 95be b8e0 64be
00000180: 0002 233c 56f8 553e 8032 25bd d6bf 433e
00000190: 70dd b13c 2c95 99bd 387b 163e 06c2 edbd
000001a0: 7017 9abd 4eaa 1e3e c0ed 7ebd f630 4ebe
000001b0: 60a6 66bc 719f 9b3e 60f8 3abe 728a 693e
000001c0: 354b 8a3e e0b9 1bbc 7f0d 983e 0e91 723e
000001d0: c013 933c fb6d 9f3e 5925 883e e059 79bd
000001e0: 1674 4c3e 67b6 8bbe 704d db3c 9050 dc3c
000001f0: e04c f8bd 4e46 423e f082 79be ed5f 883e
00000200: d3e7 0bbe 7a83 7a3e 920b 5e3e ec4c bbbd
00000210: cf87 8c3e 2e11 18be fb80 a13e f034 843d
00000220: 20a5 1dbd 403f 86be c5e7 8a3e 6cab 91bd
00000230: 40ed ca3b 62ab 2f3e 46a8 703e 9e54 1bbe
00000240: 40f7 8ebe aed8 0dbe a0f0 98bd b6b4 253e
00000250: aa10 8ebe d841 32bd 0496 8fbd 7c57 92bd
00000260: f108 933e 08e6 57be b06f f9bd f6b6 123e
00000270: 407e 3c3d 205f 5a3c 5090 99bd dbf5 18be
00000280: 2013 ac3d 9333 2ebe 30d3 c5bd a040 63bd
00000290: 0069 c9bd 2cff 89bd 582d 26be ceb3 18be
000002a0: b12d 923e 4624 8cbe 18c1 1a3d b5fb 823e
000002b0: 1c69 e03d ffc8 843e cbc9 31be 3dc2 813e
000002c0: 6a39 743e 880c 44be 03f7 7bbe 0c01 cf3d
000002d0: bfed a0be e887 89be 6add 763e 02e7 98be
000002e0: 70d9 e6bc 00c0 5c3a bf88 9dbe 9949 973e
000002f0: ab45 823e 692d 833e 0430 e33d bb24 873e
00000300: 6517 a93e 06af 71be 30c6 9abc a8a6 043e
00000310: c346 85be 480b 053e 9942 973e 3a2a 603e
00000320: 5810 703d 2843 0bbe 5b1b 02be 00a3 a5bd
00000330: ca72 693e 0a22 753e d0d9 d53d 8749 8ebe
00000340: fee3 443e 4845 64bd c78d 9b3e 3081 e33c
00000350: a6e0 d4bd c408 b23d 3946 8f3e 0460 bb3d
00000360: 6319 9abe 60dd afbd c094 f1bc 5f2a 8e3e
00000370: aa5b a6be c0b8 c73b d3c5 2ebe b259 243e
00000380: 45a0 9a3e 75eb 8b3e d2d2 8ebe 0e0a aabe
00000390: 1f70 81be 6069 953d ebbb 1cbe caa5 613e
000003a0: 7e46 71be fc41 8f3d 76b5 c0bd d0fe a1be
000003b0: b0cf 7bbe 6e65 8ebe 3b13 30be 08e5 7dbe
000003c0: 0064 993a 7e25 713e b938 a03e 7edf 383e
000003d0: 42f2 4e3e b51b a83e 7b1c 8cbe 2cb0 f9bd
000003e0: b03c 9abc d8a4 0c3d 9e27 7dbe 240d ff3d
000003f0: 68b5 43bd 4067 6bbd 10ea ec3c 58ce 36bd

encoder.0.bias f4 [128]
0.15560448 -0.23132686 0.019069105 0.2914094 0.30799618 -0.3331141 0.010617644 -0.10676174
0.118968844 0.22413519 -0.29501876 -0.29972196 0.0013637543 -0.24830422 -0.006490499 0.30575767
0.13727772 -0.32452655 0.25571594 -0.23705602 -0.1571664 0.051647156 0.28294536 -0.17424282
-0.28378698 -0.10758683 -0.09828846 0.26768783 -0.17286551 0.00911364 0.19373068 0.06915912
0.17769232 -0.26836038 0.2839071 -0.33054537 -0.31980526 -0.046485156 0.20228967 -0.15108955
0.17727068 -0.047356576 0.019010037 -0.036634654 -0.12483649 -0.00034949183 -0.094646335 -0.15329683
-0.006300837 0.118548065 -0.30177546 0.0044709146 0.25678208 0.16240665 0.013077229 0.15633798
-0.18568043 -0.21392155 0.10208857 -0.17732804 0.06730959 -0.17472923 0.043759346 -0.23314802
-0.21139169 0.18069354 0.004407406 -0.056488276 0.12194762 -0.28462005 0.20847377 -0.23258643
0.07976222 -0.18946414 -0.12987511 -0.08973539 -0.2997975 -0.28809234 0.010029763 0.04665968
-0.12962234 -0.11605272 -0.27369696 -0.16677713 -0.082619905 0.23802605 0.2106174 0.23692498
0.113676906 0.21615759 0.2547461 -0.10358076 0.2843069 -0.034998566 -0.043885738 -0.1903222
0.30564943 0.17257741 0.24078634 0.09143594 -0.25957596 -0.031576663 -0.096310616 -0.28513166
-0.13754284 0.14799464 -0.28729522 0.020821095 0.09150553 0.06549665 0.22824928 0.28538594
0.12607968 -0.19446549 -0.21065804 -0.11641359 -0.28136444 0.1387757 0.1262573 0.21343657
0.08614507 0.26370135 -0.2586828 -0.083399296 0.24233785 0.21273413 0.26482227 -0.23167352
00000000: c856 1f3e f3e0 6cbe d036 9c3c 9d33 953e
00000010: adb1 9d3e ee8d aabe a0f5 2d3c e6a5 dabd
00000020: f0a5 f33d b283 653e b30c 97be 2875 99be
00000030: 00c0 b23a 7643 7ebe 40ae d4bb 458c 9c3e
00000040: 8892 0c3e 5828 a6be 33ed 823e d0be 72be
00000050: 3bf0 20be f88b 533d 37de 903e b66c 32be
00000060: 874c 91be 7c56 dcbd 764b c9bd 610e 893e
00000070: a803 31be 6051 153c 5661 463e 4ca3 8d3d
00000080: faf4 353e 8866 89be 455c 913e 3e3d a9be
00000090: 84bd a3be 3867 3ebd 0625 4f3e 38b7 1abe
000000a0: 7286 353e f8f8 41bd f0ba 9b3c 380e 16bd
000000b0: 46aa ffbd 003c b7b9 f0d5 c1bd d8f9 1cbe
000000c0: 4077 cebb 54c9 f23d 5082 9abe c080 923b
000000d0: f178 833e ee4d 263e e041 563c 1017 203e
000000e0: 0323 3ebe 400e 5bbe d013 d13d 7b95 35be
000000f0: 9cd9 893d 38ec 32be 003d 333d 5bbe 6ebe
00000100: 1077 58be ba07 393e 006c 903b 4060 67bd
00000110: acbf f93d b8b9 91be 267a 553e 232b 6ebe
00000120: 605a a33d e302 42be fbfd 04be 30c7 b7bd
00000130: 0f7f 99be d780 93be e053 243c 381e 3f3d
00000140: b8bb 04be 0cad edbd 0222 8cbe a0c7 2abe
00000150: a034 a9bd 1abd 733e 16ac 573e 769c 723e
00000160: 70cf e83d 6a58 5d3e 156e 823e 2622 d4bd
00000170: ad90 913e a85a 0fbd 88c1 33bd d3e3 42be
00000180: 157e 9c3e 22b8 303e b290 763e c442 bb3d
00000190: 24e7 84be 8856 01bd 803e c5bd c7fc 91be
000001a0: 08d8 0cbe e88b 173e 5c18 93be 0091 aa3c
000001b0: 4067 bb3d 1c23 863d 2eba 693e 1b1e 923e
000001c0: 081b 013e f621 47be beb6 57be 406a eebd
000001d0: 000f 90be 381b 0e3e 9849 013e 1e8f 5a3e
000001e0: d46c b03d dd03 873e 1272 84be 40cd aabd
000001f0: 6a27 783e fad6 593e c996 873e d33b 6dbe

encoder.2.weight f4 [64, 128, 4, 4]
-0.0047125015 0.008428663 -0.019861357 -0.013845796 0.014864868 -0.00333713 0.020091088 0.007953029
-0.014070562 0.0043008123 0.011919713 -0.0079156365 0.020779418 0.018872613 -0.005589336 -0.021597475
-0.013760335 -0.007374068 -0.0016178936 0.0054920297 -0.006522254 0.0022686962 0.009906052 0.01210543
-0.009911324 0.0108558815 -0.017241806 0.018087706 -0.015306439 0.011731537 -0.004178794 0.01890673
0.008471416 0.005072059 0.0063960087 -0.013258974 0.0047053657 -0.0045133084 0.019284507 0.015718566
-0.007895499 -0.0073625455 -0.01282896 0.015168445 0.009491069 -0.012880395 0.004571913 0.012607699
-0.01449693 0.018239392 -0.013615676 -0.02208551 0.00870065 0.0205092 -0.002167048 -0.004616404
-0.012586242 0.00024419092 -0.014122347 0.0017033573 0.020349326 0.016327297 -0.0006497428 -0.015292325
0.0046744514 0.0064956993 0.0035010483 0.009206874 0.006428687 -0.002834579 -0.0033496413 -0.008329992
-0.0012753103 0.0023449566 0.0012374911 0.002344925 -0.019920785 0.0047549754 -0.0048638675 0.0051473547
0.008630613 0.011338083 0.016688457 0.00425528 -0.009345726 0.017465977 -0.020178244 -0.009870417
0.019586546 -0.020107953 0.0030953363 -0.020438176 0.01423257 -0.0048948973 0.010020273 -0.01869434
0.013821086 0.007002067 -0.008935448 -0.017019354 -0.0061655026 0.0057073385 -0.015138184 0.022094691
0.0128679555 -0.018218935 0.0016499069 0.007942405 0.012082124 -0.0014679041 -0.0020331908 -0.009134318
0.020311965 0.019305257 -0.009971328 -0.016435524 0.012436861 0.02001937 -0.015890006 0.021186313
0.0035845824 0.021716798 -0.0117975585 0.008315636 -0.011967935 -0.011195238 -0.01013235 -0.0018618815
-0.00021263584 -0.019624997 -0.009936027 0.020582689 -0.0059369765 -0.0014962256 0.0038892142 0.012641678
-0.017085513 -0.0035000797 0.0073530003 0.014552334 0.016458495 0.019624846 -0.013307904 0.011547038
-0.012976524 -0.011385618 -0.017536778 0.018419573 -0.02099951 0.0052376967 0.0106567945 0.0199519
-0.008735032 0.006446358 -0.0006778613 -0.014478285 0.00031790882 0.0012082607 -0.0014893878 -0.021136895
0.0035239458 0.021996325 0.020637354 0.018355304 -0.014192808 0.0032878853 -0.00989569 0.0146091785
0.021507012 -0.021403976 -0.015674762 0.014924353 -0.016186442 -0.015036083 0.005036285 0.0077353716
0.011479119 0.016708063 0.0007972177 0.0075479057 0.021665147 -0.00110301 0.018873865 -0.012229853
-0.0024947748 -0.020597115 0.021145994 0.006556079 -0.0018131882 -0.015530292 0.010261053 0.00032848492
-0.016832631 0.0051446687 0.008781496 -0.0032699928 0.01544589 0.017019412 0.017618882 -0.010021366
-0.01927427 0.016682675 0.011621976 -0.021223627 0.0020516217 0.0077967793 0.001270961 -0.009156532
0.0120430235 0.005662488 -0.01243568 0.012091605 0.014337635 -0.0017911233 0.00015881658 -0.019805744
0.008292938 0.00746502 -0.009677211 0.016051916 0.010570237 0.020115698 0.019085152 -0.0050982535
0.008481959 0.0076646935 0.013769263 -0.0005713105 0.0063625854 0.011982473 0.007577231 -0.015808176
-0.02182123 0.006855551 -0.0013804324 -0.015556576 0.007821059 0.004756443 -0.0071808742 0.008312225
0.012991885 0.014626691 -0.020546833 0.018552696 -0.017586092 0.016892156 0.008634981 0.0029494073
0.0008896943 0.011311179 -0.009616718 -0.01468055 0.011103848 -0.00067421794 0.008031903 0.014147004
00000000: 546b 9abb 6018 0a3c 49b4 a2bc 7ad9 62bc
00000010: c68b 733c c0b3 5abb 1196 a43c 6c4d 023c
00000020: 3788 66bc d4ed 8c3b e64a 433c 96b0 01bc
00000030: 9939 aa3c bd9a 9a3c c026 b7bb 30ed b0bc
00000040: 0773 61bc 2aa2 f1bb 800f d4ba 7cf6 b33b
00000050: a2b8 d5bb 68ae 143b fe4c 223c da55 463c
00000060: 1b63 22bc dedc 313c b03e 8dbc ab2c 943c
00000070: dcc7 7abc a235 403c 44ee 88bb 49e2 9a3c
00000080: b2cb 0a3c 8433 a63b 9c95 d13b 2b3c 59bc
00000090: 782f 9a3b 60e4 93bb 8bfa 9d3c 39c4 803c
000000a0: 1f5c 01bc 8241 f1bb 8f30 52bc 1285 783c
000000b0: 6e80 1b3c 4b08 53bc fccf 953b 8690 4e3c
000000c0: 8884 6dbc c76a 953c 4914 5fbc acec b4bc
000000d0: 2c8d 0e3c e902 a83c 0805 0ebb 3445 97bb
000000e0: 8636 4ebc c006 8039 6b61 67bc 3043 df3a
000000f0: a1b3 a63c d3c0 853c 8053 2aba a98c 7abc
00000100: 242c 993b e0d9 d43b d871 653b 6ed8 163c
00000110: bca7 d23b 58c4 39bb a885 5bbb 857a 08bc
00000120: 5028 a7ba d8ad 193b 5033 a23a 50ad 193b
00000130: ea30 a3bc a0cf 9b3b 1461 9fbb 24ab a83b
00000140: 6a67 0d3c 5ec3 393c 3bb6 883c e06f 8b3b
00000150: d11e 19bc cf14 8f3c d84c a5bc 88b7 21bc
00000160: f773 a03c 6fb9 a4bc 20db 4a3b f66d a7bc
00000170: ba2f 693c 6065 a0bb 122c 243c df24 99bc
00000180: d671 623c 9871 e53b fc65 12bc 2c6c 8bbc
00000190: fc07 cabb a004 bb3b 2506 78bc edff b43c
000001a0: 1ed4 523c e03f 95bc b041 d83a dc20 023c
000001b0: 1af4 453c b066 c0ba 483f 05bb 1ba8 15bc
000001c0: 4765 a63c 0f26 9e3c c85e 23bc cba3 86bc
000001d0: fac3 4b3c a9ff a33c c22b 82bc eb8e ad3c
000001e0: 50eb 6a3b 6de7 b13c 8c4a 41bc 4e3e 083c
000001f0: 2815 44bc 3b6c 37bc 2802 26bc 600a f4ba
00000200: 00f7 5eb9 9ac4 a0bc b8ca 22bc 079d a83c
00000210: f88a c2bb 001d c4ba 30e2 7e3b 0a1f 4f3c
00000220: ebf6 8bbc 9861 65bb 70f1 f03b ea6c 6e3c
00000230: f7d3 863c 49c4 a03c 6509 5abc ca2f 3d3c
00000240: 7d9b 54bc be8a 3abc 4aa9 8fbc a5e4 963c
00000250: 2a07 acbc fca0 ab3b d699 2e3c 2b72 a33c
00000260: 611d 0fbc f83b d33b 80b2 31ba 5436 6dbc
00000270: 00ad a639 805e 9e3a 9037 c3ba 4827 adbc
00000280: 00f2 663b a331 b43c ab0f a93c dd5d 963c
00000290: f488 68bc 9079 573b 8821 22bc 565b 6f3c
000002a0: 792f b03c 6457 afbc 5c68 80bc 4685 743c
000002b0: 6e99 84bc e759 76bc 6c07 a53b 0079 fd3b
000002c0: ea12 3c3c 59df 883c 60fc 503a 6c54 f73b
000002d0: 1b7b b13c e092 90ba 5d9d 9a3c b95f 48bc
000002e0: 607f 23bb 48bb a8bc 5d3a ad3c 60d4 d63b
000002f0: 80a8 edba c472 7ebc fa1d 283c 8038 ac39
00000300: 96e4 89bc 9c94 a83b 44e0 0f3c 604d 56bb
00000310: c210 7d3c 4b6c 8b3c 7955 903c a830 24bc
00000320: 13e5 9dbc 1baa 883c 1a6a 3e3c 2cdd adbc
00000330: 8074 063b 207c ff3b 6096 a63a 4705 16bc
00000340: 1a50 453c 648c b93b 06bf 4bbc de1b 463c
00000350: 66e8 6a3c 20c4 eaba 0088 2639 a83f a2bc
00000360: 1adf 073c 209d f43b 2a8d 1ebc 4f7f 833c
00000370: ca2e 2d3c adc9 a43c 7758 9c3c 400f a7bb
00000380: eaf7 0a3c 1c28 fb3b 7a98 613c 00c4 15ba
00000390: 3c7d d03b 2252 443c 6c4a f83b 2680 81bc
000003a0: 70c2 b2bc 88a4 e03b a0ef b4ba 02e1 7ebc
000003b0: e623 003c f0db 9b3b 8a4d ebbb 0030 083c
000003c0: eadb 543c caa4 6f3c d551 a8bc d3fb 973c
000003d0: b510 90bc 6b61 8a3c bc79 0d3c d84a 413b
000003e0: 603a 693a 8652 393c 708f 1dbc b186 70bc
000003f0: eaec 353c 00be 30ba 3e98 033c d6c8 673c

encoder.2.bias f4 [64]
0.021827867 0.0069318153 -0.013480172 -0.010283707 0.017644146 0.019111088 0.021511873 0.008658275
-0.0069831926 -0.0136883585 0.008477699 0.015105737 0.014329387 0.008142516 0.015766094 -0.0084480615
-0.016788464 0.011097835 0.021467077 0.021406462 0.018889094 -0.0032644942 0.017751692 -0.016755287
0.017874936 0.008404739 0.0016970877 -0.0054141283 -0.005702993 0.015341217 -0.020225817 0.01807041
0.0021423027 -0.0036211777 0.021691522 0.009281876 0.012214584 0.005026033 0.005225409 0.0030903015
-0.019285953 -0.016369667 0.0056543387 0.00038192607 -0.009740099 0.011674726 -0.018901225 0.018698407
-0.009286945 0.02009019 -0.0020628925 -0.0027328692 0.0011549238 0.0050499327 0.01848043 0.006310003
0.017134132 -0.01947008 0.013242694 0.0147397425 2.9915944e-05 -0.002914127 -0.018951314 -0.009042116
00000000: 5bd0 b23c 4824 e33b f0db 5cbc fe7c 28bc
00000010: 758a 903c db8e 9c3c ab39 b03c 70db 0d3c
00000020: 44d3 e4bb 2345 60bc 0ce6 0a3c 0e7e 773c
00000030: cec5 6a3c 3068 053c e527 813c bd69 0abc
00000040: f687 89bc b2d3 353c b9db af3c 9b5c af3c
00000050: 4dbd 9a3c 20f1 55bb ff6b 913c 6242 89bc
00000060: 756e 923c 08b4 093c d070 de3a 0069 b1bb
00000070: 2ce0 babb ba59 7b3c 9db0 a5bc 6508 943c
00000080: e065 0c3b 4851 6dbb 6bb2 b13c 0213 183c
00000090: ae1f 483c 6cb1 a43b e839 ab3b a886 4a3b
000000a0: 93fd 9dbc ae19 86bc 0848 b93b 403d c839
000000b0: f094 1fbc 5a47 3f3c bed6 9abc 672d 993c
000000c0: 4528 18bc 2f94 a43c 9831 07bb f019 33bb
000000d0: d060 973a e879 a53b 4564 973c 24c4 ce3b
000000e0: e15c 8c3c b87f 9fbc e2f7 583c f67e 713c
000000f0: 00f4 fa37 f0fa 3ebb c93f 9bbc 6225 14bc

encoder.4.weight f4 [32, 64, 2, 2]
-0.045993254 0.023005359 -0.04497251 0.04859873 -0.016806923 0.050268672 0.028544068 -0.0367126
0.0434909 -0.054958478 0.04374315 -0.013313703 0.0047785714 -0.017187811 -0.0027788654 -0.020667672
0.030367196 0.048454933 -0.04736148 0.02621261 -0.061818346 -0.02591335 -0.0602908 -0.050929867
-0.012941599 -0.0014248788 -0.010763109 0.00029676408 0.04001017 -0.0041615143 -0.053591073 0.059043802
0.004458666 0.042003207 0.0062907636 -0.02331473 -0.0607867 -0.026917472 0.03670387 -0.034441218
0.04051783 0.010464281 0.05368539 0.02621308 0.007839233 0.014646955 0.016079396 -0.005558662
0.006309703 0.040055446 0.033894368 0.011999652 0.056884095 0.03729056 -0.045642614 0.013286255
-0.024305642 0.0035588741 -0.054717213 -0.0555576 0.05502233 -0.01020918 0.05660893 -0.016085312
-0.060259826 0.039353907 0.03309817 0.057283595 0.0023914278 -0.01035472 -0.03754372 -0.04949844
-0.04614158 0.04753691 -0.023111388 0.02220504 -0.048562586 -0.024279073 -0.03774806 0.014727093
0.0016893968 0.04934536 -0.04998888 0.040167607 0.04503139 0.010974713 -0.05230616 -0.013645418
0.0061742887 0.059184812 -0.04921075 0.05563788 -0.027140297 0.018859126 0.027808592 0.030867517
0.018755525 -0.04304397 0.015075214 -0.0068695247 0.0013628304 0.054189004 -0.02040705 -0.05546514
0.028606363 0.05745645 -0.042906642 -0.008447349 -0.059026554 0.03296177 0.059077926 -0.04981032
-0.058527663 -0.045547493 0.013106622 -0.038374357 -0.04879745 -0.016022839 0.0039126277 -0.059483595
-0.039274924 -0.05241961 -0.0089129135 -0.03756181 -0.05659554 0.032074653 -0.057964146 -0.039532207
0.03730113 0.021679781 -0.056130596 -0.013795517 0.027322471 0.04267943 -0.027720898 0.052610107
0.060137145 0.009546615 -0.05289024 0.017707601 0.042485163 -0.051118255 0.046144374 0.0083761215
-0.002912499 0.019557595 -0.013014577 -0.011032186 -0.014789909 -0.055765204 -0.027090937 0.023213759
0.019081257 -0.018088967 0.043823227 0.01862774 -0.042623974 0.012617685 0.0093135685 -0.059578106
0.011709973 0.014812775 -0.022436455 0.049639538 -0.04384228 0.058552697 0.014089666 0.017705567
-0.028257258 -0.010375321 -0.060546845 0.016347036 -0.021794826 -0.05191698 0.051547706 0.007904388
0.048592374 -0.040272325 0.009903759 -0.024356544 0.017578527 -0.00055010617 0.057776235 -0.03332611
-0.05019293 0.04942114 0.0076585934 0.040198795 0.026061311 2.8811395e-05 0.0481589 0.050631285
-0.029207952 0.051032566 -0.061154768 -0.05190917 -0.06127333 0.056886017 0.044767693 -0.055739716
-0.016791381 0.011283696 -0.0076528788 -0.0029235706 0.057167105 -0.049872942 0.006872542 0.0044120774
0.04060594 0.055303134 -0.039623015 0.015563764 0.02679994 -0.0029812604 9.5412135e-05 0.0045342967
0.052433908 -0.022094771 -0.045685552 0.008667558 -0.02420684 -0.012799807 0.013053596 -0.03806603
-0.046384394 0.03631027 0.03553488 0.0057808086 0.05981165 0.008132972 0.04942377 -0.036618248
0.046573393 -0.0026428625 0.044623047 -0.047116004 -0.03208407 -0.029851444 0.045929484 -0.054205604
-0.008074112 -0.04049536 0.013394132 0.0007483959 0.04692848 -0.0025829151 -0.033431858 -0.00032630563
-0.038412467 -0.043454133 -0.016881838 -0.009307213 0.0070932284 0.0025673434 -0.027427725 0.04644289
00000000: 6c63 3cbd bc75 bc3c 1835 38bd 760f 473d
00000010: acae 89bc 86e6 4d3d 40d5 e93c f45f 16bd
00000020: 8423 323d 241c 61bd 042c 333d b821 5abc
00000030: 9095 9c3b 74cd 8cbc a01d 36bb 404f a9bc
00000040: a0c4 f83c ae78 463d 1cfe 41bd d4bb d63c
00000050: 3c35 7dbd 3c48 d4bc 7cf3 76bd d69b 50bd
00000060: 0009 54bc 00c3 baba c057 30bc 0097 9b39
00000070: b4e1 233d 505d 88bb 5082 5bbd ead7 713d
00000080: 001a 923b 8e0b 2c3d c022 ce3b 88fe bebc
00000090: 7afb 78bd 0882 dcbc cc56 163d 3c12 0dbd
000000a0: 06f6 253d 6072 2b3c 36e5 5b3d d0bc d63c
000000b0: 2070 003c c8f9 6f3c f0b8 833c 7025 b6bb
000000c0: a0c1 ce3b 2e11 243d d2d4 0a3d 309a 443c
000000d0: 4cff 683d fcbd 183d c0f3 3abd 98ae 593c
000000e0: a01c c7bc 003c 693b 281f 60bd 5e90 63bd
000000f0: 185f 613d 6844 27bc c4de 673d 58c5 83bc
00000100: 02d3 76bd 9031 213d f291 073d 34a2 6a3d
00000110: 80b9 1c3b d8a6 29bc 72c7 19bd e0be 4abd
00000120: f4fe 3cbd 10b6 423d 1854 bdbc 58e7 b53c
00000130: 90e9 46bd e8e4 c6bc b69d 1abd e849 713c
00000140: c06e dd3a 5c1e 4a3d 24c1 4cbd ca86 243d
00000150: d672 383d 48cf 333c fc3e 56bd 0891 5fbc
00000160: b051 ca3b c66b 723d 3691 49bd 8ce4 633d
00000170: 5455 debc 747e 9a3c d8ce e33c e0dd fc3c
00000180: 30a5 993c e04e 30bd 08fe 763c c019 e1bb
00000190: 00a1 b23a 4af5 5d3d b02c a7bc 6a2f 63bd
000001a0: e457 ea3c 7457 6b3d e0be 2fbd c066 0abc
000001b0: d4c5 71bd ec02 073d b2fb 713d e805 4cbd
000001c0: b4ba 6fbd 0290 3abd 28bd 563c 6e2e 1dbd
000001d0: d6df 47bd 5442 83bc 8035 803b 12a5 73bd
000001e0: bede 20bd f2b5 56bd 7807 12bc 6ada 19bd
000001f0: bad0 67bd b660 033d d06b 6dbd 86ec 21bd
00000200: 12c9 183d cc99 b13c 32e9 65bd 9806 62bc
00000210: 60d3 df3c a0d0 2e3d f016 e3bc b27d 573d
00000220: 5e52 763d 6869 1c3c 70a3 58bd 880f 913c
00000230: ec04 2e3d 6061 51bd e201 3d3d 003c 093c
00000240: a0df 3ebb 4037 a03c 183b 55bc 58c0 34bc
00000250: 6051 72bc 0e6a 64bd d0ed ddbc c82a be3c
00000260: 4c50 9c3c 502f 94bc fc7f 333d 3499 983c
00000270: 7a96 2ebd 68ba 4e3c f097 183c 2c08 74bd
00000280: 30db 3f3c 48b1 723c a8cc b7bc d452 4b3d
00000290: f693 33bd f4d4 6f3d 58d8 663c 440b 913c
000002a0: c47b e7bc 40fd 29bc f8ff 77bd 38ea 853c
000002b0: 108b b2bc e6a6 54bd b023 533d 6881 013c
000002c0: cc08 473d 98f4 24bd 6043 223c 6087 c7bc
000002d0: d800 903c 0035 10ba c6a6 6c3d f680 08bd
000002e0: 1a97 4dbd d26d 4a3d f0f4 fa3b 7ea7 243d
000002f0: 887e d53c 00b0 f137 4442 453d c062 4f3d
00000300: 8445 efbc 8607 513d 6c7d 7abd b69e 54bd
00000310: bef9 7abd 5001 693d 545e 373d 544f 64bd
00000320: 148e 89bc 40df 383c 00c5 fabb 6099 3fbb
00000330: 0e28 6a3d 9247 4cbd 1033 e13b 3093 903b
00000340: 6a52 263d 8a85 623d be4b 22bd 28ff 7e3c
00000350: 8c8b db3c 4061 43bb 0018 c838 7094 943b
00000360: f0c4 563d 1800 b5bc c620 3bbd 6002 0e3c
00000370: 6c4d c6bc 48b6 51bc c0de 553c 20eb 1bbd
00000380: 90fd 3dbd 14ba 143d 068d 113d f06c bd3b
00000390: 10fd 743d 2840 053c 9470 4a3d 04fd 15bd
000003a0: bec3 3e3d e033 2dbb a8c6 363d b6fc 40bd
000003b0: 966a 03bd 048b f4bc 8e20 3c3d b206 5ebd
000003c0: 4849 04bc 76de 25bd 1073 5b3c 0030 443a
000003d0: 1438 403d 2046 29bb d8ef 08bd 0014 abb9
000003e0: 6456 1dbd f6fc 31bd c84b 8abc 487d 18bc
000003f0: 506e e83b e040 283b 1cb0 e0bc e63a 3e3d

encoder.4.bias f4 [32]
0.035639323 0.03396967 0.060166962 0.0098722875 -0.049498215 -0.04207869 -0.061237797 0.03394723
-0.05185493 0.04061923 -0.053744197 0.040599383 0.052793227 -0.06108606 -0.00532943 -0.005579561
0.036074348 -0.025543772 0.056332164 0.007851176 0.035770044 -0.03143736 0.010085292 0.016000733
-0.04374201 0.017883696 -0.0152679905 -0.0154731795 -0.018537812 0.055201203 0.04407879 0.015400521
00000000: 8afa 113d c823 0b3d a271 763d 60bf 213c
00000010: a4be 4abd b45a 2cbd 7cd4 7abd 400c 0b3d
00000020: d665 54bd 5a60 263d e022 5cbd 8a4b 263d
00000030: b63d 583d 6035 7abd 80a2 aebb c0d4 b6bb
00000040: b2c2 133d 2c41 d1bc 8ebc 663d 38a2 003c
00000050: 9c83 123d 76c4 00bd c83c 253c f813 833c
00000060: d22a 33bd d480 923c 9826 7abc 3883 7dbc
00000070: 9cdc 97bc a81a 623d f68b 343d 7852 7c3c

encoder.6.weight f4 [16, 32, 3, 3]
0.039980393 -0.036986515 0.041266907 0.008182015 0.04732025 -0.038772844 0.02036852 -0.0035875402
-0.032895014 0.04436591 0.04194254 0.0036375634 0.015903804 0.031380694 -0.055522453 -0.040964715
-0.038251076 0.008781236 -0.050870046 -0.02409307 0.058202434 0.045445886 0.007411208 -0.0580025
-0.003611084 0.019376036 -0.058514092 0.02450547 0.043514814 -0.05299698 0.04575831 0.022589337
-0.054264784 0.03643288 -0.025203034 0.054250296 -0.032791127 -0.051165495 -0.016042523 0.03876448
0.031724084 -0.02459298 -0.033737883 0.022513721 -0.025507644 0.031196658 0.03774065 -0.0024395809
0.019236159 -0.02183026 -0.02836556 -0.04876415 0.04085427 0.014308985 0.051929776 0.035674956
-0.021068808 0.04232036 0.030001294 -0.015997574 0.02120341 0.050466258 -0.022210047 -0.0021278746
-0.013865013 0.011525352 0.03918576 -0.0005922206 0.03409868 0.011821542 0.047955673 -0.040502433
-0.0060131177 0.05254494 0.027547006 -0.015078492 0.04599769 -0.01745608 -0.017282218 0.019256305
0.0097623505 0.0553301 -0.024022419 0.028891284 -0.04774069 -0.015573613 0.0029541627 -0.021271706
-0.03380868 0.019156042 -0.054550588 -0.050431788 -0.026997495 -0.0031871311 -0.03461711 0.029508714
0.009898085 0.029671561 0.04670961 -0.023718882 -0.0035530217 -0.046079576 0.0010342635 -0.018968765
0.0067402683 -0.0029562376 0.0015252382 0.039207187 -0.0067171603 0.012859721 0.024652261 -0.0296011
0.019063998 -0.038150556 -0.022164818 0.05714644 -0.05363971 -0.004379291 0.018940013 0.0070351698
-0.012363236 -0.041112706 -0.04014407 0.03763118 -0.009952866 -0.043445226 0.004671473 0.016535524
-0.029293591 -0.023893576 0.020551164 0.045717526 -0.014135238 -0.033517726 0.029218014 0.03242665
-0.009365268 0.055412587 0.04481021 -0.01597938 0.0054998286 -0.039104342 0.02555218 -0.0353553
0.027181271 -0.023282431 0.04700024 0.012800049 0.024315972 0.033002358 0.029314104 0.029475536
-0.04418452 -0.029233497 -0.015157405 -0.022321366 -0.046373174 -0.023177557 -0.022059057 -0.03181853
0.0003513582 0.046911616 0.047896 0.058441337 -0.05705074 -0.024877451 0.030282464 0.020160485
0.019852053 -0.055058084 -0.009271968 -0.009473011 0.038550775 -0.04129743 0.0446913 0.056949984
0.032111835 -0.051640075 0.05409606 0.056381438 -0.012942854 0.037020992 0.04589166 0.023677085
0.008114662 0.0014027879 0.030080568 -0.058686677 0.03745619 -0.0031577758 -0.043341264 -0.04105368
0.0066293143 0.056582745 -0.017707318 -0.02837162 -0.02589994 -0.051382784 0.0025277846 -0.029566955
-0.032567054 -0.021076865 0.05502061 0.048739005 -0.020777166 -0.022165246 -0.05618885 0.05587047
0.057898026 0.042600866 -0.046391852 -0.051384427 -0.054045584 0.046766248 -0.009585042 0.055351917
-0.057473045 -0.03433218 -0.04764639 -0.03246464 0.043758962 0.033140365 -0.03817103 -0.057749607
0.04333679 0.039361615 -0.049299 0.031783696 -0.03801214 -0.022895504 -0.046287473 0.031725485
-0.001644332 0.055003908 -0.036700733 0.002099391 -0.022161283 0.007217776 -0.054311533 -0.04377269
-0.014933795 0.03228682 0.012480702 -0.008438002 0.003931377 -0.042690337 0.041718986 0.0068247057
0.024308924 0.045012657 -0.004107315 0.0536086 0.057518747 -0.011550013 -0.017280966 0.03913791
00000000: 7bc2 233d 2c7f 17bd 7d07 293d dc0d 063c
00000010: e1d2 413d 46d0 1ebd e2db a63c f01c 6bbb
00000020: ecbc 06bd 07b9 353d f1cb 2b3d 3064 6e3b
00000030: b248 823c 0b89 003d 836b 63bd 9eca 27bd
00000040: 29ad 1cbd 2cdf 0f3c 1c5d 50bd d45e c5bc
00000050: ad65 6e3d 7725 3a3d b8d9 f23b 0894 6dbd
00000060: f0a7 6cbb 7eba 9e3c 79ac 6fbd b2bf c83c
00000070: 973c 323d 5c13 59bd 116d 3b3d 460d b93c
00000080: c044 5ebd a53a 153d 9876 cebc 8f35 5e3d
00000090: fd4f 06bd e992 51bd 9c6b 83bc 81c7 1e3d
000000a0: 1df1 013d 3877 c9bc bc30 0abd b26e b83c
000000b0: 68f5 d0bc 2290 ff3c f195 1a3d 60e1 1fbb
000000c0: 2695 9d3c 60d5 b2bc e45e e8bc ebbc 47bd
000000d0: cf56 273d 3c70 6a3c 51b4 543d e71f 123d
000000e0: 7e98 acbc 1d58 2d3d 46c5 f53c 580d 83bc
000000f0: c6b2 ad3c b5b5 4e3d d8f1 b5bc d073 0bbb
00000100: 142a 63bc d4d4 3c3c 3f81 203d 403f 1bba
00000110: 0fab 0b3d 24af 413c 2b6d 443d e1e5 25bd
00000120: b009 c5bb 5d39 573d 42aa e13c c80b 77bc
00000130: 1368 3c3d 0e00 8fbc 7093 8dbc 66bf 9d3c
00000140: 44f2 1f3c d1a1 623d aaca c4bc 6aad ec3c
00000150: be8b 43bd 7828 7fbc a09a 413b 0042 aebc
00000160: f87a 0abd 22ed 9c3c 7070 5fbd 9091 4ebd
00000170: da29 ddbc 30df 50bb acca 0dbd 42bc f13c
00000180: 942b 223c c611 f33c 9352 3f3d 1a4e c2bc
00000190: d0d9 68bb f0bd 3cbd 2090 873a 6264 9bbc
000001a0: 78dd dc3b 70bd 41bb 80ea c73a b797 203d
000001b0: a01b dcbb 94b1 523c 8af3 c93c 027e f2bc
000001c0: 1a2c 9c3c c243 1cbd fe92 b5bc 6312 6a3d
000001d0: 50b5 5bbd 2880 8fbb 1628 9b3c 4887 e63b
000001e0: 2c8f 4abc cc65 28bd 1c6e 24bd 2723 1a3d
000001f0: 5811 23bc 9ff3 31bd 2813 993b 8275 873c
00000200: 1df9 efbc 76bc c3bc ea5a a83c 4d42 3b3d
00000210: 7c97 67bc e249 09bd 9e5a ef3c cfd1 043d
00000220: c870 19bc 4ff8 623d e98a 373d 30e7 82bc
00000230: e837 b43b e02b 20bd ce52 d13c b8d0 10bd
00000240: 42ab de3c ccba bebc 5383 403d 4cb7 513c
00000250: 4a32 c73c 7b2d 073d 2224 f03c ae76 f13c
00000260: d4fa 34bd 167b efbc c456 78bc 4cdb b6bc
00000270: ccf1 3dbd dcde bdbc 32b5 b4bc 2654 02bd
00000280: 8036 b839 6526 403d 992e 443d 2f60 6f3d
00000290: 09ae 69bd cccb cbbc ee12 f83c 9a27 a53c
000002a0: c6a0 a23c 9684 61bd 74e9 17bc b034 1bbc
000002b0: 6be7 1d3d 7e27 29bd 390e 373d 6344 693d
000002c0: b387 033d 8b84 53bd d593 5d3d 39f0 663d
000002d0: 440e 54bc 53a3 173d e5f8 3b3d 72f6 c13c
000002e0: 5cf3 043c c0dd b73a 866b f63c 7161 70bd
000002f0: a96b 193d b0f2 4ebb 9c86 31bd e727 28bd
00000300: b83a d93b 4fc3 673d f00e 91bc 9a6b e8bc
00000310: 1c2c d4bc c176 52bd 30a9 253b 6636 f2bc
00000320: 0865 05bd 64a9 acbc 4b5d 613d 8da2 473d
00000330: e034 aabc e493 b5bc 4826 66bd 6fd8 643d
00000340: 7b26 6d3d 3f7e 2e3d 6205 3ebd 7a78 52bd
00000350: e75e 5dbd f78d 3f3d 940a 1dbc b1b8 623d
00000360: db68 6bbd e69f 0cbd dc28 43bd a4f9 04bd
00000370: 993c 333d 31be 073d 3a59 1cbd da8a 6cbd
00000380: eb81 313d a539 213d c0ed 49bd 9f2f 023d
00000390: 9eb2 1bbd 5a8f bbbc ef97 3dbd 95f2 013d
000003a0: a086 d7ba c74b 613d 8253 16bd f095 093b
000003b0: 948b b5bc 1883 ec3b c575 5ebd fe4a 33bd
000003c0: e0ac 74bc 2f3f 043d dc7b 4c3c 8c3f 0abc
000003d0: c8d2 803b 10dc 2ebd 87e1 2a3d c8a1 df3b
000003e0: 8223 c73c 315f 383d a896 86bb b194 5b3d
000003f0: c798 6b3d 443c 3dbc d090 8dbc 134f 203d

encoder.6.bias f4 [16]
-0.015440054 -0.017650552 0.030268196 0.030123774 0.038938884 -0.016437713 0.04694495 -0.001594957
0.0016924627 -0.0069816597 0.0457826 0.024396952 0.038649675 -0.024775907 0.037661497 0.04292615
00000000: 48f8 7cbc e497 90bc 02f5 f73c 22c6 f63c
00000010: 617e 1f3d 62a8 86bc 5949 403d e00d d1ba
00000020: a0d5 dd3a 68c6 e4bb 8986 3b3d 1edc c73c
00000030: 1f4f 1e3d d8f6 cabc f142 1a3d 55d3 2f3d

encoder.9.weight f4 [8, 16, 3, 3]
0.06806929 -0.051691324 -0.04801322 0.067725636 -0.03605362 0.031270944 0.031190366 -0.018519916
-0.011369236 0.056711502 0.060693793 0.019719623 0.037865408 -0.07560732 0.036677085 -0.077000365
-0.07824894 0.048036225 -0.082226604 -0.07137908 -0.03473541 0.077731185 0.08212382 -0.07561371
-0.03494219 -0.048940342 0.07115618 -0.07895878 0.04908844 -0.059992813 -0.03094709 -0.03526806
-0.028686993 0.023855336 0.0025112852 0.015500091 -0.0773133 -0.04574299 0.026720665 0.06451211
0.06265745 0.00838197 0.051631935 0.029868603 0.041454613 0.03967718 -0.07083942 0.07401132
0.0006820932 0.01383359 0.021768846 -0.01934769 -0.08287435 -0.010095954 -0.06700827 0.034323625
-0.006670952 0.062975086 0.010838389 -0.009931982 -0.066564284 0.055288367 0.0042874217 -0.035757255
-0.02713859 -0.022171706 -0.017338954 -0.047953963 0.014803179 0.07976357 -0.04699269 0.023478717
-0.060981773 0.07694929 0.0782978 0.027599312 -0.061964743 0.051833726 -0.018243998 0.039762057
0.04845313 -0.030487143 -0.02958414 -0.03413871 0.054101206 -0.028210543 -0.014806084 0.008413315
0.05500544 -0.038784556 0.04282502 -0.022737682 0.049031176 0.08018536 -0.060598813 0.010075338
-0.024926703 0.023959137 -0.010044493 -0.047653478 0.022136778 -0.042140763 0.04765401 -0.042407524
0.06374381 0.07602865 0.01355999 0.037754245 -0.014503159 -0.052048355 0.03565819 -0.05308514
0.04943543 -0.005378671 -0.017188452 -0.082655415 -0.043071628 -0.011567019 0.046436153 -0.012612395
-0.046146087 -0.024937402 -0.011010468 -0.016074456 -0.02596156 0.033085503 0.035654582 0.04256145
-0.07612598 0.036277793 -0.07553216 -0.04911056 -0.014154404 0.0637648 0.04201714 -0.03292517
0.018510245 -0.054400317 -0.029366057 -0.06324466 -0.043504905 -0.02557845 -0.022621892 0.031163573
0.07203684 0.044696905 0.06709618 -0.055799365 -0.075592086 0.08233092 0.05104164 0.016927622
-0.01348757 -0.05854988 -0.042440496 0.0034158453 -0.041498702 -0.019367315 -0.081618935 0.04088699
-0.025339447 0.008048922 0.06246052 0.03307139 -0.020846825 0.019099943 -0.07866436 0.052043192
0.018508472 -0.040118527 -0.0067179874 -0.044730835 0.052098595 0.071455576 0.004794501 -0.055338882
0.014555991 0.057259597 0.030525655 0.03876219 0.01234097 -0.06516701 0.0468385 -0.014657654
-0.042489044 -0.04047392 0.016382672 -0.06425302 -0.010896407 0.07782937 0.040868916 0.0029807314
0.044809468 -0.057954103 -0.06987267 0.06567443 0.0080971345 -0.06362676 -0.016452044 0.053293593
0.031635344 0.0076207593 -0.082525365 -0.029452942 -0.079674944 0.0018035248 0.014525332 0.028881967
0.017105348 -0.05183398 -0.02244138 0.05047231 0.03562534 -0.06818843 -0.024202477 -0.011151612
-0.059354536 0.010675408 -0.07853353 -0.06137255 0.046459325 -0.07828301 -0.0638754 -0.06898188
-0.008140653 0.0336181 -0.05308816 0.063166626 -0.03241129 0.06598247 0.052922525 0.042369075
-0.08136383 0.023083568 -0.07226534 0.023719847 0.012317322 -0.048447214 0.040520675 0.0688693
-0.08073541 -0.06349841 -0.042940915 -0.03795311 0.07768486 -0.053585082 0.071424104 -0.045527123
0.04652614 -0.0013844296 -0.060397506 0.053394847 0.0561089 -0.060639095 -0.06328242 0.0011076927
00000000: e967 8b3d 48ba 53bd 83a9 44bd bdb3 8a3d
00000010: f6ac 13bd f615 003d f082 ff3c 14b7 97bc
00000020: 0846 3abc 524a 683d 0e9a 783d 0c8b a13c
00000030: c218 1b3d 03d8 9abd b63a 163d 5eb2 9dbd
00000040: fb40 a0bd a2c1 443d 6c66 a8bd 322f 92bd
00000050: b846 0ebd 8731 9f3d 8930 a83d 5cdb 9abd
00000060: 8b1f 0fbd ab75 48bd 55ba 913d 24b5 a1bd
00000070: f610 493d 06bb 75bd c084 fdbc 3e75 10bd
00000080: fc00 ebbc 446c c33c 6094 243b 18f4 7d3c
00000090: 6f56 9ebd 005d 3bbd 4ce5 da3c ed1e 843d
000000a0: 8d52 803d 8854 093c 027c 533d 00af f43c
000000b0: 50cc 293d 8a84 223d 4214 91bd 3f93 973d
000000c0: 80ce 323a 48a6 623c 9454 b23c 0c7f 9ebc
000000d0: 07ba a9bd 8069 25bc a23b 89bd ee96 0c3d
000000e0: 0098 dabb 15f9 803d 8093 313c c0b9 22bc
000000f0: db52 88bd 0e76 623d 807d 8c3b 3376 12bd
00000100: c051 debc 70a1 b5bc 6c0a 8ebc 606b 44bd
00000110: 0889 723c 155b a33d 687b 40bd 7056 c03c
00000120: 06c8 79bd 9797 9d3d 995a a03d f417 e23c
00000130: bece 7dbd 9a4f 543d 7074 95bc 8add 223d
00000140: ca76 463d 2cc0 f9bc 705a f2bc 08d5 0bbd
00000150: 3a99 5d3d cc19 e7bc 3895 72bc 00d8 093c
00000160: 624d 613d 8edc 1ebd 4a69 2f3d 6044 babc
00000170: ead4 483d 3938 a43d 7636 78bd 0813 253c
00000180: 1633 ccbc f445 c43c a891 24bc 4b30 43bd
00000190: 3058 b53c cb9b 2cbd da30 433d 83b3 2dbd
000001a0: 1d8c 823d e9b4 9b3d b82a 5e3c 32a4 1a3d
000001b0: a89e 6dbc a830 55bd 520e 123d ce6f 59bd
000001c0: ce7c 4a3d 903f b0bb ccce 8cbc 3e47 a9bd
000001d0: e06b 30bd 9883 3dbc d633 3e3d 38a4 4ebc
000001e0: ae03 3dbd 8649 ccbc 4065 34bc 94ae 83bc
000001f0: 56ad d4bc aa84 073d 8a0a 123d ea54 2e3d
00000200: f0e7 9bbd 0698 143d 9bb0 9abd 2828 49bd
00000210: e0e7 67bc 1f97 823d 2a1a 2c3d 8bdc 06bd
00000220: cca2 973c ded2 5ebd 1691 f0bc 6b86 81bd
00000230: 3332 32bd e689 d1bc 8c51 b9bc c04a ff3c
00000240: 0d88 933d 1a14 373d b969 893d e08d 64bd
00000250: 06d0 9abd 1d9d a83d 0a11 513d ccab 8a3c
00000260: f8fa 5cbc 00d2 6fbd 16d6 2dbd 60dc 5f3b
00000270: 8bfa 29bd 34a8 9ebc d427 a7bd 1e79 273d
00000280: ac94 cfbc a0df 033c 9ad6 7f3d de75 073d
00000290: f6c6 aabc 7c77 9c3c c81a a1bd 3e2b 553d
000002a0: 149f 973c 5353 24bd 9022 dcbb ae37 37bd
000002b0: 5665 553d 4d57 923d 301b 9d3b 06ab 62bd
000002c0: 407c 6e3c 0a89 6a3d f010 fa3c 1ac5 1e3d
000002d0: c831 4a3c 4876 85bd bad9 3f3d a826 70bc
000002e0: fe08 2ebd fbc7 25bd f434 863c 1697 83bd
000002f0: d886 32bc 0165 9f3d 2a66 273d 6058 433b
00000300: 228a 373d 4861 6dbd 6719 8fbd 5180 863d
00000310: d8a9 043c bf4e 82bd 70c6 86bc 624a 5a3d
00000320: 1094 013d 90b7 f93b 0f03 a9bd 4c47 f1bc
00000330: 9e2c a3bd 4064 ec3a a8fb 6d3c e099 ec3c
00000340: 8420 8c3c de4f 54bd fcd6 b7bc 0ebc 4e3d
00000350: e0eb 113d 60a6 8bbd 4644 c6bc 40b5 36bc
00000360: be1d 73bd e8e7 2e3c 30d6 a0bd c861 7bbd
00000370: 224c 3e3d d852 a0bd 1bd1 82bd 5f46 8dbd
00000380: 6060 05bc 22b3 093d f872 59bd 815d 813d
00000390: b3c1 04bd d121 873d 4ac5 583d 328b 2d3d
000003a0: 14a2 a6bd c019 bd3c daff 93bd 2050 c23c
000003b0: 98ce 493c 9670 46bd 02f9 253d 590b 8d3d
000003c0: 9b58 a5bd 740b 82bd d0e2 2fbd b874 1bbd
000003d0: 3d19 9f3d 087c 5bbd cd46 923d a67a 3abd
000003e0: 3292 3e3d c075 b5ba 6063 77bd 8eb4 5a3d
000003f0: 72d2 653d b360 78bd 379a 81bd 0030 913a

encoder.9.bias f4 [8]
-0.080220096 0.04938636 -0.005376607 -0.06894999 0.031623892 0.07745693 -0.059580922 -0.042397343
00000000: 6f4a a4bd 5a49 4a3d 402e b0bb a735 8dbd
00000010: 0e88 013d bda1 9e3d 200b 74bd d6a8 2dbd

decoder.0.weight f4 [8, 128, 3, 3]
-0.017153943 0.024696367 -0.028763922 -0.027148105 0.0008267313 -0.0201434 -0.0036382917 -0.008717852
0.01365014 -0.025858967 -0.019415632 0.012192866 0.0010883082 -0.017655976 0.028189825 0.029334651
0.018059133 0.022181788 -0.011608569 -0.028608374 0.010158012 -0.0037314538 0.013440961 0.017333968
-0.016260803 -0.0068551563 -0.009890145 -0.01963196 0.024489572 -0.02761119 0.026442694 0.019133462
0.014285127 0.010098482 0.010338275 0.012344116 -0.0008688811 -0.012963517 -0.023034485 -0.018227141
0.0010740738 -0.003147347 -0.022247765 -0.014688609 -0.010167969 0.028733881 -0.001311414 -0.0024051517
0.02719243 -0.022322228 -0.00061870925 0.006245682 0.0057291333 0.020620847 -0.02151545 0.012180975
-0.0031075403 0.023158366 0.0018929858 -0.008568129 -0.004819479 0.016482601 -0.0062062647 0.011914009
-0.018634256 -0.0064964797 0.012476379 0.028137976 0.018081734 0.00748208 -0.023325998 -0.008464498
0.00093774684 -0.0011864193 0.010375539 -0.01783209 -0.0033627562 0.009699015 -0.013191942 0.0020271298
0.011809031 -0.012323078 -0.028731823 0.0064884517 0.0040358957 0.026075507 -0.026590627 0.025563812
0.027756775 -0.0085218325 -0.020714765 0.0024460275 0.0033055004 0.005830014 0.028913727 -0.00069880113
-0.0005695764 0.010972822 0.0008866638 -0.017917957 0.011911841 0.019442728 -0.00048166513 -0.017268185
0.02087429 0.004530182 0.02643746 -0.023071839 -0.015774943 -0.0048212 0.0009706244 -0.0093031265
-0.025936907 0.015344279 0.006777229 -0.0116314385 0.019105418 0.018377574 -0.011511825 0.02788862
-0.007158678 0.013919221 -0.006298745 -0.0062116124 -0.017317157 -9.3348324e-05 0.012944477 -0.016779896
-0.013818223 0.02019454 -0.0146126915 -0.028890306 0.004425874 -0.0032312796 0.024593743 -0.014048036
0.018752513 0.016680056 -0.02058499 -0.005607484 -0.018495407 -0.0071097203 0.028956966 0.0009481255
0.016753504 -9.220652e-05 -0.019198354 -0.012977654 -0.023329124 0.017023826 -0.010382507 -0.016950231
0.013093198 0.014873309 0.0054719057 0.0049629863 -0.012331806 0.016643258 0.0044166986 0.019492371
-0.008858534 0.0044445414 -0.011176782 0.021686113 0.00070258416 0.0124244895 -0.011918401 -0.00850207
-0.00435376 0.024245633 0.007291591 -0.017846745 0.026607005 0.027217025 0.013063649 -0.010982187
-0.0034804624 0.003865065 0.0016044918 -0.019878754 -0.0004497394 0.017842392 -0.00038896687 -0.02503191
-0.016974127 0.019436916 0.0017769393 -0.011163358 0.017206905 -0.010394249 -0.0003119465 0.02095669
-0.012791842 0.024937423 -0.01983678 0.007625552 0.01926036 0.027545212 -0.01579073 8.226372e-05
-0.018987685 -0.025048403 -0.024026386 0.00079412013 -0.009156937 0.006924348 -0.00046839938 0.0060651656
-0.007256819 -0.007114308 0.005252978 -0.012540612 0.011300577 0.001805814 0.01837563 0.0036552828
-0.020327661 -0.018937685 0.008748515 0.023481743 -0.006788755 0.013069088 0.008177215 0.017820792
-0.009905929 0.027455674 -0.007752415 -0.023215773 -0.0074118394 0.0029758085 -0.0026582647 0.002786247
-0.0067408644 0.022530382 0.0037964229 0.013768496 0.027595388 0.008517472 -0.015598261 0.017311098
-0.013362287 -0.0021107607 -0.0156193655 0.022250475 -0.0057249777 0.004501017 -0.02036209 -0.021559423
0.01141507 0.022283958 -0.014794956 0.022920845 0.012797261 0.011664065 -0.019061886 -0.018071933
00000000: 6d86 8cbc 0950 ca3c 51a2 ebbc b465 debc
00000010: 00b9 583a c603 a5bc 6870 6ebb 52d5 0ebc
00000020: d6a4 5f3c 2fd6 d3bc 880d 9fbc 96c4 473c
00000030: 90a5 8e3a 44a3 90bc 59ee e63c 394f f03c
00000040: bff0 933c 95b6 b53c de31 3ebc 1c5c eabc
00000050: ca6d 263c 688b 74bb 7a37 5c3c f7ff 8d3c
00000060: 6035 85bc 38a1 e0bb 460a 22bc 34d3 a0bc
00000070: 5b9e c83c dd30 e2bc 599e d83c c7bd 9c3c
00000080: 2a0c 6a3c 1a74 253c de61 293c fa3e 4a3c
00000090: a0c5 63ba ee64 54bc d1b2 bcbc 1651 95bc
000000a0: f0c7 8c3a b843 4ebb f240 b6bc 7ea8 70bc
000000b0: 8e97 26bc 5163 eb3c c0e3 abba c09f 1dbb
000000c0: a9c2 de3c 1bdd b6bc e030 22ba 94a8 cc3b
000000d0: 74bb bb3b 0ded a83c 2b41 b0bc b692 473c
000000e0: e0a7 4bbb 9db6 bd3c 101e f83a 5661 0cbc
000000f0: b8ec 9dbb 8506 873c ec5d cbbb fa32 433c
00000100: dea6 98bc 6ce0 d4bb ba69 4c3c 9d81 e63c
00000110: 2520 943c 3c2c f53b 2a16 bfbc aeae 0abc
00000120: 20d3 753a a081 9bba 2afe 293c 9a14 92bc
00000130: b061 5cbb 9ee8 1e3c 0423 58bc 98d9 043b
00000140: aa7a 413c bce6 49bc 005f ebbc 149d d43b
00000150: 8c3f 843b 4d9c d53c 96d4 d9bc 336b d13c
00000160: 2d62 e33c 289f 0bbc 03b2 a9bc 884d 203b
00000170: 18a1 583b b409 bf3b 7bdc ec3c c02f 37ba
00000180: a04f 15ba 5ac7 333c 006f 683a aec8 92bc
00000190: e229 433c 5b46 9f3c 0088 fcb9 0276 8dbc
000001a0: 8f00 ab3c ec71 943b 5f93 d83c 2701 bdbc
000001b0: 743a 81bc 28fb 9dbb 8071 7e3a 246c 18bc
000001c0: a379 d4bc 9266 7b3c 8413 de3b ca91 3ebc
000001d0: f782 9c3c 918c 963c 189c 3cbc ad76 e43c
000001e0: 5893 eabb 720d 643c b465 cebb c88a cbbb
000001f0: b6dc 8dbc 00c4 c3b8 1215 543c fe75 89bc
00000200: d465 62bc 056f a53c 126a 6fbc 5dab ecbc
00000210: ec06 913b e0c3 53bb d178 c93c bc29 66bc
00000220: df9e 993c 9da4 883c daa1 a8bc fcbe b7bb
00000230: ae83 97bc a8f8 e8bb 2937 ed3c a08b 783a
00000240: a53e 893c 005f c1b8 de45 9dbc 3aa0 54bc
00000250: b81c bfbc 8d75 8b3c 641b 2abc 36db 8abc
00000260: da84 563c 2eaf 733c ac4d b33b 8ca0 a23b
00000270: 580b 4abc 7157 883c f4b9 903b 77ae 9f3c
00000280: 6223 11bc 84a3 913b d21e 37bc 13a7 b13c
00000290: a02d 383a 1690 4b3c 6645 43bc 444c 0bbc
000002a0: fca9 8ebb c79e c63c 4cee ee3b 5633 92bc
000002b0: eff6 d93c 3df6 de3c ea08 563c a2ee 33bc
000002c0: 7818 64bb 084d 7d3b d04d d23a c5d8 a2bc
000002d0: 00cb ebb9 352a 923c 40ee cbb9 b80f cdbc
000002e0: 530d 8bbc 2b3a 9f3c 30e8 e83a 84e6 36bc
000002f0: 7ff5 8c3c a44c 2abc c08c a3b9 5dad ab3c
00000300: e094 51bc 9149 cc3c be80 a2bc c4df f93b
00000310: e7c7 9d3c 7fa6 e13c 905b 81bc 0085 ac38
00000320: 108c 9bbc 4f32 cdbc fcd2 c4bc 802c 503a
00000330: fa06 16bc a4e5 e23b 8093 f5b9 4cbe c63b
00000340: 9cca edbb 241f e9bb 2c21 ac3b 2477 4dbc
00000350: 0e26 393c 10b1 ec3a 7d88 963c 788d 6f3b
00000360: 3286 a6bc 3423 9bbc ee55 0f3c c95c c03c
00000370: 3474 debb ba1f 563c baf9 053c e9fc 913c
00000380: 7a4c 22bc b9ea e03c f807 febb 012f bebc
00000390: 04df f2bb c805 433b 4836 2ebb 7899 363b
000003a0: 78e2 dcbb a391 b83c 68cd 783b 4295 613c
000003b0: b90f e23c de8c 0b3c d98f 7fbc 01d0 8d3c
000003c0: 7eed 5abc b054 0abb 5ee8 7fbc a146 b63c
000003d0: 9898 bbbb 447d 933b 66ce a6bc 639d b0bc
000003e0: 4606 3b3c d98c b63c 8b66 72bc 7fc4 bb3c
000003f0: 9aab 513c a21a 3f3c ac27 9cbc 970b 94bc

decoder.0.bias f4 [128]
-0.025348682 0.020469828 -0.00024836697 -0.027479313 0.024786672 0.015169168 -0.0059314556 0.007141473
-0.004400665 0.00011649355 0.025519686 -0.014727419 -0.026307458 -0.004304018 0.017017642 0.018674398
-0.025958568 -0.015743531 0.028480874 0.027256241 0.0072770584 0.009792706 0.014024051 0.018648626
-0.020801332 0.021857565 0.0017760396 -0.020955823 -0.0020344183 -0.011244023 0.016415099 0.018524723
0.015265638 -0.0086511 0.009682326 0.0273246 0.012120632 -0.022350032 0.010832602 -0.025418526
-0.00926909 0.014487477 0.02489241 -0.008130254 -0.0190792 0.028317364 -0.007965287 0.028575381
0.0040136296 0.0033788513 -0.0029196143 -0.020987656 0.006593993 -0.020442605 0.013175337 -0.0020984355
-0.0015772432 0.0066952426 0.026634661 0.01490338 0.0008874927 0.0050449427 0.0065547135 -0.020088796
-0.016191853 -0.014766233 0.023565924 -0.023540191 -8.378178e-05 -0.011920046 0.0016922839 0.008009376
-0.0024900082 -0.01385383 -0.015892945 0.0077572707 -0.0005997252 0.007751638 -0.0075079165 0.004791336
-0.028805846 0.005905645 0.016432436 -0.012780203 -0.02381128 0.026432527 0.01968141 -0.02103987
0.027391257 0.014617959 -0.00976762 0.010455841 -0.02755008 0.02759117 -0.0077053923 0.015607288
0.0057760533 0.027783027 0.011103591 0.023054698 0.02698226 0.0044490118 0.008109456 0.0027684588
0.01751882 -0.0014037993 0.013697626 0.0075837653 -0.013971909 -0.02626285 -0.012461685 0.004262874
-0.025654035 -0.012048921 0.0034586396 0.023137862 -0.0031852052 -0.022793654 0.022983221 -0.021570072
-0.028656531 -0.020366333 0.019538531 0.022401614 0.013654945 0.023463828 0.0119252335 0.022705698
00000000: 0aa8 cfbc 57b0 a73c 4037 82b9 4c1c e1bc
00000010: 6b0d cb3c 1a88 783c a85c c2bb 0403 ea3b
00000020: 7433 90bb 004e f438 a90e d13c 464b 71bc
00000030: bd82 d7bc b808 8dbb 9568 8b3c 0dfb 983c
00000040: 10a7 d4bc 94f8 80bc b950 e93c 7b48 df3c
00000050: 6474 ee3b 9671 203c 22c5 653c 01c5 983c
00000060: 8e67 aabc a30e b33c 00ca e83a 8cab abbc
00000070: e053 05bb da38 38bc f578 863c 29c1 973c
00000080: ba1c 7a3c 58bd 0dbc 9ea2 1e3c d7d7 df3c
00000090: 9e95 463c 6a17 b7bc 3a7b 313c 833a d0bc
000000a0: 62dd 17bc e25c 6d3c 2beb cb3c c234 05bc
000000b0: fc4b 9cbc d1f9 e73c d680 02bc eb16 ea3c
000000c0: c484 833b b86f 5d3b 0057 3fbb 4eee abbc
000000d0: 6c12 d83b 4077 a7bc 5edd 573c e885 09bb
000000e0: 80bb ceba c463 db3b ef30 da3c 4e2d 743c
000000f0: a0a6 683a 0c50 a53b ecc8 d63b 4291 a4bc
00000100: c7a4 84bc 12ee 71bc 530d c13c 5cd7 c0bc
00000110: 00b4 afb8 4c4c 43bc a0cf dd3a c239 033c
00000120: 682f 23bb 2dfb 62bc ec31 82bc b430 fe3b
00000130: e036 1dba 7401 fe3b f804 f6bb a400 9d3b
00000140: 3dfa ebbc 2484 c13b 519d 863c 0e64 51bc
00000150: e00f c3bc 0789 d83c e93a a13c ce5b acbc
00000160: a163 e03c 2a80 6f3c 5e08 20bc fa4e 2b3c
00000170: b5b0 e1bc e106 e23c 847d fcbb b6b5 7f3c
00000180: 0c45 bd3b 3b99 e33c d6eb 353c 35dd bc3c
00000190: e709 dd3c 04c9 913b 86dd 043c 086f 353b
000001a0: a183 8f3c b0ff b7ba 026c 603c 3c81 f83b
000001b0: 6fea 64bc 3025 d7bc 182c 4cbc 94af 8b3b
000001c0: 6928 d2bc d668 45bc 58aa 623b 9d8b bd3c
000001d0: e0be 50bb c2b9 babc 4f47 bc3c b8b3 b0bc
000001e0: 1ac1 eabc 4cd7 a6bc 450f a03c 9783 b73c
000001f0: feb8 5f3c 3737 c03c 0e62 433c 4d01 ba3c
