mnist_random_iter/end_of_2.pth (torch_old, 842197 bytes, 19 tensors)

encoder.0.weight f4 [128, 1, 3, 3]
0	0xbe203eaf	-0.15648912
1	0x3e96122b	0.29310736
2	0x3f0e4e31	0.5558806
3	0xbecb0fdb	-0.39660534
4	0x3d325d79	0.043546174
5	0x3edd3d02	0.43210608
6	0xbe8620fb	-0.26197037
7	0x3e0d5d86	0.13805208
8	0x3e8b42f6	0.27199525
9	0xbce82bc7	-0.028341187
10	0x3dc8b53e	0.09800194
11	0xbdcc97df	-0.099899046
12	0x3be4d12c	0.006982943
13	0x3de31e19	0.11089725
14	0xbdbac0c3	-0.09118798
15	0xb97b39e7	-0.00023958796
16	0x3cc8d864	0.024517246
17	0xbde3dd70	-0.1112622
18	0xbe126707	-0.14297114
19	0x3d306b5a	0.04307113
20	0xbe16cec0	-0.14727306
21	0x3d1710fd	0.036881436
22	0x3d8defc5	0.06930498
23	0xbcd199af	-0.025585977
24	0x3b9a876f	0.004715852
25	0x3e460e23	0.1934133
26	0xbdcfcea2	-0.10146834
27	0x3da16c22	0.07881953
28	0xbd7cf1d2	-0.061754055
29	0x3d97820f	0.073978536
30	0x3e753bc5	0.23948582
31	0x3db6da17	0.08928316
32	0xbcbaa621	-0.022784295
33	0x3e2a9bcb	0.16660993
34	0xbddb8288	-0.10718256
35	0xbd76cbac	-0.06025283
36	0xbdd6ce1f	-0.10488533
37	0x3e056e98	0.1303047
38	0xbd2a0247	-0.041506078
39	0xbd8f37c4	-0.06993058
40	0x3e08e988	0.13370335
41	0xbddf9936	-0.109178945
42	0x3c84a141	0.016190173
43	0x3e13d312	0.14435986
44	0xbde9a71f	-0.11408829
45	0x3bdbb764	0.0067052115
46	0x3b9e006a	0.0048218267
47	0x3c0942b7	0.008377722
48	0x3ae7721f	0.0017657912
49	0x3b00efd8	0.0019674208
50	0x3bb8f2d7	0.005644183
51	0x3641b4cf	2.8864486e-06
52	0x3afcd296	0.0019288834
53	0x3bc0570b	0.0058697513
54	0x80039374	-3.28403e-40
55	0x8383ad37	-7.739256e-37
56	0x80027a46	-2.27534e-40
57	0x026394ad	1.6719994e-37
58	0x927f1353	-8.048763e-28
59	0x8228c5bb	-1.2399437e-37
60	0x831a8869	-4.5413124e-37
61	0x0c08b51a	1.0531557e-31
62	0x00013260	1.09907e-40
63	0xbe708652	-0.23488739
64	0xbdd592d8	-0.10428399
65	0xbd2b16c2	-0.04176975
66	0x3b2acdfd	0.002606272
67	0x3e336303	0.17518239
68	0x3e74578e	0.23861524
69	0xbd309af1	-0.043116514
70	0xbd2ebaf3	-0.042658757
71	0xbd6e4a55	-0.058176357
72	0xbd0a47cf	-0.03375989
73	0x3e010c6c	0.12602395
74	0x3d6e9be5	0.05825414
75	0x3d9eaf88	0.07748324
76	0x3e475964	0.19467694
77	0x3e124d3c	0.14287275
78	0xbe266651	-0.16249968
79	0xbb0c9a6a	-0.0021454343
80	0xbd0c67f9	-0.034278844
81	0x3928ebb0	0.00016109529
82	0x39037ba9	0.000125392
83	0x39911b79	0.00027677024
84	0x3972fdc0	0.00023173448
85	0x3881024e	6.1516286e-05
86	0x3981824e	0.00024701882
87	0x39907ab6	0.00027557247
88	0x3914837a	0.00014163359
89	0x398d7858	0.0002698328
90	0x3b4beb4a	0.0031115585
91	0x3ac6bc5b	0.0015162335
92	0x3b09aff4	0.0021009417
93	0x3b0d9b61	0.0021607506
94	0x3a3f75ba	0.00073036144
95	0x3ac682d3	0.001514519
96	0x3b4fcde6	0.0031708418
97	0x3ad9ac48	0.001660713
98	0x3b1aa4bd	0.0023596727
99	0x3ecb93cc	0.39761198
100	0xbd379f6c	-0.04482977
101	0xbe3c9a64	-0.1841827
102	0x3e84fe87	0.2597544
103	0xbe2467a2	-0.16055158
104	0xbeb4505c	-0.3521756
105	0x3e7b1699	0.24520339
106	0x3c9b85c2	0.01898468
107	0xbeadd534	-0.33951724
108	0x3d12cfbf	0.035842653
109	0x3d4657f0	0.048423707
110	0x3d752ae7	0.059855368
111	0x3e0c8a26	0.13724574
112	0x3e02c1bb	0.12769215
113	0x3dee0eaf	0.116238944
114	0x3eba622b	0.3640302
115	0x3eb0334d	0.3441414
116	0x3ebfafd8	0.37438846
117	0x3df7082e	0.12062107
118	0x3eb6060b	0.35551485
119	0x3f45b000	0.7722168
120	0xbe4eb07b	-0.2018451
121	0xbdb22fdd	-0.087005354
122	0x3eac3a5f	0.33638284
123	0xbf1068dd	-0.5641001
124	0xbf0d917c	-0.55300117
125	0xbe4aac52	-0.19792297
126	0xbdd36170	-0.10321319
127	0xbd429dc1	-0.047513727
128	0x3dd923c0	0.10602522
129	0x3db92ae0	0.09041381
130	0xbb46525a	-0.0030261488
131	0xbe068959	-0.13138331
132	0xbe852186	-0.2600214
133	0xbbe61ca5	-0.0070224577
134	0xbe58e23b	-0.2118005
135	0x3e660e39	0.22466363
136	0x3dfae9df	0.122516386
137	0x3e89a8b2	0.26886517
138	0x3df3521e	0.11880897
139	0x3d103f2d	0.0352165
140	0x3e36365a	0.17794171
141	0x3c9a83a2	0.018861596
142	0x3b971a42	0.0046112845
143	0x3e641cff	0.22276686
144	0xbc294bd0	-0.0103330165
145	0xbdfd5132	-0.123690024
146	0xbe083a04	-0.13303381
147	0x3cf08e2f	0.029364673
148	0x3cfcd939	0.030865299
149	0xbd30506b	-0.043045443
150	0xbda6340d	-0.08115397
151	0x3d194093	0.0374151
152	0x3c8b04f4	0.016970135
153	0x3ee3a15b	0.44459042
154	0x3cedd940	0.029034257
155	0x3dcde26d	0.10052953
156	0x3ebdf1c6	0.3709852
157	0xbe69cf26	-0.22832927
158	0xbe4f98e4	-0.20273167
159	0x3e880221	0.26564124
160	0xbeaded73	-0.33970222
161	0xbe69b9b9	-0.22824754
162	0x3e37462a	0.17897859
163	0x3e338717	0.17532001
164	0x3d877e3a	0.06615873
165	0x3cf943e7	0.030427886
166	0x3c06a22f	0.0082173785
167	0xbe17c1ea	-0.14820066
168	0x3dd965b8	0.106151044
169	0xbc2635d7	-0.010144672
170	0xbe63e279	-0.22254361
171	0x3e199b25	0.15000589
172	0x3e12336a	0.14277425
173	0xbd0e99e2	-0.034814723
174	0x3dbbaeb4	0.09164181
175	0x3ce3b8e6	0.027798127
176	0xbc94618f	-0.018112926
177	0xbe2756d3	-0.16341715
178	0x3cec462b	0.028842052
179	0x3c8a80b3	0.016907072
180	0xbdc8277c	-0.09773156
181	0xbe4b9d6f	-0.19884275
182	0xbe635905	-0.22201927
183	0xbc1cc42e	-0.009568257
184	0x3db8ef10	0.090299726
185	0x3e2852bd	0.16437812
186	0xbdd9a7b2	-0.106276885
187	0x3e0c4f22	0.13702062
188	0x3e643e4f	0.22289394
189	0xbe897a93	-0.2685133
190	0xbd160460	-0.036625266
191	0xbe732719	-0.23745383
192	0xbe00f1be	-0.12592217
193	0x3d2f2ce3	0.042767417
194	0xbe368210	-0.17823052
195	0xbe07e389	-0.13270392
196	0xbd18b018	-0.03727731
197	0xbca7a2ce	-0.020463374
198	0x3cb5b55b	0.022181204
199	0x3a8e54f2	0.0010859056
200	0xbda584b0	-0.08081949
201	0xbd607c59	-0.054806087
202	0x3e3dbd06	0.18529138
203	0xbe591e54	-0.21202976
204	0xbe09ad24	-0.13444954
205	0xbe08d592	-0.1336272
206	0xbe4985f2	-0.19680002
207	0xbe4a76f1	-0.19771935
208	0xbc94578f	-0.018108157
209	0xbdb6613e	-0.08905266
210	0x3b4da939	0.0031381382
211	0x3e09c2d3	0.13453226
212	0x3ccf6571	0.025316926
213	0xbe1791c5	-0.148017
214	0x3d3d342d	0.046192337
215	0xbde2e3f9	-0.110786386
216	0xbe7012c0	-0.23444653
217	0x3d8dad8c	0.06917867
218	0x3e8259b3	0.2545906
219	0xbea2f327	-0.31826136
220	0x3d91dfd6	0.071227714
221	0x3e11e17d	0.14246173
222	0xbe96d3c1	-0.2945843
223	0x3dc4b39e	0.09604572
224	0x3e9a4d6d	0.30137196
225	0x3b9a6d1e	0.004712715
226	0x3b4e617c	0.003149121
227	0x3b788068	0.0037918333
228	0x3b169ab7	0.00229804
229	0x3a5f4194	0.0008516547
230	0x3b45006f	0.0030060073
231	0x3b3ac4c7	0.0028498636
232	0x3af53285	0.0018707073
233	0x3b981d38	0.004642155
234	0x80056a00	-4.97203e-40
235	0x80028d4d	-2.3436e-40
236	0x00032d5e	2.91781e-40
237	0x8000a93b	-6.0708e-41
238	0x8006ac3d	-6.128e-40
239	0x80000000	-0.0
240	0x00069a9c	6.06476e-40
241	0x80000000	-0.0
242	0x80000000	-0.0
243	0x3b809572	0.0039240653
244	0x3dec36bf	0.115338795
245	0x3d89181e	0.06694053
246	0x3ce1579f	0.027507601
247	0x3c580820	0.013185531
248	0x3dcea197	0.100894146
249	0x3cd714e4	0.026255079
250	0x3d94b2dd	0.07260678
251	0x3d0c1fdc	0.03421007
252	0xbe407262	-0.18793634
253	0xbd791c9a	-0.060818292
254	0xbe72db93	-0.23716573
255	0xbe55f2c6	-0.20893392

encoder.0.bias f4 [128]
0	0x3e18b273	0.14911823
1	0xbdc99dc7	-0.09844547
2	0x3eba8b8d	0.36434594
3	0x3ec57cde	0.3857183
4	0xbcd1a45f	-0.025591074
5	0xbcef61b2	-0.02922139
6	0x9b293ddf	-1.3999344e-22
7	0x3ee13d75	0.439922
8	0x3e801c00	0.25021362
9	0xbba5860b	-0.0050513796
10	0xbc9d906d	-0.019233907
11	0xbe27a038	-0.16369712
12	0xbc9bffbb	-0.01904284
13	0xbca83e97	-0.020537658
14	0xbdb99237	-0.090610914
15	0x3dab1716	0.08354013
16	0x3ec52855	0.38507333
17	0x3e539639	0.20662774
18	0x3d7070f0	0.058701456
19	0x3ec12816	0.37725896
20	0x3da4ad9d	0.080409266
21	0xbd8c4a30	-0.06850088
22	0xbba929b3	-0.0051624416
23	0x3d9e6699	0.07734413
24	0x3e61f88d	0.22067471
25	0xbcf5b57d	-0.029993767
26	0x8c36350e	-1.4036736e-31
27	0x3eb54910	0.35407305
28	0xbe4a6bea	-0.19767728
29	0xb6ba860e	-5.558838e-06
30	0x3e1267ee	0.14297459
31	0xbc8a327a	-0.016869772
32	0x3ed03cdf	0.4067144
33	0x3da2404d	0.07922421
34	0xbdc2707b	-0.0949411
35	0x3df1a2ba	0.11798616
36	0x3f1a80e5	0.6035293
37	0xbd3b36a9	-0.045706425
38	0x3d65eed4	0.056135967
39	0x3ecf00d5	0.40430322
40	0x3b08ae28	0.0020855758
41	0xbdd083f6	-0.101814196
42	0x3eb46472	0.35232884
43	0x39c4967f	0.00037496162
44	0xa399233b	-1.6603214e-17
45	0x3cbe0768	0.023196891
46	0xb1811478	-3.756721e-09
47	0xbd1aea1e	-0.037820928
48	0x39cc690c	0.00038988178
49	0x3e3b1633	0.18270187
50	0x3e866686	0.26250094
51	0x3ece01bd	0.402357
52	0x3d9b3070	0.07577598
53	0xbe25d37a	-0.16193953
54	0xbe8aba4d	-0.2709526
55	0xbb80fd9a	-0.0039364817
56	0x3eb355c6	0.35026377
57	0x3c8b4eaa	0.017005283
58	0xbe52417e	-0.20532796
59	0x3ea91953	0.33027133
60	0xbc58a68c	-0.013223302
61	0xb7519d1a	-1.2493949e-05
62	0xbd71ef6a	-0.059066214
63	0xbde6bde0	-0.112666845
64	0xbe0a19ad	-0.13486357
65	0xbcfd23ca	-0.030900855
66	0xbe7761d8	-0.24158418
67	0x917fdcb8	-2.0183967e-28
68	0x3eff533e	0.49868196
69	0xbc31e62e	-0.010858102
70	0x3f038d59	0.51387554
71	0xbdf1b0a0	-0.11801267
72	0x3bc24baf	0.0059294323
73	0xbdda7620	-0.10667062
74	0xbd5a046c	-0.053226873
75	0x3eddf28e	0.43349117
76	0xbe0f9dda	-0.1402506
77	0x3e738f52	0.23785141
78	0x3ea9c83a	0.33160573
79	0x3ad7b1bc	0.0016456167
80	0xbe0ff213	-0.14057188
81	0xb703bc3d	-7.852036e-06
82	0x3c097fab	0.008392255
83	0xbc80dafe	-0.015729424
84	0x3da9f44f	0.08298551
85	0x3e84d7aa	0.2594579
86	0xbc8f4641	-0.017489554
87	0x3c5d5a17	0.013510249
88	0x3e17095a	0.14749661
89	0xbceab029	-0.028648453
90	0x3e2ed87e	0.17074773
91	0xbb9510e1	-0.0045491313
92	0x3e815bf7	0.25265476
93	0xbceb7b47	-0.028745307
94	0x3dfd6266	0.12372284
95	0x92860007	-8.456596e-28
96	0x3e9712ea	0.29506618
97	0x3e8b2500	0.27176666
98	0x3d8fccdf	0.07021498
99	0x3e258261	0.16163017
100	0x3e3a4fbc	0.18194479
101	0x3e002cff	0.12517165
102	0xbe16fd9a	-0.14745179
103	0xbb264b54	-0.002537449
104	0xbe02d52e	-0.12776634
105	0x3e1f4026	0.15551814
106	0xbe3f9589	-0.18709387
107	0xbdacb83b	-0.08433577
108	0x3c8b4e07	0.01700498
109	0x3ea38679	0.31938532
110	0x3edc0430	0.42971945
111	0x3edc1fd0	0.4299302
112	0xaf974ae0	-2.7519942e-10
113	0xbcc4cee8	-0.024024442
114	0xbe599610	-0.2124865
115	0x3ecff012	0.40612847
116	0xbd0bdb03	-0.034144413
117	0xbe84f26f	-0.25966212
118	0x3c3081e2	0.010773154
119	0x3e9d28b4	0.30695117
120	0x3e6c07b2	0.2304981
121	0xbddf1ab8	-0.10893768
122	0x3e9a347b	0.30118164
123	0xbc013b89	-0.007887729
124	0xbe1abe26	-0.15111598
125	0xbe44fb7d	-0.1923656
126	0x3eb56f9c	0.35436714
127	0xbd294361	-0.041324023

encoder.2.weight f4 [64, 128, 4, 4]
0	0x80076000	-6.77287e-40
1	0x80000000	-0.0
2	0x8002ed5f	-2.68824e-40
3	0x0000dbb4	7.8815e-41
4	0x80042e87	-3.84033e-40
5	0x8000954a	-5.3555e-41
6	0x0003b435	3.40153e-40
7	0x800738e4	-6.63257e-40
8	0x8000df1b	-8.0035e-41
9	0x0003513e	3.0465e-40
10	0x80000000	-0.0
11	0x000245ae	2.08667e-40
12	0x0001cc15	1.65046e-40
13	0x80049e78	-4.2419e-40
14	0x8004b9bb	-4.3397e-40
15	0x0007228a	6.55239e-40
16	0x80000000	-0.0
17	0x00066560	5.8738e-40
18	0x80000000	-0.0
19	0x80000000	-0.0
20	0x0002ded6	2.6361e-40
21	0x80000000	-0.0
22	0x0006c83e	6.22846e-40
23	0x00095af9	8.59154e-40
24	0x0008cd16	8.08255e-40
25	0x80000000	-0.0
26	0x80000000	-0.0
27	0x80081941	-7.43743e-40
28	0x80000000	-0.0
29	0x00011868	1.00591e-40
30	0x80000000	-0.0
31	0x8005eaf9	-5.4347e-40
32	0x80000000	-0.0
33	0x80000000	-0.0
34	0x80000000	-0.0
35	0x80000000	-0.0
36	0x80000000	-0.0
37	0x80000000	-0.0
38	0x80000000	-0.0
39	0x80000000	-0.0
40	0x80000000	-0.0
41	0x80000000	-0.0
42	0x80000000	-0.0
43	0x80000000	-0.0
44	0x80000000	-0.0
45	0x80000000	-0.0
46	0x80000000	-0.0
47	0x80000000	-0.0
48	0x80000000	-0.0
49	0x0004858d	4.15251e-40
50	0x80078887	-6.91825e-40
51	0x80000000	-0.0
52	0x80000000	-0.0
53	0x80000000	-0.0
54	0x80000000	-0.0
55	0x00066d40	5.90204e-40
56	0x80000000	-0.0
57	0x80000000	-0.0
58	0x80000000	-0.0
59	0x80000000	-0.0
60	0x80000000	-0.0
61	0x80000000	-0.0
62	0x80000000	-0.0
63	0x0002eb3d	2.68059e-40
64	0x80000000	-0.0
65	0x80000000	-0.0
66	0x80000000	-0.0
67	0x80000000	-0.0
68	0x80092a2e	-8.4165e-40
69	0x80000000	-0.0
70	0x8006facb	-6.4098e-40
71	0x80000000	-0.0
72	0x800a5dcf	-9.52007e-40
73	0x80000000	-0.0
74	0x80000000	-0.0
75	0x80000000	-0.0
76	0x80000000	-0.0
77	0x80000000	-0.0
78	0x800a9fd3	-9.75689e-40
79	0x80000000	-0.0
80	0x80000000	-0.0
81	0x80000000	-0.0
82	0x80000000	-0.0
83	0x80000000	-0.0
84	0x80000000	-0.0
85	0x80000000	-0.0
86	0x001127a4	1.575424e-39
87	0x80000000	-0.0
88	0x80000000	-0.0
89	0x80000000	-0.0
90	0x80000000	-0.0
91	0x0003bc86	3.43136e-40
92	0x80000000	-0.0
93	0x8010f6b7	-1.557873e-39
94	0x80000000	-0.0
95	0x80000000	-0.0
96	0x80000000	-0.0
97	0x8011157b	-1.568909e-39
98	0x800c3eda	-1.124573e-39
99	0x00000000	0.0
100	0x8010ce69	-1.543414e-39
101	0x000dbde1	1.261977e-39
102	0x80000000	-0.0
103	0x80000000	-0.0
104	0x8015cac2	-2.001281e-39
105	0x0001f752	1.80557e-40
106	0x000898cf	7.89501e-40
107	0x80000000	-0.0
108	0x80000000	-0.0
109	0x00108de8	1.520274e-39
110	0x0002d2a2	2.59232e-40
111	0x000c1bdb	1.112019e-39
112	0x03bcdc66	1.1100248e-36
113	0x042e81ee	2.0513262e-36
114	0x0539b318	8.7315525e-36
115	0x807d9190	-1.1531655e-38
116	0x023522e0	1.3307788e-37
117	0x02f1b672	3.5516486e-37
118	0x80000000	-0.0
119	0x80c6c0ca	-1.8252588e-38
120	0x003f7392	5.827095e-39
121	0x023a1016	1.3669738e-37
122	0x04281b70	1.9760904e-36
123	0x80c46a0e	-1.8037803e-38
124	0x80000000	-0.0
125	0x80000000	-0.0
126	0x80000000	-0.0
127	0x80000000	-0.0
128	0x80000000	-0.0
129	0x0005085b	4.62175e-40
130	0x0006fa23	6.40745e-40
131	0x80000000	-0.0
132	0x8000ea9d	-8.4163e-41
133	0x80000000	-0.0
134	0x80000000	-0.0
135	0x0007ffe9	7.34652e-40
136	0x80054b85	-4.86269e-40
137	0x80000000	-0.0
138	0x0000ac54	6.182e-41
139	0x80068573	-5.98886e-40
140	0x80000000	-0.0
141	0x000203b5	1.85001e-40
142	0x8006cfee	-6.25604e-40
143	0x8005640e	-4.9507e-40
144	0x800f8100	-1.423809e-39
145	0x80000000	-0.0
146	0x80000000	-0.0
147	0x001172ce	1.602388e-39
148	0x8000d448	-7.6152e-41
149	0x80000000	-0.0
150	0x001176d4	1.603831e-39
151	0x80076aa3	-6.81103e-40
152	0x000621f5	5.63194e-40
153	0x80000000	-0.0
154	0x80113a8a	-1.582203e-39
155	0x80000000	-0.0
156	0x80000000	-0.0
157	0x80000000	-0.0
158	0x000de94c	1.277553e-39
159	0x80150d0c	-1.933226e-39
160	0x800f6648	-1.414224e-39
161	0x8005b03b	-5.22397e-40
162	0x0011eb9d	1.645726e-39
163	0x00000000	0.0
164	0x80000000	-0.0
165	0x0014d60e	1.913498e-39
166	0x80038440	-3.22949e-40
167	0x80019558	-1.4541e-40
168	0x80000000	-0.0
169	0x80000000	-0.0
170	0x000ff6f0	1.466117e-39
171	0x80000000	-0.0
172	0x800f1cb4	-1.387829e-39
173	0x0010d08a	1.544178e-39
174	0x80000000	-0.0
175	0x80000000	-0.0
176	0x8006add7	-6.13375e-40
177	0x0000005d	1.3e-43
178	0x000076da	4.2636e-41
179	0x8006b772	-6.16821e-40
180	0x80000000	-0.0
181	0x000598d9	5.14009e-40
182	0x80034037	-2.98542e-40
183	0x00049e9d	4.24242e-40
184	0x0007d8ab	7.20574e-40
185	0x00077367	6.84247e-40
186	0x80000000	-0.0
187	0x80000000	-0.0
188	0x0005130f	4.66014e-40
189	0x00068ce2	6.01552e-40
190	0x80000000	-0.0
191	0x00002fec	1.7191e-41
192	0x80000000	-0.0
193	0x80000000	-0.0
194	0x80000000	-0.0
195	0x80000000	-0.0
196	0x80000000	-0.0
197	0x80000000	-0.0
198	0x80000000	-0.0
199	0x80000000	-0.0
200	0x80000000	-0.0
201	0x80000000	-0.0
202	0x80000000	-0.0
203	0x80000000	-0.0
204	0x80000000	-0.0
205	0x80000000	-0.0
206	0x80000000	-0.0
207	0x80000000	-0.0
208	0x80000000	-0.0
209	0x000784d2	6.90495e-40
210	0x80000000	-0.0
211	0x0007327f	6.60963e-40
212	0x00047999	4.10963e-40
213	0x80000000	-0.0
214	0x0007613e	6.77732e-40
215	0x000673b1	5.92515e-40
216	0x80000000	-0.0
217	0x80000000	-0.0
218	0x00006b7c	3.8558e-41
219	0x80000000	-0.0
220	0x80000000	-0.0
221	0x80000000	-0.0
222	0x80000000	-0.0
223	0x8003ad74	-3.3773e-40
224	0x0000c44f	7.0422e-41
225	0x8003a1cc	-3.33548e-40
226	0x80000000	-0.0
227	0x8006f3bf	-6.38453e-40
228	0x80000000	-0.0
229	0x80000000	-0.0
230	0x80000000	-0.0
231	0x80000000	-0.0
232	0x80000000	-0.0
233	0x80000000	-0.0
234	0x80000000	-0.0
235	0x80000000	-0.0
236	0x80000000	-0.0
237	0x80000000	-0.0
238	0x80000000	-0.0
239	0x80000000	-0.0
240	0x8007b9d6	-7.09514e-40
241	0x80000000	-0.0
242	0x80000000	-0.0
243	0x80000000	-0.0
244	0x80006923	-3.7716e-41
245	0x80000000	-0.0
246	0x80000000	-0.0
247	0x80000000	-0.0
248	0x0003ff98	3.67196e-40
249	0x80000000	-0.0
250	0x0007f5c6	7.31015e-40
251	0x80000000	-0.0
252	0x80036838	-3.12893e-40
253	0x80000000	-0.0
254	0x8003645b	-3.11507e-40
255	0x80000000	-0.0

encoder.2.bias f4 [64]
0	0xa438f532	-4.010633e-17
1	0x80000000	-0.0
2	0xbd5f0c71	-0.054455224
3	0x80000000	-0.0
4	0x3db152d3	0.086583756
5	0xbd177c9b	-0.036984067
6	0x00000000	0.0
7	0x00000000	0.0
8	0xbc981026	-0.018562388
9	0x80000000	-0.0
10	0xbba71d3b	-0.00509992
11	0x3d27a647	0.04093006
12	0x80000000	-0.0
13	0x3dacfa32	0.084461585
14	0xb6504128	-3.1032341e-06
15	0xb051fd6f	-7.639391e-10
16	0x3ce3cc94	0.027807511
17	0xa4485251	-4.343781e-17
18	0x00000000	0.0
19	0x00000000	0.0
20	0x3db835bd	0.08994625
21	0x80000000	-0.0
22	0x80000000	-0.0
23	0xbcc6d5ea	-0.024271924
24	0x00000000	0.0
25	0xbcc40a0a	-0.023930568
26	0xb7b4fa34	-2.1574182e-05
27	0x3c9b42dc	0.01895278
28	0x80000000	-0.0
29	0x3e0120d8	0.12610185
30	0xbd3dcee4	-0.046339884
31	0x80000000	-0.0
32	0x3dc6ea0d	0.097126104
33	0x80000000	-0.0
34	0x3e237400	0.15962219
35	0x3c1570ff	0.009121179
36	0x00000000	0.0
37	0xbd1d2527	-0.03836551
38	0x3b6e9861	0.0036406743
39	0x80000000	-0.0
40	0x3d432d90	0.047650874
41	0x3bd64319	0.0065387604
42	0xbd02c414	-0.031925276
43	0xbcb86a98	-0.022511765
44	0xbd6ad468	-0.057331473
45	0xbc676bdf	-0.01412484
46	0x00000000	0.0
47	0xbc3da618	-0.011575244
48	0xbbbb0ddf	-0.0057084407
49	0xbc1c1127	-0.009525574
50	0x3ace5a9f	0.001574356
51	0x3d9be184	0.07611373
52	0x3ccc64bd	0.02495038
53	0x00000000	0.0
54	0x00000000	0.0
55	0x00000000	0.0
56	0x3c627ffc	0.013824459
57	0xbc87574a	-0.016521115
58	0xb215aeee	-8.712716e-09
59	0x80000000	-0.0
60	0xbb17bd6d	-0.0023153678
61	0x955c2869	-4.4460524e-26
62	0x80000000	-0.0
63	0x80000000	-0.0

encoder.4.weight f4 [32, 64, 2, 2]
0	0xb4a61b79	-3.0939898e-07
1	0xb45ef4ac	-2.0764372e-07
2	0xb473a1d4	-2.2690011e-07
3	0xb421c458	-1.5065723e-07
4	0x80000000	-0.0
5	0xb6984d0e	-4.5389233e-06
6	0x80000000	-0.0
7	0xb6e75bfd	-6.8950453e-06
8	0xbe303b00	-0.17210007
9	0x3d38d2e6	0.045123003
10	0xbd1d55b7	-0.038411822
11	0x3dff4a9b	0.12465402
12	0x3d713fea	0.058898844
13	0xbcf1af40	-0.029502511
14	0xbbdf7d8f	-0.0068203877
15	0xbd4b0e84	-0.04957439
16	0x3e461776	0.19344887
17	0x3e38e170	0.18054748
18	0x3e61c12f	0.2204635
19	0x3e44d3c0	0.19221401
20	0x3c79c988	0.015245803
21	0x3d1410e8	0.036148936
22	0xbd24b900	-0.040215492
23	0x3dcb78a3	0.09935119
24	0xbddc292e	-0.10750042
25	0x3e02ddac	0.12779874
26	0xbe87a07d	-0.2648963
27	0xbde12753	-0.109938286
28	0xbe3c5569	-0.18391956
29	0x3d5efe59	0.054441784
30	0xbe33d192	-0.17560413
31	0xbda8b727	-0.082380585
32	0xb9b39248	-0.0003425053
33	0xbd07afcb	-0.033126634
34	0x3cf5dc72	0.030012343
35	0xbca59630	-0.020213217
36	0x3ba57089	0.0050488156
37	0xbc92cb8f	-0.01791933
38	0xbdba7fa6	-0.09106378
39	0xbc7f05d7	-0.015565357
40	0xbdedabe5	-0.11605052
41	0xbd01ea07	-0.031717326
42	0xbda2fbd4	-0.07958189
43	0x3b9e2991	0.0048267324
44	0x3c847775	0.016170243
45	0x3db7d131	0.08975447
46	0x3ddab829	0.10679657
47	0x3e17b08e	0.14813444
48	0xbe0aa34c	-0.13538855
49	0x3d34c18a	0.044129886
50	0xbe072558	-0.1319784
51	0x3ce290f1	0.027657004
52	0x3bd06bda	0.006360513
53	0xbdf1ab55	-0.11800257
54	0xbd520cd3	-0.05128176
55	0xbc94838c	-0.018129133
56	0xb15fdf93	-3.2577858e-09
57	0xaeec1e9d	-1.07374755e-10
58	0xb18010f3	-3.727217e-09
59	0xaf27a525	-1.5247233e-10
60	0xb220fd83	-9.370868e-09
61	0xb1025387	-1.896497e-09
62	0xb3333b03	-4.1730356e-08
63	0xb1b629c3	-5.301645e-09
64	0x3d582061	0.052765254
65	0xbd478f2f	-0.048720535
66	0x3c1aa44a	0.009438584
67	0x3cf250d7	0.029579563
68	0x800403fb	-3.6877e-40
69	0x80079b1d	-6.98493e-40
70	0x0007a810	7.03138e-40
71	0x0003f716	3.64144e-40
72	0xbe1027d7	-0.14077698
73	0x3ce3f956	0.027828854
74	0xbd92841a	-0.071541026
75	0x3dc964a2	0.09833647
76	0xb7a284e7	-1.9373792e-05
77	0x3c8054ad	0.015665377
78	0xbd12e1b8	-0.035859793
79	0x3e14bdde	0.14525554
80	0x3e29ab12	0.16569164
81	0x3e6791c4	0.22614199
82	0x3e596914	0.2123149
83	0x3e46e349	0.1942264
84	0x3aede2a7	0.0018149213
85	0xb9c5536a	-0.00037636916
86	0xbc5878b8	-0.013212375
87	0x00000000	0.0
88	0x3e246e21	0.16057636
89	0x3e2064de	0.15663478
90	0x3e31611c	0.173222
91	0x3e332a3a	0.17496577
92	0xbe1a2f62	-0.15057138
93	0xbe1ef169	-0.15521778
94	0xbceecf7f	-0.029151676
95	0x3d25c9ad	0.040475536
96	0x3e183445	0.14863689
97	0x3dade5c2	0.084910884
98	0x3e29b233	0.16571884
99	0x3daf6a32	0.08565177
100	0x3d3158ea	0.043297686
101	0xbb8889f9	-0.0041668382
102	0x3b7720aa	0.0037708678
103	0xbc33cade	-0.01097366
104	0x365f768c	3.3298593e-06
105	0xb600dfa7	-1.920367e-06
106	0x365fea74	3.336606e-06
107	0xb5bd68de	-1.4112118e-06
108	0xbdf51498	-0.119668186
109	0xbdcb48d2	-0.09925999
110	0xbdd04bd3	-0.10170712
111	0xbc94f88b	-0.01818492
112	0xbc88497f	-0.016636608
113	0x3d15d712	0.03658206
114	0xbd2d3818	-0.042289823
115	0x3dad6fa7	0.084685616
116	0x3e879307	0.2647936
117	0x3dcf9e26	0.10137586
118	0x3e66ecd5	0.22551282
119	0x3d72df1a	0.059294797
120	0xbe6b653f	-0.22987841
121	0x3d9d0a0a	0.076679304
122	0xbda69387	-0.08133607
123	0x3e597e95	0.21239693
124	0x39e37fc7	0.00043392016
125	0x39af9719	0.00033491178
126	0x3a011f35	0.00049256097
127	0x39992308	0.00029208534
128	0x3cee910f	0.029121904
129	0x3d867ac1	0.06566382
130	0x3dcadfd6	0.099059746
131	0x3dc42e59	0.095791526
132	0x00000000	0.0
133	0x00000000	0.0
134	0x80000000	-0.0
135	0x80000000	-0.0
136	0x3b66704d	0.0035162151
137	0x3c257911	0.010099665
138	0xbe907573	-0.28214607
139	0xbe6ec2a3	-0.23316436
140	0xbd39217e	-0.045197956
141	0xbcb11804	-0.021617897
142	0xbd6ccb24	-0.057810917
143	0x3da2008d	0.07910261
144	0xbe45350b	-0.19258516
145	0xbd95f630	-0.07322347
146	0xbd5bce07	-0.05366328
147	0xbca24dda	-0.019812513
148	0xbd4982e5	-0.049197096
149	0xbda6fa25	-0.0815318
150	0xbd8541e6	-0.0650671
151	0x3d8a9355	0.067663826
152	0x3d408566	0.04700222
153	0x3e1e0cf5	0.1543463
154	0x3b58e5d5	0.0033095975
155	0x3e14a477	0.14515863
156	0xb91be2f9	-0.00014866506
157	0xb6578076	-3.211227e-06
158	0xb8164155	-3.5823632e-05
159	0x80000000	-0.0
160	0x3dcfef53	0.10153069
161	0x3d4c2ca3	0.049847256
162	0xbd5c5151	-0.053788487
163	0xbd543a8c	-0.051813647
164	0x3d73cce0	0.059521556
165	0x3d2d13fa	0.04225538
166	0xbd464552	-0.048405953
167	0x3d428a1c	0.047494993
168	0xbd76a1cb	-0.06021289
169	0x3ca2bd5a	0.01986568
170	0xbdb3bf85	-0.08776764
171	0x3d9b3969	0.075793095
172	0x3bc682d5	0.006058077
173	0x3c8439c5	0.016140828
174	0xbe3436fa	-0.17599097
175	0xbe4ccbdd	-0.19999643
176	0xbd7915cd	-0.060811806
177	0x3d320589	0.04346231
178	0xbdf063d9	-0.117377944
179	0x3e090ffa	0.13385001
180	0xbea590ee	-0.32337135
181	0xbe152f96	-0.14568934
182	0xbe4ab51d	-0.19795652
183	0xbd80b376	-0.062842295
184	0xbd412250	-0.047151864
185	0xbd3ff11e	-0.046860807
186	0x3d8672c4	0.065648586
187	0x3c9f2029	0.019424515
188	0xbeb1c9a0	-0.3472414
189	0xbc3b024e	-0.011414124
190	0xbe38eeaa	-0.18059793
191	0xbc3df150	-0.011593178
192	0x3c8be164	0.017075248
193	0x3c7eecd7	0.015559397
194	0x3ca1b309	0.01973869
195	0x3c889f1e	0.016677435
196	0xbdb982e0	-0.090581656
197	0xbcb9f64b	-0.02270045
198	0xbd529dae	-0.051419906
199	0xbd934126	-0.071901605
200	0xbd21fb3d	-0.03954624
201	0xbcf11578	-0.029429182
202	0x395473ec	0.0002026108
203	0x3d8a7c5c	0.06762001
204	0x3d9b64c3	0.07587578
205	0x3d96c29c	0.073613375
206	0x3ddd0f8e	0.107939824
207	0x3d732576	0.059361897
208	0xbd921233	-0.071323775
209	0x3dc11b4f	0.09429037
210	0xbc802ecf	-0.01564732
211	0x3dc2d4e5	0.09513263
212	0xbeb182a6	-0.3466999
213	0xbdc875ba	-0.097880796
214	0xbe0d8d6e	-0.13823482
215	0xbd82e4db	-0.06391307
216	0x00000000	0.0
217	0x00000000	0.0
218	0x3ddc0752	0.10743584
219	0x00000000	0.0
220	0x3d430f39	0.04762194
221	0x3cb8fcfe	0.022581574
222	0x3da3e828	0.08003265
223	0xb9183d7b	-0.00014518753
224	0x3e1a964f	0.150964
225	0x3d20fd28	0.03930393
226	0x3df814e6	0.12113361
227	0x3d5064ce	0.050877385
228	0xbe802ffb	-0.25036606
229	0xbd7614cb	-0.060078423
230	0xbed44d57	-0.41465256
231	0xbe55c86c	-0.20877236
232	0xb2f1f19a	-2.816596e-08
233	0x80000000	-0.0
234	0x80000000	-0.0
235	0x80000000	-0.0
236	0x183b7cbf	2.4232164e-24
237	0x1bbba902	3.1045774e-22
238	0x206fe6ef	2.0320497e-19
239	0x21836f57	8.906377e-19
240	0xbd0894c0	-0.033344984
241	0x3d7f6754	0.0623544
242	0xbd8254fe	-0.06363867
243	0x3d359a7d	0.044336785
244	0x03b0775c	1.0371754e-36
245	0x80048564	-4.15194e-40
246	0x80076933	-6.80587e-40
247	0x80081f78	-7.45973e-40
248	0xbaa0caea	-0.0012267504
249	0xbabec42e	-0.0014554316
250	0xba9adc72	-0.0011814965
251	0xbad17aa8	-0.0015981989
252	0x3aebe533	0.0017997384
253	0x3a8f4dd1	0.0010933225
254	0x3ae9c394	0.0017834776
255	0x3a9e262e	0.0012065822

encoder.4.bias f4 [32]
0	0x3a7724a4	0.0009427762
1	0xbd0f6e23	-0.035017144
2	0xba87ea89	-0.001036958
3	0x3c9d3bd5	0.01919357
4	0xbb034101	-0.002002776
5	0x3c8f1e12	0.017470393
6	0x3d13dff3	0.036102246
7	0x3d4c0ce1	0.04981697
8	0x3af53d17	0.0018710223
9	0xa550f485	-1.812397e-16
10	0x3ac0011a	0.0014648766
11	0x3b6b32b2	0.003588837
12	0x3984d89a	0.00025338383
13	0x3c0db3ac	0.008648794
14	0x3c4133a2	0.011792095
15	0x3ce34681	0.02774358
16	0xb9c6ff95	-0.00037955926
17	0x3c02fda7	0.007995046
18	0xb9aa2748	-0.00032454194
19	0x3c93d4f7	0.018045885
20	0x3c1a103b	0.009403284
21	0x3c943582	0.01809192
22	0x3c66308e	0.014049662
23	0xb8425d97	-4.6340367e-05
24	0x3b21db1b	0.0024697247
25	0x3dfc8947	0.12330871
26	0xbbf63ca6	-0.007514554
27	0x3d032c1b	0.032024484
28	0xb94ea571	-0.00019707323
29	0x3a15df8c	0.000571721
30	0x39fb79d1	0.0004796521
31	0x3dd0b3a2	0.10190512

encoder.6.weight f4 [16, 32, 3, 3]
0	0x3e07f5c0	0.1327734
1	0xbe56b55c	-0.2096762
2	0xbebf41c2	-0.37354857
3	0x3e72a0dc	0.23694175
4	0xbdbb393d	-0.09141777
5	0xbe57471c	-0.2102322
6	0xbda4e259	-0.08050985
7	0xbe7dfbb1	-0.24803044
8	0xbdd1f92e	-0.102526054
9	0x00000000	0.0
10	0xbe215c34	-0.15757829
11	0x3c9e3ea6	0.019316982
12	0x00000000	0.0
13	0x00000000	0.0
14	0x3e35fc89	0.17772116
15	0x3e56238e	0.20912
16	0x00000000	0.0
17	0x3c4f60da	0.012657369
18	0x3c9a191b	0.0188108
19	0x3c0e657b	0.008691187
20	0xbd8cd439	-0.06876416
21	0x3e2b7c50	0.1674664
22	0x3e120431	0.14259411
23	0x3da1c632	0.07899131
24	0xbe0ac0e3	-0.13550143
25	0xbd8c55b7	-0.06852286
26	0xbe09a926	-0.13443431
27	0xbd14f5bb	-0.03636716
28	0x3cbbbc5c	0.022916965
29	0xbd3bfd69	-0.045895968
30	0xbd663f51	-0.056212727
31	0x3e31a7ed	0.17349215
32	0xbbd9e4ea	-0.006649603
33	0xbe1aa1f1	-0.15100838
34	0x3c535ed7	0.01290103
35	0xbda6f78d	-0.08152685
36	0x3dc3531a	0.09537335
37	0x3e004d21	0.12529422
38	0xbd0a2bfb	-0.03373335
39	0x3cf04558	0.02932994
40	0x3d311bb5	0.043239314
41	0xbd9c17ad	-0.07621703
42	0xbdd7dbdf	-0.10539984
43	0x3dc48a38	0.09596676
44	0xbccbd666	-0.024882507
45	0x3e3307a8	0.1748339
46	0xbd8e2906	-0.06941418
47	0x3dadc44e	0.08484708
48	0x3d9ab637	0.07554286
49	0xbc461452	-0.012089806
50	0x3e339c49	0.17540087
51	0xbc5c14f2	-0.013432728
52	0x3e0255f2	0.12728098
53	0x3e0ca56e	0.13734981
54	0x00000000	0.0
55	0x3e0b709e	0.13617179
56	0x00000000	0.0
57	0x00000000	0.0
58	0x3e2242f9	0.1584586
59	0x00000000	0.0
60	0x00000000	0.0
61	0xbdcae6cf	-0.099073045
62	0x00000000	0.0
63	0x3dc53076	0.09628384
64	0xbda9abab	-0.08284696
65	0xbdcc8966	-0.09987144
66	0x3d4a4d7f	0.049390312
67	0x3d828e42	0.0637479
68	0x3d612799	0.054969404
69	0xbdc7abe2	-0.09749581
70	0x3bc648c2	0.006051154
71	0x3d806132	0.062685385
72	0x3d76f919	0.06029615
73	0x3d1e3454	0.038624123
74	0xbcf33735	-0.02968941
75	0xbd822175	-0.06354038
76	0x3d070c19	0.03297052
77	0xbcf849ce	-0.03030863
78	0xbd8f3704	-0.06992915
79	0x3d7d99be	0.061914198
80	0xbd43126d	-0.047624994
81	0x2310c986	7.84893e-18
82	0x228d74d8	3.834184e-18
83	0x23941c88	1.6058276e-17
84	0x22868547	3.6461886e-18
85	0x209f7419	2.7012475e-19
86	0x23417b6f	1.0488689e-17
87	0xa2ae4a7c	-4.7241658e-18
88	0xa340af2f	-1.04454374e-17
89	0xa17fd01a	-8.667278e-19
90	0x3e819de7	0.25315782
91	0x3caf4ef6	0.021399956
92	0x3de9e279	0.11420149
93	0x3d734b3d	0.059397925
94	0xbd5d66b3	-0.05405302
95	0x3dfeb15b	0.124361716
96	0x3d40be6d	0.047056604
97	0x3dc949b9	0.098285146
98	0x3d9ab334	0.075537115
99	0xbea15f1e	-0.3151788
100	0xba4a43b8	-0.00077157794
101	0xbda1d0e9	-0.079011746
102	0xbe3f018e	-0.18652937
103	0xbde210f0	-0.11038387
104	0x3b7fddf7	0.0039042213
105	0xbe13005b	-0.14355604
106	0xbc440408	-0.011963852
107	0xbd25131a	-0.04030142
108	0x3dc38753	0.095472954
109	0x3d1ef82f	0.038810905
110	0xbc8bef1e	-0.017081793
111	0x3c571abd	0.0131289335
112	0x3d9b25d0	0.075755715
113	0xbd26f182	-0.040757664
114	0xbbba29e3	-0.005681263
115	0xbe1d0ed3	-0.15337686
116	0xbde6d13b	-0.11270376
117	0x3e0de1e1	0.13855697
118	0x3e425a1a	0.18979684
119	0x3d6cc948	0.057809144
120	0x3dc1378d	0.094344236
121	0x80000000	-0.0
122	0x00000000	0.0
123	0xbd3b6c21	-0.045757417
124	0x3ddd61d3	0.10809674
125	0xbdb65737	-0.08903354
126	0x3de2438d	0.110480405
127	0xbd1ad429	-0.037799988
128	0xbd4a11e3	-0.049333464
129	0xbe5e8bd4	-0.21733028
130	0xbd0bb3b1	-0.034106914
131	0x3a8cf0ee	0.0010752955
132	0xbe29b00a	-0.1657106
133	0xbe368ab5	-0.1782635
134	0x3da64802	0.08119203
135	0x80000000	-0.0
136	0x3d839b62	0.06426121
137	0x00000000	0.0
138	0xbe64e682	-0.22353557
139	0x80000000	-0.0
140	0xbe271a48	-0.16318619
141	0x00000000	0.0
142	0x3d8ea8ba	0.06965776
143	0x00000000	0.0
144	0xbe52aabc	-0.20572942
145	0x3d9129e3	0.070880674
146	0xbdb9a81f	-0.0906527
147	0xbdd7604a	-0.105164126
148	0x3d04b268	0.032396704
149	0xbc41bb25	-0.011824404
150	0x00000000	0.0
151	0xbd8953a0	-0.06705403
152	0x00000000	0.0
153	0x3d9383ff	0.07202911
154	0x3d672378	0.05643031
155	0x3dc885ac	0.09791121
156	0x3d1863b9	0.037204478
157	0x3dc72cd0	0.09725344
158	0x3d9c2861	0.07624889
159	0xbe56f04c	-0.20990103
160	0x3a74d8ad	0.00093401485
161	0x3d111453	0.035419773
162	0xbcb9e52e	-0.02269229
163	0x3dabde6a	0.083920315
164	0x3ce3e6b4	0.027819969
165	0xbdb520be	-0.08844136
166	0x3e239e78	0.1597842
167	0xbd87c976	-0.066302225
168	0x3cf72333	0.030168151
169	0x3d294c54	0.041332558
170	0xbdf3a2d6	-0.11896293
171	0x00000000	0.0
172	0x3e1920c6	0.14953908
173	0x00000000	0.0
174	0x00000000	0.0
175	0x3e0ebb71	0.1393869
176	0x00000000	0.0
177	0x00000000	0.0
178	0x3c5423b7	0.012947968
179	0x00000000	0.0
180	0xbe31125a	-0.17292157
181	0x3dcfd293	0.10147586
182	0x3d20bfca	0.039245404
183	0xbe53b88b	-0.20675866
184	0x3c5bd047	0.013416356
185	0xbdbdbfc7	-0.09265094
186	0xbe12817a	-0.14307204
187	0xbdb321ca	-0.08746679
188	0xbd297358	-0.041369766
189	0x3dd1f71d	0.10252211
190	0x3bd4cf5d	0.006494446
191	0x3e078ea9	0.13238014
192	0x3dcca8e7	0.09993153
193	0x00000000	0.0
194	0x3dff84d4	0.12476507
195	0x3c9d7a1d	0.019223267
196	0xbd9e0ac1	-0.07716895
197	0x3d103792	0.035209246
198	0xbd5faed6	-0.054610096
199	0x3e65b3ba	0.22431841
200	0x3d25c6a6	0.04047265
201	0x3d568bd3	0.05237944
202	0x3e40bda5	0.18822344
203	0xbb043d69	-0.0020178205
204	0xbeb047fd	-0.34429923
205	0xbd2757d3	-0.04085524
206	0xbe09bae7	-0.13450204
207	0xbeb5c5bb	-0.3550242
208	0x3d1940b8	0.037415236
209	0xbe126958	-0.14297998
210	0x3b5d29f7	0.0033746937
211	0x3de51b26	0.11186819
212	0x00000000	0.0
213	0xbc339e44	-0.010963026
214	0xbc6ff485	-0.0146457
215	0xbd7b94b8	-0.061421126
216	0xbde2615a	-0.110537246
217	0xbc50b9f7	-0.01273965
218	0x3e3d767b	0.18502228
219	0x3c75a3a8	0.014992632
220	0x3da32379	0.0796575
221	0xbd48e7e0	-0.04904926
222	0xbd18b6e3	-0.03728379
223	0x3d785a4d	0.060632993
224	0xbddced87	-0.10787492
225	0x3db2773d	0.08714149
226	0x3e074fd9	0.13214053
227	0x3d9c4830	0.07630956
228	0x3de4ed04	0.1117802
229	0x3e147e30	0.14501262
230	0x3d4cb42d	0.049976517
231	0x3c836af8	0.016042218
232	0x3d0cec4e	0.034405045
233	0x3d41eed4	0.047346905
234	0x3e986643	0.2976552
235	0x3dab0040	0.08349657
236	0x3c8c95df	0.017161308
237	0x3e127811	0.14303614
238	0x3d8b62bd	0.06805942
239	0xbe1bfee2	-0.15233949
240	0x3cb552df	0.022134243
241	0x3dbc85cc	0.09205207
242	0xbd222758	-0.039588302
243	0x3e3be049	0.18347277
244	0xbdf8f8d3	-0.121568345
245	0x3e5d1493	0.2158988
246	0x3c8ecdb4	0.017432071
247	0xbe3aebdc	-0.18254036
248	0x3e748b9f	0.23881386
249	0x3c9f4dfd	0.019446367
250	0x3cb78c6b	0.022405824
251	0x3e297246	0.16547498
252	0x3deba680	0.11506367
253	0x3cc27137	0.023735626
254	0x3cc60dfb	0.024176588
255	0x3d4a60ee	0.049408846

encoder.6.bias f4 [16]
0	0x3da57da2	0.08080603
1	0x80034aef	-3.02388e-40
2	0x3c85cf6f	0.016334264
3	0x3c3eca44	0.011644904
4	0x3d488859	0.048958156
5	0x80000000	-0.0
6	0xbd18af36	-0.03727647
7	0x3ce45834	0.02787409
8	0x3d0b283a	0.03397391
9	0x80000000	-0.0
10	0x3c9c3895	0.01906995
11	0x3dc13704	0.094343215
12	0x3c334ed6	0.010944089
13	0x3c3e26f9	0.0116059715
14	0x3d75bfe7	0.059997465
15	0xbd666b86	-0.056254886

encoder.9.weight f4 [8, 16, 3, 3]
0	0x3d586fa9	0.052840862
1	0xbdbc4586	-0.09192948
2	0x3e1b8391	0.15186907
3	0xbce1ea39	-0.027577506
4	0x3b09fd87	0.0021055655
5	0x3df71731	0.1206497
6	0xbd317c3c	-0.04333137
7	0xbd7e75d3	-0.062124085
8	0x3b6d422a	0.0036202767
9	0xb3de084f	-1.0339192e-07
10	0xb8f5a66e	-0.0001171351
11	0xb9803965	-0.00024456825
12	0x33be8060	8.870916e-08
13	0xb8850d8f	-6.34446e-05
14	0xb916e9ed	-0.00014392259
15	0x31b308a9	5.21057e-09
16	0xb6769081	-3.674097e-06
17	0xb775ac18	-1.4643207e-05
18	0xbdf52e0b	-0.119716726
19	0x3e1f2953	0.15543108
20	0xbe841cdf	-0.25803277
21	0xbd126e8b	-0.035749953
22	0x3d8f486c	0.06996235
23	0x3dc1666d	0.09443364
24	0xbdf024c2	-0.11725761
25	0xbce937e1	-0.028469028
26	0xbdb1dcd4	-0.08684698
27	0xbaabf632	-0.0013119637
28	0x3ddb7b7c	0.10716912
29	0x3dfeb483	0.12436774
30	0xbcc8c747	-0.024509085
31	0xbdada08d	-0.08477888
32	0xbd960c82	-0.073266044
33	0x3d41ac2a	0.04728333
34	0xbd7b65ad	-0.061376262
35	0xbacfd673	-0.0015856758
36	0x00000000	0.0
37	0xbd94a9f2	-0.07258977
38	0x3d333871	0.043755
39	0x3dffb626	0.12485914
40	0xbd8e020b	-0.069339834
41	0xb9780b28	-0.00023655279
42	0xbb2baab4	-0.0026194276
43	0x3dbf2539	0.093332715
44	0xbd8bf62c	-0.06834063
45	0xbd27f2f2	-0.041003175
46	0x3c83b1e0	0.016076028
47	0x00000000	0.0
48	0x80000000	-0.0
49	0x3d8ff58d	0.07029257
50	0xbe9115bd	-0.28336897
51	0xbd926c3c	-0.0714955
52	0xbb1f8d2c	-0.002434562
53	0x3e7b01cd	0.24512406
54	0x3d2c1304	0.042010322
55	0x3e08d981	0.13364221
56	0x3e6f1952	0.23349503
57	0x3ca45fe8	0.020065263
58	0x3d028ddf	0.03187358
59	0x3cfe2fcc	0.03102865
60	0xbd4bc74f	-0.049750622
61	0x3b9d5990	0.0048019364
62	0x3df0fe48	0.1176725
63	0x3dab8ccb	0.083764635
64	0xbcb0898a	-0.021549959
65	0x3e548ef0	0.20757651
66	0xbcf8445e	-0.030306038
67	0x3d2f4777	0.042792764
68	0x3de7f433	0.11325874
69	0xbca29896	-0.01984815
70	0x3c8e1d9a	0.0173481
71	0xbdcc681c	-0.09980795
72	0x80000000	-0.0
73	0x3c0a09f8	0.008425228
74	0x3ef5d6c2	0.4801541
75	0x3c1648cd	0.0091726305
76	0xbd02b95e	-0.03191506
77	0xbdb91744	-0.09037641
78	0xbc17d37e	-0.009266732
79	0x3b8e55b7	0.004343714
80	0x3dafaf08	0.085783064
81	0x80000000	-0.0
82	0x80000000	-0.0
83	0x80000000	-0.0
84	0x80000000	-0.0
85	0x80000000	-0.0
86	0x80000000	-0.0
87	0x3c9ccccf	0.01914063
88	0xbb898182	-0.0041963467
89	0xbd79306c	-0.060837194
90	0xbd3a62d1	-0.045504395
91	0x3a193b75	0.00058453466
92	0x3de7c889	0.11317546
93	0x3b93722c	0.0044996943
94	0x3db347ae	0.08753906
95	0x3cf79ae4	0.030225225
96	0x3cdef3f5	0.027215937
97	0xbcc9bc00	-0.024625778
98	0xbcd42998	-0.02589874
99	0xbd72854e	-0.05920916
100	0x3e5aed63	0.21379618
101	0x3d56fe73	0.052488755
102	0xbe046b3f	-0.12931536
103	0x3d577e0f	0.052610453
104	0x3d149eb3	0.03628416
105	0xbd81b446	-0.063332126
106	0xbd24f63d	-0.040273894
107	0xbcfb889f	-0.030704794
108	0xbcedc67e	-0.029025313
109	0xbdd73937	-0.1050896
110	0x3f0df460	0.5545101
111	0xbdc32cd8	-0.09530038
112	0x3d8d2f7d	0.06893823
113	0x3d6a5301	0.057208065
114	0xbcfc9bb5	-0.030835966
115	0x3d87fb5e	0.06639741
116	0x3be4d072	0.0069828564
117	0xbe00a660	-0.12563467
118	0xbd965bb0	-0.07341707
119	0xbdc64bbb	-0.09682413
120	0xbe0b3c3b	-0.13597195
121	0xbd4a3f1d	-0.049376596
122	0x3e1b4780	0.15163994
123	0x3ce4f214	0.027947463
124	0x3db0a9dc	0.08626148
125	0xbdc2b1fd	-0.09506605
126	0xbc30b43d	-0.01078516
127	0x3df18091	0.117921
128	0x3d944300	0.07239342
129	0xbc57559f	-0.013142972
130	0x3dc07d8a	0.09398945
131	0xbe87fddc	-0.26560867
132	0xbca1dde3	-0.019759124
133	0xbc06d44f	-0.008229329
134	0xbbbfd2c3	-0.005853982
135	0xbbe43235	-0.006963993
136	0xbb66a6db	-0.0035194668
137	0x3ea4b8a2	0.32172114
138	0x3d537b43	0.051631223
139	0xbace4103	-0.0015735928
140	0x3e079d22	0.13243535
141	0xbc261231	-0.010136173
142	0x3d50a690	0.050940096
143	0xbc9ef925	-0.01940591
144	0xb910388e	-0.00013753978
145	0xb2f5cb2f	-2.8614151e-08
146	0xb7a05919	-1.9114976e-05
147	0xb8f2986e	-0.000115678515
148	0xa222ad93	-2.2046983e-18
149	0xb7fed7d3	-3.037966e-05
150	0xba17da3b	-0.0005792712
151	0xb711be71	-8.687014e-06
152	0xb9086897	-0.00013008933
153	0x0005adac	5.21479e-40
154	0x0008153d	7.42303e-40
155	0x801083a1	-1.516587e-39
156	0x000129aa	1.06782e-40
157	0x000a3c34	9.39952e-40
158	0x80029ead	-2.40593e-40
159	0x80059850	-5.13817e-40
160	0x000900a5	8.2675e-40
161	0x800dbfd7	-1.26268e-39
162	0xb6dec794	-6.6393495e-06
163	0xb95b6981	-0.00020924771
164	0xb91b65a3	-0.00014819815
165	0xb7555cd6	-1.2717404e-05
166	0xb9de39ee	-0.000423863
167	0xb97d3523	-0.00024147755
168	0xb5fd4196	-1.8869057e-06
169	0xb9848b3e	-0.00025280745
170	0xb8aec587	-8.333759e-05
171	0xa489946c	-5.9665715e-17
172	0x0111b5bf	2.676269e-38
173	0xa6764ee3	-8.5455306e-16
174	0x9da9aca7	-4.4912446e-21
175	0xa16165b8	-7.636759e-19
176	0x000170c0	1.32283e-40
177	0xb8312c73	-4.2241485e-05
178	0xb7874334	-1.6124548e-05
179	0xb7155e76	-8.9030855e-06
180	0x9f46e550	-4.2117814e-20
181	0xb3ebccce	-1.0980294e-07
182	0x80000000	-0.0
183	0x80000000	-0.0
184	0x80000000	-0.0
185	0x80000000	-0.0
186	0x80000000	-0.0
187	0xb9a83c99	-0.00032088606
188	0xb94a4551	-0.00019290044
189	0xaf954457	-2.71515e-10
190	0x80000000	-0.0
191	0xb456356b	-1.9949736e-07
192	0x80000000	-0.0
193	0x80000000	-0.0
194	0xb90062f0	-0.00012243888
195	0xb61a13b4	-2.2959257e-06
196	0x80000000	-0.0
197	0x80000000	-0.0
198	0xb81e6197	-3.7761023e-05
199	0x9bdcfab1	-3.6557952e-22
200	0xb5ede98e	-1.7725849e-06
201	0xae892e49	-6.2382606e-11
202	0x000123e6	1.04713e-40
203	0xb204c51e	-7.7282305e-09
204	0xb7ea8cb7	-2.79605e-05
205	0xb5c92aa4	-1.4988077e-06
206	0xb7bde216	-2.2635835e-05
207	0xb633ab4a	-2.6772782e-06
208	0xb4fa8047	-4.6659463e-07
209	0xaea688ed	-7.573129e-11
210	0xb0993810	-1.1148149e-09
211	0x9b5bd258	-1.8183221e-22
212	0x000419b6	3.76565e-40
213	0xb3ee0499	-1.1083575e-07
214	0x1214ef84	4.699579e-28
215	0xb4445a1f	-1.8286708e-07
216	0xb2a1659e	-1.8789077e-08
217	0x80000000	-0.0
218	0x80000000	-0.0
219	0x80000000	-0.0
220	0x80000000	-0.0
221	0xb507d4ec	-5.060126e-07
222	0x80000000	-0.0
223	0xb4cad149	-3.7777707e-07
224	0x80000000	-0.0
225	0x80000000	-0.0
226	0x80000000	-0.0
227	0x80000000	-0.0
228	0x80000000	-0.0
229	0x80000000	-0.0
230	0x80000000	-0.0
231	0x80000000	-0.0
232	0x80000000	-0.0
233	0x80000000	-0.0
234	0xb555ad4a	-7.960085e-07
235	0xb3b69fd6	-8.5041094e-08
236	0xb63c679a	-2.8074487e-06
237	0x800877a5	-7.77604e-40
238	0x80044018	-3.90334e-40
239	0x0003c30f	3.4548e-40
240	0xb5ac865b	-1.2854101e-06
241	0xaec7e425	-9.089999e-11
242	0xb7c7b93f	-2.380891e-05
243	0xb64a1b9a	-3.0116412e-06
244	0xafee13d1	-4.3306028e-10
245	0xb5c0ef6c	-1.4374796e-06
246	0xb5423b05	-7.2356517e-07
247	0x0007cc6b	7.1618e-40
248	0xb0bebbe6	-1.3877723e-09
249	0xb871af04	-5.7621874e-05
250	0xb508d5f2	-5.097528e-07
251	0xb9050a84	-0.00012687786
252	0xb3b2ab70	-8.319955e-08
253	0xaf044a3d	-1.2031705e-10
254	0xac6766fa	-3.2884238e-12
255	0xb5715e5e	-8.991682e-07

encoder.9.bias f4 [8]
0	0x3ca9fba4	0.020749874
1	0x000552df	4.88906e-40
2	0x800065de	-3.6543e-41
3	0xbe044b98	-0.12919462
4	0x3cf0d56e	0.029398646
5	0xbbfa9414	-0.007647047
6	0x3e06650b	0.13124482
7	0x3c411b1b	0.011786248

decoder.0.weight f4 [8, 128, 3, 3]
0	0x3db61adf	0.08891844
1	0x3dca449c	0.098763674
2	0x3dba6245	0.09100775
3	0xbd91c9bb	-0.07118555
4	0x80000000	-0.0
5	0x3d3d26ba	0.04617951
6	0xbe7bc14c	-0.24585456
7	0x80000000	-0.0
8	0xba92e5b0	-0.0011207368
9	0x3e8ca9ea	0.27473384
10	0xbe32084f	-0.17385982
11	0xbc7981b2	-0.015228676
12	0x80000000	-0.0
13	0xbce5bfdf	-0.028045593
14	0x80000000	-0.0
15	0xbdfa898a	-0.12233265
16	0x80000000	-0.0
17	0xbda248ae	-0.07924019
18	0x80000000	-0.0
19	0x00000000	0.0
20	0x80000000	-0.0
21	0xbd3434cd	-0.043995667
22	0x3dec6be6	0.115440175
23	0x3c64b5d8	0.013959371
24	0x000eff1d	1.377214e-39
25	0x00000000	0.0
26	0x00102a6b	1.484585e-39
27	0x3b0d78b3	0.0021586835
28	0xbc3814eb	-0.011235456
29	0xbcc08f73	-0.023505902
30	0x3d0df3b3	0.034656238
31	0xbd162a80	-0.036661625
32	0xbd40224a	-0.0469077
33	0xbb11e816	-0.0022263578
34	0xbbe0c4e5	-0.006859409
35	0xbb2ffdae	-0.0026854086
36	0xbe0a9e83	-0.1353703
37	0x000093d1	5.3027e-41
38	0x80000000	-0.0
39	0x80000000	-0.0
40	0xbe241e5a	-0.16027203
41	0x80000000	-0.0
42	0x80000000	-0.0
43	0x8006caa8	-6.23712e-40
44	0x80000000	-0.0
45	0xbd0a45c1	-0.03375793
46	0x800b0240	-1.010998e-39
47	0x0005bc0c	5.26636e-40
48	0xbca58987	-0.02020718
49	0xbe248583	-0.16066556
50	0xbde1e3c2	-0.110297695
51	0x3e8e31df	0.27772424
52	0x800492cf	-4.20007e-40
53	0xbd67962a	-0.056539692
54	0xb913585a	-0.00014051926
55	0x3dbb024f	0.091313
56	0xbb5c672a	-0.0033630827
57	0xbe217afd	-0.15769573
58	0xba996eda	-0.001170601
59	0xbdf66857	-0.1203162
60	0xba2763fa	-0.0006385442
61	0x3cc4c0ca	0.02401771
62	0xbb98b23c	-0.004659919
63	0xbda67f2b	-0.08129724
64	0xbc7df20e	-0.015499605
65	0xbe1888d1	-0.14895941
66	0x00000000	0.0
67	0x00000000	0.0
68	0xbc22ccc8	-0.009936519
69	0xbdd6f5ae	-0.104960784
70	0xbaf72e2e	-0.0018858367
71	0xbdf5a329	-0.11994011
72	0x80142cce	-1.852783e-39
73	0xbe01c41f	-0.1267247
74	0x80000000	-0.0
75	0x80000000	-0.0
76	0xbe362a71	-0.17789628
77	0x3d44b5fd	0.04802512
78	0x8009fdc4	-9.17553e-40
79	0x80000000	-0.0
80	0x00021ee8	1.94758e-40
81	0x3d91502f	0.07095372
82	0x00000000	0.0
83	0xbddfaea3	-0.10921981
84	0x80000000	-0.0
85	0x00000000	0.0
86	0x3c8aeecf	0.016959576
87	0x3e2583c0	0.1616354
88	0x80000000	-0.0
89	0x3c88e780	0.01671195
90	0x00000000	0.0
91	0x80000000	-0.0
92	0xbe5ac61e	-0.21364638
93	0x80000000	-0.0
94	0x80000000	-0.0
95	0x80000000	-0.0
96	0x00000000	0.0
97	0xbe0b4cc1	-0.13603498
98	0xbc82b0d6	-0.015953463
99	0xbd376c96	-0.04478129
100	0xbd4e2f75	-0.050338227
101	0x3eb3f3f9	0.35147074
102	0xbcf77281	-0.030205967
103	0x80038ea6	-3.26679e-40
104	0xbd82ff34	-0.063963324
105	0xbdbb3d6e	-0.09142576
106	0x3e880678	0.26567435
107	0x3e2734ba	0.16328707
108	0xbb8ba8d6	-0.00426207
109	0x3c2564e9	0.01009486
110	0xbc0d478a	-0.008623013
111	0xbc51e201	-0.012810231
112	0xbe03c93a	-0.1286973
113	0xbc799536	-0.015233329
114	0xb9ddf9d4	-0.0004233854
115	0xbdaccf53	-0.084379815
116	0xbbabf27e	-0.005247413
117	0x00000000	0.0
118	0x00000000	0.0
119	0xbdac7759	-0.08421201
120	0x3d696bf1	0.056987707
121	0xb7b59087	-2.1644182e-05
122	0xbe116254	-0.14197665
123	0x80000000	-0.0
124	0xbe8b205d	-0.2717313
125	0xbc871582	-0.016489748
126	0x3e08c5a0	0.13356638
127	0x80000000	-0.0
128	0xbc8bc0c9	-0.0170597
129	0x80000000	-0.0
130	0xbcb15d4b	-0.02165093
131	0x80000000	-0.0
132	0x3d513dd1	0.051084343
133	0xbb115558	-0.0022176113
134	0xbda98013	-0.08276381
135	0x3da66ffa	0.081268266
136	0x00000000	0.0
137	0x3d829c86	0.06377511
138	0x00000000	0.0
139	0x00000000	0.0
140	0x00000000	0.0
141	0xbe8949b3	-0.2681404
142	0x80000000	-0.0
143	0xbe0aab8f	-0.13542007
144	0xbe1a6c11	-0.15080287
145	0x80000000	-0.0
146	0x80000000	-0.0
147	0xbe126fce	-0.14300463
148	0x80000000	-0.0
149	0x3e11807f	0.14209174
150	0x00000000	0.0
151	0x80000000	-0.0
152	0xbee3c3cd	-0.44485322
153	0xbc2ac0fe	-0.0104219895
154	0xbe7359b2	-0.23764685
155	0x3d13be6d	0.036070276
156	0xbc97fd8a	-0.018553514
157	0x80000000	-0.0
158	0xbcf001b5	-0.029297689
159	0xbd575866	-0.052574538
160	0xbda80ca3	-0.08205535
161	0xbd897a75	-0.0671281
162	0xbd9ff028	-0.07809478
163	0xbc549fe1	-0.012977571
164	0xbe24d5e1	-0.16097213
165	0x00000000	0.0
166	0xbc85cdc7	-0.016333474
167	0x80000000	-0.0
168	0x3daa5341	0.08316661
169	0xbc1da20a	-0.009621153
170	0xbb87a0f4	-0.00413906
171	0x00138da3	1.795684e-39
172	0xbd99dd50	-0.07512915
173	0x80000000	-0.0
174	0xbe8299c1	-0.2550793
175	0x000f0512	1.379351e-39
176	0x00000000	0.0
177	0x000fa801	1.437801e-39
178	0x3d6c6fe0	0.05772388
179	0x800c4f55	-1.130485e-39
180	0xbcbaf653	-0.022822535
181	0xbcb9bc70	-0.022672862
182	0xbd123b16	-0.03570088
183	0xbc9942b7	-0.01870857
184	0x80000000	-0.0
185	0xbc6c6b9c	-0.014429953
186	0x80000000	-0.0
187	0x80000000	-0.0
188	0xbb20a861	-0.0024514424
189	0x3da7fc85	0.08202461
190	0xbcefc271	-0.029267522
191	0xbd9eb48f	-0.077492826
192	0xbc94ee9b	-0.018180182
193	0xbe0db965	-0.13840254
194	0x80000000	-0.0
195	0x3e2e1461	0.16999961
196	0xbcebc42e	-0.02878007
197	0x00000000	0.0
198	0x3cd3c41d	0.02585035
199	0xbd5315c4	-0.05153443
200	0x80000000	-0.0
201	0x3e0998e2	0.13437226
202	0x80000000	-0.0
203	0xbd570d0c	-0.052502677
204	0xbe575a99	-0.21030654
205	0x3c8b6955	0.017018
206	0x80000000	-0.0
207	0xbd62f4e5	-0.05540933
208	0xbdd8cc2c	-0.10585818
209	0x3c7c1ccf	0.015387728
210	0xbb77d19e	-0.003781415
211	0x80000000	-0.0
212	0xbbcc9b1b	-0.006244076
213	0x3e2a17bd	0.16610618
214	0x3df83e52	0.12121262
215	0xbdd17f63	-0.10229375
216	0x3d703271	0.058641855
217	0x000d5a16	1.226178e-39
218	0x00000000	0.0
219	0x00000000	0.0
220	0x80000000	-0.0
221	0x00000000	0.0
222	0xbe331133	-0.1748703
223	0x800a7184	-9.59077e-40
224	0x00000000	0.0
225	0xbc1341f3	-0.0089878915
226	0x00000000	0.0
227	0xbde72a54	-0.1128737
228	0xbca11028	-0.019661024
229	0x80000000	-0.0
230	0x00000000	0.0
231	0x3c7f6dc3	0.015590134
232	0x00000000	0.0
233	0x00000000	0.0
234	0x00000000	0.0
235	0x0009cf81	9.00958e-40
236	0x00000000	0.0
237	0xbdac1253	-0.084019326
238	0xbebdb843	-0.37054643
239	0x3d0d4b06	0.034495376
240	0xbe4720ae	-0.1944606
241	0x8002c192	-2.53111e-40
242	0x3c8cb576	0.017176371
243	0x3dac4c42	0.084129825
244	0xbcc4604c	-0.0239717
245	0x3e09869a	0.13430253
246	0xbc68b935	-0.014204313
247	0xbaddb6b6	-0.0016915414
248	0x80000000	-0.0
249	0x80000000	-0.0
250	0xbd3fb848	-0.046806604
251	0x80000000	-0.0
252	0xbb676d97	-0.0035313123
253	0x00000000	0.0
254	0x00000000	0.0
255	0x80000000	-0.0

decoder.0.bias f4 [128]
0	0x3dd2a579	0.10285468
1	0x3e0c1cba	0.13682833
2	0xbec2a05f	-0.38012978
3	0x3da578d4	0.08079687
4	0xbe05c8db	-0.13064902
5	0xbe4cdd5d	-0.20006318
6	0x3c1ba050	0.009498671
7	0x3dc1afa1	0.09457327
8	0xbe23debc	-0.16002935
9	0xbedd2e5c	-0.43199432
10	0xbdc46b2b	-0.09590753
11	0xbdce041b	-0.10059377
12	0x3dcfe04f	0.10150205
13	0x80000000	-0.0
14	0xbb03f510	-0.0020135082
15	0x3e01854e	0.12648508
16	0x3eae414e	0.340342
17	0x3ce5e6a6	0.028064083
18	0x3de76694	0.11298862
19	0xbe16c1db	-0.14722387
20	0x3e260c62	0.16215661
21	0x3c5fe088	0.013664372
22	0x3d0b76bc	0.03404878
23	0x3c93ef20	0.01805836
24	0xbf021460	-0.5081234
25	0x3caffc49	0.021482604
26	0xbf088f73	-0.53343886
27	0x3e43e121	0.19128849
28	0xbb41ad2d	-0.0029552684
29	0xbd825dac	-0.06365523
30	0xbf1690bc	-0.588146
31	0x3e128aed	0.14310808
32	0xbea0496a	-0.3130601
33	0xbcb4b392	-0.022058282
34	0xbe76c068	-0.24096835
35	0x3d0cd1f2	0.034379907
36	0x00000000	0.0
37	0xbeff4f28	-0.4986508
38	0x3cf2c076	0.029632788
39	0xbcf21ed2	-0.029555712
40	0x3d9d9a8f	0.07695495
41	0xbe24fa65	-0.16111143
42	0xbe8606ff	-0.26177213
43	0x3e348660	0.17629385
44	0xbb972280	-0.004612267
45	0x3c25f4a0	0.010129124
46	0xbd12755d	-0.035756458
47	0x3d0b1267	0.033953097
48	0x3f190b03	0.5978243
49	0xbd584318	-0.05279836
50	0x3e0dcbf6	0.13847336
51	0x3ea07c58	0.31344867
52	0xbe72e6b4	-0.23720819
53	0xbd5e2e3b	-0.054243308
54	0xbf08661e	-0.5328082
55	0x3e0347e0	0.12820387
56	0x3d8ffc20	0.07030511
57	0xbc435126	-0.011921203
58	0xbd753b45	-0.059870977
59	0xbed56021	-0.41674903
60	0x3e41e262	0.18934014
61	0xbf0d5eca	-0.5522276
62	0xbc551208	-0.013004787
63	0xbc5e45be	-0.0135664325
64	0x3ec8b314	0.39199126
65	0x3d600acf	0.054697808
66	0x3f7a4f2c	0.97777057
67	0xbee2fddf	-0.44334313
68	0x3eb2603b	0.34839043
69	0xbe979384	-0.29604733
70	0x3e29c040	0.16577244
71	0x3e1f771f	0.15572785
72	0xbe53991b	-0.20663874
73	0xbf2b1f28	-0.66844416
74	0x3f01c2bf	0.50687784
75	0x3eaa554d	0.33268204
76	0xbf790852	-0.9727832
77	0x3d49239e	0.049106233
78	0xbf0638a1	-0.5243016
79	0xbd218cfb	-0.03944109
80	0x3f2dadb0	0.6784315
81	0xbdd1f632	-0.10252036
82	0xbe59d789	-0.21273626
83	0xbd94009a	-0.07226677
84	0x3f25d6bd	0.6478079
85	0x3e8c4caf	0.27402255
86	0x3d9f4ff4	0.07778922
87	0xbf0fc785	-0.5616382
88	0xbd9fb750	-0.07798636
89	0xbd839b17	-0.064260654
90	0x3c975a87	0.018475784
91	0xbe34082f	-0.17581247
92	0xbb9af3e6	-0.004728782
93	0x3e1ad609	0.1512071
94	0x3e48ff85	0.19628723
95	0xbeeaf339	-0.4588869
96	0xbed09f88	-0.40746713
97	0x3d8ec1dd	0.0697057
98	0x3ec5a6ce	0.38603824
99	0x3b6c2651	0.003603358
100	0xbee18a6c	-0.4405092
101	0xbf2b8610	-0.6700144
102	0x3d05c641	0.032659773
103	0x3da1b7e5	0.07896403
104	0x3cdddadb	0.027081897
105	0xbe49a352	-0.19691208
106	0xbdd62f6f	-0.10458266
107	0xbc5d5430	-0.013508841
108	0xbaf87c29	-0.0018957901
109	0x3d17fbd3	0.037105393
110	0x3baec716	0.0053337915
111	0x3c5f9c3b	0.013648088
112	0xbe250723	-0.16116004
113	0xbd7fcd5c	-0.062451705
114	0x00000000	0.0
115	0xbeb4e02d	-0.35327283
116	0xbd0e7fba	-0.03478978
117	0xbdf2fca4	-0.118645936
118	0xbea9a705	-0.33135238
119	0x3ec3a0a3	0.38208494
120	0xbf02dd5c	-0.5111902
121	0xbe3a77c9	-0.18209757
122	0x3e1657fe	0.14682004
123	0x3d30fef4	0.043211892
124	0xbf4f43c6	-0.8096279
125	0x3f845478	1.0338278
126	0x3d840033	0.064453505
127	0x3b7a2369	0.0038168079
