mnist_random_iter/end_of_5.pth (torch_old, 842205 bytes, 19 tensors)

encoder.0.weight f4 [128, 1, 3, 3]
0	0x3c8faa69	0.017537313
1	0xbd1855db	-0.037191253
2	0xbe521997	-0.20517574
3	0xbe1c8276	-0.15284142
4	0x3e2ba263	0.16761164
5	0x3e28e437	0.16493307
6	0x3da30bef	0.079612605
7	0xbcf056aa	-0.0293382
8	0xbde1d4de	-0.11026929
9	0xbd8128df	-0.06306624
10	0xbdb8e38c	-0.09027776
11	0xbd88da91	-0.06682313
12	0xbe36e299	-0.17859878
13	0x3d3fbe32	0.046812244
14	0xbdcdcab5	-0.10048429
15	0x80000000	-0.0
16	0x3c9a16b8	0.018809661
17	0xbdeb9e7a	-0.115048364
18	0x3d9efb13	0.07762732
19	0x3bd4e602	0.0064971456
20	0xbd817cb1	-0.06322611
21	0xbd9f6e9e	-0.077847704
22	0xbdd086fa	-0.10181995
23	0xbd8e44ba	-0.06946702
24	0xbeac0495	-0.33597246
25	0xbd8037d5	-0.06260649
26	0xbe6fb6c6	-0.23409566
27	0xbe8d3cea	-0.27585536
28	0x3e5274c9	0.20552363
29	0x3eb5af7c	0.35485446
30	0xbea7d838	-0.3278215
31	0x3d4d73ea	0.050159372
32	0x3e10186d	0.14071818
33	0xbe82d4bc	-0.25552928
34	0x3d7754ef	0.060383733
35	0x3dab099e	0.08351444
36	0xbdfcb7a0	-0.12339711
37	0x3b9ee308	0.0048488416
38	0xbe4a138f	-0.19734024
39	0xbdfdb315	-0.12387673
40	0xbd92622b	-0.0714763
41	0xbbc98d77	-0.006150897
42	0xbe49ebc0	-0.19718838
43	0xbe13f949	-0.14450563
44	0xbe995c0f	-0.29953048
45	0x80000000	-0.0
46	0x00000000	0.0
47	0x00000000	0.0
48	0x80000000	-0.0
49	0x80000000	-0.0
50	0x80000000	-0.0
51	0x00000000	0.0
52	0x00000000	0.0
53	0x00000000	0.0
54	0x00000000	0.0
55	0x00000000	0.0
56	0x00000000	0.0
57	0x80000000	-0.0
58	0x80000000	-0.0
59	0x00000000	0.0
60	0x00000000	0.0
61	0x80000000	-0.0
62	0x00000000	0.0
63	0x3e955f32	0.2917419
64	0x3e6b4402	0.22975162
65	0x3f079ffe	0.52978504
66	0xbd8c822c	-0.06860766
67	0xbda303c4	-0.079597026
68	0x3e0476a7	0.12935887
69	0xbea69946	-0.32538813
70	0xbe4e7c44	-0.20164591
71	0xbe5d3399	-0.21601714
72	0xbe046fd8	-0.1293329
73	0xbdcd8dce	-0.10036813
74	0xbeb98547	-0.36234495
75	0xbe76ea90	-0.24112916
76	0xbd584bc0	-0.052806616
77	0x80000000	-0.0
78	0xbdfefd63	-0.124506734
79	0xbe0c9e49	-0.13732256
80	0xbe78771f	-0.24264191
81	0x00000000	0.0
82	0x00000000	0.0
83	0x80000000	-0.0
84	0x00000000	0.0
85	0x00000000	0.0
86	0x00000000	0.0
87	0x80000000	-0.0
88	0x00000000	0.0
89	0x00000000	0.0
90	0x00000000	0.0
91	0x80000000	-0.0
92	0x00000000	0.0
93	0x80000000	-0.0
94	0x80000000	-0.0
95	0x00000000	0.0
96	0x00000000	0.0
97	0x80000000	-0.0
98	0x80000000	-0.0
99	0xbe951e3a	-0.29124624
100	0xbd6c1ec6	-0.057646535
101	0x3c7eeaf3	0.015558946
102	0xbe81f325	-0.25380817
103	0x3d6db80d	0.058036853
104	0xbe1fdd19	-0.15611686
105	0x3dfeb6e3	0.124372266
106	0xbd189c7b	-0.037258606
107	0x3e8ac61c	0.2710427
108	0xbe7a2134	-0.24426728
109	0xbe4159aa	-0.1888186
110	0xbe6f5ec8	-0.23376
111	0x3d8a1a87	0.06743341
112	0x3c8d9f52	0.017287884
113	0xbe41ffe6	-0.18945274
114	0x3e0ee88d	0.13955899
115	0xbd01e92f	-0.03171652
116	0xbe399160	-0.18121862
117	0x3e91b564	0.28458703
118	0x3dce51ae	0.10074173
119	0xbf0853ee	-0.53253067
120	0x3eaa238d	0.33230248
121	0x3df4b3a3	0.119483255
122	0xbf12cf6c	-0.5734775
123	0x3ec58348	0.38576722
124	0x3dfd59af	0.123706214
125	0xbe209f43	-0.15685754
126	0x3f0507f7	0.5196528
127	0x00000000	0.0
128	0xbeb46d98	-0.35239863
129	0x3ec5cfaa	0.38634998
130	0xbe9c6c00	-0.30551147
131	0xbe1fc33a	-0.15601817
132	0xbc1915d3	-0.009343582
133	0xbdca9253	-0.098911904
134	0xbe9102a3	-0.28322324
135	0xbe105993	-0.1409667
136	0xbe44a59e	-0.19203803
137	0xbdee2ce9	-0.1162966
138	0xbcbc2473	-0.0229666
139	0x3d11301c	0.03544627
140	0xbdf8fbd6	-0.12157409
141	0x3e28e18e	0.16492292
142	0x3d459ee8	0.048247248
143	0x3e3e71cb	0.18598096
144	0x00000000	0.0
145	0x80000000	-0.0
146	0x80000000	-0.0
147	0x80000000	-0.0
148	0x00000000	0.0
149	0x80000000	-0.0
150	0x00000000	0.0
151	0x00000000	0.0
152	0x00000000	0.0
153	0xbeb1419d	-0.3462037
154	0xbe9d06c4	-0.30669224
155	0xbed10bdd	-0.40829363
156	0xbdea52b0	-0.11441553
157	0x80000000	-0.0
158	0x3d8ab59b	0.0677292
159	0x3ea0d18e	0.31409878
160	0x3e080fa5	0.13287218
161	0x3daef17f	0.085421555
162	0xbe949400	-0.29019165
163	0xbd333a91	-0.043757025
164	0x3d5af4a1	0.053455953
165	0xbe9df1f2	-0.30848652
166	0x3d3e3a81	0.046442512
167	0xbe136f13	-0.1439784
168	0xbe38ab4a	-0.18034092
169	0x3e5a067c	0.21291536
170	0x3cdd943a	0.027048219
171	0x00000000	0.0
172	0x80000000	-0.0
173	0x00000000	0.0
174	0x00000000	0.0
175	0x80000000	-0.0
176	0x00000000	0.0
177	0x80000000	-0.0
178	0x00000000	0.0
179	0x00000000	0.0
180	0xbdb9f643	-0.09080174
181	0x3e5b757c	0.21431535
182	0xbd0bca8a	-0.034128703
183	0xbd8f8294	-0.07007328
184	0x3e7b6eb5	0.2455395
185	0xbda3c180	-0.079958916
186	0xbda63f2f	-0.0811752
187	0xbdc1822e	-0.09448658
188	0xbe05991f	-0.13046692
189	0x00000000	0.0
190	0x00000000	0.0
191	0x80000000	-0.0
192	0x80000000	-0.0
193	0x80000000	-0.0
194	0x00000000	0.0
195	0x00000000	0.0
196	0x00000000	0.0
197	0x00000000	0.0
198	0xbd9cf716	-0.076643154
199	0xbd83b7c4	-0.06431535
200	0xbe8ab69f	-0.27092454
201	0x3d221ee6	0.03958025
202	0xbde92901	-0.11384774
203	0xbdaf2fbc	-0.085540265
204	0x3e99857a	0.29984647
205	0x80000000	-0.0
206	0x3e0f22b1	0.13978077
207	0xbea4b36d	-0.3216814
208	0xbcc48156	-0.023987453
209	0x3e13a5c1	0.14418699
210	0xbe1b1702	-0.15145496
211	0x3e17f9c7	0.14841376
212	0x3de402e6	0.11133365
213	0xbe96483a	-0.2935198
214	0x3d83a0dd	0.064271666
215	0x3d8357a1	0.06413198
216	0xbdc868b9	-0.09785599
217	0x3e256e16	0.16155276
218	0xbde4674a	-0.11152513
219	0x3bbbfa07	0.0057365927
220	0x3df258d5	0.118333496
221	0x39f77a98	0.0004720285
222	0xbde60e8e	-0.11233245
223	0xbd9f78da	-0.077867225
224	0xbbc5c55e	-0.006035491
225	0x80000000	-0.0
226	0x00000000	0.0
227	0x00000000	0.0
228	0x00000000	0.0
229	0x80000000	-0.0
230	0x00000000	0.0
231	0x80000000	-0.0
232	0x80000000	-0.0
233	0x00000000	0.0
234	0x80000000	-0.0
235	0x80000000	-0.0
236	0x00000000	0.0
237	0x00000000	0.0
238	0x80000000	-0.0
239	0x80000000	-0.0
240	0x00000000	0.0
241	0x00000000	0.0
242	0x00000000	0.0
243	0x3e8537b0	0.2601905
244	0xbda9d471	-0.08292473
245	0xbe6fcf8d	-0.23419018
246	0x3eaaf4f7	0.33390018
247	0x3e194f7a	0.14971724
248	0x3d4682d2	0.048464604
249	0x3cb5f45d	0.022211248
250	0x00000000	0.0
251	0xbddd3ea0	-0.108029604
252	0xbdfdcc93	-0.12392535
253	0xbe267f05	-0.16259392
254	0xbdc574b8	-0.09641403
255	0x3e2c39a5	0.16818865

encoder.0.bias f4 [128]
0	0x3e95da1e	0.29267973
1	0xbd860534	-0.06543961
2	0xbe26139e	-0.16218421
3	0x3e83cb4f	0.2574105
4	0xbe60ad0f	-0.21941017
5	0x00000000	0.0
6	0x80000000	-0.0
7	0xbe4e1060	-0.20123434
8	0x3e2b47b8	0.16726577
9	0x80000000	-0.0
10	0x00000000	0.0
11	0x3ead1860	0.3380766
12	0xbe7428d9	-0.23843707
13	0x3dd2c546	0.10291533
14	0xbdb164f7	-0.08661836
15	0x3f1d46c0	0.6143608
16	0x80000000	-0.0
17	0xbe50bbaf	-0.20384096
18	0xbe9c3e4b	-0.30516276
19	0x800d1af4	-1.20353e-39
20	0x3db63bea	0.088981465
21	0x80000000	-0.0
22	0xbd5ed926	-0.054406308
23	0xbdcad5b5	-0.09904043
24	0xbd99a1ff	-0.075016014
25	0x00000000	0.0
26	0x80000000	-0.0
27	0x3dc058a7	0.09391909
28	0xbe4429e6	-0.19156608
29	0x80000000	-0.0
30	0x80000000	-0.0
31	0x3e4d9582	0.20076564
32	0x3eb29c9f	0.34885117
33	0x3edb88d2	0.42877823
34	0x3d1b3da5	0.037900586
35	0x3eb643f0	0.35598707
36	0xbe1fcaaa	-0.15604654
37	0x3e55fad0	0.20896459
38	0x3f0fd9a8	0.5619149
39	0xab3a4bb2	-6.6185523e-13
40	0xbdf30931	-0.118669875
41	0xbd1f95b1	-0.038961116
42	0x3e022992	0.1271117
43	0x80000000	-0.0
44	0x00000000	0.0
45	0x00000000	0.0
46	0x00000000	0.0
47	0xbe30e335	-0.17274173
48	0x00000000	0.0
49	0x3ed73020	0.42028904
50	0xbcd97b18	-0.026547953
51	0xbe82d783	-0.25555047
52	0x3c027da6	0.007964527
53	0x3e7079ab	0.23483913
54	0x00000000	0.0
55	0x00000000	0.0
56	0x3e065e12	0.13121822
57	0x3f1758f6	0.5912012
58	0x3f154133	0.5830261
59	0xbdbb2e07	-0.091396384
60	0x00000000	0.0
61	0x00000000	0.0
62	0x00000000	0.0
63	0xb37f7234	-5.947568e-08
64	0x3e64f8f3	0.22360592
65	0x3eb6efe5	0.357299
66	0x3f141f66	0.5786041
67	0x00000000	0.0
68	0x3ea192f1	0.3155742
69	0x00000000	0.0
70	0x3d80b7f7	0.062850885
71	0x3e9a086a	0.30084544
72	0x00000000	0.0
73	0x3e5d7a0b	0.21628587
74	0xbe30754d	-0.17232247
75	0xbe8ca77f	-0.2747154
76	0x80000000	-0.0
77	0x80000000	-0.0
78	0x00000000	0.0
79	0x00000000	0.0
80	0xbe691a71	-0.22763993
81	0x00000000	0.0
82	0xbde72f60	-0.11288333
83	0x3d4facf8	0.050702065
84	0x3e78f348	0.24311554
85	0xbdd1b28a	-0.10239132
86	0xbdd55c09	-0.10417945
87	0x3e31d9bb	0.17368214
88	0x3eac292d	0.33625165
89	0x3ebbfea8	0.36717725
90	0x3de59f3d	0.11212013
91	0x80000000	-0.0
92	0x00000000	0.0
93	0x00000000	0.0
94	0x3e7e6678	0.24843776
95	0x00000000	0.0
96	0x00000000	0.0
97	0x00000000	0.0
98	0x3e84b16e	0.25916618
99	0x3e077ff7	0.13232408
100	0x3e17b6b1	0.14815785
101	0x3efdda05	0.49580398
102	0x3c8eb05b	0.017418077
103	0x80000000	-0.0
104	0x3e96b45e	0.29434484
105	0x3f0b2dc0	0.54366684
106	0x3e5c2869	0.2149979
107	0x3e61e070	0.22058272
108	0xbea033c2	-0.31289488
109	0x3ea9754c	0.33097303
110	0x3e8a04c8	0.26956773
111	0x3ed1d008	0.40979028
112	0x80000000	-0.0
113	0x00000000	0.0
114	0x3ebfce28	0.37461972
115	0x9d2ab970	-2.2595182e-21
116	0x3bc11292	0.0058921063
117	0x3eb13163	0.34607992
118	0xbc962fab	-0.018333277
119	0xbe8736c3	-0.26408967
120	0x3e2fcbc4	0.17167574
121	0x3bc6773b	0.006056694
122	0x00000000	0.0
123	0x80000000	-0.0
124	0x3efb7adc	0.49117172
125	0x3ef8d5c5	0.48600593
126	0x00000000	0.0
127	0x3ea8fcef	0.33005473

encoder.2.weight f4 [64, 128, 4, 4]
0	0x80000000	-0.0
1	0x00000000	0.0
2	0x80000000	-0.0
3	0x00000000	0.0
4	0x00000000	0.0
5	0x80000000	-0.0
6	0x00000000	0.0
7	0x00000000	0.0
8	0x80000000	-0.0
9	0x80000000	-0.0
10	0x80000000	-0.0
11	0x80000000	-0.0
12	0x00000000	0.0
13	0x80000000	-0.0
14	0x00000000	0.0
15	0x00000000	0.0
16	0x00000000	0.0
17	0x80000000	-0.0
18	0x80000000	-0.0
19	0x00000000	0.0
20	0x00000000	0.0
21	0x00000000	0.0
22	0x00000000	0.0
23	0x80000000	-0.0
24	0x80000000	-0.0
25	0x00000000	0.0
26	0x00000000	0.0
27	0x80000000	-0.0
28	0x00000000	0.0
29	0x00000000	0.0
30	0x00000000	0.0
31	0x00000000	0.0
32	0x80000000	-0.0
33	0x80000000	-0.0
34	0x80000000	-0.0
35	0x80000000	-0.0
36	0x00000000	0.0
37	0x80000000	-0.0
38	0x00000000	0.0
39	0x00000000	0.0
40	0x00000000	0.0
41	0x00000000	0.0
42	0x00000000	0.0
43	0x80000000	-0.0
44	0x80000000	-0.0
45	0x00000000	0.0
46	0x00000000	0.0
47	0x00000000	0.0
48	0x00000000	0.0
49	0x00000000	0.0
50	0x00000000	0.0
51	0x80000000	-0.0
52	0x80000000	-0.0
53	0x00000000	0.0
54	0x00000000	0.0
55	0x00000000	0.0
56	0x00000000	0.0
57	0x00000000	0.0
58	0x00000000	0.0
59	0x80000000	-0.0
60	0x00000000	0.0
61	0x00000000	0.0
62	0x00000000	0.0
63	0x00000000	0.0
64	0x80000000	-0.0
65	0x80000000	-0.0
66	0x80000000	-0.0
67	0x00000000	0.0
68	0x00000000	0.0
69	0x00000000	0.0
70	0x00000000	0.0
71	0x00000000	0.0
72	0x00000000	0.0
73	0x00000000	0.0
74	0x80000000	-0.0
75	0x00000000	0.0
76	0x00000000	0.0
77	0x00000000	0.0
78	0x00000000	0.0
79	0x00000000	0.0
80	0x80000000	-0.0
81	0x80000000	-0.0
82	0x80000000	-0.0
83	0x00000000	0.0
84	0x80000000	-0.0
85	0x00000000	0.0
86	0x00000000	0.0
87	0x80000000	-0.0
88	0x00000000	0.0
89	0x00000000	0.0
90	0x80000000	-0.0
91	0x80000000	-0.0
92	0x00000000	0.0
93	0x80000000	-0.0
94	0x80000000	-0.0
95	0x00000000	0.0
96	0x00000000	0.0
97	0x00000000	0.0
98	0x00000000	0.0
99	0x00000000	0.0
100	0x00000000	0.0
101	0x00000000	0.0
102	0x00000000	0.0
103	0x80000000	-0.0
104	0x00000000	0.0
105	0x00000000	0.0
106	0x00000000	0.0
107	0x00000000	0.0
108	0x00000000	0.0
109	0x00000000	0.0
110	0x80000000	-0.0
111	0x00000000	0.0
112	0x80000000	-0.0
113	0x80000000	-0.0
114	0x80000000	-0.0
115	0x80000000	-0.0
116	0x80000000	-0.0
117	0x00000000	0.0
118	0x80000000	-0.0
119	0x00000000	0.0
120	0x80000000	-0.0
121	0x00000000	0.0
122	0x00000000	0.0
123	0x00000000	0.0
124	0x80000000	-0.0
125	0x80000000	-0.0
126	0x80000000	-0.0
127	0x80000000	-0.0
128	0x00000000	0.0
129	0x00000000	0.0
130	0x00000000	0.0
131	0x80000000	-0.0
132	0x00000000	0.0
133	0x00000000	0.0
134	0x00000000	0.0
135	0x00000000	0.0
136	0x00000000	0.0
137	0x00000000	0.0
138	0x00000000	0.0
139	0x00000000	0.0
140	0x00000000	0.0
141	0x00000000	0.0
142	0x00000000	0.0
143	0x00000000	0.0
144	0x00000000	0.0
145	0x00000000	0.0
146	0x00000000	0.0
147	0x00000000	0.0
148	0x00000000	0.0
149	0x00000000	0.0
150	0x00000000	0.0
151	0x00000000	0.0
152	0x00000000	0.0
153	0x00000000	0.0
154	0x00000000	0.0
155	0x00000000	0.0
156	0x00000000	0.0
157	0x00000000	0.0
158	0x00000000	0.0
159	0x00000000	0.0
160	0x00000000	0.0
161	0x80000000	-0.0
162	0x80000000	-0.0
163	0x80000000	-0.0
164	0x00000000	0.0
165	0x00000000	0.0
166	0x00000000	0.0
167	0x80000000	-0.0
168	0x00000000	0.0
169	0x80000000	-0.0
170	0x00000000	0.0
171	0x80000000	-0.0
172	0x80000000	-0.0
173	0x80000000	-0.0
174	0x80000000	-0.0
175	0x00000000	0.0
176	0x00000000	0.0
177	0x00000000	0.0
178	0x00000000	0.0
179	0x00000000	0.0
180	0x00000000	0.0
181	0x00000000	0.0
182	0x00000000	0.0
183	0x00000000	0.0
184	0x00000000	0.0
185	0x00000000	0.0
186	0x00000000	0.0
187	0x00000000	0.0
188	0x00000000	0.0
189	0x00000000	0.0
190	0x00000000	0.0
191	0x00000000	0.0
192	0x00000000	0.0
193	0x00000000	0.0
194	0x00000000	0.0
195	0x00000000	0.0
196	0x00000000	0.0
197	0x00000000	0.0
198	0x00000000	0.0
199	0x00000000	0.0
200	0x00000000	0.0
201	0x00000000	0.0
202	0x00000000	0.0
203	0x00000000	0.0
204	0x00000000	0.0
205	0x00000000	0.0
206	0x00000000	0.0
207	0x00000000	0.0
208	0x80000000	-0.0
209	0x00000000	0.0
210	0x00000000	0.0
211	0x00000000	0.0
212	0x80000000	-0.0
213	0x00000000	0.0
214	0x80000000	-0.0
215	0x00000000	0.0
216	0x00000000	0.0
217	0x00000000	0.0
218	0x80000000	-0.0
219	0x00000000	0.0
220	0x00000000	0.0
221	0x00000000	0.0
222	0x80000000	-0.0
223	0x00000000	0.0
224	0x80000000	-0.0
225	0x80000000	-0.0
226	0x00000000	0.0
227	0x80000000	-0.0
228	0x00000000	0.0
229	0x80000000	-0.0
230	0x80000000	-0.0
231	0x80000000	-0.0
232	0x80000000	-0.0
233	0x80000000	-0.0
234	0x00000000	0.0
235	0x00000000	0.0
236	0x80000000	-0.0
237	0x00000000	0.0
238	0x00000000	0.0
239	0x00000000	0.0
240	0x80000000	-0.0
241	0x00000000	0.0
242	0x00000000	0.0
243	0x80000000	-0.0
244	0x80000000	-0.0
245	0x00000000	0.0
246	0x00000000	0.0
247	0x80000000	-0.0
248	0x00000000	0.0
249	0x80000000	-0.0
250	0x00000000	0.0
251	0x00000000	0.0
252	0x00000000	0.0
253	0x80000000	-0.0
254	0x80000000	-0.0
255	0x80000000	-0.0

encoder.2.bias f4 [64]
0	0x00000000	0.0
1	0x00000000	0.0
2	0x00000000	0.0
3	0x80000000	-0.0
4	0x80000000	-0.0
5	0x00000000	0.0
6	0x00000000	0.0
7	0x00000000	0.0
8	0x80000000	-0.0
9	0x00000000	0.0
10	0x3de1df23	0.11028888
11	0x3d93e1bd	0.072207905
12	0x80000000	-0.0
13	0x3e3550be	0.17706582
14	0x00000000	0.0
15	0x80000000	-0.0
16	0x3d96fc71	0.07372368
17	0x80000000	-0.0
18	0x80000000	-0.0
19	0x00000000	0.0
20	0x3d9a6e38	0.07540554
21	0x00000000	0.0
22	0x80000000	-0.0
23	0x3df025f1	0.11725987
24	0x80000000	-0.0
25	0xbc8671c0	-0.016411662
26	0x80000000	-0.0
27	0x3ca7b555	0.020472208
28	0x00000000	0.0
29	0x3ce7a7bb	0.028278222
30	0x3d322e72	0.043501325
31	0x00000000	0.0
32	0x80000000	-0.0
33	0x00000000	0.0
34	0x3e23af9b	0.15984957
35	0x3e0a6b6f	0.13517545
36	0x00000000	0.0
37	0x80000000	-0.0
38	0x80000000	-0.0
39	0x80000000	-0.0
40	0xbcb1a3a2	-0.021684472
41	0x00000000	0.0
42	0x3d86cffb	0.06582638
43	0xbbbd9933	-0.005786085
44	0x00000000	0.0
45	0x3d1f2b27	0.038859513
46	0x00000000	0.0
47	0x00000000	0.0
48	0x3dbec467	0.093148045
49	0x00000000	0.0
50	0x3e121613	0.14266233
51	0x3d2736ca	0.040823735
52	0x80000000	-0.0
53	0x80000000	-0.0
54	0x80000000	-0.0
55	0x80000000	-0.0
56	0xbb7c703d	-0.0038519048
57	0x3de097ba	0.109664395
58	0x00000000	0.0
59	0x80000000	-0.0
60	0x800921d5	-8.38656e-40
61	0x80000000	-0.0
62	0x80000000	-0.0
63	0x00000000	0.0

encoder.4.weight f4 [32, 64, 2, 2]
0	0x80000000	-0.0
1	0x80000000	-0.0
2	0x00000000	0.0
3	0x80000000	-0.0
4	0x00000000	0.0
5	0x80000000	-0.0
6	0x80000000	-0.0
7	0x00000000	0.0
8	0x00000000	0.0
9	0x00000000	0.0
10	0x00000000	0.0
11	0x00000000	0.0
12	0x00000000	0.0
13	0x80000000	-0.0
14	0x00000000	0.0
15	0x80000000	-0.0
16	0x80000000	-0.0
17	0x00000000	0.0
18	0x80000000	-0.0
19	0x00000000	0.0
20	0x80000000	-0.0
21	0x00000000	0.0
22	0x00000000	0.0
23	0x00000000	0.0
24	0x3e3b978a	0.18319526
25	0x3c946858	0.018116161
26	0xbd0dcd61	-0.034619693
27	0xbe7b9bdd	-0.24571176
28	0x3e03c36c	0.12867516
29	0xbc2029d3	-0.009775597
30	0x3ec354e0	0.38150692
31	0x3e72b3e0	0.2370143
32	0x00000000	0.0
33	0x00000000	0.0
34	0x00000000	0.0
35	0x00000000	0.0
36	0x3ce7317a	0.028221834
37	0xbdfdc6b1	-0.12391413
38	0x3e52c1f0	0.20581794
39	0x3cb267db	0.021778038
40	0x3e356d2a	0.17717424
41	0x3d82117f	0.06350993
42	0xbd8d80be	-0.06909321
43	0xbde847c0	-0.1134181
44	0xbe15b835	-0.1462105
45	0xbe00528d	-0.1253149
46	0x3e16c0d2	0.14721993
47	0x3cde37a4	0.02712614
48	0x80000000	-0.0
49	0x80000000	-0.0
50	0x80000000	-0.0
51	0x80000000	-0.0
52	0x3e168e30	0.14702678
53	0x3e8987e3	0.26861486
54	0x3e4495e9	0.19197811
55	0x3e3cbe01	0.18431856
56	0x00000000	0.0
57	0x80000000	-0.0
58	0x00000000	0.0
59	0x00000000	0.0
60	0x00000000	0.0
61	0x80000000	-0.0
62	0x00000000	0.0
63	0x00000000	0.0
64	0x3dae3b8f	0.08507454
65	0x80000000	-0.0
66	0x3cf5e744	0.030017503
67	0x3e0551d7	0.130195
68	0x00000000	0.0
69	0x80000000	-0.0
70	0x00000000	0.0
71	0x80000000	-0.0
72	0x80000000	-0.0
73	0x3de24399	0.110480495
74	0x3e68d3d7	0.2273706
75	0x3e145215	0.14484437
76	0x00000000	0.0
77	0xbd806b8b	-0.06270512
78	0x3e84b18f	0.25916716
79	0x3dc8bce8	0.09801656
80	0x3d9415a4	0.0723069
81	0xbc82ad1d	-0.015951687
82	0x3df47321	0.119360216
83	0x3c1549e0	0.009111851
84	0x3e906bf0	0.2820735
85	0x00000000	0.0
86	0x3e432dd5	0.19060452
87	0x80000000	-0.0
88	0x3c0c0a95	0.008547445
89	0xbcc2cfb3	-0.02378068
90	0xbd16cce3	-0.03681649
91	0xbc8fd59e	-0.017557915
92	0x3df8e91b	0.12153836
93	0x80000000	-0.0
94	0xbc9f94d5	-0.019480148
95	0x3c8a1b4b	0.016858717
96	0x3b98c016	0.0046615703
97	0x3ba1b4ff	0.0049349065
98	0x3bc2d2a3	0.00594552
99	0x3bb01119	0.005373132
100	0x3dd387c6	0.10328631
101	0x3d81d8ec	0.06340203
102	0x3dfda08b	0.12384137
103	0x3d8cb513	0.06870475
104	0x00000000	0.0
105	0x80000000	-0.0
106	0x00000000	0.0
107	0x00000000	0.0
108	0x3e42807d	0.18994327
109	0xbd6f4ecf	-0.058424767
110	0x3cd3085b	0.02576082
111	0xbe0d2250	-0.1378262
112	0xbc6721af	-0.014107152
113	0x3e59f02a	0.21283022
114	0xbd1e4dde	-0.03864848
115	0x3d4295c2	0.0475061
116	0x3d77919a	0.06044159
117	0xbbc14c5f	-0.0058989967
118	0xbd25426b	-0.040346544
119	0xbd50548f	-0.05086189
120	0xbd88687b	-0.06660553
121	0xbdc0b12b	-0.09408792
122	0x3e101f64	0.14074475
123	0x3e048be7	0.12943994
124	0x80000000	-0.0
125	0x80000000	-0.0
126	0x80000000	-0.0
127	0x80000000	-0.0
128	0x00000000	0.0
129	0x00000000	0.0
130	0x00000000	0.0
131	0x80000000	-0.0
132	0x80000000	-0.0
133	0x00000000	0.0
134	0x80000000	-0.0
135	0x00000000	0.0
136	0x3d758ebf	0.059950586
137	0x3e9a46a1	0.3013201
138	0x3df5526b	0.119786106
139	0x3e77f659	0.24215068
140	0x3d6f53bb	0.05842946
141	0xbaa8b50f	-0.0012871342
142	0x3dcfda4d	0.101490594
143	0xbd897358	-0.06711453
144	0xbdd23d48	-0.10265595
145	0xbc5a841a	-0.0133371595
146	0xbd416b31	-0.047221366
147	0x3b7b156e	0.0038312334
148	0x80000000	-0.0
149	0x80000000	-0.0
150	0x00000000	0.0
151	0x00000000	0.0
152	0x80000000	-0.0
153	0x80000000	-0.0
154	0x00000000	0.0
155	0x00000000	0.0
156	0x00000000	0.0
157	0x00000000	0.0
158	0x00000000	0.0
159	0x80000000	-0.0
160	0x3de996c2	0.11405708
161	0xbdb50651	-0.088390954
162	0x3e9e740a	0.30947906
163	0x3c63b7fc	0.013898846
164	0x00000000	0.0
165	0x80000000	-0.0
166	0x00000000	0.0
167	0x00000000	0.0
168	0x3c13b671	0.009015665
169	0x3d2f7a7c	0.04284142
170	0xbde21c2e	-0.11040531
171	0xbe69323b	-0.22773068
172	0x3abdd957	0.0014484328
173	0x00000000	0.0
174	0x37fddc2a	3.0262472e-05
175	0x37d0fd9f	2.4913634e-05
176	0x80000000	-0.0
177	0x80000000	-0.0
178	0x80000000	-0.0
179	0x00000000	0.0
180	0x3d443b0f	0.047907885
181	0x3d5595a2	0.052144654
182	0x3c9bfdda	0.019041944
183	0x3df482f3	0.11939039
184	0x80000000	-0.0
185	0x3e169fef	0.14709447
186	0xbd0af5ae	-0.033925705
187	0xbdd675d5	-0.104716934
188	0x80000000	-0.0
189	0x80000000	-0.0
190	0x80000000	-0.0
191	0x80000000	-0.0
192	0x3ecfb1a1	0.40565208
193	0x3e049fdc	0.12951607
194	0x3e3278d6	0.17428908
195	0x3e1ec80e	0.15506002
196	0x00000000	0.0
197	0x00000000	0.0
198	0x00000000	0.0
199	0x00000000	0.0
200	0x3e08b5ba	0.13350573
201	0x3e04c2dd	0.1296496
202	0x00000000	0.0
203	0xbdbf437d	-0.09339044
204	0x3db26ec1	0.08712531
205	0x3e2bb2ab	0.16767375
206	0xbe5a55e5	-0.21321829
207	0xbdd23b6d	-0.10265241
208	0x00000000	0.0
209	0x80000000	-0.0
210	0x00000000	0.0
211	0x80000000	-0.0
212	0xbc428b7d	-0.011874077
213	0xbdb19d18	-0.086725414
214	0x3cdf4009	0.027252214
215	0xbd9f8b28	-0.07790214
216	0x00000000	0.0
217	0x80000000	-0.0
218	0x00000000	0.0
219	0x80000000	-0.0
220	0x00000000	0.0
221	0x00000000	0.0
222	0x80000000	-0.0
223	0x00000000	0.0
224	0x3a0b8759	0.00053225976
225	0x3b0b313a	0.0021239058
226	0xb88434e2	-6.304101e-05
227	0x3aef8cff	0.0018276273
228	0x3e5661e2	0.20935777
229	0x3d87ad2a	0.06624825
230	0xbbce6af0	-0.006299369
231	0xbe0e635d	-0.13905092
232	0x00000000	0.0
233	0x80000000	-0.0
234	0x00000000	0.0
235	0x00000000	0.0
236	0x00000000	0.0
237	0x00000000	0.0
238	0x00000000	0.0
239	0x80000000	-0.0
240	0x80000000	-0.0
241	0x80000000	-0.0
242	0x80000000	-0.0
243	0x80000000	-0.0
244	0x00000000	0.0
245	0x80000000	-0.0
246	0x80000000	-0.0
247	0x00000000	0.0
248	0x00000000	0.0
249	0x80000000	-0.0
250	0x00000000	0.0
251	0x00000000	0.0
252	0x80000000	-0.0
253	0x80000000	-0.0
254	0x80000000	-0.0
255	0x80000000	-0.0

encoder.4.bias f4 [32]
0	0x00000000	0.0
1	0x00000000	0.0
2	0x80000000	-0.0
3	0x00000000	0.0
4	0xaf8d1e3b	-2.566923e-10
5	0x80000000	-0.0
6	0xbd1debbe	-0.0385549
7	0xbcba3893	-0.022732055
8	0xba8122a1	-0.0009852239
9	0x00000000	0.0
10	0x80000000	-0.0
11	0x3a19c450	0.00058657397
12	0x80000000	-0.0
13	0x80000000	-0.0
14	0xbb7b18d4	-0.003831436
15	0x3a10c16c	0.0005521986
16	0x00000000	0.0
17	0xb4dcbd23	-4.1115808e-07
18	0x00000000	0.0
19	0x00000000	0.0
20	0x3bb5b643	0.005545409
21	0x00000000	0.0
22	0x3d32d3c2	0.04365898
23	0x00000000	0.0
24	0x3c217776	0.009855142
25	0xaf4d0aed	-1.8648523e-10
26	0xb1b8ac91	-5.3747233e-09
27	0x00000000	0.0
28	0x00000000	0.0
29	0x80000000	-0.0
30	0x00000000	0.0
31	0x00000000	0.0

encoder.6.weight f4 [16, 32, 3, 3]
0	0xbd125694	-0.0357271
1	0xbcef4d44	-0.029211648
2	0xbd1beebe	-0.03806948
3	0x3d85c48d	0.0653163
4	0x3df0cff9	0.11758418
5	0x3e0fd347	0.1404544
6	0x3e2ee672	0.17080095
7	0x3da484a5	0.080331124
8	0x00000000	0.0
9	0x00000000	0.0
10	0xbda2f9fa	-0.079578355
11	0xbe7e03ca	-0.24806133
12	0x00000000	0.0
13	0x00000000	0.0
14	0x3dcfa4e9	0.10138876
15	0x3d7c6d7c	0.06162785
16	0x00000000	0.0
17	0x3e89b678	0.26897025
18	0x00000000	0.0
19	0x00000000	0.0
20	0x00000000	0.0
21	0x00000000	0.0
22	0x80000000	-0.0
23	0x80000000	-0.0
24	0x80000000	-0.0
25	0x80000000	-0.0
26	0x00000000	0.0
27	0xbd6a9c30	-0.05727786
28	0x3db712e6	0.089391515
29	0xbd070917	-0.032967653
30	0x3c93a279	0.018021809
31	0x3de9b89c	0.114121646
32	0x3dc921de	0.09820913
33	0x3d33c969	0.04389325
34	0x3d0b7cd0	0.034054577
35	0xbc33993d	-0.010961828
36	0x9071d0af	-4.7689634e-29
37	0x1196a728	2.3768845e-28
38	0x1875eb94	3.1784444e-24
39	0x8eeae2d5	-5.7903885e-30
40	0x8eb90ffd	-4.5621417e-30
41	0x9ebb574e	-1.9835504e-20
42	0x930386ad	-1.6600925e-27
43	0x1e76d01d	1.3066168e-20
44	0x0f397434	9.143584e-30
45	0xbbeb977b	-0.0071896887
46	0x80000000	-0.0
47	0x3e5ec6f0	0.21755576
48	0x00000000	0.0
49	0x3da40e96	0.080105945
50	0x3e64d6da	0.22347584
51	0x3e0d3d33	0.13792877
52	0x3c1b50c5	0.009479706
53	0xbec10deb	-0.3770593
54	0x00000000	0.0
55	0xbdd75af5	-0.105153956
56	0x00000000	0.0
57	0x00000000	0.0
58	0x3e00715c	0.12543243
59	0x00000000	0.0
60	0x00000000	0.0
61	0x3d008532	0.031377025
62	0x80000000	-0.0
63	0x3d03e410	0.03219992
64	0xbc2c405c	-0.010513391
65	0xbdd270f6	-0.10275452
66	0x3e42f54e	0.19038889
67	0x3e2d468f	0.16921447
68	0x3d0979f5	0.033563573
69	0xbd123adc	-0.035700664
70	0x3c8077c5	0.01568211
71	0xbccffc9b	-0.025389006
72	0xbe8915e3	-0.2677451
73	0xbda58757	-0.08082455
74	0xbe328b26	-0.17435893
75	0x3e29ac68	0.16569674
76	0x3df6a1d1	0.12042583
77	0x3da6509e	0.08120845
78	0x3dccf425	0.100075044
79	0x3da1f846	0.079086825
80	0x3e28bfb6	0.16479382
81	0x00000000	0.0
82	0x00000000	0.0
83	0x80000000	-0.0
84	0x00000000	0.0
85	0x00000000	0.0
86	0x80000000	-0.0
87	0x00000000	0.0
88	0x80000000	-0.0
89	0x00000000	0.0
90	0x00000000	0.0
91	0x00000000	0.0
92	0x00000000	0.0
93	0x00000000	0.0
94	0x00000000	0.0
95	0x80000000	-0.0
96	0x00000000	0.0
97	0x80000000	-0.0
98	0x00000000	0.0
99	0xbe5203ad	-0.20509215
100	0x00000000	0.0
101	0xbe7dfaee	-0.24802753
102	0x3e19a414	0.15003997
103	0x3dd76cad	0.10518775
104	0x3ce76a91	0.028249057
105	0x3e4ccd3b	0.20000164
106	0x3ddabda4	0.10680702
107	0x3e48fb50	0.19627118
108	0x2d48a45c	1.1405179e-11
109	0x30d2cf84	1.533849e-09
110	0x268d59d1	9.808185e-16
111	0x2ad00e01	3.695794e-13
112	0x2f0d6b47	1.2861988e-10
113	0x1e743c41	1.2929713e-20
114	0x226e1b03	3.2269315e-18
115	0x2965694d	5.093955e-14
116	0x80049dac	-4.23904e-40
117	0x00000000	0.0
118	0x80000000	-0.0
119	0x80000000	-0.0
120	0x80000000	-0.0
121	0x80000000	-0.0
122	0x80000000	-0.0
123	0x00000000	0.0
124	0x80000000	-0.0
125	0x80000000	-0.0
126	0x39321cf1	0.00016986184
127	0x3a8adcdf	0.0010594389
128	0x399c2895	0.00029784875
129	0xbac74bbe	-0.0015205068
130	0xb90aca3e	-0.00013236047
131	0xba39079b	-0.0007058323
132	0xbbe6802a	-0.0070343213
133	0xbbc87162	-0.006117032
134	0xbbcf4719	-0.006325614
135	0x00000000	0.0
136	0xbc9f9461	-0.019479932
137	0x00000000	0.0
138	0x3dfec42f	0.12439763
139	0x00000000	0.0
140	0x3decbff2	0.11560048
141	0x00000000	0.0
142	0x3ddb0a1c	0.106952876
143	0x00000000	0.0
144	0xbddf35dd	-0.108989455
145	0xbe82b1c5	-0.25526252
146	0x00000000	0.0
147	0x3d2ac1d4	0.041688755
148	0x3d8dc04a	0.06921442
149	0x3da7034d	0.081549264
150	0x00000000	0.0
151	0x3cf464f4	0.029833294
152	0x00000000	0.0
153	0xb3426a35	-4.526574e-08
154	0x349c7218	2.9140278e-07
155	0x33e2c58c	1.0559879e-07
156	0x3296d07a	1.7557102e-08
157	0xb26cac8f	-1.3776243e-08
158	0x31abe2aa	5.0025237e-09
159	0xaff1ded4	-4.3995974e-10
160	0x00000000	0.0
161	0x305108d6	7.6046314e-10
162	0xbe9202c6	-0.2851774
163	0xbe37abda	-0.1793665
164	0xbe772df2	-0.2413862
165	0x3e5b7128	0.21429884
166	0x3e0eb3a0	0.13935709
167	0x3d8713cd	0.065955736
168	0x3e8016ab	0.25017294
169	0x3d82fd8c	0.063960165
170	0x3dcd2a60	0.10017848
171	0x00000000	0.0
172	0x3d35446d	0.04425471
173	0x80000000	-0.0
174	0x00000000	0.0
175	0x3dcd8013	0.10034194
176	0x00000000	0.0
177	0x80000000	-0.0
178	0xbdb22b40	-0.086996555
179	0x00000000	0.0
180	0xbded3ae3	-0.115834974
181	0xbe3be773	-0.1835001
182	0xbdb22fb7	-0.08700507
183	0x3e021265	0.1270233
184	0x3e2f6e94	0.17132026
185	0x3e6508c3	0.22366624
186	0x3d8204b7	0.063485555
187	0x3d9d34e3	0.07676103
188	0x3e87a629	0.26493958
189	0x80000000	-0.0
190	0x00000000	0.0
191	0x00000000	0.0
192	0x80000000	-0.0
193	0x80000000	-0.0
194	0x80000000	-0.0
195	0x80000000	-0.0
196	0x00000000	0.0
197	0x80000000	-0.0
198	0xbd779106	-0.06044104
199	0xbc94ecc5	-0.018179307
200	0xbd7d4ae5	-0.061839003
201	0x3daefca8	0.08544284
202	0xbe828499	-0.2549179
203	0xbe1ef9c6	-0.15524969
204	0x3e6fde22	0.2342458
205	0x3d9c2e25	0.07625989
206	0x3dc775c5	0.0973926
207	0x3c9e1888	0.019298807
208	0x80000000	-0.0
209	0xbd0493d4	-0.032367542
210	0x3e24954f	0.16072582
211	0x3db241da	0.087039664
212	0x00000000	0.0
213	0x3eaaf8e3	0.3339301
214	0x3d2cac4a	0.042156495
215	0x3e98ba54	0.29829657
216	0xbd54c453	-0.051945042
217	0xbd2ee0b7	-0.042694774
218	0xbe30484b	-0.17215078
219	0x3da53513	0.08066764
220	0x3d4825a4	0.048864022
221	0xbc83f22f	-0.016106693
222	0x3d456612	0.048193045
223	0xbcaf9645	-0.021433959
224	0xbdfd7c57	-0.123772316
225	0x9b3113f2	-1.4647542e-22
226	0x80000000	-0.0
227	0x9acabcea	-8.385045e-23
228	0x00000000	0.0
229	0x1a38047a	3.8053924e-23
230	0x9929f8e4	-8.787358e-24
231	0x1b34f7cd	1.496932e-22
232	0x9a61be7c	-4.668278e-23
233	0x1b5a5efe	1.8063231e-22
234	0xaea472db	-7.478259e-11
235	0xadf079a2	-2.7338857e-11
236	0x0cc0fbcb	2.9733826e-31
237	0xac36ee61	-2.5996082e-12
238	0xae14a9a0	-3.380196e-11
239	0x8e83f358	-3.2528325e-30
240	0xaea26fd7	-7.386774e-11
241	0xb0b8f15b	-1.3456359e-09
242	0xa76e31f0	-3.3056206e-15
243	0x80000000	-0.0
244	0x80000000	-0.0
245	0x80000000	-0.0
246	0x00000000	0.0
247	0x00000000	0.0
248	0x80000000	-0.0
249	0x80000000	-0.0
250	0x00000000	0.0
251	0x80000000	-0.0
252	0xbe7d05b2	-0.24709204
253	0xbdb1ae75	-0.08675853
254	0xbda159bd	-0.07878444
255	0x3dc25667	0.09489136

encoder.6.bias f4 [16]
0	0xbc87ba88	-0.016568437
1	0x00000000	0.0
2	0x3cbb6122	0.022873465
3	0x3d95344b	0.07285365
4	0xbd6556f8	-0.055991143
5	0x80000000	-0.0
6	0x3cc7a4c7	0.024370564
7	0x3d2dd2c1	0.04243732
8	0x00000000	0.0
9	0x80000000	-0.0
10	0x3d01ca6a	0.031687178
11	0x3de99ca5	0.11406831
12	0x3d06aa75	0.032877404
13	0x3c901a0f	0.01759055
14	0x3b800dbc	0.0039078873
15	0xbc9b8dcb	-0.01898851

encoder.9.weight f4 [8, 16, 3, 3]
0	0xbd82e23d	-0.06390808
1	0xbc8d6583	-0.017260319
2	0x3d286871	0.041115228
3	0x3e3fdaca	0.18735805
4	0xbcaf18df	-0.021374164
5	0xbd6229ce	-0.05521565
6	0x3d147706	0.036246322
7	0x3cc48344	0.023988374
8	0x3d1ddcaa	0.03854052
9	0x80000000	-0.0
10	0x00000000	0.0
11	0x80000000	-0.0
12	0x00000000	0.0
13	0x80000000	-0.0
14	0x80000000	-0.0
15	0x80000000	-0.0
16	0x00000000	0.0
17	0x00000000	0.0
18	0xbd8b7784	-0.06809905
19	0xbcc4ea74	-0.024037577
20	0xba103ac4	-0.0005501921
21	0x3d1d25b8	0.03836605
22	0xb8edf3b8	-0.00011346437
23	0xbac99114	-0.001537832
24	0x3e8603b5	0.26174703
25	0xbc460e37	-0.01208835
26	0x3d900a19	0.07033176
27	0xbb0235cf	-0.0019868498
28	0x3d996595	0.07490078
29	0x3dbcb6f5	0.09214584
30	0x80000000	-0.0
31	0x3dc5a9c0	0.09651518
32	0xbea7be78	-0.32762504
33	0x3e1d9407	0.15388499
34	0x3db4ca11	0.088276036
35	0x3c33ded7	0.010978422
36	0x80000000	-0.0
37	0xbda1fc85	-0.079094924
38	0x3cfb1828	0.030651167
39	0x3d449552	0.047993965
40	0x3d003e52	0.031309433
41	0x80000000	-0.0
42	0x3e9b5bf6	0.30343598
43	0xbe4de328	-0.20106184
44	0xbcc384ac	-0.023866974
45	0x3d307e0c	0.043088958
46	0x3c53bac7	0.012922949
47	0x00000000	0.0
48	0x80000000	-0.0
49	0x3cdb421d	0.026764924
50	0x3c33ea3f	0.010981142
51	0x3e2f7b90	0.17136979
52	0xbd8b20fe	-0.06793402
53	0xbca842d3	-0.020539677
54	0x3d9fc72e	0.078016624
55	0xbddc880f	-0.107681386
56	0xbddc9728	-0.10771018
57	0x3e083327	0.13300763
58	0xbdb75af0	-0.08952892
59	0xbdb851dd	-0.08999989
60	0x3e127e12	0.14305905
61	0x3e25aac3	0.16178422
62	0x3d81c6be	0.06336735
63	0xbc6e5dc5	-0.014548724
64	0xbbe723ba	-0.0070538195
65	0x3d5279d5	0.05138572
66	0x3d895b40	0.06706858
67	0xbd593945	-0.053033132
68	0x3b58dfcd	0.003309238
69	0x3e05a9ff	0.1305313
70	0xbcb1d7a6	-0.021709275
71	0xbab09a97	-0.0013473806
72	0x80000000	-0.0
73	0x80000000	-0.0
74	0x80000000	-0.0
75	0x80000000	-0.0
76	0x80000000	-0.0
77	0x00000000	0.0
78	0x80000000	-0.0
79	0x80000000	-0.0
80	0x80000000	-0.0
81	0x80000000	-0.0
82	0x80000000	-0.0
83	0x00000000	0.0
84	0x80000000	-0.0
85	0x00000000	0.0
86	0x80000000	-0.0
87	0x3ecc1972	0.39863163
88	0x3df5aeaf	0.11996209
89	0x3d4816de	0.048849933
90	0xbda4f28c	-0.08054075
91	0x80000000	-0.0
92	0x3e3562eb	0.17713515
93	0x3c395459	0.011311614
94	0x3dd3af81	0.10336209
95	0xbd7af4b7	-0.061268535
96	0x3df0498d	0.11732779
97	0xbcef668a	-0.0292237
98	0x3dbb6131	0.09149397
99	0x3ad7fdd7	0.0016478848
100	0xbd13d73c	-0.036093935
101	0xbb93d91e	-0.0045119664
102	0xbd082073	-0.03323407
103	0x3db0d49a	0.086343005
104	0xbd39fc1d	-0.04540645
105	0x3e56e1fc	0.20984644
106	0x3cabb9f8	0.0209627
107	0x3dbea3ce	0.09308587
108	0x3d30e9aa	0.04319159
109	0x3d42d08b	0.047562163
110	0x3d4700e5	0.048584837
111	0x3c961fac	0.01832565
112	0xbd68da10	-0.056848586
113	0xbd8e1ce0	-0.06939101
114	0x3eb6cccb	0.3570312
115	0xbd8fb115	-0.070161976
116	0x3e58ab84	0.21159178
117	0xbc83a6a1	-0.016070666
118	0x3c3c8d77	0.011508337
119	0xbd25958e	-0.04042583
120	0x3e09ee1c	0.13469738
121	0xbdc59cf5	-0.09649078
122	0x3d53439d	0.051578153
123	0x3e2b20f6	0.16711792
124	0xbdb4d5be	-0.088298306
125	0x3db9b9ff	0.09068679
126	0x3d30cde0	0.043165088
127	0x3ce9ee51	0.02855602
128	0x3da158b9	0.07878251
129	0x3e194512	0.14967754
130	0x3d7f8088	0.062378436
131	0x3e2ff6ba	0.17183962
132	0x3e31fd88	0.17381871
133	0xbbf2ac1e	-0.007405772
134	0x3c84ac63	0.016195482
135	0xbe3b90cb	-0.18316953
136	0xbe2d26f6	-0.16909394
137	0xbd6784e3	-0.056523215
138	0x3a789373	0.0009482421
139	0xbe1f63a5	-0.15565355
140	0xbd8be2f9	-0.06830401
141	0x80000000	-0.0
142	0xbe01e869	-0.12686314
143	0xbe2ef696	-0.17086253
144	0x80000000	-0.0
145	0x80000000	-0.0
146	0x00000000	0.0
147	0x00000000	0.0
148	0x00000000	0.0
149	0x80000000	-0.0
150	0x00000000	0.0
151	0x00000000	0.0
152	0x80000000	-0.0
153	0x80000000	-0.0
154	0x80000000	-0.0
155	0x80000000	-0.0
156	0x80000000	-0.0
157	0x80000000	-0.0
158	0x00000000	0.0
159	0x00000000	0.0
160	0x80000000	-0.0
161	0x80000000	-0.0
162	0x00000000	0.0
163	0x00000000	0.0
164	0x00000000	0.0
165	0x80000000	-0.0
166	0x00000000	0.0
167	0x00000000	0.0
168	0x80000000	-0.0
169	0x80000000	-0.0
170	0x80000000	-0.0
171	0x00000000	0.0
172	0x00000000	0.0
173	0x80000000	-0.0
174	0x00000000	0.0
175	0x00000000	0.0
176	0x80000000	-0.0
177	0x80000000	-0.0
178	0x80000000	-0.0
179	0x00000000	0.0
180	0x00000000	0.0
181	0x80000000	-0.0
182	0x00000000	0.0
183	0x80000000	-0.0
184	0x80000000	-0.0
185	0x80000000	-0.0
186	0x80000000	-0.0
187	0x00000000	0.0
188	0x80000000	-0.0
189	0x80000000	-0.0
190	0x00000000	0.0
191	0x00000000	0.0
192	0x80000000	-0.0
193	0x00000000	0.0
194	0x80000000	-0.0
195	0x80000000	-0.0
196	0x00000000	0.0
197	0x80000000	-0.0
198	0x80000000	-0.0
199	0x00000000	0.0
200	0x80000000	-0.0
201	0x00000000	0.0
202	0x00000000	0.0
203	0x80000000	-0.0
204	0x00000000	0.0
205	0x00000000	0.0
206	0x80000000	-0.0
207	0x80000000	-0.0
208	0x00000000	0.0
209	0x80000000	-0.0
210	0x00000000	0.0
211	0x00000000	0.0
212	0x00000000	0.0
213	0x00000000	0.0
214	0x00000000	0.0
215	0x00000000	0.0
216	0x00000000	0.0
217	0x80000000	-0.0
218	0x80000000	-0.0
219	0x00000000	0.0
220	0x00000000	0.0
221	0x80000000	-0.0
222	0x00000000	0.0
223	0x00000000	0.0
224	0x80000000	-0.0
225	0x00000000	0.0
226	0x00000000	0.0
227	0x80000000	-0.0
228	0x00000000	0.0
229	0x00000000	0.0
230	0x00000000	0.0
231	0x00000000	0.0
232	0x00000000	0.0
233	0x00000000	0.0
234	0x00000000	0.0
235	0x00000000	0.0
236	0x80000000	-0.0
237	0x00000000	0.0
238	0x00000000	0.0
239	0x80000000	-0.0
240	0x00000000	0.0
241	0x80000000	-0.0
242	0x00000000	0.0
243	0x00000000	0.0
244	0x00000000	0.0
245	0x80000000	-0.0
246	0x00000000	0.0
247	0x00000000	0.0
248	0x80000000	-0.0
249	0x00000000	0.0
250	0x00000000	0.0
251	0x00000000	0.0
252	0x00000000	0.0
253	0x80000000	-0.0
254	0x80000000	-0.0
255	0x00000000	0.0

encoder.9.bias f4 [8]
0	0x3d3ce08c	0.046112582
1	0x00000000	0.0
2	0x80000000	-0.0
3	0x3e5b5ca7	0.21422063
4	0x00000000	0.0
5	0x00000000	0.0
6	0x3ddc0c99	0.1074459
7	0xbd8440e4	-0.064576894

decoder.0.weight f4 [8, 128, 3, 3]
0	0xbccdb106	-0.025108825
1	0x80000000	-0.0
2	0x3cde779a	0.02715664
3	0x3dbaab7e	0.09114741
4	0x80000000	-0.0
5	0x3d917dfd	0.071041085
6	0x3c97fd7a	0.018553484
7	0x80000000	-0.0
8	0x3db3152d	0.08744273
9	0xbe0b088b	-0.13577478
10	0xbd3f60b7	-0.046723094
11	0x3d4aa5d5	0.049474556
12	0x00000000	0.0
13	0x80000000	-0.0
14	0x80000000	-0.0
15	0x3bf890e4	0.0075856317
16	0x80000000	-0.0
17	0x3db73811	0.08946241
18	0x80000000	-0.0
19	0x00000000	0.0
20	0x80000000	-0.0
21	0xbcc0c630	-0.023532003
22	0x3e28cc29	0.16484131
23	0x3d46002a	0.04834
24	0x80000000	-0.0
25	0x80000000	-0.0
26	0x80000000	-0.0
27	0xbe8e1ff0	-0.2775874
28	0x00089409	7.87789e-40
29	0xbdb0b0e5	-0.0862749
30	0xbcf294b6	-0.029611927
31	0x3d8a1797	0.06742781
32	0xbd53ac7d	-0.05167817
33	0x3e42d7f4	0.19027692
34	0x801393f7	-1.797954e-39
35	0x3d6aac24	0.057293072
36	0x3e51ef16	0.2050136
37	0x80000000	-0.0
38	0x00000000	0.0
39	0x80000000	-0.0
40	0x8015cd38	-2.002164e-39
41	0x80000000	-0.0
42	0x00000000	0.0
43	0x80000000	-0.0
44	0x00000000	0.0
45	0xbe8ea07b	-0.27856812
46	0x80000000	-0.0
47	0x80000000	-0.0
48	0xbd98b094	-0.074555546
49	0xbc1409be	-0.009035526
50	0x3e0d229a	0.1378273
51	0x3dd143a7	0.10217982
52	0x80000000	-0.0
53	0x3dc5aee7	0.096525006
54	0x00000000	0.0
55	0x3d88b89c	0.066758364
56	0x3d3db4d5	0.046315033
57	0x3ddfc5e8	0.109264195
58	0x3dd5a7f7	0.104324274
59	0xbe7ec907	-0.24881373
60	0x80000000	-0.0
61	0x3d279ab9	0.04091904
62	0x3d8fbce1	0.07018448
63	0x3d5f11a9	0.0544602
64	0x80000000	-0.0
65	0xbd550d02	-0.05201436
66	0x80000000	-0.0
67	0x00000000	0.0
68	0x80000000	-0.0
69	0xbd29402a	-0.041320957
70	0x80000000	-0.0
71	0x3e596604	0.21230322
72	0x80000000	-0.0
73	0xbe2f3b80	-0.17112541
74	0x80000000	-0.0
75	0x80000000	-0.0
76	0x80000000	-0.0
77	0xbc53c5b0	-0.01292555
78	0x80000000	-0.0
79	0x00000000	0.0
80	0x80000000	-0.0
81	0xbdd2e10b	-0.1029683
82	0x80000000	-0.0
83	0x3e0fd7ef	0.14047216
84	0x80000000	-0.0
85	0x80000000	-0.0
86	0x80000000	-0.0
87	0xbe74e041	-0.23913671
88	0x80000000	-0.0
89	0xbd687da8	-0.05676046
90	0x80000000	-0.0
91	0x80000000	-0.0
92	0x80000000	-0.0
93	0x80000000	-0.0
94	0x80000000	-0.0
95	0x80000000	-0.0
96	0x00000000	0.0
97	0xbc85b100	-0.016319752
98	0x80000000	-0.0
99	0xbe59f5de	-0.21285197
100	0xbe0ab67a	-0.13546172
101	0xbc73b890	-0.014875546
102	0xbe420bba	-0.18949786
103	0x00000000	0.0
104	0xbcbad24c	-0.022805355
105	0x3ec13f0c	0.37743413
106	0xbe8b09a7	-0.27155802
107	0xbe1f5cc7	-0.15562735
108	0x3dc9e087	0.09857278
109	0x3d69964f	0.05702811
110	0x00000000	0.0
111	0x3c26d6b3	0.010183024
112	0x80000000	-0.0
113	0x3e365a66	0.17807922
114	0x00000000	0.0
115	0x3df3f308	0.11911589
116	0x3d947f26	0.07250814
117	0x80000000	-0.0
118	0x00000000	0.0
119	0xbd11764e	-0.035513215
120	0x3e35dea0	0.17760706
121	0x00000000	0.0
122	0xbdd5b0c1	-0.10434104
123	0x80000000	-0.0
124	0x00000000	0.0
125	0xbcdca4a4	-0.026933976
126	0x80000000	-0.0
127	0x80000000	-0.0
128	0x80000000	-0.0
129	0x80000000	-0.0
130	0x3de9227f	0.11383533
131	0x80000000	-0.0
132	0x80000000	-0.0
133	0x00110d9f	1.56609e-39
134	0x00000000	0.0
135	0xbdb5721f	-0.088596575
136	0x00000000	0.0
137	0xbd8e2b23	-0.069418214
138	0x00000000	0.0
139	0x80000000	-0.0
140	0x00000000	0.0
141	0x3e15945e	0.14607379
142	0x00000000	0.0
143	0x3de6e28b	0.112736784
144	0x80000000	-0.0
145	0x80000000	-0.0
146	0x80000000	-0.0
147	0xbd0d5bf1	-0.03451151
148	0x80000000	-0.0
149	0xbd1d6e18	-0.03843507
150	0x80000000	-0.0
151	0x80000000	-0.0
152	0xbccb4a99	-0.024815844
153	0xbe358095	-0.17724831
154	0x80000000	-0.0
155	0x3e387763	0.18014292
156	0xbce27cf3	-0.027647471
157	0x80000000	-0.0
158	0xbcdf3a49	-0.027249472
159	0xbcbb6716	-0.022876304
160	0xbce123bf	-0.027482865
161	0xbe705a21	-0.23471881
162	0x3e8945ba	0.2681101
163	0xbe29fce8	-0.16600382
164	0x80000000	-0.0
165	0x80000000	-0.0
166	0x05477f77	9.3803466e-36
167	0x80000000	-0.0
168	0xbc49539c	-0.012288
169	0x3e0fcabc	0.14042181
170	0xbc258314	-0.010102052
171	0x80000000	-0.0
172	0xbc11cf07	-0.008899457
173	0x80000000	-0.0
174	0x3cc5121b	0.024056485
175	0x80000000	-0.0
176	0x80000000	-0.0
177	0x80000000	-0.0
178	0xbd02f809	-0.031974826
179	0x80000000	-0.0
180	0xbbff6109	-0.00779355
181	0x80000000	-0.0
182	0x3e261bbc	0.16221517
183	0xbdc63388	-0.096777976
184	0x80000000	-0.0
185	0xbcc0e6d5	-0.02354757
186	0x80000000	-0.0
187	0x00000000	0.0
188	0x3d1fbf3c	0.039000735
189	0xbe14a66e	-0.14516613
190	0x3d079039	0.033096526
191	0x3e67e4e4	0.22645909
192	0x80000000	-0.0
193	0x80000000	-0.0
194	0x80000000	-0.0
195	0x3c01d08a	0.007923255
196	0xbc9614b9	-0.018320428
197	0x80000000	-0.0
198	0x3e0dccf6	0.13847718
199	0x3d1af97f	0.037835594
200	0x00000000	0.0
201	0xbe341661	-0.17586662
202	0x80000000	-0.0
203	0x3d81b0fe	0.06332587
204	0xbd992d79	-0.07479376
205	0x3e602ea5	0.21892793
206	0x80000000	-0.0
207	0x3dcf3321	0.10117174
208	0x80000000	-0.0
209	0x3d178a17	0.036996927
210	0x80000000	-0.0
211	0x80000000	-0.0
212	0x80000000	-0.0
213	0x3d5eb15e	0.05436837
214	0xbc2a783e	-0.0104046445
215	0x3ca8bb35	0.02059708
216	0xbd10a7a1	-0.035316113
217	0x80000000	-0.0
218	0x80000000	-0.0
219	0x80000000	-0.0
220	0x00000000	0.0
221	0x00000000	0.0
222	0xbebc4fde	-0.36779684
223	0x80000000	-0.0
224	0x00000000	0.0
225	0xbe10e8e6	-0.14151344
226	0x00000000	0.0
227	0x3d4589cd	0.04822712
228	0x3db538c9	0.088487215
229	0x80000000	-0.0
230	0x80000000	-0.0
231	0x80000000	-0.0
232	0x80000000	-0.0
233	0x80000000	-0.0
234	0x80000000	-0.0
235	0x80000000	-0.0
236	0x80000000	-0.0
237	0xbc2fa8a2	-0.010721358
238	0x80000000	-0.0
239	0xbcc73af4	-0.024320103
240	0xbd4f1376	-0.05055567
241	0x80000000	-0.0
242	0x3e26a4ad	0.16273756
243	0xbe12cccb	-0.14335935
244	0xbcb9b8b4	-0.022671081
245	0x3d88d99a	0.06682129
246	0x3e1662c3	0.14686112
247	0x80000000	-0.0
248	0x80000000	-0.0
249	0x80000000	-0.0
250	0xbcc3795b	-0.023861578
251	0x80000000	-0.0
252	0xbe2b0ea0	-0.16704798
253	0x80000000	-0.0
254	0x80000000	-0.0
255	0x80000000	-0.0

decoder.0.bias f4 [128]
0	0x3e116251	0.14197661
1	0x36d512e2	6.350093e-06
2	0xb9955a84	-0.00028486934
3	0xbf2ffea1	-0.6874791
4	0xbe1c5c42	-0.15269569
5	0xbb44507c	-0.00299552
6	0xbf0aff4a	-0.5429579
7	0xbc29c627	-0.010362185
8	0x3f0a2003	0.53955096
9	0xbb2be30a	-0.0026227855
10	0xbcc7f271	-0.024407597
11	0x3b32f76a	0.0027308115
12	0x3f31225e	0.69193065
13	0x00000000	0.0
14	0xbf1f6204	-0.62258935
15	0xba2fec72	-0.00067109533
16	0xbd27882a	-0.04090134
17	0xbbcc9596	-0.006243418
18	0x80000000	-0.0
19	0x3f5e0f8b	0.86742467
20	0x3ef9a2ba	0.48756963
21	0x3ee3d99b	0.44501957
22	0xbb918e0b	-0.0044419817
23	0x3e7feb75	0.24992163
24	0xbde67240	-0.1125226
25	0xba80dd37	-0.0009831552
26	0x3f2a2b04	0.66471887
27	0x3ec99d68	0.39377904
28	0x3f3fb82f	0.74890417
29	0x00000000	0.0
30	0x3eca7b72	0.39547306
31	0x3e12d0af	0.14337419
32	0xbe89095f	-0.26764962
33	0x3f034de4	0.51290727
34	0x3ca4dc3d	0.020124549
35	0x3eb189e8	0.34675527
36	0x80000000	-0.0
37	0x3a7371fd	0.00092867
38	0xbb6b85b5	-0.003593785
39	0x3caaa86c	0.020832263
40	0x3f131480	0.57453156
41	0x00000000	0.0
42	0xbd60e523	-0.05490602
43	0xbe8477ef	-0.25872752
44	0x3ef1945f	0.4718351
45	0xbeb6e370	-0.35720396
46	0x00000000	0.0
47	0x3f38c804	0.721802
48	0xbc0e204c	-0.008674692
49	0xbb979ea1	-0.0046270643
50	0xbf12ab46	-0.5729259
51	0x3ecd40c3	0.40088472
52	0x3ddbd1cd	0.10733376
53	0x3e6736bc	0.22579473
54	0xbacae385	-0.0015479183
55	0x3e56ab99	0.20963897
56	0xbdffc83b	-0.12489363
57	0xbf06fcdb	-0.52729577
58	0x3f1b883a	0.6075474
59	0x3e8b50ec	0.27210176
60	0xbb63fe38	-0.0034788977
61	0xbe8d5ae7	-0.27608415
62	0xbd1b9042	-0.03797937
63	0x3f15695a	0.5836388
64	0x3ec5dc39	0.3864458
65	0xbe4bad29	-0.19890274
66	0x3cb78a3c	0.022404782
67	0xbe771a2f	-0.24131082
68	0x3f81b573	1.0133499
69	0xbb083e15	-0.0020788957
70	0x3edb64fb	0.4285048
71	0xbe9fc751	-0.31206754
72	0xbdcddf75	-0.10052387
73	0xbc2a342a	-0.010388413
74	0xbe321f4c	-0.17394751
75	0x3f15e1c9	0.58547646
76	0x00000000	0.0
77	0xbe69da8b	-0.22837274
78	0x96c9d74b	-3.260917e-25
79	0xbe8f5643	-0.279955
80	0x3eab8281	0.33498004
81	0xbd6a9ca0	-0.057278275
82	0xbb49e4b9	-0.0030806495
83	0xbe1fa049	-0.15588488
84	0x3e4aacea	0.19792524
85	0xbdf7d20a	-0.12100609
86	0x3ced744d	0.02898612
87	0xbed43d0f	-0.41452834
88	0x3eaf27d0	0.34210062
89	0x3ebe2068	0.371341
90	0xbcca3258	-0.024682209
91	0xba86085b	-0.0010225879
92	0xbd5550b4	-0.052078918
93	0x3c1f4f94	0.009723563
94	0xbdb08595	-0.08619229
95	0xbe7638dd	-0.24045129
96	0x00000000	0.0
97	0xbefe3f19	-0.49657515
98	0x3ee3b56b	0.44474348
99	0x3ecebb89	0.40377453
100	0x3e60acd7	0.21940933
101	0xb44cb4fc	-1.9064822e-07
102	0x3d4778fb	0.04869936
103	0x00000000	0.0
104	0xbdd5a1fe	-0.10431288
105	0x3eac1855	0.33612314
106	0xbdace2fd	-0.08441732
107	0x00000000	0.0
108	0x80000000	-0.0
109	0x3ecf39f6	0.40473908
110	0xbc0836ca	-0.008313844
111	0x3e80efe4	0.25183022
112	0x3f10251b	0.5630662
113	0x3de9938e	0.11405097
114	0x00000000	0.0
115	0xbef01fbf	-0.4689922
116	0xb9b7e61d	-0.00035075928
117	0xbabb5333	-0.0014291763
118	0x3f306424	0.689028
119	0x3f1b41e1	0.606474
120	0xbe93ff81	-0.28905872
121	0x3e678f44	0.22613245
122	0xbb5922e9	-0.003313238
123	0xbea691da	-0.3253315
124	0x81e00c62	-8.2302373e-38
125	0x3f379498	0.7171111
126	0xbd2e6e4a	-0.04258565
127	0x3f3041d4	0.68850446

decoder.2.weight f4 [128, 64, 2, 2]
0	0x00000000	0.0
1	0x3d52df56	0.05148252
2	0x00000000	0.0
3	0x3cf7cd58	0.030249283
4	0x3cf9e7e1	0.030506076
5	0xbcc9e3d4	-0.02464477
6	0xbda741f7	-0.08166879
7	0xbca4b7a6	-0.020107102
8	0x3a66346f	0.0008781617
9	0xbb2097db	-0.0024504575
10	0x00000000	0.0
11	0x3d2294e9	0.039692793
12	0x3d677b68	0.056514174
13	0x3ddd64f2	0.108102694
14	0xbe11a74f	-0.1422398
15	0xbc2e846c	-0.010651689
16	0xbcc1db39	-0.023664104
17	0x3a657898	0.00087536266
18	0x3c80358b	0.015650531
19	0x00000000	0.0
20	0x80000000	-0.0
21	0x3bcb1af8	0.0061982833
22	0xbdca1f77	-0.09869283
23	0x00000000	0.0
24	0x00000000	0.0
25	0x80000000	-0.0
26	0x00000000	0.0
27	0xbcfb53d8	-0.030679628
28	0x80000000	-0.0
29	0xbd5d3ec1	-0.054014925
30	0x80000000	-0.0
31	0x80000000	-0.0
32	0x80000000	-0.0
33	0xbd6e50e7	-0.058182623
34	0xbdce4251	-0.100712426
35	0x3d8d36d7	0.068952255
36	0x80000000	-0.0
37	0x00000000	0.0
38	0x80000000	-0.0
39	0xbd43586a	-0.04769174
40	0x80000000	-0.0
41	0xb9a426bf	-0.00031309386
42	0x80000000	-0.0
43	0x00000000	0.0
44	0x80000000	-0.0
45	0x80000000	-0.0
46	0xbd845e2f	-0.064632766
47	0x80000000	-0.0
48	0x80000000	-0.0
49	0x3dc8ef2c	0.098112434
50	0xbdb1f653	-0.08689561
51	0x3d1eb361	0.038745288
52	0x80000000	-0.0
53	0x3d2e7293	0.042589735
54	0xbd305d24	-0.043057576
55	0xbe24a18f	-0.16077255
56	0x00000000	0.0
57	0x3da32028	0.07965118
58	0x00000000	0.0
59	0x80000000	-0.0
60	0x80000000	-0.0
61	0x3c4e2e60	0.012584299
62	0x80000000	-0.0
63	0x3e04364f	0.12911342
64	0xbe507b68	-0.20359576
65	0xb88162f9	-6.1696344e-05
66	0xbbaf335d	-0.005346699
67	0x3c751469	0.014958479
68	0xbd3136f3	-0.043265294
69	0x3d974020	0.07385278
70	0x00000000	0.0
71	0x00000000	0.0
72	0x80000000	-0.0
73	0x3d3045c9	0.043035302
74	0x3ccfcb26	0.025365423
75	0x00000000	0.0
76	0x80000000	-0.0
77	0x00000000	0.0
78	0x80000000	-0.0
79	0x80000000	-0.0
80	0xbc3da1f3	-0.011574256
81	0x3d437b6a	0.04772512
82	0x00000000	0.0
83	0x00000000	0.0
84	0x80000000	-0.0
85	0xbd2b9095	-0.04188593
86	0x80000000	-0.0
87	0x80000000	-0.0
88	0x8006a2d8	-6.0943e-40
89	0x3c1382df	0.00900337
90	0x00000000	0.0
91	0x80000000	-0.0
92	0x3c69cdde	0.014270274
93	0xbd321b24	-0.043482915
94	0x00000000	0.0
95	0x80000000	-0.0
96	0xbd07c699	-0.03314838
97	0xbdb7d035	-0.08975259
98	0xbdcd1a39	-0.10014767
99	0x3d1294fc	0.035786614
100	0x3cfa6b25	0.030568669
101	0x00000000	0.0
102	0x00000000	0.0
103	0xbd0c9e5e	-0.03433072
104	0xbbaee849	-0.005337749
105	0x80000000	-0.0
106	0x00000000	0.0
107	0x3dfecd75	0.124415316
108	0xbcc167de	-0.023609098
109	0x3d32a385	0.043612976
110	0x3cf2962c	0.029612623
111	0xbd0856ce	-0.03328591
112	0x3c9f3923	0.019436425
113	0x00000000	0.0
114	0x00000000	0.0
115	0x80000000	-0.0
116	0xbdff95d6	-0.12479751
117	0xbce43a87	-0.02785994
118	0xbd9741cd	-0.073855974
119	0x3d342754	0.04398282
120	0xbd0b1995	-0.033959944
121	0xbd278d7e	-0.04090642
122	0x3cff2b9d	0.031148726
123	0xbe14d1d3	-0.14533167
124	0xbbbc9b52	-0.0057558203
125	0x3d3b3b75	0.045711
126	0xbd47c7cd	-0.04877453
127	0xbcd24551	-0.025667818
128	0x80000000	-0.0
129	0x00000000	0.0
130	0x80000000	-0.0
131	0xbd1bb7d3	-0.038017105
132	0xbce77111	-0.028252156
133	0xbe72701a	-0.23675576
134	0x80000000	-0.0
135	0xbc5837a0	-0.013196856
136	0x80000000	-0.0
137	0x3ae30e52	0.0017322993
138	0xbc8ebda5	-0.017424414
139	0x80000000	-0.0
140	0x80000000	-0.0
141	0x80000000	-0.0
142	0x3be6cfc9	0.007043813
143	0x80000000	-0.0
144	0x3d67f762	0.056632407
145	0xbb9109ce	-0.0044262176
146	0x3d6587d9	0.056037758
147	0x3e042e7e	0.1290836
148	0x80000000	-0.0
149	0x80000000	-0.0
150	0x00000000	0.0
151	0xbb86ee55	-0.004117767
152	0x3d19d403	0.037555706
153	0x3c6be097	0.014396808
154	0x80000000	-0.0
155	0xbd2eab51	-0.04264385
156	0x00000000	0.0
157	0x3cc13b1c	0.023587756
158	0xbd4761b3	-0.048677158
159	0xbc19684e	-0.009363247
160	0x00000000	0.0
161	0x00000000	0.0
162	0xbd76ab69	-0.060222063
163	0xbbcbc500	-0.0062185526
164	0x80000000	-0.0
165	0x3c26b8d4	0.010175902
166	0xbd9cfe92	-0.07665743
167	0xbc78b433	-0.015179682
168	0xbd28d569	-0.04121915
169	0x80000000	-0.0
170	0x80000000	-0.0
171	0x80000000	-0.0
172	0x00000000	0.0
173	0x80000000	-0.0
174	0x3d84d4d4	0.06485906
175	0x80000000	-0.0
176	0xbd2c06bd	-0.041998614
177	0xbd119a69	-0.035547648
178	0xbd0cdd11	-0.034390513
179	0x80000000	-0.0
180	0xbde8f7a0	-0.11375356
181	0x00088059	7.80726e-40
182	0x00000000	0.0
183	0x80000000	-0.0
184	0x00000000	0.0
185	0xbd9a6f1b	-0.07540723
186	0xbbaff7c8	-0.005370114
187	0x3c7831b5	0.01514857
188	0xbcf92f9e	-0.030418213
189	0x00000000	0.0
190	0x00000000	0.0
191	0xbd0e7453	-0.034778904
192	0x3dcb4dd4	0.09926954
193	0x00000000	0.0
194	0x3e460f16	0.19341692
195	0x3db7a0ee	0.08966242
196	0x00000000	0.0
197	0x00000000	0.0
198	0x80000000	-0.0
199	0x00000000	0.0
200	0x80000000	-0.0
201	0x80000000	-0.0
202	0x80000000	-0.0
203	0x80000000	-0.0
204	0xbae7fc92	-0.0017699173
205	0xbd91b9b7	-0.071155004
206	0xbe3e1a1a	-0.18564644
207	0x3b83f66a	0.0040271776
208	0x3d9af2ff	0.07565879
209	0xbaeb0351	-0.0017930066
210	0xbd14e5ef	-0.036352094
211	0xbb04c514	-0.002025907
212	0xbdea0812	-0.114273205
213	0x3dbc9c2c	0.09209475
214	0xbe8897d3	-0.26678333
215	0x00000000	0.0
216	0x80000000	-0.0
217	0xbcba7780	-0.02276206
218	0x3dcac3cb	0.09900626
219	0x3dbb8eb5	0.091580786
220	0xbd7adf6d	-0.06124823
221	0xbce77c62	-0.028257553
222	0xbe5e61ee	-0.21717045
223	0xbd93a069	-0.0720833
224	0x80000000	-0.0
225	0x80000000	-0.0
226	0x3d5c6c62	0.0538143
227	0xbd3a4723	-0.045477998
228	0xbd46351c	-0.048390493
229	0x00000000	0.0
230	0xbdf8abcb	-0.12142142
231	0x80000000	-0.0
232	0xbdb11697	-0.08646887
233	0x3da00630	0.0781368
234	0x80000000	-0.0
235	0x3d05c4eb	0.0326585
236	0x00000000	0.0
237	0x00000000	0.0
238	0x00000000	0.0
239	0x80000000	-0.0
240	0x00000000	0.0
241	0x80000000	-0.0
242	0x00000000	0.0
243	0x00000000	0.0
244	0x80000000	-0.0
245	0x00000000	0.0
246	0x80000000	-0.0
247	0xbdb353b1	-0.08756197
248	0x80000000	-0.0
249	0x80000000	-0.0
250	0x80000000	-0.0
251	0x3d2f67f4	0.042823747
252	0x80000000	-0.0
253	0x00000000	0.0
254	0x00000000	0.0
255	0xbc27e621	-0.010247738
