mnist_random_iter/end_of_1.pth (torch_old, 842197 bytes, 19 tensors)

encoder.0.weight f4 [128, 1, 3, 3]
-0.23707949 0.059200637 -0.034801546 -0.16755266 0.120916486 0.03182567 -0.17742787 0.05978475
0.211755 -0.10235963 0.059709746 0.00063523254 -0.06664541 0.044044204 0.107718416 -0.031048607
-0.01758412 0.14291051 -0.25151414 -0.15186025 0.13827603 -0.2256438 -0.049183793 0.22962831
-0.257667 -0.16321166 0.42593807 0.032562166 -0.025421785 0.11114708 0.15801835 0.14113559
0.025752489 -0.16397345 -0.22443941 -0.31344432 0.0016834227 -0.00071112195 -0.001941336 0.0012265799
0.00028982974 0.000509709 0.0013435518 0.0009654755 0.0024036835 -0.1865473 0.0052348003 0.17079589
-0.1969447 -0.040551156 0.17032094 -0.20346648 0.05825438 0.29324856 0.0065929717 0.017192898
0.0023052432 -0.0009582034 0.05138214 0.04725926 -0.03625327 0.058922984 0.064126566 -0.15225157
-0.037283655 -0.036732174 -0.083464205 -0.17344159 -0.1341271 -0.0564338 -0.14919774 -0.17716357
-0.10592101 0.021061372 0.33089474 -0.20950037 -0.045483664 0.33124092 -0.47940946 -0.097980864
0.16217515 -0.051291738 -0.024454426 -0.050173428 -0.00031321117 -0.011035416 -0.027469318 0.056861065
0.008110993 0.01313714 -0.15605728 -0.009804701 -0.06668037 -0.13598068 -0.06831647 -0.04804006
-0.0114310905 0.088826954 0.0846861 -0.10118993 0.019719139 -0.21122235 -0.23464382 -0.14902592
0.18853481 -0.2883637 -0.10237863 -0.22690395 -0.2597535 -0.18541399 0.087831646 0.046858214
0.17692354 0.39216986 -0.12960249 -0.020281328 0.26843065 -0.063840866 0.16990745 0.10782649
-0.011733625 0.15362026 0.16373467 -0.32182968 -0.11206524 -0.20963588 -0.32955074 -0.20296834
-0.12155173 -0.25432292 0.023456067 0.08596034 -0.19775948 0.2624093 0.44813737 -0.14949155
0.18677926 -0.08683301 -0.1946528 0.19705872 0.1646536 -0.24890082 -0.13069893 -0.22075598
-0.018592322 -0.0058635166 -0.13811393 0.11308991 0.05875182 -0.10799513 -0.018099701 -0.16391747
-0.20499772 -0.28864384 -0.009863261 -0.05778274 0.00669611 0.20445581 0.08860277 -0.16086361
0.08557044 -0.20264524 0.09850858 -0.010592841 0.14855376 -0.06860951 -0.043811742 0.14533076
0.003171683 -0.01583141 -0.105961606 0.5007272 0.24672619 -0.11302471 0.41763094 0.017461022
-0.19885059 0.02277509 -0.2532359 -0.22016501 -0.39528397 -0.03274014 -0.19960716 0.013836403
0.19497517 -0.067625396 -0.059698895 0.20735809 -0.111949295 0.022649147 0.14689395 0.07540045
-0.02415949 -0.048544034 -0.14630233 0.009150317 -0.14029114 -0.33063656 -0.059538096 0.033174917
0.02230844 0.0003666203 0.08464586 0.05001092 -0.05424345 0.014620168 -0.028678335 0.3082285
0.0637281 0.17413896 0.46492574 0.04830605 0.029283212 0.2986322 -0.103830166 0.073404625
0.24372095 0.14428346 0.21169867 0.24797441 0.09595436 0.1610072 0.21714611 0.0849095
0.20400214 -0.09316576 -0.08892744 -0.12747537 -0.095762424 0.2223831 0.025268625 0.1424229
-0.023386523 -0.15563375 0.17925039 -0.05463599 -0.11771437 0.18409762 -0.053704217 -0.0
0.100487284 0.0 0.0 2.112829e-17 -4.1455846e-15 -9.675287e-16 -6.843775e-14 -2.944654e-12
-7.4856117e-14 2.4971607e-15 -1.5688746e-14 7.666731e-17 -0.22650288 -0.09550642 -0.22812638 -0.11450923
00000000: f7c4 72be 5e7c 723d 118c 0ebd ed92 2bbe
00000010: 10a3 f73d a25b 023d a7af 35be dbe0 743d
00000020: 4dd6 583e eda1 d1bd 3592 743d bc85 263a
00000030: 647d 88bd b267 343d 799b dc3d a659 febc
00000040: 930c 90bc 2257 123e 76c6 80be 4181 1bbe
00000050: 3b98 0d3e 2b0f 67be f274 49bd af23 6b3e
00000060: eeec 83be f520 27be 8e14 da3e e85f 053d
00000070: 5941 d0bc 15a1 e33d 90cf 213e d985 103e
00000080: e2f6 d23c a8e8 27be 72d3 65be c67b a0be
00000090: 4ba6 dc3a 966a 3aba 6d74 feba 31c5 a03a
000000a0: 4af4 9739 fe9d 053a 1e1a b03a f717 7d3a
000000b0: 1e87 1d3b 4106 3fbe b088 ab3b 1ee5 2e3e
000000c0: dfab 49be f818 26bd 9d68 2e3e 8459 50be
000000d0: 259c 6e3d ad24 963e db09 d83b 1fd8 8c3c
000000e0: 9013 173b f12f 7bba 1476 523d ed92 413d
000000f0: 4f7e 14bd 3a59 713d ca54 833d d6e7 1bbe
00000100: bfb6 18bd 7a74 16bd 48ef aabd ac9a 31be
00000110: 9d58 09be 2127 67bd 4bc7 18be 5e6a 35be
00000120: 1ded d8bd e688 ac3c 096b a93e 4487 56be
00000130: 144d 3abd 6998 a93e 2875 f5be 31aa c8bd
00000140: 3e11 263e 4917 52bd a654 c8bc a782 4dbd
00000150: 7e36 a4b9 e4cd 34bc 5607 e1bc 26e7 683d
00000160: f8e3 043c 293d 573c 7bcd 1fbe e6a3 20bc
00000170: b88f 88bd 853e 0bbe 81e9 8bbd a7c5 44bd
00000180: 7849 3bbc e8ea b53d e86f ad3d ab3c cfbd
00000190: 088a a13c ac4a 58be 7846 70be 409a 18be
000001a0: 450f 413e 68a4 93be e3ab d1bd 8259 68be
000001b0: 69fe 84be 2add 3dbe 14e1 b33d 66ee 3f3d
000001c0: 722b 353e 7dca c83e 84b6 04be 0725 a6bc
000001d0: be6f 893e 00bf 82bd 38fc 2d3e 23d4 dc3d
000001e0: 643e 40bc a14e 1d3e 10aa 273e dcc6 a4be
000001f0: 7682 e5bd caaa 56be e0ba a8be efd6 4fbe
00000200: 1df0 f8bd 9d36 82be f026 c03c fa0b b03d
00000210: 7681 4abe 835a 863e 4372 e53e 5014 19be
00000220: 1043 3f3e 81d5 b1bd 1053 47be c3c9 493e
00000230: f49a 283e dbdf 7ebe f1d5 05be db0d 62be
00000240: ed4e 98bc be22 c0bb bd6d 0dbe af9b e73d
00000250: c0a5 703d 8d2c ddbd d345 94bc fbd9 27be
00000260: ecea 51be 20c9 93be 8499 21bc 98ad 6cbd
00000270: 0b6b db3b dd5c 513e 5e75 b53d 6eb9 24be
00000280: 8e3f af3d 3c82 4fbe debe c93d 988d 2dbc
00000290: 7a1e 183e 2583 8cbd f173 33bd 96d1 143e
000002a0: 03dc 4f3b e0b0 81bc 6602 d9bd a82f 003f
000002b0: caa5 7c3e 8079 e7bd b9d3 d53e 6b0a 8f3c
000002c0: 7d9f 4bbe d392 ba3c 23a8 81be f072 61be
000002d0: a962 cabe 861a 06bd d265 4cbe 15b2 623c
000002e0: 92a7 473e 2f7f 8abd d486 74bd ae55 543e
000002f0: ac45 e5bd b48a b93c 5e6b 163e 8d6b 9a3d
00000300: 1fea c5bc 1cd6 46bd 47d0 15be 36eb 153c
00000310: 7ba8 0fbe 3249 a9be 38de 73bd 6ce2 073d
00000320: 31c0 b63c f236 c039 cf5a ad3d 40d8 4c3d
00000330: 612e 5ebd 6e89 6f3c d4ee eabc 20d0 9d3e
00000340: e183 823d 7c51 323e bf0a ee3e 91dc 453d
00000350: 59e3 ef3c 52e6 983e e9a4 d4bd 2a55 963d
00000360: fc91 793e 0bbf 133e 89c7 583e 01ed 7d3e
00000370: b883 c43d 12df 243e 8d5b 5e3e 08e5 ad3d
00000380: f0e5 503e b1cd bebd 971f b6bd e788 02be
00000390: 171f c4bd 65b8 633e 2600 cf3c 4fd7 113e
000003a0: 1895 bfbc 745e 1fbe 6a8d 373e fdc9 5fbd
000003b0: 3b14 f1bd 1684 3c3e f4f8 5bbd 0000 0080
000003c0: 47cc cd3d 0000 0000 0000 0000 c4df c223
000003d0: 455c 95a7 826f 8ba6 ad1b 9aa9 2c36 4fac
000003e0: 9d8f a8a9 7cf0 3327 c94f 8da8 64c8 b024
000003f0: 5ff0 67be df98 c3bd f699 69be d183 eabd

encoder.0.bias f4 [128]
0.024917617 0.26628208 -0.12064543 -0.11867264 -0.005543257 0.07517704 0.2641043 -0.10639367
0.091138706 -0.043154567 -0.22604088 0.20297351 0.17758319 0.16799897 -0.008517696 0.47273588
-0.3112674 0.4531227 0.3763571 0.4050649 0.4349579 -0.24780287 0.35259736 0.2797838
0.19113024 0.24639562 0.23351568 -5.259865e-10 -0.36857444 -0.00031879428 0.23728968 -0.33889332
-0.042713508 -0.25516504 0.37566623 0.25315818 0.18070161 -0.19025941 0.11355916 -2.8956001e-06
0.53803605 0.3809482 0.4774836 -0.0032873207 -3.384008e-11 0.13007323 -5.614448e-13 -0.17606758
0.16372176 0.542453 0.27104077 0.30720347 0.28854737 0.23279294 -0.17913266 -3.0219649e-31
0.3301918 0.35696948 0.39256003 -0.11358558 -0.058666483 0.03881132 0.21977703 0.03571373
0.22760528 0.37097153 -0.34359354 0.1548658 -0.274122 -1.0576955e-12 -0.38527134 0.13939376
0.311385 0.28923893 0.24143343 -0.09005001 -0.00068402267 0.16897799 -1.5788971e-25 0.088891655
0.03315115 0.17318942 0.43317863 -0.005490689 0.13780226 -0.10988155 -0.014186981 0.44088995
0.11952044 -0.13725212 0.32480672 0.19098607 -0.036364444 -0.0023569586 0.48690027 0.21042792
-0.011563095 -0.059026282 -0.24221076 -0.07427311 0.33727264 -0.4812308 0.10973452 0.30565047
-0.059110537 0.109050676 -0.056256708 -0.25716177 -0.2978557 -2.0392612e-05 0.37436768 0.49253392
-5.9872025e-05 -0.40359774 0.30576625 0.6279664 -0.16271816 -0.326695 0.17272845 0.30699018
0.41212758 0.23361899 0.26523432 -2.6579225e-15 0.26145303 0.13599285 -0.22360674 0.19182494
00000000: 0820 cc3c 2056 883e f414 f7bd a40a f3bd
00000010: 36a4 b5bb 6cf6 993d ae38 873e ede4 d9bd
00000020: eea6 ba3d d8c2 30bd 4377 67be 4ad8 4f3e
00000030: 5ed8 353e ec07 2c3e ce8d 0bbc 700a f23e
00000040: 715e 9fbe b3ff e73e e1b1 c03e ab64 cf3e
00000050: cdb2 de3e 09c0 7dbe a487 b43e d23f 8f3e
00000060: a5b7 433e 224f 7c3e bc1e 6f3e 0295 10b0
00000070: cab5 bcbe d823 a7b9 11fc 723e 6d83 adbe
00000080: 5cf4 2ebd fea4 82be 5357 c03e f39d 813e
00000090: d809 393e 5dd3 42be b491 e83d 0852 42b6
000000a0: bbbc 093f a40b c33e bb78 f43e 1770 57bb
000000b0: 8bd4 14ae eb31 053e 5d08 1eab 0f4b 34be
000000c0: ada6 273e 33de 0a3f dbc5 8a3e c649 9d3e
000000d0: 7bbc 933e 4661 6e3e 8d6e 37be 0123 c48c
000000e0: e60e a93e b4c4 b63e a1fd c83e 8e9f e8bd
000000f0: 444c 70bd 9ef8 1e3d 3b0d 613e 8f48 123d
00000100: 5c11 693e fbef bd3e 7eeb afbe 2495 1e3e
00000110: b859 8cbe 7fdb 94ab 4942 c5be 3dbd 0e3e
00000120: db6d 9f3e 2017 943e 533a 773e 246c b8bd
00000130: fc4f 33ba 9108 2d3e 3f75 4396 d40c b63d
00000140: 80c9 073d 9158 313e 97c9 dd3e 3deb b3bb
00000150: 091c 0d3e 9409 e1bd 8370 68bc 54bc e13e
00000160: 22c7 f43d d28b 0cbe 114d a63e da91 433e
00000170: e2f2 14bd 3477 1abb fe4a f93e 6b7a 573e
00000180: 2373 3dbc 8bc5 71bd 1906 78be 801c 98bd
00000190: 00af ac3e e263 f6be 7ebc e03d 387e 9c3e
000001a0: e41d 72bd f655 df3d 6f6d 66bd b5aa 83be
000001b0: 8b80 98be cd10 abb7 1fad bf3e 682d fc3e
000001c0: 191f 7bb8 5da4 cebe 658d 9c3e 68c2 203f
000001d0: 979f 26be 9144 a7be badf 303e d12d 9d3e
000001e0: 6302 d33e d139 6f3e cbcc 873e 0486 3fa7
000001f0: 2cdd 853e b641 0b3e 2af9 64be c26d 443e

encoder.2.weight f4 [64, 128, 4, 4]
-4.9760053e-12 -0.0 -3.0115819e-12 -4.1418522e-12 -6.481454e-12 -4.936899e-12 -5.2011923e-12 -3.8365634e-12
-4.36099e-12 -1.6775343e-12 -0.0 -9.252803e-13 -2.9755564e-12 -6.493808e-13 -9.48706e-13 -3.7304618e-13
-0.0 -5.608687e-10 -0.0 -0.0 -1.0742204e-09 -0.0 -1.1691094e-09 -9.714827e-10
-1.3904423e-09 -0.0 -0.0 -1.1775322e-09 -0.0 -1.4951278e-09 -0.0 -1.1397886e-09
-0.0 -0.0 -0.0 -0.0 -0.0 -0.0 -0.0 -0.0
-0.0 -0.0 -0.0 -0.0 -0.0 -0.0 -0.0 -0.0
-0.0 -7.285936e-21 -3.4222457e-21 -0.0 -0.0 -0.0 -0.0 -4.1467518e-23
-0.0 -0.0 -0.0 -0.0 -0.0 -0.0 -0.0 -2.20032e-16
3.0115e-41 -0.0 -0.0 1.04185e-39 -1.90005e-39 -0.0 -1.721896e-39 1.29277e-40
1.307968e-39 -0.0 -0.0 8.47427e-40 -0.0 -0.0 1.376023e-39 -6.00648e-40
-0.0 -0.0 -0.0 -0.0 -0.0 -0.0 -1.1619781e-13 -0.0
-0.0 -0.0 -0.0 -2.3050485e-13 -0.0 -3.3265719e-12 -0.0 -0.0
-0.0 -2.9219533e-12 -1.771466e-12 -0.0 -5.2543347e-12 -6.684315e-12 -0.0 -0.0
-1.0391603e-11 -1.505919e-11 -1.6734463e-11 -0.0 -0.0 -2.6713985e-11 -2.6269719e-11 -1.9133027e-11
-1.2537521e-05 -1.7020417e-05 -2.1810938e-05 -2.6810802e-05 -7.2460016e-06 -9.178898e-06 -0.0 -1.3020065e-05
-5.074398e-06 -6.655024e-06 -8.244304e-06 -8.5729735e-06 -0.0 -0.0 -0.0 -0.0
-0.0 -2.7569556e-09 -1.0774551e-09 -0.0 -1.2159293e-08 -0.0 -0.0 -1.3020269e-09
-1.9317236e-08 -0.0 -1.0660511e-08 -3.657106e-09 -0.0 -1.0246132e-08 -1.482004e-08 -8.191761e-09
-6.328142e-39 -0.0 -0.0 -7.41519e-39 6.341786e-39 -0.0 -1.0057565e-38 7.08593e-39
-9.13074e-39 -0.0 1.0951197e-38 -0.0 -0.0 -0.0 -6.856077e-39 -7.066022e-39
-3.6105088e-35 2.104716e-36 -3.0219262e-34 -0.0 -0.0 -1.1323177e-36 -4.0259953e-35 -2.9946763e-35
-0.0 -0.0 1.4815051e-38 -0.0 4.1008163e-37 -2.6525078e-38 -0.0 -0.0
-0.00024214717 -0.0002471452 -0.00029368594 -0.00031948977 -0.0 -0.00020394426 -0.00023143746 -0.00022931217
-0.00016387308 -0.0001676487 -0.0 -0.0 -0.0001452347 -0.00015809684 -0.0 -0.00018009932
-0.0 -0.0 -0.0 -0.0 -0.0 -0.0 -0.0 -0.0
-0.0 -0.0 -0.0 -0.0 -0.0 -0.0 -0.0 -0.0
-0.0 -2.5690028e-09 -0.0 -2.3652058e-09 -3.121476e-09 -0.0 -2.6876874e-09 -1.6245753e-09
-0.0 -0.0 -1.0564275e-08 -0.0 -0.0 -0.0 -0.0 -2.1135635e-08
-2.8216286e-07 -2.3789725e-07 -0.0 -3.406913e-07 -0.0 -0.0 -0.0 -0.0
-0.0 -0.0 -0.0 -0.0 -0.0 -0.0 -0.0 -0.0
-0.00010419933 -0.0 -0.0 -0.0 -8.647368e-05 -0.0 -0.0 -0.0
-7.96322e-05 -0.0 -9.6558986e-05 -0.0 -7.668807e-05 -0.0 -0.00010152636 -0.0
00000000: df13 afac 0000 0080 d6eb 53ac 7dba 91ac
00000010: bf0b e4ac a2b3 adac 2d00 b7ac b1fc 86ac
00000020: 4e70 99ac 8b17 ecab 0000 0080 bc38 82ab
00000030: dc62 51ac d1c8 36ab bc84 85ab 9f01 d2aa
00000040: 0000 0080 a02b 1ab0 0000 0080 0000 0080
00000050: c5a3 93b0 0000 0080 61ae a0b0 0285 85b0
00000060: d719 bfb0 0000 0080 0000 0080 bbd6 a1b0
00000070: 0000 0080 227d cdb0 0000 0080 bfa6 9cb0
00000080: 0000 0080 0000 0080 0000 0080 0000 0080
00000090: 0000 0080 0000 0080 0000 0080 0000 0080
000000a0: 0000 0080 0000 0080 0000 0080 0000 0080
000000b0: 0000 0080 0000 0080 0000 0080 0000 0080
000000c0: 0000 0080 a0a0 099e ee49 819d 0000 0080
000000d0: 0000 0080 0000 0080 0000 0080 4d86 489a
000000e0: 0000 0080 0000 0080 0000 0080 0000 0080
000000f0: 0000 0080 0000 0080 0000 0080 fcad 7da5
00000100: f353 0000 0000 0080 0000 0080 4158 0b00
00000110: 91b0 1480 0000 0080 f2bf 1280 5f68 0100
00000120: 153e 0e00 0000 0080 0000 0080 483a 0900
00000130: 0000 0080 0000 0080 cbfb 0e00 5d8a 0680
00000140: 0000 0080 0000 0080 0000 0080 0000 0080
00000150: 0000 0080 0000 0080 bdd3 02aa 0000 0080
00000160: 0000 0080 0000 0080 0000 0080 40c3 81aa
00000170: 0000 0080 3116 6aac 0000 0080 0000 0080
00000180: 0000 0080 3b9d 4dac ca4f f9ab 0000 0080
00000190: d7de b8ac f52e ebac 0000 0080 0000 0080
000001a0: 9fcf 36ad 4876 84ad a932 93ad 0000 0080
000001b0: 0000 0080 8cfa eaad 2612 e7ad bf4b a8ad
000001c0: 3e58 52b7 11c7 8eb7 a2f6 b6b7 c2e7 e0b7
000001d0: ae22 f3b6 11ff 19b7 0000 0080 c170 5ab7
000001e0: bf44 aab6 394e dfb6 0451 0ab7 a4d4 0fb7
000001f0: 0000 0080 0000 0080 0000 0080 0000 0080
00000200: 0000 0080 e074 3db1 9515 94b0 0000 0080
00000210: 23e5 50b2 0000 0080 0000 0080 00f3 b2b0
00000220: 0def a5b2 0000 0080 6c25 37b2 7d50 7bb1
00000230: 0000 0080 f706 30b2 3a9b 7eb2 bfbb 0cb2
00000240: 49e8 4480 0000 0080 0000 0080 88be 5080
00000250: 520e 4500 0000 0080 6684 6d80 b128 4d00
00000260: ca6c 6380 0000 0080 7b3f 7700 0000 0080
00000270: 0000 0080 0000 0080 f4a7 4a80 32f1 4c80
00000280: b3f7 3f86 a80c 3304 69d7 c887 0000 0080
00000290: 0000 0080 64a7 c083 020f 5686 6c39 1f86
000002a0: 0000 0080 0000 0080 5652 a100 0000 0080
000002b0: 268b 0b03 906a 1081 0000 0080 0000 0080
000002c0: e3e8 7db9 4493 81b9 dcf9 99b9 3181 a7b9
000002d0: 0000 0080 dfd9 55b9 05ae 72b9 8473 70b9
000002e0: 58d5 2bb9 dbca 2fb9 0000 0080 0000 0080
000002f0: 254a 18b9 ccc6 25b9 0000 0080 0bd9 3cb9
00000300: 0000 0080 0000 0080 0000 0080 0000 0080
00000310: 0000 0080 0000 0080 0000 0080 0000 0080
00000320: 0000 0080 0000 0080 0000 0080 0000 0080
00000330: 0000 0080 0000 0080 0000 0080 0000 0080
00000340: 0000 0080 608a 30b1 0000 0080 2489 22b1
00000350: 9681 56b1 0000 0080 4cb2 38b1 a947 dfb0
00000360: 0000 0080 0000 0080 2c7e 35b2 0000 0080
00000370: 0000 0080 0000 0080 0000 0080 c18d b5b2
00000380: 2b7c 97b4 b370 7fb4 0000 0080 41e8 b6b4
00000390: 0000 0080 0000 0080 0000 0080 0000 0080
000003a0: 0000 0080 0000 0080 0000 0080 0000 0080
000003b0: 0000 0080 0000 0080 0000 0080 0000 0080
000003c0: 9785 dab8 0000 0080 0000 0080 0000 0080
000003d0: 3459 b5b8 0000 0080 0000 0080 0000 0080
000003e0: 3600 a7b8 0000 0080 b67f cab8 0000 0080
000003f0: 98d3 a0b8 0000 0080 8dea d4b8 0000 0080

encoder.2.bias f4 [64]
-0.00067598006 -0.0 -3.0470775e-09 7.60766e-40 -1.158713e-39 -1.0024917e-06 -0.0 4.48484e-40
-1.349193e-39 -0.0 -6.1828746e-07 -0.0001945916 -4.20884e-40 -5.5554836e-09 -1.292369e-39 1.551988e-39
1.141164e-39 -4.5456087e-21 8.859e-42 -0.0 -0.01825122 0.0 6.3258e-40 -4.2361724e-14
1.08005e-39 -1.0604623e-21 -1.550313e-39 -0.0019779098 0.0 0.054436274 -0.025578 5.37895e-40
-0.046077758 -0.0 0.031722046 -0.0023252903 -0.0 0.068579204 -3.546704e-10 -0.0
-0.023247994 -0.0015114896 -0.00089065044 0.042234432 0.008722217 -6.504769e-06 -0.0 -3.7150108e-16
0.060097486 0.044131864 0.039274182 -0.0022373355 0.03776784 5.48306e-40 -8.93465e-40 -0.0
-5.35921e-10 0.003848546 -9.271168e-10 9.51678e-40 -7.387941e-05 1.368242e-39 -9.35926e-40 -0.0
00000000: 4134 31ba 0000 0080 c164 51b1 b548 0800
00000010: 059e 0c80 5a8d 86b5 0000 0080 31e2 0400
00000020: 00b1 0e80 0000 0080 64f8 25b5 490b 4cb9
00000030: 4195 0480 8de2 beb1 9912 0e80 50e6 1000
00000040: 1a6d 0c00 6eba ab9d b218 0000 0000 0080
00000050: 9583 95bc 0000 0000 60e3 0600 bec7 3ea9
00000060: bdc2 0b00 a640 a09c a4e1 1080 d29f 01bb
00000070: 0000 0000 92f8 5e3d f488 d1bc 6fdb 0500
00000080: 08bc 3cbd 0000 0080 faee 013d e663 18bb
00000090: 0000 0080 4173 8c3d 6cfb c2af 0000 0080
000000a0: 9472 bebc 2d1d c6ba 8a7a 69ba 03fe 2c3d
000000b0: a1e7 0e3c 8a43 dab6 0000 0080 e227 d6a5
000000c0: c828 763d 9dc3 343d f7dd 203d 43a0 12bb
000000d0: 73b2 1a3d 74f8 0500 9eba 0980 0000 0080
000000e0: 1650 13b0 e337 7c3b 0cd8 7eb0 e45c 0a00
000000f0: b5ef 9ab8 1ae6 0e00 fb30 0a80 0000 0080

encoder.4.weight f4 [32, 64, 2, 2]
0.001706038 0.0028409243 0.001629416 0.0023936061 -7.57912e-40 -1.675976e-38 9.16417e-40 -1.1000489e-24
-7.0593295e-08 -1.8344555e-06 -1.2935508e-08 -2.8251762e-07 1.1073765e-38 1.781519e-38 -7.600052e-39 -1.0898822e-38
1.4636771e-38 1.4890612e-38 -4.4873828e-38 -2.8885966e-38 4.9586475e-08 3.7278712e-06 1.383666e-09 1.7511022e-07
1.9217886e-19 9.728156e-20 5.07121e-19 -1.2710701e-18 1.8588104e-38 2.608305e-38 2.7810332e-38 1.4445934e-38
3.300173e-39 3.031494e-38 -7.403526e-39 7.925828e-39 2.3248738e-09 1.8517627e-09 1.6634507e-09 -2.6486904e-10
1.3939347e-23 3.7352737e-24 6.850708e-24 2.0777965e-21 -2.4037365e-20 9.75911e-05 -2.1430782e-11 8.176805e-06
-1.5510699e-37 -5.147834e-38 -6.7491646e-38 -1.3042036e-38 3.5403275e-20 1.9665068e-21 -1.620258e-13 -4.874056e-14
-2.6866835e-38 -1.6682112e-38 -2.1142703e-38 -5.345114e-39 -1.8705196e-38 1.275077e-38 2.1941777e-38 3.4783283e-38
-2.2906465e-38 3.328131e-39 5.22246e-39 2.047557e-38 -3.9931863e-17 -6.097783e-20 -1.377488e-17 -2.725632e-21
2.9120602e-38 -5.071779e-38 7.663684e-39 -9.671725e-38 -0.2815389 -0.2955101 -0.35431513 0.057365853
0.0031031433 0.0033619385 0.0027285179 0.0029813657 7.509319e-38 1.500732e-38 2.9242313e-38 2.07672e-40
-7.3785696e-38 -5.50849e-38 -7.333787e-39 2.6668635e-38 1.6155735e-10 -7.2303266e-08 4.9826976e-11 -8.388264e-09
3.1782713e-38 1.9214771e-38 -6.73365e-39 -1.8751746e-38 -6.02783e-18 -1.2890069e-17 -4.6491557e-17 -7.350025e-17
8.219645e-39 -4.2468373e-38 1.9415172e-38 -2.9007842e-38 -0.0006360332 -2.94547e-05 -0.0007010537 0.00012284706
2.9793427e-38 1.1104885e-38 6.718702e-38 2.3052245e-38 0.07211216 0.07782152 -0.067420214 0.060149156
-0.21290825 -0.16158062 -0.098472774 -0.07247719 2.6489717e-38 5.996624e-38 4.971737e-38 1.0288301e-38
-0.03306492 0.06281568 0.09931163 0.1141893 4.69456e-40 -3.8131e-41 -2.62026e-40 2.6906e-40
0.064991534 0.20134398 0.16848236 0.09764024 -0.0014367687 0.00077011064 -0.000779814 0.0016378247
-0.017764267 -0.017874109 -0.017073665 -0.0170257 0.10407881 0.22756885 0.07465693 -0.033330996
0.00018799622 1.5311497e-06 1.9050873e-05 4.0897836e-18 5.94453e-31 7.1275197e-38 -1.0348159e-38 3.57121e-40
-0.024737505 -0.027727975 -0.02200496 -0.027457524 -0.0014522505 0.0007070827 -0.0054540955 -0.003288204
0.0021588972 2.3864644e-05 0.0031248191 -0.0025225196 0.05539042 -0.035658885 0.15109532 0.1531488
0.025243638 -0.00833794 0.07265629 0.08237795 -6.9392318e-06 -1.3661314e-05 -2.124126e-05 -5.6251778e-05
-2.9178742e-38 5.368458e-38 -2.7155483e-38 3.9286602e-38 -2.835726e-05 -2.289396e-05 -2.2696613e-05 -1.9313962e-05
0.03862999 -0.0020519039 0.059446786 0.033744283 -0.2545584 -0.06549792 0.17551841 0.13846482
0.013955129 0.09474778 0.03921574 0.15016595 7.3552674e-06 0.00048471658 7.171881e-06 0.00047432454
0.05500818 0.010720337 0.16427958 0.21548042 -1.1119965e-38 8.135753e-39 1.4279229e-38 -2.075232e-38
0.0 0.0 -4.6918917e-38 -0.0 -2.0646806e-09 -1.67149e-10 -1.7610716e-10 -2.025995e-12
3.5201008e-06 7.843168e-07 4.722699e-07 2.9399015e-08 0.06348434 0.034293067 0.115782365 0.09008959
2.1610767e-06 -0.0 -0.0 0.0 -3.900092e-39 -1.2505682e-38 7.544157e-39 4.264637e-39
-0.0016416047 0.00021809159 -0.0077888086 -0.0027591137 -1.4867344e-38 -1.5321076e-38 1.3857169e-38 1.9937127e-38
-5.9120014e-38 -2.857667e-38 -2.856347e-39 4.898614e-39 -4.4640992e-12 -5.5871622e-12 -1.1045932e-13 -4.7460066e-14
00000000: 239d df3a cd2e 3a3b 2192 d53a 0cde 1c3b
00000010: c040 0880 647f b680 99fa 0900 6d39 aa97
00000020: 1399 97b3 6937 f6b5 f73a 5eb2 edac 97b4
00000030: 2795 7800 80fd c100 dac1 5280 7bad 7680
00000040: 5d61 9f00 f824 a200 fd50 7481 2945 1d81
00000050: e8f8 5433 572c 7a36 6b2b be30 ee05 3c34
00000060: 7fe2 6220 18b3 e51f fbac 1521 ac93 bba1
00000070: 1268 ca00 7702 0e01 f269 1701 634d 9d00
00000080: 8aef 2300 dc0c 2501 059e 5080 fc4d 5600
00000090: 9dc3 1f31 1c81 fe30 789f e430 019d 91af
000000a0: 27d0 8619 5c80 9018 1083 0419 6efe 1c1d
000000b0: c806 e39e d3a9 cc38 d581 bcad 1c2f 0937
000000c0: e61e 5382 2b23 8c81 d0ba b781 e403 8e80
000000d0: ef2f 271f c695 141d c26c 36aa 0a82 5ba9
000000e0: e746 1281 f1a6 b580 4139 e680 0134 3a80
000000f0: 7aae cb80 f6d7 8a00 bfec ee00 d260 3d01
00000100: e86d f980 7a3d 2400 18de 3800 8ff5 de00
00000110: 3927 38a4 d6fa 8f9f 081a 7ea3 64f1 4d9d
00000120: 328c 1e01 2411 8a81 3c73 5300 0ba5 0382
00000130: de25 90be 1a4d 97be cb68 b5be 75f8 6a3d
00000140: 1b5e 4b3b f853 5c3b efd0 323b 0463 433b
00000150: 516c cc01 4d6a a300 d635 1f01 e842 0200
00000160: 20dd c881 93f4 9581 9ddb 4f80 a732 1101
00000170: 5aa2 312f 2445 9bb3 3024 5b2e fa1b 10b2
00000180: a30a 2d01 f73a d100 ad52 4980 3d30 cc80
00000190: 3f63 dea2 a1c7 6da3 8b67 56a4 e47a a9a4
000001a0: 0781 5900 4638 6781 9a69 d300 08ef 1d81
000001b0: 77bb 26ba 7d15 f7b7 ebc6 37ba 82d0 0039
000001c0: fa35 2201 e7eb 7800 85e6 b601 4804 fb00
000001d0: 8aaf 933d e460 9f3d 9c13 8abd f65e 763d
000001e0: 9f04 5abe 6475 25be 18ac c9bd ec6e 94bd
000001f0: 4739 1001 5f3e a301 f357 8701 9907 7000
00000200: 156f 07bd 82a5 803d e563 cb3d 14dc e93d
00000210: a71c 0500 4b6a 0080 6cda 0280 08ee 0200
00000220: 481a 853d 1e2d 4e3e a486 2c3e 9bf7 c73d
00000230: f551 bcba 40e1 493a 6f6c 4cba 47ac d63a
00000240: 5e86 91bc b96c 92bc 12de 8bbc 7b79 8bbc
00000250: 4527 d53d cf07 693e bce5 983d 1586 08bd
00000260: da20 4539 e781 cd35 70cf 9f37 eae2 9622
00000270: 39e9 400d 9007 c201 75ae 7080 82e3 0300
00000280: 4fa6 cabc c725 e3bc bf43 b4bc 9aee e0bc
00000290: 7159 beba 845b 393a 45b8 b2bb e97e 57bb
000002a0: 497c 0d3b ef30 c837 c4c9 4c3b db50 25bb
000002b0: 11e1 623d 0d0f 12bd bbb8 1a3e 0ad3 1c3e
000002c0: bfcb ce3c db9b 08bc d2cc 943d c5b5 a83d
000002d0: 8cd7 e8b6 e632 65b7 422f b2b7 e3ef 6bb8
000002e0: 3bdd 1e81 b124 9201 38d9 1381 88e5 5501
000002f0: c1e0 edb7 680c c0b7 9b64 beb7 6b04 a2b7
00000300: 7b3a 1e3d 3c79 06bb 797e 733d 7237 0a3d
00000310: 7b55 82be c623 86bd 19bb 333e b9c9 0d3e
00000320: 0ea4 643c 200b c23d afa0 203d 1ac5 193e
00000330: 44cd f636 8f21 fe39 fda5 f036 c3ae f839
00000340: 4250 613d 5aa4 2f3c e838 283e e6a6 5c3e
00000350: f015 7980 2b97 5800 ae7c 9b00 06f9 e180
00000360: 0000 0000 0000 0000 6d73 7f81 0000 0080
00000370: 3fe2 0db1 43c8 37af c2a1 41af 1591 0eac
00000380: df3a 6c36 d789 5235 488c fd34 1e89 fc32
00000390: 1404 823d e376 0c3d 4e1f ed3d e480 b83d
000003a0: 0407 1136 0000 0080 0000 0080 0000 0000
000003b0: df77 2a80 c12c 8880 0a26 5200 1370 2e00
000003c0: 1d2b d7ba 84af 6439 4339 ffbb 3fd2 34bb
000003d0: 1be4 a180 edd4 a680 26e4 9600 9918 d900
000003e0: a3f0 a081 1196 1b81 551a 1f80 5857 3500
000003f0: 0811 9dac af94 c4ac 76bb f8a9 bbbd 55a9

encoder.4.bias f4 [32]
0.0066853804 -0.026104266 0.0037097011 0.031115772 -0.0023818752 -0.048008148 0.0052891998 -7.589666e-14
0.05490147 -1.4680758e-08 -0.03020938 -7.4283704e-16 0.07340727 0.063314945 -4.0238102e-10 0.049406707
0.07960178 -0.0011702698 -0.022430353 0.06444122 -3.3961704e-05 0.0040155174 0.022463903 -0.012034167
-1.4137984e-23 0.025178747 -0.026637435 0.015712278 -0.0004352921 0.019625625 -0.0013715742 0.0016813297
00000000: 0911 db3b 9dd8 d5bc 751e 733b 81e6 fe3c
00000010: 3c19 1cbb 31a4 44bd 0651 ad3b 72e7 aaa9
00000020: 5de0 603d a836 7cb2 a979 f7bc b31b 56a6
00000030: 8d56 963d 44ab 813d 1836 ddaf b05e 4a3d
00000040: 4206 a33d bd63 99ba dcbf b7bc c2f9 833d
00000050: 1a72 0eb8 9a94 833b 3806 b83c f42a 45bc
00000060: f4bb 8899 a943 ce3c c036 dabc 09b7 803c
00000070: eb37 e4b9 ebc5 a03c 65c6 b3ba 1060 dc3a

encoder.6.weight f4 [16, 32, 3, 3]
0.0041646217 0.044381395 -0.12905288 0.10946399 0.10637651 -0.066920504 0.17830494 -0.010090803
-0.08721495 -0.0 0.0015400125 -0.018852744 -0.0 -0.0 0.086398244 0.16976528
-0.0 -0.14923513 0.047732785 -0.09259882 -0.08415501 -0.102353446 0.1373414 -0.109450795
0.105087385 0.13204755 -0.0048094327 0.18460341 0.075548634 -0.053905334 0.10457096 0.14266354
-0.095629975 0.35360655 0.10106474 0.07598743 -0.019770518 -0.1806047 0.00257987 0.13955298
0.026407331 0.057143107 0.1650967 -0.03130894 0.1449428 -0.008928906 -0.13472627 -0.17373596
0.0526435 -0.010436415 -0.24706712 -0.014463772 -0.14318255 -0.16274369 -0.0 0.016444076
-0.0 -0.0 0.11296474 0.0 -0.0 -0.0024768575 -0.0 4.9344394e-06
4.465476e-06 6.2641064e-18 6.416981e-13 4.3747272e-16 3.6543713e-24 1.5866914e-13 -3.7549814e-22 -2.123251e-26
0.072737716 -0.0018096851 -0.027210638 0.056566868 0.03216398 -0.039909665 0.0012816244 -0.09936519
-0.058407642 -2.7411867e-10 -8.399728e-11 3.0740954e-10 -4.0122358e-10 -1.1365613e-09 -1.5457977e-09 -9.008901e-11
4.4862544e-10 -4.4728102e-10 0.06882406 -0.03731785 -0.019134907 0.06291268 0.035115197 -0.013524424
0.12961428 -0.10455017 -0.01516712 6.968582e-17 -4.2985877e-17 -5.809275e-17 1.3757571e-16 5.2701655e-17
6.665394e-18 -6.0704485e-19 -7.679694e-18 4.7237146e-18 -0.19018935 -0.09785749 -0.07821718 0.15650122
0.021009028 -0.027319888 0.08904592 0.2930488 -0.008257384 0.22712502 0.09738741 -0.09963319
0.060266867 0.0 0.0 0.11976032 -0.1050439 -0.35537142 8.288194e-12 8.526822e-12
2.1098808e-11 7.897517e-16 6.514925e-13 1.4257533e-11 8.587047e-14 3.8513843e-13 1.7292964e-11 -0.0
-0.03169858 -0.0 0.055062048 -0.0 -0.0030263425 -0.0 -0.19241485 -0.0
0.123854905 0.07824443 0.0030355086 -0.09865073 0.03906472 0.11373088 -0.0 0.109871134
-0.0 0.052490186 -0.027151244 -0.08575145 0.08328928 0.11656723 -0.16361491 0.01609999
0.0023585435 -0.16240767 -0.04748357 -0.039790127 0.099186234 0.10001211 0.07154501 -0.12641335
0.048970684 0.08305829 -0.12758441 -0.0 0.03692228 -0.0 0.0 0.034752734
0.0 0.0 -0.0537452 -0.0 3.5642974e-14 6.116107e-15 1.3050875e-13 1.4544441e-13
-2.7425515e-13 -1.588111e-14 -2.762589e-14 6.959586e-14 -4.8628958e-14 0.06370906 0.033271857 -0.05481323
0.014585456 -0.0 -0.09263518 -0.18491791 -0.14870566 -0.29348108 0.0363954 0.15612066
-0.0011466949 0.1284962 0.3414182 0.107729964 0.3767028 0.36377487 -0.040950537 0.08025166
0.037894078 0.13273166 0.11166883 0.1002 0.0 -0.061254095 0.06524073 -0.15861051
-4.1714816e-22 -3.9092995e-22 -7.2831915e-22 -3.4468398e-24 -1.7735969e-22 -5.2498014e-22 -6.514704e-23 -1.2475319e-22
-3.0659532e-22 0.05382135 0.05740625 -0.21134745 0.019276055 0.043857496 -0.29441682 -0.11077643
-0.097864404 -0.25833014 -0.15447637 -0.11752508 -0.21921736 -0.1561409 -0.16387495 -0.18638825
-0.21970439 -0.1653427 -0.20703639 0.14852464 0.018082688 0.08545514 0.14560246 0.085753135
0.0074614575 -0.011472788 -0.09168742 -0.067118734 0.10755903 0.03674794 0.035042483 0.123165816
00000000: 6177 883b 44c9 353d 7026 04be a82e e03d
00000010: eddb d93d 9e0d 89bd 9295 363e e553 25bc
00000020: c09d b2bd 0000 0080 3fda c93a 1271 9abc
00000030: 0000 0080 0000 0080 90f1 b03d f3d6 2d3e
00000040: 0000 0080 18d1 18be 7483 433d 73a4 bdbd
00000050: 7659 acbd af9e d1bd 39a3 0c3e bd27 e0bd
00000060: 0e38 d73d 7937 073e 7298 9dbb ad08 3d3e
00000070: 3eb9 9a3d d7cb 5cbd 4d29 d63d 6416 123e
00000080: a6d9 c3bd eb0b b53e 08fb ce3d 4c9f 9b3d
00000090: c8f5 a1bc 70f0 38be 0913 293b fae6 0e3e
000000a0: 3054 d83c e40e 6a3d 1c0f 293e ce3d 00bd
000000b0: e36b 143e 8c4a 12bc aff5 09be d7e7 31be
000000c0: b6a0 573d 7ffd 2abc 2aff 7cbe 75f9 6cbc
000000d0: 729e 12be 48a6 26be 0000 0080 bab5 863c
000000e0: 0000 0080 0000 0080 0f5a e73d 0000 0000
000000f0: 0000 0080 c652 22bb 0000 0080 8392 a536
00000100: 26d6 9536 d01a e722 399f 342b 942f fc25
00000110: 245f 8d18 44a5 322a 86f9 e29b cf46 d294
00000120: 83f7 943d f532 edba d8e8 debc a9b2 673d
00000130: 61be 033d 5178 23bd 2efc a73a fa7f cbbd
00000140: da3c 6fbd c6b2 96af 44b6 b8ae 0c00 a92f
00000150: 3393 dcaf 3235 9cb0 ec73 d4b0 9b1b c6ae
00000160: 6ba2 f62f 35e5 f5af a1f3 8c3d 9ada 18bd
00000170: cfc0 9cbc 5dd8 803d f4d4 0f3d 8c95 5dbc
00000180: 9bb9 043e 661e d6bd 837f 78bc 3faf a024
00000190: c43c 46a4 e8f3 85a4 2f9d 1e25 220b 7324
000001a0: dee8 f522 032b 33a1 54aa 0da3 3946 ae22
000001b0: ffc0 42be 8269 c8bd 5430 a0bd db41 203e
000001c0: 201b ac3c f5cd dfbc b55d b63d 7e0a 963e
000001d0: fb49 07bc 7693 683e 0d73 c73d 7c0c ccbd
000001e0: 64da 763d 0000 0000 0000 0000 e644 f53d
000001f0: 4221 d7bd 3ef3 b5be b5ce 112d 6401 162d
00000200: 4b96 b92d 64a1 6326 fb60 372b 38d2 7a2d
00000210: f55c c129 4cd0 d82a 4b1c 982d 0000 0080
00000220: 5fd6 01bd 0000 0080 be88 613d 0000 0080
00000230: 9a55 46bb 0000 0080 6608 45be 0000 0080
00000240: a4a7 fd3d 9e3e a03d 62ef 463b 6509 cabd
00000250: 5402 203d bceb e83d 0000 0080 1e04 e13d
00000260: 0000 0080 f3ff 563d 496c debc 759e afbd
00000270: 9293 aa3d cdba ee3d ab8a 27be 20e4 833c
00000280: cb91 1a3b 324e 26be 227e 42bd f9fa 22bd
00000290: 2722 cb3d 26d3 cc3d 3186 923d 8072 01be
000002a0: 7c95 483d 771a aa3d 7da5 02be 0000 0080
000002b0: d13b 173d 0000 0080 0000 0000 e258 0e3d
000002c0: 0000 0000 0000 0000 ed23 5cbd 0000 0080
000002d0: 8d85 2029 215b dc27 96f0 122a 7fc1 232a
000002e0: 5564 9aaa 590b 8fa8 f7d4 f8a8 48b7 9c29
000002f0: 5f01 5ba9 e579 823d 1248 083d d683 60bd
00000300: d6f7 6e3c 0000 0080 83b7 bdbd 1f5b 3dbe
00000310: 4c46 18be 2743 96be 5813 153d 18de 1f3e
00000320: b24c 96ba 8294 033e 5ece ae3e 87a1 dc3d
00000330: 30df c03e b340 ba3e c0bb 27bd fb5a a43d
00000340: d236 1b3d cfea 073e a1b2 e43d a835 cd3d
00000350: 0000 0000 93e5 7abd ef9c 853d cb6a 22be
00000360: 8d26 fc9b 7b4d ec9b f71e 5c9c d957 8598
00000370: 2a6a 569b 5faa 1e9c 1184 9d9a 3ed1 169b
00000380: 5453 b99b c773 5c3d d122 6b3d 776b 58be
00000390: d1e8 9d3c eba3 333d cdbd 96be c1de e2bd
000003a0: 226d c8bd d943 84be 0e2f 1ebe fdb0 f0bd
000003b0: 847a 60be 66e3 1fbe d6ce 27be 90dc 3ebe
000003c0: 30fa 60be 994f 29be 5901 54be d816 183e
000003d0: 2522 943c 1b03 af3d d018 153e 579f af3d
000003e0: 3e7f f43b 5cf8 3bbc 9dc6 bbbd 8c75 89bd
000003f0: e947 dc3d 0285 163d b588 0f3d 5c3e fc3d

encoder.6.bias f4 [16]
0.0232259 0.04342612 -1.5947773e-12 -1.2922775e-06 0.052020505 0.0 -0.0066441586 0.027207576
0.07929337 -6.70071e-40 -4.856789e-09 -0.0044821403 -0.002389158 0.022643894 0.036563665 6.742639e-29
00000000: 3e44 be3c 96df 313d e871 e0ab 5172 adb5
00000010: 7413 553d 0000 0000 3eb7 d9bb 6ce2 de3c
00000020: 9064 a23d e34b 0780 c5e0 a6b1 ebde 92bb
00000030: 6b93 1cbb b07f b93c c8c3 153d 3bf2 aa10

encoder.9.weight f4 [8, 16, 3, 3]
-0.010067784 0.0102611985 0.10685865 -0.0062070545 0.1804435 0.17979191 -0.01205113 0.12862597
0.10093458 -0.06331477 -0.014823538 0.034027286 0.10276254 -0.06160111 0.13486786 0.14615941
-0.10719654 0.015186754 3.954844e-08 9.3426216e-08 1.0857847e-07 7.247861e-08 3.4317935e-07 3.3943817e-07
2.0629425e-07 6.9612224e-07 5.246594e-07 -0.0048335735 -0.0037138003 -0.0039441576 -0.0026537564 -0.0065127756
-0.0071346816 -0.013259015 -0.013692029 -0.014400455 -0.0 -0.031258598 0.001729203 0.007825922
-0.13401684 -0.02365399 -0.022445839 -0.40135968 -0.092976004 -0.024115982 -0.006152036 -0.0
-0.0 -0.12626226 -0.019239249 0.05110357 -0.12144036 0.0018817896 -0.004829001 -0.010241066
0.043357093 -0.018032989 0.0361489 -0.04253684 0.05612044 0.098866425 -0.019226924 -0.035618026
-0.056651115 0.028042337 0.024341013 -0.014294628 0.14476073 0.08345061 -0.079613306 0.0920303
-0.0 0.003263663 -0.018230498 -0.07686643 -0.06542402 0.105801746 -0.10806469 -0.05032198
0.20094502 2.58922e-40 7.987e-40 -6.8488e-40 6.92107e-40 4.35372e-40 7.9147e-41 1.193275e-27
4.5025336e-31 3.8992293e-29 -0.0036524518 -0.0032733078 -0.0033438283 -0.006757651 -0.005930698 -0.0064718826
-0.008262072 -0.007574723 -0.008172693 -0.005405227 0.026762601 0.01251102 -0.14388603 0.1037036
-0.12422801 -0.062564835 -0.03529706 0.076753385 0.015561026 0.008817788 0.017463192 0.011498655
0.014552186 0.12272672 -0.030806249 -0.02088949 -0.0058371006 -0.02748179 0.02795339 0.06965965
0.03736149 0.013559499 0.09460566 0.016419206 0.07536401 -0.11537923 0.006019566 0.1174683
0.023040144 1.5873423e-09 -0.14180389 -0.115561076 -0.25780624 0.25531968 -0.00019971447 -1.2257229e-08
-4.2530078e-07 -1.2884053e-05 7.290419e-39 -3.9533548e-13 -2.2327826e-07 -2.4741469e-06 -1.7070346e-05 -0.000121080884
-0.023311652 -0.0010183974 0.011181202 -0.15468211 0.0049535194 -0.019258594 0.018199421 0.22610298
0.007189138 -0.04368447 -0.033135206 0.004935016 0.1470966 0.010057576 -0.05865619 0.3163735
0.15474239 -0.05724052 -1.637778e-10 -8.0338747e-10 -1.7008353e-09 -7.449016e-08 -1.6837404e-07 -8.042498e-08
-2.7869046e-06 -2.847801e-06 -8.196469e-07 0.014942004 0.0074535995 0.0042017405 0.01721732 0.014973186
0.006030972 0.01314424 0.011859441 0.0063471477 0.019827422 -0.038557865 0.0 -0.0
-0.0 -0.0 -0.0 0.03639861 -0.03370399 0.117812194 0.0 -0.016989399
-0.0 -0.0 -0.016576922 0.23060346 -0.0 0.0 -0.07034579 -0.013899527
-0.04242604 -0.037186917 -0.005581322 -0.0035484962 0.30664456 0.11758124 -0.08414365 0.015655378
-0.06208514 -0.014022551 -0.13821587 0.19716685 0.0054113027 0.07157649 0.069349796 -0.029713938
-0.013553352 -0.0 0.0 -0.0 -0.0 -0.054703604 -0.0 0.046750944
0.0 4.92977e-40 -5.80482e-40 7.44008e-40 1.75515e-40 -4.18184e-40 4.96603e-40 -7.7818e-41
7.13534e-40 4.59456e-40 0.00068500795 0.0004487379 0.00039156305 0.006277175 0.0050600604 0.0031460868
0.008627269 0.0072230473 0.0048115915 0.09598762 -0.041096568 0.033889484 -0.34006214 0.0670507
-0.044562846 -0.06210294 -0.066222206 -0.0058875903 0.11674382 -0.19518061 0.054748036 0.030866802
00000000: 59f3 24bc 961e 283c b5d8 da3d 8c64 cbbb
00000010: 2ec6 383e 5f1b 383e 1a72 45bc 87b6 033e
00000020: cab6 ce3d 2dab 81bd 6dde 72bc 3260 0b3d
00000030: 2b75 d23d 7251 7cbd cd1a 0a3e d0aa 153e
00000040: dc89 dbbd ddd1 783c f8db 2933 9ba1 c833
00000050: a52b e933 8aa5 9b33 363e b834 073c b634
00000060: bb81 5d34 28dd 3a35 52d6 0c35 f462 9ebb
00000070: 3b63 73bb fe3d 81bb a5ea 2dbb 1f69 d5bb
00000080: 0cca e9bb 573c 59bc 8854 60bc e3ef 6bbc
00000090: 0000 0080 0409 00bd 6da6 e23a 4c38 003c
000000a0: b63b 09be 03c6 c1bc 56e0 b7bc 047f cdbe
000000b0: 346a bebd e18e c5bc 0597 c9bb 0000 0080
000000c0: 0000 0080 e54a 01be a19b 9dbc fa51 513d
000000d0: b9b5 f8bd 62a6 f63a 993c 9ebb 25ca 27bc
000000e0: 3597 313d ebb9 93bc de10 143d 1c3b 2ebd
000000f0: 8cde 653d 7b7a ca3d c881 9dbc 35e4 11bd
00000100: 000b 68bd 0bb9 e53c ce66 c73c 0434 6abc
00000110: 283c 143e 27e8 aa3d 4d0c a3bd 627a bc3d
00000120: 0000 0080 2ee3 553b 2058 95bc 266c 9dbd
00000130: 07fd 85bd 96ae d83d 0551 ddbd 6c1e 4ebd
00000140: 88c4 4d3e c5d1 0200 73b2 0800 2b75 0780
00000150: 5089 0700 a4bd 0400 a1dc 0000 fc14 bd12
00000160: 961d 120d e4b6 4510 f95d 6fbb fe84 56bb
00000170: 2124 5bbb 496f ddbb 4d56 c2bb 1612 d4bb
00000180: a45d 07bc 6235 f8bb c2e6 05bc 551e b1bb
00000190: 3e3d db3c 05fb 4c3c dc56 13be 8e62 d43d
000001a0: 416b febd fe21 80bd a693 10bd e130 9d3d
000001b0: acf3 7e3c 7c78 103c f80e 8f3c db64 3c3c
000001c0: 4b6c 6e3c 2658 fb3d 635d fcbc 7020 abbc
000001d0: 2645 bfbb 7e21 e1bc 82fe e43c b8a9 8e3d
000001e0: 5d08 193d a928 5e3c 9dc0 c13d 9281 863c
000001f0: 7258 9a3d f24b ecbd c83f c53b 3893 f03d
00000200: afbe bc3c a429 da30 0a35 11be 49ab ecbd
00000210: 2eff 83be 43b9 823e 726a 51b9 dd93 52b2
00000220: e554 e4b4 9628 58b7 b962 4f00 d98d deaa
00000230: 43be 6fb4 8509 26b6 4a32 8fb7 ceec fdb8
00000240: 14f8 bebc bf7b 85ba 5c31 373c fd64 1ebe
00000250: 2251 a23b 33c4 9dbc f416 953c 8a87 673e
00000260: dc92 eb3b 7dee 32bd c8b8 07bd eab5 a13b
00000270: 7ea0 163e 88c8 243c 7941 70bd b5fb a13e
00000280: ca74 1e3e 0975 6abd 5a13 34af 5ed5 5cb0
00000290: d2c2 e9b0 66f7 9fb3 4eca 34b4 1ab6 acb3
000002a0: a806 3bb6 d91c 3fb6 b505 5cb5 4fcf 743c
000002b0: 533d f43b c1ae 893b 560b 8d3c 1852 753c
000002c0: 769f c53b f05a 573c 1a4e 423c bcfb cf3b
000002d0: 1e6d a23c daee 1dbd 0000 0000 0000 0080
000002e0: 0000 0080 0000 0080 0000 0080 b516 153d
000002f0: 320d 0abd 8547 f13d 0000 0000 5a2d 8bbc
00000300: 0000 0080 0000 0080 53cc 87bc 5023 6c3e
00000310: 0000 0080 0000 0000 7411 90bd d7ba 63bc
00000320: edc6 2dbd 4f51 18bd 86e3 b6bb e38d 68bb
00000330: 8400 9d3e 6fce f03d 8253 acbd b53f 803c
00000340: fd4c 7ebd d7be 65bc 7688 0dbe 1be6 493e
00000350: 4c51 b13b b296 923d 4407 8e3d a56a f3bc
00000360: e10e 5ebc 0000 0080 0000 0000 0000 0080
00000370: 0000 0080 e310 60bd 0000 0080 eb7d 3f3d
00000380: 0000 0000 385e 0500 2652 0680 fe19 0800
00000390: 44e9 0100 ba8d 0480 5468 0500 edd8 0080
000003a0: 0bc5 0700 c700 0500 1b92 333a 9544 eb39
000003b0: b44a cd39 c3b0 cd3b ddce a53b 942e 4e3b
000003c0: 6459 0d3c 50af ec3b 8eaa 9d3b 2895 c43d
000003d0: e054 28bd b3cf 0a3d a01c aebe e151 893d
000003e0: 8887 36bd a75f 7ebd 829f 87bd b0ec c0bb
000003f0: 6217 ef3d 6ddd 47be 7a3f 603d 60dc fc3c

encoder.9.bias f4 [8]
-0.005899166 -0.04320774 0.16309369 -0.072533324 -0.15593734 0.064367265 0.058749817 -0.04029079
00000000: cb4d c1bb 99fa 30bd 0802 273e 5a8c 94bd
00000010: 0aae 1fbe fcd2 833d a6a3 703d f507 25bd

decoder.0.weight f4 [8, 128, 3, 3]
0.041356068 -1.7187566e-07 -0.026194494 -0.0018152705 -0.0 -0.0010828205 -0.016136102 -0.0
0.0003931338 -0.0042216443 0.002962793 -0.0017976803 -0.0 -0.17374966 -0.0 -0.0189237
-0.0 -0.015806962 -4.28771e-40 -4.31443e-40 8.73764e-40 0.017282141 -0.18451387 -0.018963069
1.658528e-39 7.70318e-40 -1.298625e-39 0.03407871 -5.5898042e-12 -0.0027375387 3.4783884e-08 -0.02356318
-4.8072166e-24 0.09107579 -7.616177e-07 -0.0015941504 0.102658935 -0.014027714 0.0 -0.0
-1.9210884e-05 -0.0 0.0 0.03541542 0.0 0.12643576 0.12560517 0.09011348
0.20450838 -0.022315457 0.055668492 -0.027553847 -0.027978588 -0.027553847 -0.016349616 0.079772994
-0.015052893 -0.005506004 -0.013975951 -0.0020972837 -0.02922237 -0.036550492 -0.026028132 -0.13421305
-0.01092663 -0.17301059 4.24013e-40 -4.71652e-40 -0.039304677 -0.014735868 -0.0058521098 -0.10788316
-0.0370318 -0.072804414 -0.0 -0.0 -0.0049622217 -0.0014945864 -0.020234868 -0.0
-0.019393176 -0.116155334 -0.0 -0.14410374 -0.0 -0.0 -7.06087e-05 -0.005996762
-0.0 -0.16742124 -5.13636e-40 0.0 1.168484e-39 4.93934e-40 1.093615e-39 -1.05249e-40
-1.39387e-40 0.03170047 1.267459e-39 -0.046914395 0.05043548 0.053208522 -1.4966513e-05 -0.002190589
-5.7289094e-06 -0.0029960298 -0.13298835 0.09455485 0.0048026075 -0.08267032 -0.044404134 -0.037117362
-0.015129571 -0.019950956 0.05771736 0.0066124746 0.049354006 -0.0 6.53061e-40 -8.654897e-09
-6.0631846e-06 -2.2627158e-10 -5.10777e-06 -0.0 -3.5071422e-26 -4.7195677e-05 0.059597153 0.0
0.15405536 0.0 1.139058e-39 -0.0 -0.016779993 0.05139592 -0.020196011 0.13881598
-1.23974e-40 0.18108803 -5.66479e-40 7.04343e-40 2.35805e-40 0.09679157 7.444e-41 0.0017019233
1.690936e-39 -2.69397e-40 -2.83462e-40 0.08278108 -4.291e-41 0.10401002 8.45073e-40 -1.92946e-40
-1.35156e-39 -0.13296302 -0.0027701282 -0.14268357 -0.013813077 0.0 -0.021055687 -0.012757604
-3.4036646e-08 -0.02229145 -0.029296175 -0.030171063 -0.091194354 9.40882e-40 -0.14617442 8.97602e-40
0.043654464 -0.10187693 -0.034652073 0.036516756 0.07806598 -3.85416e-40 -1.145731e-39 0.018747045
6.54273e-40 0.047349352 -0.034871046 -0.02012246 -0.005172587 -0.018693144 -0.0005284004 -0.00038438715
-0.0 -0.018197943 -0.0 -0.0 -0.00078511954 -0.025283499 0.06305175 -0.0012036472
0.0434176 0.10089102 -0.0 -0.10210024 0.018283779 0.0 -4.33934e-16 -3.6902682e-32
-0.0 -0.0044922205 -0.0 -0.0046260827 -7.337494e-10 -2.0677296e-14 -0.0 -0.07010759
-0.07708294 0.00952114 -0.00021184982 -0.0 -0.015642028 -0.0019231654 0.064957835 0.006052681
-1.131452e-39 0.1465988 8.02518e-40 7.24078e-40 -3.303e-42 1.85432e-40 -1.490296e-39 0.025327288
7.60007e-40 0.021313425 9.81845e-40 0.064523906 -0.13426878 -9.39826e-40 -0.0 -0.054359857
-0.0 -0.0 -0.0 -0.132608 -0.0 -0.10936655 -0.009020286 0.18943606
-0.0013460707 -0.014039763 1.6472664e-05 0.053075545 0.21112694 0.06180178 -0.020273361 -0.10681072
0.0 -0.0 -0.023874016 -0.0 0.009392609 -0.0 -0.0 -0.0
00000000: fb64 293d d28c 38b4 d695 d6bc 5fee edba
00000010: 0000 0080 6ded 8dba dc2f 84bc 0000 0080
00000020: 871d ce39 b855 8abb 6b2b 423b 24a0 ebba
00000030: 0000 0080 6eeb 31be 0000 0080 e005 9bbc
00000040: 0000 0080 9a7d 81bc 3dab 0480 b0b2 0480
00000050: b383 0900 4793 8d3c 34f1 3cbe 7058 9bbc
00000060: 4d0f 1200 5563 0800 0a24 0e80 1e96 0b3d
00000070: 7bac c4ac 4768 33bb 4965 1533 9207 c1bc
00000080: 5ef8 b998 f285 ba3d f871 4cb5 d0f2 d0ba
00000090: d93e d23d 7fd4 65bc 0000 0000 0000 0080
000000a0: 0f27 a1b7 0000 0080 0000 0000 c20f 113d
000000b0: 0000 0000 6078 013e a49e 003e 6b8d b83d
000000c0: a56a 513e e8ce b6bc a504 643d 9bb8 e1bc
000000d0: 5a33 e5bc 9bb8 e1bc a1ef 85bc 0660 a33d
000000e0: 69a0 76bc b66b b4bb 63fb 64bc 9572 09bb
000000f0: c063 efbc f8b5 15bd f338 d5bc 256f 09be
00000100: 9c05 33bc b029 31be fa9d 0400 c622 0580
00000110: f1fd 20bd b66e 71bc 0ec3 bfbb d9f1 dcbd
00000120: a8ae 17bd 7b1a 95bd 0000 0080 0000 0080
00000130: 229a a2bb ffe5 c3ba 98c3 a5bc 0000 0080
00000140: 70de 9ebc d9e2 edbd 0000 0080 ee8f 13be
00000150: 0000 0080 0000 0080 c213 94b8 7c80 c4bb
00000160: 0000 0080 7970 2bbe cf97 0580 0000 0000
00000170: 42b9 0c00 e360 0500 8ee8 0b00 6425 0180
00000180: 8e84 0180 5ad8 013d 29cd 0d00 4f29 40bd
00000190: 6f95 4e3d 2ef1 593d af18 7bb7 fc8f 0fbb
000001a0: f53a c0b6 0a59 44bb 192e 08be f9a5 c13d
000001b0: 315f 9d3b 0f4f a9bd 1ce1 35bd 6008 18bd
000001c0: 05e2 77bc 3070 a3bc 0a69 6c3d 75ad d83b
000001d0: 6d27 4a3d 0000 0080 781c 0700 a4b0 14b2
000001e0: 5c72 cbb6 cac9 78af 6963 abb6 0000 0080
000001f0: 4faa 2d95 f9f3 45b8 251c 743d 0000 0000
00000200: b0c0 1d3e 0000 0000 3b67 0c00 0000 0080
00000210: 3276 89bc 8784 523d 1b72 a5bc c725 0e3e
00000220: 9759 0180 246f 393e 1d2b 0680 6cab 0700
00000230: 5491 0200 a93a c63d 82cf 0000 1213 df3a
00000240: a469 1200 f8ee 0280 2d16 0380 2089 a93d
00000250: 9e77 0080 3503 d53d b833 0900 db19 0280
00000260: 99b7 0e80 7527 08be 0a8b 35bb a41b 12be
00000270: 3e50 62bc 0000 0000 fa7c acbc 4505 51bc
00000280: b02f 12b3 8f9c b6bc 88fe efbc 4e29 f7bc
00000290: 1bc4 babd cc3e 0a00 bfae 15be 26c6 0900
000002a0: 06cf 323d daa4 d0bd 55ef 0dbd 9892 153d
000002b0: 0ee1 9f3d 6232 0480 d579 0c80 6793 993c
000002c0: d91f 0700 65f1 413d f1d4 0ebd dbd7 a4bc
000002d0: ce7e a9bb 5d22 99bc 5a84 0aba 9287 c9b9
000002e0: 0000 0080 da13 95bc 0000 0080 0000 0080
000002f0: 7bd0 4dba 571f cfbc 4721 813d b3c3 9dba
00000300: a7d6 313d f39f ce3d 0000 0080 ee19 d1bd
00000310: ddc7 953c 0000 0000 5b25 faa5 149c 3f8b
00000320: 0000 0080 7a33 93bb 0000 0080 6596 97bb
00000330: 06b1 49b0 993e baa8 0000 0080 9194 8fbd
00000340: a9dd 9dbd 8efe 1b3c 0124 5eb9 0000 0080
00000350: b623 80bc b912 fcba 9d08 853d 9155 c63b
00000360: 0752 0c80 ff1d 163e 18bd 0800 6fe2 0700
00000370: 3509 0080 e904 0200 573a 1080 2c7b cf3c
00000380: 9746 0800 7e99 ae3c fcb0 0a00 1c25 843d
00000390: c17d 09be da3b 0a80 0000 0080 71a8 5ebd
000003a0: 0000 0080 0000 0080 0000 0080 64ca 07be
000003b0: 0000 0080 92fb dfbd d2c9 13bc 87fb 413e
000003c0: a36e b0ba 0907 66bc c72e 8a37 be65 593d
000003d0: a931 583e dd23 7d3d 5214 a6bc 94bf dabd
000003e0: 0000 0000 0000 0080 7193 c3bc 0000 0080
000003f0: 75e3 193c 0000 0080 0000 0080 0000 0080

decoder.0.bias f4 [128]
0.0021635005 0.09693351 -0.09865257 -0.0071516843 0.040513087 0.11261328 0.073582344 -0.056635804
0.08562222 0.008462011 -0.20572199 0.012731439 -0.1134594 -4.6226e-41 -0.037833158 -0.0039344537
-0.10752176 0.0024089129 -0.083360165 -0.3826454 0.18022324 0.0840026 -9.227737e-21 0.04912069
-0.05746962 -0.08327915 0.115887016 -0.02054348 0.18766429 -0.05828574 -0.019637182 -0.0009394179
-0.084870264 0.057356533 0.07524877 0.018138483 2.68965e-40 -0.038160603 0.020170493 -0.0045142104
0.055709284 -0.1696075 -0.037852183 -0.17421497 0.06249073 0.027782211 0.11422278 0.023428053
0.042113997 -0.03406107 0.15772673 -0.1702229 -0.030131575 0.12137041 -0.080556855 -0.0311371
0.15311092 -0.029919973 0.13845116 -0.09563571 0.018433092 -7.314125e-07 -0.010753086 0.04528729
7.6869427e-31 0.07211238 -0.047746353 -0.14366378 -0.13387546 -0.09946936 -0.12844302 -0.060262192
0.0059871627 -0.13933149 0.00651486 -0.12044548 0.22516675 -0.020961564 -4.8614602e-05 0.03962409
-0.09412734 -0.03679114 0.047771405 -0.018449469 -3.304727e-16 -0.0059075267 0.023593554 0.056761682
-0.01260243 -0.14037272 -0.017978555 -0.039462857 -0.17423007 0.04679525 -0.0016090508 0.094445504
-0.070712745 7.3488756e-32 0.071737915 -0.071147606 -0.13947643 0.09115136 0.09795287 -0.00471527
0.027543029 -0.018661221 0.043172847 -0.034294665 -0.019023092 0.0061525074 -0.098296374 0.009898466
-0.17165215 0.08569096 6.1287e-40 -0.068384595 -0.09140676 0.09241774 0.22957905 -1.1036691e-28
-0.00043164293 -0.06837287 -0.008632552 0.1649954 -0.12516369 -0.024675978 -0.009184832 -0.04662265
00000000: 84c9 0d3b 1385 c63d 5c0a cabd ad58 eabb
00000010: 0df1 253d cba1 e63d 57b2 963d f2fa 67bd
00000020: b45a af3d 3fa4 0a3c c9a8 52be 8797 503c
00000030: 675d e8bd dc80 0080 f1f6 1abd 97ec 80bb
00000040: 5e34 dcbd dade 1d3b bcb8 aabd 19ea c3be
00000050: 718c 383e 8e09 ac3d 994e 2e9e c732 493d
00000060: 4465 6bbd 428e aabd 2c56 ed3d cd4a a8bc
00000070: 112b 403e 07bd 6ebd 28de a0bc 4543 76ba
00000080: 76d0 adbd afee 6a3d 071c 9a3d 2897 943c
00000090: c4ed 0200 4b4e 1cbd 973c a53c f1eb 93bb
000000a0: 6b2f 643d 97ad 2dbe e40a 1bbd 6965 32be
000000b0: 48f6 7f3d 8597 e33c a2ed e93d 30ec bf3c
000000c0: ba7f 2c3d 9f83 0bbd 1e83 213e e94e 2ebe
000000d0: 7ed6 f6bc 0d91 f83d fefa a4bd 3b13 ffbc
000000e0: 1cc9 1c3e bb1a f5bc 24c6 0d3e a8dc c3bd
000000f0: ff00 973c 4956 44b5 b62d 30bc 2a7f 393d
00000100: 9f74 790d a8af 933d ae91 43bd 991c 13be
00000110: a616 09be 98b6 cbbd 9186 03be 7dd5 76bd
00000120: f62f c43b eaac 0ebe 9b7a d53b 1fac f6bd
00000130: 1d92 663e 96b7 abbc 88e7 4bb8 df4c 223d
00000140: d6c5 c0bd 4eb2 16bd f3ab 433d 5723 97bc
00000150: 2a81 bea5 ed93 c1bb 4547 c13c f07e 683d
00000160: 6c7a 4ebc debd 0fbe c347 93bc cea3 21bd
00000170: 5e69 32be 60ac 3f3d c9e6 d2ba a56c c13d
00000180: d8d1 90bd a8c9 be0b 54eb 923d d6b5 91bd
00000190: e9d2 0ebe 90ad ba3d 849b c83d 8d82 9abb
000001a0: eba1 e13c 6bdf 98bc 03d6 303d 9078 0cbd
000001b0: 51d6 9bbc f99a c93b 9c4f c9bd 2d2d 223c
000001c0: 95c5 2fbe be7e af3d 6fac 0600 390d 8cbd
000001d0: 7833 bbbd 8345 bd3d c516 6b3e 1ce8 0b91
000001e0: 224e e2b9 1307 8cbd 8c6f 0dbc 8ef4 283e
000001f0: e92a 00be 4725 cabc fa7b 16bc 64f7 3ebd
