mnist_random_iter/end_of_0.pth (torch_old, 842137 bytes, 19 tensors)

encoder.0.weight f4 [128, 1, 3, 3]
00000000: f362 213d 65d2 423c bad3 7ebd d0af 9abc
00000010: 957c 5a3e 9ac8 44bd 3b5d 35be 40de bd3d
00000020: e1e1 51be e1ac 503a f4b7 2939 4fe4 963a
00000030: 90d8 3a39 6d37 02ba 83c1 e839 b92d 8a3a
00000040: 6d9d bb39 9d55 9c3a 8931 a7bc 1dd6 eb3d
00000050: 93ca 93bd 80da 4e39 f272 783d 8ab6 f7bd
00000060: b863 ae3d 064f 873d 4f67 e0bd 6f44 4ebd
00000070: c676 8ebe 0a09 04be c4d3 113e 84ba 1dbd
00000080: 5996 4e3e 77f1 a53e 109c 123e 890a b43e
00000090: 79e1 ef3d 11dd b33d 82d8 40be d914 b33e
000000a0: cd60 ee3c da4c 94be d7cd a93e 2a88 813b
000000b0: a246 8dbe be4f 7109 5968 f30f a6ae 400c
000000c0: e767 960d 93ae 7192 bc4a d90d f855 070a
000000d0: 41e0 ab0e d84d cb85 264d dcbd 5489 663d
000000e0: 409a 28be f991 a2bd 6da5 403d a280 b9bd
000000f0: 06b7 0cbd d011 813d ed17 89bd 3f07 f2bd
00000100: 30ca 1d3e 6a38 283e 1a0b 38be b4fb 0f3e
00000110: 191e f2b9 1ece a6be 7391 dbbc 3263 25be
00000120: 0510 c93c 9003 b0be d661 ebbe ea28 863e
00000130: d0e5 abbd d111 b8bd 823e f13e 4384 8e3e
00000140: a55d ae3e 657d 101c 4cc6 9b18 9cb2 0ea0
00000150: ad63 6e1a 032b 1d1a 555c 9616 064b 9a97
00000160: 8224 cb90 d155 1224 0ece e925 84af 1327
00000170: 6170 3627 e652 ea25 cc8d 8ba6 ecba d726
00000180: 3875 0e26 2ee3 8a26 5c21 bf25 185e d13e
00000190: 7761 a13e f842 c13e b38e 12bd ef14 52be
000001a0: 0086 553d 596b 82be 546f 58be 1a5c d7bd
000001b0: cabb 7dbe 240f b4bd c104 68bc 4da8 87bd
000001c0: 045e 273e 7ad0 143d 6a28 6f3e 13a2 d43d
000001d0: c3b7 82be 3f66 0d3c 8621 9e3b 983a d13b
000001e0: 8e25 9d3b d8b5 123b 2bd7 763b b037 c63b
000001f0: c479 843b 864d c13b 886b 32be 8599 91bd
00000200: 41b0 12be 8e11 9fbb f1ed 3d3d 5801 e2bb
00000210: 7eff 0d3d 528f 983d 45f3 173e 9080 40b7
00000220: 9aa4 b9b8 fddf 0739 da9d c639 f24d 5639
00000230: 4bc1 2739 633c c0b9 953b deb9 d6c7 83b9
00000240: e4aa d481 c09f 8314 fce7 c417 3b40 3f14
00000250: 00e8 3e1b 1aad 8196 5098 9d0f 21e8 4496
00000260: 0506 da8a c58a d5bd af6a 0dbe 4ae8 ac3e
00000270: a3ac 63bd 025e 44be c704 883e 72a1 fdbd
00000280: 5827 e6bd 6c64 a43e 06bd 9b3e 87fc bd3d
00000290: 7f7e 9e3e f003 453e 62eb 0dbd 10bd ff3d
000002a0: aac6 8b3e 2d9d 143e d866 283e a0e4 1f3e
000002b0: 383c f33d 5720 23be 4339 b03d 5df9 813d
000002c0: 9809 17be cca8 813c 5e99 5bbd 963e 90be
000002d0: 0dce d6bd 26dd e83c 4558 0abe 2c2b 88bd
000002e0: 8323 de3d 4c5b b4bd ae99 cebc 40f5 53bd
000002f0: 4644 a0bd 9c42 c5ba eabf 03ba bc6e a93b
00000300: a588 ceba 1aea 53bb 0eef 163a 1c08 a73b
00000310: 3183 ad3a db29 883b 0021 233e c89e 743e
00000320: d48e f23b e0dc c13e a810 c13e 3bdd 253e
00000330: cc0b 8e3d e48e 263e 48eb 95be e0ae 0e3d
00000340: 77fd 903e 0615 1c3f e853 e9be 51d7 06be
00000350: 033e 983e ac3a 01bf 7bfc dc3d e7b0 f83e
00000360: fd5c 2fbe 723c d7bc 9720 75be 7231 cbbd
00000370: a13b 133d f96a 13be ac93 07bd 86a6 b73d
00000380: a194 58be 870c 4bbe 4da1 76be 5198 96be
00000390: 4d3c 243e aa98 223e e6af 273e ba6f d93e
000003a0: fe8f 543e 891c 113e c156 2884 0fec b183
000003b0: 2424 fb82 32c3 4f83 4d9d d982 0a06 0800
000003c0: f238 5481 e7fd 0280 c1b9 0280 8558 413e
000003d0: 2f5d 9cbd 660a 66be 4f23 413e 07ac 2e3d
000003e0: ddd5 0dbe 360f a93d cef0 2fbe a1ac 80be
000003f0: 6ff2 a9be 5ce0 81be a864 0a3e 360e 51be
0.039401006 0.011890982 -0.062213637 -0.018882662 0.21336587 -0.04804287 -0.17711346 0.092709064
-0.20496322 0.0007960331 0.00016185624 0.0011512133 0.00017819018 -0.00049673655 0.00044394666 0.0010542191
0.0003578471 0.001192737 -0.020409362 0.11515448 -0.07216372 0.00019727089 0.060656495 -0.120953634
0.085151136 0.066068694 -0.109572046 -0.050358232 -0.27824992 -0.12894073 0.14240938 -0.038507953
0.2017454 0.32410786 0.14317346 0.35164288 0.11712927 0.087823994 -0.18832591 0.34976843
0.029098893 -0.28964883 0.33164856 0.0039529996 -0.2759295 2.9046814e-33 2.4001843e-29 1.4843698e-31
9.269477e-31 -7.626137e-28 1.3391649e-30 6.5161825e-33 4.2370703e-30 -1.9118624e-35 -0.107569024 0.05628331
-0.16465092 -0.07937998 0.047032762 -0.09057738 -0.034354232 0.063022256 -0.066940166 -0.11817788
0.1540916 0.1642777 -0.17972985 0.14060861 -0.0004618026 -0.3257913 -0.026802754 -0.16151121
0.024543772 -0.34377718 -0.4597308 0.2620309 -0.08393443 -0.08987773 0.47118002 0.27835283
0.3405582 4.780767e-22 4.026679e-24 -1.2086965e-19 4.9297764e-23 3.2501584e-23 2.4292077e-25 -9.970955e-25
-8.012563e-29 3.1731393e-17 4.0558685e-16 2.0495495e-15 2.5318495e-15 4.0648704e-16 -9.683497e-16 1.4969287e-15
4.942501e-16 9.637251e-16 3.3155824e-16 0.408921 0.31519672 0.37746406 -0.03578062 -0.20515798
0.052129745 -0.25472525 -0.21136218 -0.10515614 -0.24778667 -0.0879195 -0.01416129 -0.06623898
0.16344458 0.03633163 0.2335526 0.10382476 -0.25530824 0.008630334 0.0048257736 0.0063851587
0.0047957366 0.002238622 0.0037664871 0.006049119 0.004042836 0.005899134 -0.17423832 -0.0710936
-0.14325048 -0.0048543876 0.046369497 -0.006897133 0.034667484 0.07449211 0.14838894 -1.1474025e-05
-8.852147e-05 0.00012958045 0.00037883112 0.00020437667 0.00015998368 -0.00036666085 -0.00042387532 -0.00025135156
-7.8121717e-38 1.329063e-26 1.2724764e-24 9.655703e-27 1.5791395e-22 -2.0950316e-25 1.5540064e-29 -1.5906001e-25
-2.09949e-32 -0.10426859 -0.13810228 0.33770972 -0.05558456 -0.19176486 0.26566145 -0.12384309
-0.11237973 0.32107866 0.3041765 0.092766814 0.30955884 0.19239783 -0.034648307 0.12487233
0.27300006 0.14513083 0.16445482 0.15614557 0.1187672 -0.15930305 0.08604672 0.063463904
-0.14749753 0.015827559 -0.05361306 -0.2817275 -0.1048852 0.028425764 -0.13510235 -0.066488594
0.10846617 -0.08806476 -0.025219765 -0.05174756 -0.07825522 -0.0015049758 -0.0005025851 0.0051706713
-0.0015757276 -0.003233558 0.0005757668 0.0050974023 0.0013237951 0.00415538 0.15930557 0.23888695
0.0074022803 0.37863827 0.3770802 0.16197674 0.06935844 0.16265446 -0.29281068 0.034834743
0.28318378 0.6096958 -0.45571828 -0.13168074 0.2973481 -0.5048015 0.10790344 0.48572466
-0.17125316 -0.02627394 -0.23938213 -0.0992154 0.03594554 -0.14396276 -0.033099815 0.08967309
-0.21150447 -0.19828998 -0.24084969 -0.29413083 0.16038628 0.15878549 0.16375694 0.42468053
0.20758054 0.14171042 -1.978814e-36 -1.0457321e-36 -3.690188e-37 -6.1055906e-37 -3.197557e-37 7.3685e-40
-3.8979107e-38 -2.74754e-40 -2.50307e-40 0.18881424 -0.07634961 -0.22464904 0.18861125 0.042644527
-0.13851114 0.082548544 -0.17181703 -0.25131705 -0.33192775 -0.25366485 0.1351496 -0.20415577

encoder.0.bias f4 [128]
00000000: fd8d ae3e 8bb4 c6bb 6d9c 03bb 2777 20be
00000010: 510f ce3e ae63 0497 2434 fd3c 9803 28be
00000020: 15f0 c73e 7b6e b0af aa0d 85a9 b197 ac3e
00000030: c861 b8bd aadb 11bd 02ce 92bd 1c14 78ba
00000040: 828a 56a8 2fe6 4f3e 6747 983e 0d2a fbbd
00000050: 7615 adbd bfd2 10bd 011e 463f 9a49 153e
00000060: 2e19 6cbe a116 013f a00f 0b87 882f 44be
00000070: 8e0e b63c ce50 eabd 0e8b b1a1 9ba9 e53c
00000080: 6f08 923d 3203 29be bbdb 8a3e 13df c8b9
00000090: 9836 c8bc 5823 66bd bb48 e0bb aacf eabc
000000a0: 4d07 103e 9714 ac3e 9500 3c3e 1ec9 af3d
000000b0: 9068 d298 27ad 373e eb6c 62bb 9660 bf3e
000000c0: c85e 193e 324d c73d a3d4 c23b 86b8 07be
000000d0: 8af7 1b3c 33fd 863e cfa8 083f 1436 32be
000000e0: 5572 2ebe 7a82 248c 7194 0c3f a65b 1b3c
000000f0: 5d55 2fbd ece9 42bd 858c 02a2 bc64 adbc
00000100: cb62 05be 268b b33e 638b ba3d afc1 b6b9
00000110: b150 a53b 2914 8d3e 6cf2 143f bb7e 50b2
00000120: 9912 e3bc a5b2 86bc df01 13be 10ea e03d
00000130: c5dd 11bb cc92 64bd 8a27 3cbe 07ba 969d
00000140: 4b02 83be 3bfe 52b2 ca11 403e 4c78 09a9
00000150: ee46 b5ba 58c9 d691 5ded f93e d63e 64bd
00000160: f9d2 0cbe ed9d 4ebe 1a13 b93e 3876 23bc
00000170: 4563 bdbd 1328 04b6 cfb0 14bd 428b f48f
00000180: bb16 22a8 6b77 47ab 76a4 b83c d5a8 e53e
00000190: 4bc0 40be 6628 1c3e 9776 50be 7355 99b8
000001a0: 5b9e 543d fed4 bf3e f148 62be 068a 38be
000001b0: 69a6 a53c 82f1 353d 56bf ed3d 3ac4 5b3d
000001c0: 8226 14b2 4dcc 55be 3dad b3bc 087e 3b3e
000001d0: 50ea 313d a9de d83d 6a5c 5c3d 5f40 ec3e
000001e0: dbe2 fb3e 9223 75bd 6011 b5ba d31f 3a3d
000001f0: f888 0cbe c2ea d13c b8ad 95bc d12a 0a3f
0.34092703 -0.006064003 -0.002008225 -0.15670453 0.4024606 -4.2777314e-25 0.030908652 -0.16407621
0.39050356 -3.2092715e-10 -5.908757e-14 0.3370948 -0.09003025 -0.03560988 -0.07168199 -0.0009463446
-1.19094205e-14 0.20302652 0.29741976 -0.1226388 -0.08451359 -0.035357233 0.7738953 0.14578858
-0.2305648 0.50425154 -1.046179e-34 -0.19158757 0.022223737 -0.114411935 -1.2030794e-18 0.028034976
0.07130515 -0.16505125 0.27120766 -0.00038313176 -0.024440095 -0.05618605 -0.0068446076 -0.028663475
0.14065285 0.3360946 0.18359597 0.08583282 -5.438931e-24 0.17937146 -0.0034549783 0.37378377
0.14977562 0.09731521 0.0059457584 -0.13253984 0.009519467 0.2636505 0.5338258 -0.17403442
-0.17035802 -1.2673364e-31 0.54914004 0.0094823 -0.04280602 -0.047586367 -1.7692676e-18 -0.021166198
-0.13025968 0.350671 0.09108617 -0.0003485805 0.0050450196 0.27554443 0.58182406 -1.2136009e-08
-0.027718829 -0.016442606 -0.14356183 0.10982144 -0.002225743 -0.05580406 -0.18374458 -3.9897017e-21
-0.25587687 -1.2281414e-08 0.18756786 -3.0524452e-14 -0.0013830343 -3.3887334e-28 0.48813906 -0.055723988
-0.13752355 -0.20177431 0.36147386 -0.009976916 -0.0924745 -1.969286e-06 -0.03630143 -2.4113898e-29
-8.997735e-15 -7.086473e-13 0.022539359 0.4485537 -0.18823354 0.15249786 -0.20357738 -7.311525e-05
0.051908832 0.37467188 -0.22098137 -0.18021402 0.020220952 0.044419773 0.1160876 0.053653933
-8.6234895e-09 -0.20878716 -0.021933192 0.18309796 0.04343635 0.10589344 0.05379907 0.4614286
0.49196514 -0.059848376 -0.0013814382 0.045440506 -0.13724124 0.025624637 -0.018271312 0.5397158

encoder.2.weight f4 [64, 128, 4, 4]
00000000: c195 31b6 0000 0080 685f 61b5 c027 edb4
00000010: cb15 7fb5 b5d1 21b5 8122 28b4 5e77 92b3
00000020: c474 56b5 8dda 0fb5 0000 0080 8796 76b3
00000030: aa0f 2cb5 d729 efb4 f283 f9b3 5a48 57b3
00000040: 0000 0080 e862 1080 0000 0080 0000 0080
00000050: 3965 1000 0000 0080 fb8a 1000 ec20 0e80
00000060: 6615 1280 be15 0300 0d93 0180 8ec1 1000
00000070: 0000 0080 ea12 0c00 0000 0080 7914 0d80
00000080: 0000 0080 269d 0700 017d 0180 0000 0080
00000090: 2e16 0300 a700 0400 a5ea 0600 0000 0080
000000a0: 6383 0580 8184 0700 d3a7 0080 a332 0680
000000b0: 9316 0500 226c 0380 8917 0800 0000 0080
000000c0: 0000 0080 59f8 a381 5085 f903 0000 0080
000000d0: 7c5a 0480 7c05 0700 b4dc 0000 4a18 0a85
000000e0: 937b 0600 fe18 0400 35dc 0600 0000 0080
000000f0: f725 0580 0000 0080 d2e3 0000 ac59 3a81
00000100: 4afc 50b2 0000 0080 0000 0080 52c6 12b3
00000110: 84ce a1b1 0000 0080 3e63 57b1 768a 46b2
00000120: 0612 1cb2 0000 0080 0000 0080 ced7 86b2
00000130: 0000 0080 0000 0080 9df4 9cb1 ac75 2bb2
00000140: d5f0 0500 0000 0080 d3c3 0080 0000 0080
00000150: 0000 0080 0c61 0500 8a01 1280 7e6c 0280
00000160: 929a 0680 da7e 0000 0000 0080 d195 0e80
00000170: e4f1 0580 62f3 0e80 6e2e 0680 ccdd 0580
00000180: 0000 0080 3f95 72b3 5900 d5b1 0000 0080
00000190: d49f 16b3 8ac5 6db2 0000 0080 0000 0080
000001a0: 993e 0fb2 133a 23b1 4e58 dfad 0000 0080
000001b0: 0000 0080 df80 adb0 3fe4 16ad 8817 12ab
000001c0: 0ebc f3a9 0608 3ca9 d5d9 2ca8 494b 68a2
000001d0: d8ee 7fa3 4aba 83a2 0000 0080 29a6 ce0e
000001e0: 0cce 51a7 9b45 d2a6 b1e7 a8a4 a2ec d49c
000001f0: 0000 0080 0000 0080 0000 0080 0000 0080
00000200: 0000 0080 e9d3 aead 0792 d8af 0000 0080
00000210: 934f a8aa 0000 0080 0000 0080 6261 24b0
00000220: 41b9 41ac 0000 0080 9ff4 2daf de89 95b0
00000230: 0000 0080 b53e 24a9 205b b2ad 6032 03af
00000240: 5d12 1280 0000 0080 0000 0080 b646 1480
00000250: 8221 1180 0000 0080 59e5 1080 fcf6 1380
00000260: 41aa 1400 0000 0000 cec9 0b80 0000 0080
00000270: 0000 0000 0000 0000 fc26 0c80 dadb 1080
00000280: d2f1 1000 8cb0 1300 abfb 1300 0000 0080
00000290: 0000 0080 afa4 1000 6cd8 1300 000e 1100
000002a0: 7687 0700 0000 0080 bc78 0c00 0000 0080
000002b0: 316b 1500 6603 1100 7535 0400 d424 0080
000002c0: 30b2 e99c 975d 8ea1 f650 2daa d33f 33a8
000002d0: 8063 0100 d107 3900 3f6c 5f92 aac7 3a8d
000002e0: 20e2 49a7 c61d 0daa 0000 0080 0000 0080
000002f0: 69d4 4ba8 644f 28ab 0000 0080 f2ea 70af
00000300: 0000 0080 0000 0080 10b4 0700 f535 0600
00000310: 0000 0080 0000 0080 0000 0080 3dbc 0280
00000320: 0000 0080 0000 0080 743b 0480 0000 0080
00000330: e2b3 0400 f21f 0780 42ca 0300 0000 0080
00000340: e6a6 0900 5ec4 0f00 0000 0080 57c1 1080
00000350: cdd4 1000 0000 0080 cdff 0b00 552c 1000
00000360: 0000 0080 0000 0080 173f 0b80 0000 0080
00000370: 16b8 0600 d149 0180 ee5d 0980 85ea 0e80
00000380: ca88 1d00 b193 8b80 0000 0080 bd13 8b81
00000390: 0000 0080 7363 0100 2954 0180 01de 0280
000003a0: 48f5 0280 c2d6 0500 8248 0380 1e91 0400
000003b0: 7e22 0600 0000 0080 0000 0080 ca4a 0500
000003c0: c44c 1100 0000 0080 0000 0080 1dbe 0580
000003d0: 8737 0c80 a18f 0380 8f28 0200 0000 0080
000003e0: 7cdb 1100 0000 0080 b3ec 0a00 0000 0080
000003f0: c066 0e00 0000 0080 c363 0a80 c7a9 0980
-2.6462224e-06 -0.0 -8.3957866e-07 -4.4173612e-07 -9.5026616e-07 -6.028234e-07 -1.5658772e-07 -6.8203676e-08
-7.989113e-07 -5.3589685e-07 -0.0 -5.7413242e-08 -6.409779e-07 -4.4547662e-07 -1.1618967e-07 -5.012439e-08
-0.0 -1.504849e-39 -0.0 -0.0 1.50568e-39 -0.0 1.519225e-39 -1.297507e-39
-1.660715e-39 2.83306e-40 -1.44587e-40 1.538802e-39 -0.0 1.108811e-39 -0.0 -1.201206e-39
-0.0 6.99223e-40 -1.36678e-40 -0.0 2.83463e-40 3.67576e-40 6.35188e-40 -0.0
-5.0631e-40 6.90382e-40 -6.0204e-41 -5.69178e-40 4.67276e-40 -3.14297e-40 7.43127e-40 -0.0
-0.0 -6.0233105e-38 1.4665512e-36 -0.0 -3.99802e-40 6.44816e-40 7.9173e-41 -6.49319e-36
5.95343e-40 3.76307e-40 6.30008e-40 -0.0 -4.72797e-40 -0.0 8.1727e-41 -3.422714e-38
-1.2164557e-08 -0.0 -0.0 -3.4173645e-08 -4.709195e-09 -0.0 -3.134303e-09 -1.1556599e-08
-9.084493e-09 -0.0 -0.0 -1.569779e-08 -0.0 -0.0 -4.568007e-09 -9.9802655e-09
5.45572e-40 -0.0 -7.0248e-41 -0.0 -0.0 4.93991e-40 -1.653591e-39 -2.2259e-40
-6.06462e-40 4.5506e-41 -0.0 -1.339441e-39 -5.45951e-40 -1.373006e-39 -5.67669e-40 -5.38743e-40
-0.0 -5.6480754e-08 -6.1991554e-09 -0.0 -3.506996e-08 -1.3840131e-08 -0.0 -0.0
-8.337929e-09 -2.3752633e-09 -2.539138e-11 -0.0 -0.0 -1.2624034e-09 -8.577194e-12 -5.1902276e-13
-1.082399e-13 -4.1751345e-14 -9.595153e-15 -3.1481719e-18 -1.3874155e-17 -3.5704862e-18 -0.0 5.0942927e-30
-2.9116275e-15 -1.4590544e-15 -7.3250887e-17 -1.4090151e-21 -0.0 -0.0 -0.0 -0.0
-0.0 -1.9875617e-11 -3.939393e-10 -0.0 -2.989801e-13 -0.0 -0.0 -5.980124e-10
-2.7529786e-12 -0.0 -1.5821165e-10 -1.0880361e-09 -0.0 -3.6469705e-14 -2.0276725e-11 -1.1932277e-10
-1.659626e-39 -0.0 -0.0 -1.862076e-39 -1.573224e-39 -0.0 -1.551642e-39 -1.833476e-39
1.897786e-39 0.0 -1.082584e-39 -0.0 0.0 0.0 -1.116011e-39 -1.548236e-39
1.556117e-39 1.808208e-39 1.835156e-39 -0.0 -0.0 1.528445e-39 1.822512e-39 1.566226e-39
6.91443e-40 -0.0 1.145337e-39 -0.0 1.966998e-39 1.562423e-39 3.86519e-40 -1.3211e-41
-1.5464707e-21 -9.647067e-19 -1.5393576e-13 -9.950336e-15 1.2753e-40 5.237427e-39 -7.0499816e-28 -5.755601e-31
-2.8016936e-15 -1.2533645e-13 -0.0 -0.0 -1.1314823e-14 -5.9795766e-13 -0.0 -2.1911342e-10
-0.0 -0.0 7.07443e-40 5.70369e-40 -0.0 -0.0 -0.0 -2.51198e-40
-0.0 -0.0 -3.8867e-40 -0.0 4.31872e-40 -6.54308e-40 3.48063e-40 -0.0
8.86391e-40 1.447976e-39 -0.0 -1.538725e-39 1.545706e-39 -0.0 1.101954e-39 1.485271e-39
-0.0 -0.0 -1.032823e-39 -0.0 6.1705e-40 -1.18316e-40 -8.60215e-40 -1.369827e-39
2.7123e-39 -1.2818116e-38 -0.0 -5.108886e-38 -0.0 1.27511e-40 -1.22026e-40 -2.63311e-40
-2.71661e-40 5.36218e-40 -3.01517e-40 4.194e-40 5.63386e-40 -0.0 -0.0 4.86007e-40
1.588742e-39 -0.0 -0.0 -5.27377e-40 -1.121945e-39 -3.27031e-40 1.9822e-40 -0.0
1.63994e-39 -0.0 1.003267e-39 -0.0 1.322557e-39 -0.0 -9.54143e-40 -8.87424e-40

encoder.2.bias f4 [64]
00000000: a3da 8fb9 0000 0000 3a13 3ab3 560a 9dbb
00000010: f1ea 6dbd 6fc8 92a8 0000 0000 dccc 24bd
00000020: b723 77b4 517c 0480 6a25 1400 32f3 0b80
00000030: 3a43 c1ad fced fdbb c3de 5a8e 5e3d 4ab4
00000040: 1c2c a1a8 ad69 1d95 8d02 afb0 0000 0000
00000050: 2ac3 f4b5 0000 0080 9079 11bc a132 66bd
00000060: b27e 59b2 388a cab1 31d0 1000 0e1a d8b7
00000070: 84bc 0880 8e77 ad3d ede5 82bd a9b0 93bc
00000080: 6af2 0e80 0000 0080 8302 e6b8 c679 b7b6
00000090: 0000 0080 770c 58ba 0895 cfbb 8cbc 0900
000000a0: 3dc2 783d b3bf bbbd 46d6 80bc 8c58 79b4
000000b0: 3848 413e 7b7d c3bc 381d 0180 5772 72bd
000000c0: fafb 6eb5 6476 c5b8 96d7 5b3d 2ed2 0c80
000000d0: f356 3bbd 1493 1000 71c2 3eb4 0000 0080
000000e0: 9175 94bc 5f06 89bd fe31 1597 7b8e 76a4
000000f0: b4cb 2cbc bcff 17bd 0639 9cb3 0000 0080
-0.00027437982 0.0 -4.3323986e-08 -0.004792492 -0.058085386 -1.629618e-14 0.0 -0.04023443
-2.301666e-07 -4.11938e-40 1.850132e-39 -1.097432e-39 -2.1971414e-11 -0.007749317 -2.697783e-30 -1.8835041e-07
-1.789372e-14 -3.178926e-26 -1.2733651e-09 0.0 -1.8236217e-06 -0.0 -0.00887908 -0.056200627
-1.265987e-08 -5.8946874e-09 1.544053e-39 -2.576134e-05 -8.0231e-40 0.08470069 -0.06391511 -0.018028574
-1.372659e-39 -0.0 -0.000109677225 -5.4680013e-06 -0.0 -0.00082416035 -0.0063349046 8.94157e-40
0.060732115 -0.09167423 -0.015727174 -2.3222145e-07 0.18875206 -0.023863545 -1.02317e-40 -0.059191074
-8.9028583e-07 -9.415744e-05 0.053672396 -1.177424e-39 -0.045737218 1.52213e-39 -1.7765866e-07 -0.0
-0.018122466 -0.06690668 -4.8207596e-25 -5.3463433e-17 -0.0105466135 -0.03710912 -7.2746886e-08 -0.0

encoder.4.weight f4 [32, 64, 2, 2]
00000000: 9ff8 c205 a744 55b4 91ba af37 9fce bd33
00000010: ba02 2d81 ef92 6c01 eb75 bf80 5ed1 2e81
00000020: a4d7 3aba fc4c 0aba f326 1cba 492b f5b9
00000030: 3ce0 7e3b ba99 e63b e0b5 31b9 07ae 333b
00000040: 4033 ba3d cd38 87bc 9d14 723e 401d b63e
00000050: 0353 1937 0330 4937 7c64 fe36 9552 2737
00000060: 608a 6abe ce10 7d3c 6858 2abe 2694 363e
00000070: e8b3 e6bc b121 bc3d dbf3 063d e424 2f3e
00000080: 2a17 fbb8 08cc 40b5 9b57 b6b8 1514 66b5
00000090: ad24 5182 89bf e781 e80e 0782 dc24 4a00
000000a0: 7880 5582 84da 3a82 7a59 6f01 eb83 9381
000000b0: 34fd c981 6615 8581 97ff f381 0738 c581
000000c0: 5455 8394 8243 291e 6371 b39c c6a5 5b13
000000d0: 1b09 833b b750 ce3b 45cf 583a 1124 063b
000000e0: bfcd d519 8fba 8c27 9d4b b404 37c0 8420
000000f0: 0d23 5c37 4b8d 42a8 805a 2f38 52b4 68af
00000100: f557 6e9f ed1b 958b 281b b3a7 4ef3 4e28
00000110: 0bf9 e639 765c 96aa 9438 9939 28d6 9aac
00000120: 5f89 05b2 ffbc 18b6 f7a8 152f a9e8 4cb3
00000130: be55 363d 37f3 e13d 59d8 10bd 5629 d03c
00000140: db15 213c 6eb2 093c 268d 223c 74ac 183c
00000150: 5293 c93b 790e 553b 58b3 753b a21b 703a
00000160: a2a7 27bd d340 f4bd 4156 51bd 8289 66be
00000170: e081 6fbe b18f 46bd af1e a0bd f056 293e
00000180: 3386 3a3a f578 ac39 2e94 363a c97c c039
00000190: b388 382e 0ee9 80b0 5052 c82e 4330 2f2f
000001a0: af0c fa82 8985 0483 aa29 3883 f3f7 6183
000001b0: cb29 88bb 102b 28ba 73f3 acbb 6245 13bb
000001c0: 6e0c 7e82 e911 d282 07ca c682 b12b 8982
000001d0: 5c98 0bbe 688e d4bc ad8a fcbc 8cf3 dc3d
000001e0: 8d35 0f3e cb86 453b 3577 113d 8869 b93d
000001f0: 32b4 22bd 7576 5d3d 7701 33bd cd3a 9a3d
00000200: 8cb9 4882 87bd b780 b94d 0282 2d5a 2c02
00000210: 5cd1 4f82 571d b681 6019 2982 a433 f680
00000220: 7f79 80b9 1cd7 73b9 8500 d5b9 b180 99b9
00000230: bccb c73b 4259 313b 219c a23b 2a96 573b
00000240: 9f89 ca3e d6b8 fb3d 4a2e dc3e d859 123e
00000250: 3e53 383c a6fe 533c 2a2e 4f3c 79f7 663c
00000260: b89f 563b 6cb7 59bc d390 2aba fc3a aabc
00000270: 5c10 4881 bbe1 2901 6c2b 5281 4bc3 4d00
00000280: ef4d 26bd b21d c93d 1855 703d 2477 b83c
00000290: c478 8a3c 053f ea3d 750a b83c 9c10 793e
000002a0: 972d 6d3b a2c2 913c 7182 873c cf48 223e
000002b0: 0a8d 65ba ea2d 87ba 53fa 43ba fbd8 45ba
000002c0: 45ee 0bbd de26 8c3d 8c93 c6bc c418 263e
000002d0: 5b4c c43d 25fd 48bd 4e13 e33d 0cc1 383d
000002e0: 4025 be81 7b93 8781 19ba cb80 7bde e700
000002f0: 68fd 2ebe b737 8f3d f003 a9bd 9abe cd3d
00000300: 4963 a1ba 0ef9 b1ba 1afc 9eba ecb7 a6ba
00000310: 7fae 1238 136e d634 f90f ab37 7f6e 3534
00000320: 7ade 52bc 1275 f23c d186 ec3d 87ca a93d
00000330: 9b39 3100 ff15 9081 13f0 1901 3392 1300
00000340: 91d0 9ebd e8c8 b03c ee02 12bd 89ce 233d
00000350: 1f39 d581 8c1a b882 3ee6 c382 936f 1c83
00000360: bdcc 0000 2626 0780 029f 8282 7d70 0200
00000370: c89e b0b9 0e51 2bb7 aa1e 65b9 9284 9738
00000380: 3df9 abbc 0a87 80bc 7538 c1bc 569e 99bc
00000390: 88e9 4bbd 5095 923c 1338 033e 08e0 533e
000003a0: 309b 0a00 2ab5 0080 4c1d 0880 b35b 0080
000003b0: a091 2b39 9df2 db38 5098 1a39 e823 1a39
000003c0: dee0 bc3c 5a11 833e c851 323e cd9b bb3d
000003d0: 4ddd 86bd 9810 7c3d 4621 e03d d2e1 653e
000003e0: 55b9 86ad 966d 7baa 445c 22a9 fef4 34a0
000003f0: 2d79 5935 24b1 0535 f879 0434 f6f0 ae33
1.8335001e-35 -1.9862146e-07 2.0948502e-05 8.8385825e-08 -3.1777038e-38 4.3451774e-38 -1.7582881e-38 -3.2108966e-38
-0.000712747 -0.0005275754 -0.00059567316 -0.00046762291 0.0038890978 0.0070373686 -0.00016947789 0.002741696
0.090918064 -0.016506577 0.23640676 0.3556919 9.138838e-06 1.1991712e-05 7.581488e-06 9.973203e-06
-0.22904348 0.015445901 -0.16635287 0.17829952 -0.028161958 0.091861136 0.032947402 0.17103916
-0.00011972927 -7.182248e-07 -8.694754e-05 -8.57109e-07 -1.536542e-37 -8.513084e-38 -9.922511e-38 6.80905e-39
-1.5685637e-37 -1.3727833e-37 4.3961563e-38 -5.4188565e-38 -7.419907e-38 -4.888719e-38 -8.9630856e-38 -7.2446766e-38
-1.3261276e-26 8.960746e-21 -1.1874536e-21 2.7723419e-27 0.003998888 0.006296243 0.00082706317 0.0020468275
2.2106784e-23 3.9060073e-15 4.2387236e-36 2.2488867e-19 1.3121183e-05 -1.0799801e-14 4.1807536e-05 -2.116434e-10
-5.0471217e-20 -5.743473e-32 -4.9711923e-15 1.14880554e-14 0.0004405457 -2.670951e-13 0.00029224588 -4.4007194e-12
-7.7728535e-09 -2.2759775e-06 1.36115e-10 -4.7709054e-08 0.044515364 0.11032718 -0.035362575 0.025410336
0.009831871 0.008404357 0.009921348 0.00931846 0.006151595 0.0032509847 0.003749093 0.0009159391
-0.04093135 -0.11926427 -0.05110765 -0.22513393 -0.23389387 -0.04847688 -0.078183524 0.1653707
0.0007115334 0.00032896516 0.00069648295 0.00036714066 4.195817e-11 -9.379464e-10 9.109569e-11 1.5933303e-10
-3.6741478e-37 -3.8944604e-37 -5.412057e-37 -6.640619e-37 -0.0041553727 -0.0006415108 -0.005278045 -0.0022471775
-1.866454e-37 -3.0867007e-37 -2.9209443e-37 -2.0155418e-37 -0.13632339 -0.02594681 -0.030827845 0.107886404
0.13985272 0.0030140157 0.035514075 0.090533316 -0.03972263 0.054068048 -0.04370257 0.075307466
-1.4746929e-37 -1.6873885e-38 -9.573197e-38 1.2662443e-37 -1.5268041e-37 -6.689834e-38 -1.2423441e-37 -2.2610057e-38
-0.00024504584 -0.0002325442 -0.00040626913 -0.00029278317 0.006097285 0.0027061258 0.0049624597 0.0032895901
0.39558122 0.12291114 0.43004066 0.14292085 0.011250315 0.012939131 0.012645284 0.014097088
0.0032749008 -0.01328836 -0.0006506566 -0.020780079 -3.6745936e-38 3.120235e-38 -3.8602062e-38 7.141391e-39
-0.040601667 0.09820117 0.0586749 0.022517748 0.016903289 0.11437801 0.022465924 0.24322742
0.0036190504 0.017793003 0.016541691 0.15848087 -0.0008756673 -0.0010313366 -0.0007475961 -0.0007547286
-0.03416278 0.06843351 -0.024240278 0.16220385 0.09584876 -0.049069542 0.110876665 0.04510598
-6.984843e-38 -4.980279e-38 -1.8709365e-38 2.129381e-38 -0.17088854 0.06993049 -0.08252704 0.1004612
-0.0012312914 -0.0013578252 -0.0012129575 -0.0012719608 3.4971625e-05 3.9940696e-07 2.0392226e-05 1.6897137e-07
-0.012870425 0.02959684 0.11549152 0.08290582 4.520604e-39 -5.292881e-38 2.8273907e-38 1.797321e-39
-0.07754625 0.021580175 -0.035647325 0.03999189 -7.832581e-38 -2.7051607e-37 -2.8784827e-37 -4.597236e-37
7.3446e-41 -6.56534e-40 -1.919305e-37 2.24024e-40 -0.00033687637 -1.0211266e-05 -0.00021850565 7.224934e-05
-0.02099287 -0.015689392 -0.023586491 -0.018752258 -0.04978326 0.017893463 0.1281436 0.2069093
9.74026e-40 -6.499e-41 -7.45194e-40 -3.2895e-41 0.0001636208 0.00010487924 0.00014743325 0.0001469996
0.023056444 0.25599176 0.1741401 0.09160576 -0.065851785 0.061539263 0.109438464 0.22449425
-1.531634e-11 -2.2331299e-13 -3.6051254e-14 -1.5327654e-19 8.1015133e-07 4.9804135e-07 1.233783e-07 8.146337e-08

encoder.4.bias f4 [32]
00000000: 18a5 27ba 716d 3dba ec7b 96b2 e7fb c63b
00000010: 535f 15bd d7cf 11bc 0474 308f 502c 803a
00000020: e654 c29d 8f8d c2bc bc13 d59f d541 833c
00000030: 3e52 b33d 8448 9a3d 8905 54bc e613 35ad
00000040: c946 803d 6af9 49b5 e0a3 bc3d d73c 2cba
00000050: 4be0 16bd 3756 fa06 64f3 59b1 ad19 128c
00000060: 60f5 c7bb 3ea6 93bb 052e 79bb 3e57 f9ba
00000070: ecbc 05bc 1fc3 d6b9 c883 f9bb 0867 d5b9
-0.00063951453 -0.0007226086 -1.7518651e-08 0.0060725096 -0.03646786 -0.008899651 -8.699814e-30 0.0009778831
-5.1439155e-21 -0.023749141 -9.0241657e-20 0.016022602 0.08755921 0.075333625 -0.012940773 -1.0293077e-11
0.06263501 -7.524128e-07 0.09210944 -0.0006570345 -0.036834996 9.416623e-35 -3.1716008e-09 -1.1255157e-31
-0.006102249 -0.0045059016 -0.0038021815 -0.0019023193 -0.008162718 -0.00040962637 -0.0076145865 -0.0004070329

encoder.6.weight f4 [16, 32, 3, 3]
00000000: 967c 91bc 5df5 6dbd b7f7 3cbe aa04 253e
00000010: ad55 533d 33de b0bb 064c 0a3e bb45 533d
00000020: bf03 9ebd 0000 0000 7aeb c339 fb03 cf39
00000030: 0000 0000 0000 0000 57c5 063a 7e15 9239
00000040: 0000 0000 0405 2a3a 2f2d 9bb1 1244 20b2
00000050: 032d fcb1 3cb2 1ab2 9c72 56b2 15be 5bb2
00000060: c43e 1fb2 2300 7bb2 17e6 cf31 92b5 d73d
00000070: 47e6 f03d f79a 9b3d d9e1 a9bb 26e2 9d3d
00000080: 49ea e73d e941 233e ec9d 343d 8dd4 65bc
00000090: 7d37 1c3e 6ac5 803d d2c9 0a3e 4e5a 3abd
000000a0: f009 f23d e985 863d 77be 38bf 6a9e 2cbe
000000b0: 7078 9cbd face c7b9 c846 5d3a 81cf bc3a
000000c0: c870 26bb 8fb2 e0b9 43fc ceb9 2804 85bb
000000d0: 98a2 95ba 7a00 7cba d057 0880 3a32 680e
000000e0: 3c8a 0500 d1c2 0480 1fb5 3280 65a3 0200
000000f0: b0f7 0000 8438 be88 c073 0300 c841 943d
00000100: 84b4 393d 85ed 0abd 9baf 18bd 3bb3 9a3d
00000110: 7cac 873d cab8 6abd f9cd 063d 3036 933d
00000120: 767b 739c 1014 b21b 39b9 181b 32aa 781b
00000130: 05ef 1911 afa6 311a a406 141b c801 8a9a
00000140: a1c3 1a9b 54e9 77bd 5205 d9bd c8bd 4abe
00000150: 7942 e23d be4d 123d dfbf 6c3b f377 383c
00000160: 9c6b 403d 48b3 f6bc f0b1 b29b 37b7 ff1d
00000170: 19c0 891d 5033 d69c 2bc5 b69d e10d 921c
00000180: 711e 8e9d 43c4 6b1c 00c1 4f1d c3ea febd
00000190: d4c2 9b3a f507 0fbe 4b64 a8bd 96f8 d6bb
000001a0: f65d edbd bfcc 7c3d 8bf0 dc3c 383c 2e3e
000001b0: 86e7 ea3d 8bcb ba3d a6e4 d83d 445c 343c
000001c0: a6a0 8c3d 0ca0 833d 36d7 693d 902e 85bb
000001d0: 15b7 18be cb55 17be faa6 d43d cb72 8fbd
000001e0: 402c d93d 0000 0000 0000 0000 4801 6c3e
000001f0: 60c1 793e 24cb 423d 505c 1d3e c104 913a
00000200: 16cb 803d 3ace a33d c969 213e bccd 3d3e
00000210: d843 553e 53a4 913b 43d7 f7bc 0000 0080
00000220: f6c0 0fa8 0000 0080 aead 50a7 0000 0000
00000230: 47db 65a6 0000 0080 8634 8925 0000 0080
00000240: f03d d43d 3a85 563d 8f13 083d 5d21 773d
00000250: fe68 803d 826c 083e 0000 0000 c72d 3d3c
00000260: 0000 0080 f83e fb9a 8c1a 5b1d 11cf 719d
00000270: a33e 331c 34ac b81c a169 e09f fe0a d29b
00000280: 097b 269d 0d00 959d 70af e23d a9ee a4be
00000290: 8b8a 4bbe 3958 513e bd72 863d 280a 9fbd
000002a0: 04eb 8cbe 906a 73be 063e 053e 0000 0080
000002b0: 6e34 293d 0000 0000 0000 0000 dde6 143c
000002c0: 0000 0000 0000 0000 cce8 273d 0000 0000
000002d0: fe57 2dbc 369d 83bd 807f fbbd 7128 27bd
000002e0: 2026 a63d 2c1c 11bc b31b c73d a418 093e
000002f0: 0eed 093e 0a2b 1507 9c6e 1b06 ce49 8806
00000300: 678f 4507 61c2 0900 8738 8a04 4248 3507
00000310: 30d8 8004 d94d 1305 4ba4 50ae 08eb acad
00000320: 5105 892e 53ce 38ae 363f e0af 9123 baac
00000330: e37e 0b2d dcb0 5bae dd1a c9ac 8553 288c
00000340: db54 298b 24c3 ee8a 04ca 0a8c cae9 2780
00000350: 0000 0080 c0c2 058c c836 db07 1a7d b908
00000360: edd0 46bd 4dc8 21bd 777c 8cbd d84e 67bd
00000370: 5e7f 563d 2788 883d 30b7 033e 625a f23d
00000380: 064b 183e 3f5f 21bc 915c 90b9 d0ba a03b
00000390: 4e77 17bc 0190 003a b8de e33b ded8 f8bb
000003a0: c347 463a 41cf e33b 0da7 e03d 8854 243e
000003b0: e901 0fbd 42b0 f5bd 5bf3 7cbd 8e96 f13c
000003c0: b877 303e 13dd d53d 8b69 053e 1f38 55bd
000003d0: adfc 373c f8e0 103e e076 de3d a710 1a3e
000003e0: 9287 883d 73a2 d73e fe01 e43d 8378 12bd
000003f0: 859c 6b3c 0df8 ef3a f9f8 e3bd e6fc 8f3d
-0.017759603 -0.058095325 -0.1845387 0.1611506 0.05159538 -0.005397582 0.13505563 0.051580172
-0.07715558 0.0 0.00037368742 0.00039485082 0.0 0.0 0.00051411 0.00027863303
0.0 0.0006485733 -4.5162305e-09 -9.328703e-09 -7.3392825e-09 -9.004506e-09 -1.2482499e-08 -1.2790697e-08
-9.269289e-09 -1.4610154e-08 6.050651e-09 0.10532679 0.11762672 0.075979166 -0.005184394 0.0770915
0.11323983 0.15943111 0.04409592 -0.014027727 0.15255542 0.06287654 0.13553551 -0.045496278
0.11818302 0.0656851 -0.72165626 -0.16857305 -0.07640159 -0.00038110447 0.0008441028 0.0014405103
-0.0025396813 -0.00042857646 -0.00039479331 -0.0040593334 -0.0011416255 -0.0009613108 -7.66185e-40 2.8620391e-30
5.08767e-40 -4.37229e-40 -4.656749e-39 2.42286e-40 8.8854e-41 -1.1448496e-33 3.1703e-40 0.07239109
0.04533817 -0.033917923 -0.037276845 0.07553717 0.06624696 -0.057305135 0.032911275 0.0718807
-8.0561525e-22 2.9460595e-22 1.2632994e-22 2.0569072e-22 1.2143225e-28 3.6737388e-23 1.2244419e-22 -5.707834e-23
-1.2801793e-22 -0.060525253 -0.10596718 -0.19798958 0.11047835 0.035718672 0.0036125106 0.011259067
0.046977624 -0.030114785 -2.956262e-22 6.7687378e-21 3.6462222e-21 -1.4174596e-21 -4.8378866e-21 9.665057e-22
-3.7618563e-21 7.800864e-22 2.7496e-21 -0.12447121 0.0011883625 -0.13967879 -0.08222254 -0.0065603955
-0.11590187 0.0617187 0.026970169 0.17015159 0.11469941 0.09120854 0.10590486 0.011008326
0.06866579 0.06427011 0.057090007 -0.0040643886 -0.1491359 -0.14778821 0.10383411 -0.07004317
0.10604143 0.0 0.0 0.23047364 0.24390173 0.04755701 0.15367246 0.0011064039
0.062887356 0.07998319 0.1576301 0.18535513 0.20826662 0.004444638 -0.030254012 -0.0
-7.979936e-15 -0.0 -2.895995e-15 0.0 -7.974751e-16 -0.0 2.3801303e-16 -0.0
0.10363376 0.05237315 0.033221778 0.060334552 0.06270026 0.13322642 0.0 0.011546559
-0.0 -1.039129e-22 2.8998133e-21 -3.2003135e-21 5.930709e-22 1.2220612e-21 -9.504244e-20 -3.474869e-22
-2.2033525e-21 -3.9440024e-21 0.11068618 -0.32213333 -0.19877069 0.2044381 0.06564853 -0.07765609
-0.27523053 -0.23771119 0.13011941 -0.0 0.041309766 0.0 0.0 0.009088245
0.0 0.0 0.040993497 0.0 -0.010580061 -0.0642647 -0.12280178 -0.040810052
0.081127405 -0.008856814 0.0972208 0.13388306 0.13469335 1.1222162e-34 2.9233523e-35 5.126596e-35
1.4862775e-34 8.9625e-40 3.2495556e-36 1.3638161e-34 3.0291192e-36 6.926205e-36 -4.7439646e-11 -1.9658511e-11
6.230983e-11 -4.202001e-11 -4.0790277e-10 -5.2903866e-12 7.92941e-12 -4.9951918e-11 -5.715746e-12 -1.2967382e-31
-3.2612054e-32 -2.299197e-32 -1.0691925e-31 -3.665452e-39 -0.0 -1.0304553e-31 3.2983655e-34 1.1163694e-33
-0.04853909 -0.039497662 -0.06859677 -0.056471676 0.05236756 0.06666594 0.12862849 0.118336454
0.14872369 -0.009849369 -0.00027534788 0.0049050823 -0.009244753 0.0004904271 0.0069540404 -0.007594212
0.0007563794 0.006952197 0.109693624 0.16047871 -0.03491393 -0.11996509 -0.06175552 0.029490735
0.17233169 0.10442557 0.13028543 -0.052055474 0.011229676 0.14148319 0.10862517 0.15045415
0.06666483 0.42116126 0.111331925 -0.03575946 0.014380579 0.0018308178 -0.11131472 0.070306584

encoder.6.bias f4 [16]
00000000: 9365 3e3d 6f81 143d f293 09bd f85d aabc
00000010: 6e0b 82a1 0000 0080 e875 c53c 6fbe 26bb
00000020: 75a6 27a7 2617 2dbd f480 71bb 9a34 8f3c
00000030: e9d2 203b 02e0 8ab8 a860 ad3d e7dc d8b9
0.046483587 0.03625625 -0.033588357 -0.02079676 -8.812168e-19 -0.0 0.024104074 -0.0025443097
-2.3266142e-15 -0.042258404 -0.0036850544 0.017481137 0.0024539775 -6.6220775e-05 0.08465701 -0.00041363316

encoder.9.weight f4 [8, 16, 3, 3]
00000000: d433 e7bd 7a98 03be 18fd d6bd c9fc 44bd
00000010: c5a6 fdbc fe3a 9a3d 8aee 0abd 4fb5 6cbd
00000020: 5692 753e cd87 87bd 0d1e 0dbd 2c51 85bc
00000030: cb91 cfbd 5223 853c 9c64 183d f13b 39bd
00000040: e1da 183b b0f6 be3d ecbc 59bd 5c7a c3bc
00000050: 5364 fa3c f384 823d abe6 ca3c bd56 463d
00000060: bcc3 9b3c d50f ae3d 061e bb3e 836c 19bd
00000070: 43b1 cf3c 5c76 fdbd f347 6639 8e17 18bd
00000080: d0a0 d23c 4e51 613d f180 afbc 7a6d b5bd
00000090: 699e 0600 e691 393c b1d9 633c 050c 8f3c
000000a0: 722b a23c 908b a23c 7c1b ae3c bfeb b63c
000000b0: 8da0 b63c 3715 1500 cb02 2335 0000 0000
000000c0: 6804 0480 1b47 6835 2fb8 6f38 3499 a51f
000000d0: 8286 a736 31e1 fd38 5b7a bdbd cb08 e53c
000000e0: 1119 7abc 7b5b 9ebd eb1f ca3c 6c44 9cbc
000000f0: a792 fdba 5c43 38bc 6dfb 093e db37 6ebd
00000100: 3be4 5bbd 72a3 a23c 1568 1dbd 8dda 4bbd
00000110: fa08 b23a 665b ec3c 315d 83bc e4b8 603c
00000120: c367 0680 982e a6ae d020 a5b4 0456 95bb
00000130: 0c60 77bb c051 52bb 343d eabb 3272 c7bb
00000140: 4c50 a9bb 2e01 55bd d8ad 78bd ad4e a1bb
00000150: 3d75 eabc 9721 543d 376b 8bbc 89ca 723c
00000160: bd71 31bd 6da4 d5bc e4e0 a8bd 1eda 48bd
00000170: 2f05 4bbd 741f c0bc 99c3 88bc 2e55 013d
00000180: e9fc c63c 5bf2 3e3d 3ba4 863e e9f5 53bd
00000190: 792f f33c 8b05 6abd f788 913d 100f 02bd
000001a0: 274f 023d 56b7 b9bb 07ef 2d3d 908a 9a3e
000001b0: 2edd 5fbd 3f13 bbbc 10fa 2d3c b5a9 b83d
000001c0: 9025 69bd c2bb b93d 8414 40bd 23aa b53c
000001d0: 85e4 9e3e 75ce 0c80 5222 fe2f e008 5831
000001e0: 0c1f 93b4 fed8 c3b3 f446 d5b8 b0db f686
000001f0: 248b 0a30 9f79 c331 2675 67bd 8093 c0bd
00000200: 8822 e8bd ea54 e7bd cbf2 273c 6c5a 3dbc
00000210: aba0 cabd 7e5f 87bc 867a 86bd 2915 92bd
00000220: 84f6 47bd f142 c33c 40cd 91bd f539 8bbd
00000230: 9241 963c 2109 143c 5024 d8bc cd74 483e
00000240: 1b15 45b8 5f8a 14b8 1a89 b9b8 f68b f3bc
00000250: ebd7 eebc e542 3338 2010 f1bc e254 efbc
00000260: 98fd 4838 7ce4 c837 4fb1 37b6 ccf8 e9b7
00000270: eca1 eebc d366 e2bc 2e47 22b7 849c d8bc
00000280: c73a 223a 1318 1938 ed02 dbb7 d268 d3b6
00000290: 75f6 b7b7 54c0 adbc b0fe 6434 3b24 fc36
000002a0: 4c45 bdbc 74f6 0e3a 00fa 21b8 be78 4438
000002b0: 1f5a e136 4ae8 d8b7 2c30 ebbc 27e2 d6bc
000002c0: e274 d3b7 c9ed d9bc 4ae3 c4bc 2069 7a38
000002d0: 1aa5 1400 d293 1300 6d0d 0800 2f7a 0780
000002e0: e5fd 0300 9f73 0480 5d25 0380 9a55 1580
000002f0: f50e 1400 3d5a 0c00 34e3 0080 0938 0e00
00000300: 656f 0180 1189 0500 52bc 0b00 2558 0a00
00000310: 428a 0380 de95 0280 8ada c438 ab22 ebb7
00000320: 0cb9 b837 f835 e5bc 91cc f1bb 4f8e f5b7
00000330: fe99 ebbc 2b65 d9bc 7e49 ab36 4c6d a2b8
00000340: f03d 33b7 0665 3937 7534 1938 5cc0 aeb7
00000350: d89c 5fb7 03e0 dcbc f69d 90bc 4afa 6637
00000360: 0409 0c80 28be 0280 2c56 0080 03d6 0600
00000370: 997f 0600 d23f 0e80 2048 0800 6c57 1080
00000380: 310b 0200 ca4f b138 f9b7 ea37 68b0 29b8
00000390: af25 bebc 5db0 c9bc 6af2 82b7 934b e0bc
000003a0: bebd ebbc 0235 6f37 e56f 8438 febe 0bb8
000003b0: 0e74 e1b7 c0d2 efbc f3f8 d8bc 7947 89b7
000003c0: 61f8 e5bc 00c2 cfbc 2832 c537 9c0b 1038
000003d0: f6b1 5137 2026 5db7 eba1 cdbc 5033 95bc
000003e0: 7821 6cb7 3a77 c7bc 5f6e c1bc c414 1b38
000003f0: 8ea7 3b38 3f56 5eb6 532b 20b7 c1ff dbbc
-0.11289182 -0.12851134 -0.104974926 -0.048092637 -0.030963311 0.07530783 -0.033918895 -0.057790097
0.23981604 -0.06617699 -0.034452487 -0.016274057 -0.1013523 0.016252194 0.037205324 -0.04522318
0.0023323821 0.09324396 -0.053158686 -0.023862056 0.030565416 0.06373014 0.024768194 0.048422564
0.019014232 0.084991135 0.36546344 -0.037457 0.02535308 -0.12376091 0.00021961312 -0.03713184
0.025711447 0.05500918 -0.021423789 -0.088587716 6.0784e-40 0.011326289 0.013906882 0.017461786
0.019796107 0.01984194 0.02125334 0.02232921 0.022293353 1.936156e-39 6.0726296e-07 0.0
-3.68923e-40 8.6530207e-07 5.7153575e-05 7.013367e-20 4.9926466e-06 0.00012105925 -0.09251853 0.027958294
-0.015264765 -0.07732292 0.024673423 -0.019075595 -0.0019346074 -0.0112465285 0.13474818 -0.058158737
-0.053684454 0.019853327 -0.03842934 -0.049768973 0.0013582997 0.028852176 -0.016035648 0.013715956
-5.88236e-40 -7.557083e-11 -3.075752e-07 -0.004557373 -0.0037746457 -0.0032092184 -0.0071484093 -0.006086611
-0.005167043 -0.05200308 -0.060712665 -0.004922709 -0.028620357 0.051789846 -0.017018897 0.014818796
-0.04332136 -0.02607938 -0.082460195 -0.049036138 -0.04956549 -0.023452498 -0.01669483 0.031575374
0.024290519 0.046617847 0.26297173 -0.05174819 0.029685723 -0.057134192 0.07106202 -0.031752646
0.031813767 -0.0056676073 0.042464282 0.3018384 -0.054654293 -0.022836326 0.010618702 0.09016744
-0.056920588 0.09069015 -0.046894565 0.022175854 0.31033722 -1.176089e-39 4.6226717e-10 3.1437182e-09
-2.7403473e-07 -9.119866e-08 -0.000101698475 -9.2857717e-35 5.040184e-10 5.6890737e-09 -0.056508206 -0.094031334
-0.11334711 -0.11295493 0.010250757 -0.011557203 -0.09893926 -0.016525026 -0.06566338 -0.07132942
-0.04881908 0.023835631 -0.071192265 -0.06798164 0.018341813 0.00903538 -0.026384503 0.19575806
-4.6988116e-05 -3.5414818e-05 -8.8470246e-05 -0.029729825 -0.029155692 4.2739226e-05 -0.029426634 -0.02921528
4.7919893e-05 2.3948254e-05 -2.7372332e-06 -2.789162e-05 -0.029129945 -0.027636921 -9.672525e-06 -0.02644182
0.0006188568 3.6500463e-05 -2.6108197e-05 -6.3004927e-06 -2.1930065e-05 -0.021209873 2.132681e-07 7.514403e-06
-0.023104332 0.00054535945 -3.8618222e-05 4.684249e-05 6.716014e-06 -2.5857375e-05 -0.028709494 -0.026230885
-2.5207588e-05 -0.026602643 -0.024034161 5.970255e-05 1.895937e-39 1.797902e-39 7.395e-40 -6.8668e-40
3.66587e-40 -4.08819e-40 -2.8891e-40 -1.959253e-39 1.842075e-39 1.134397e-39 -8.1505e-41 1.305799e-39
-1.31796e-40 5.08348e-40 1.077747e-39 9.49975e-40 -3.25104e-40 -2.37433e-40 9.3867144e-05 -2.8030327e-05
2.2020678e-05 -0.027979836 -0.0073791225 -2.9272544e-05 -0.028759953 -0.026537498 5.1047527e-06 -7.74512e-05
-1.0683652e-05 1.1050381e-05 3.6526897e-05 -2.083199e-05 -1.3328354e-05 -0.026962286 -0.017653447 1.3767343e-05
-1.10526e-39 -2.51886e-40 -3.0913e-41 6.27786e-40 5.96786e-40 -1.308591e-39 7.60558e-40 -1.500729e-39
1.87686e-40 8.4548796e-05 2.7980643e-05 -4.045703e-05 -0.023211328 -0.02462023 -1.561009e-05 -0.027379787
-0.028777 1.4257852e-05 6.3150925e-05 -3.3318058e-05 -2.6876132e-05 -0.029275298 -0.026485896 -1.6364955e-05
-0.028072538 -0.025361061 2.3507586e-05 3.4343087e-05 1.24988055e-05 -1.3181503e-05 -0.025101623 -0.018212944
-1.4074489e-05 -0.024348844 -0.0236122 3.697422e-05 4.474032e-05 -3.313078e-06 -9.54683e-06 -0.026855351

encoder.9.bias f4 [8]
00000000: 5206 6cba ff7c 20b9 21af a83a b178 233d
00000010: dd94 b83c eaf4 fbb0 cd51 093e a9eb 523d
-0.00090036273 -0.00015305354 0.0012869575 0.039910022 0.022531921 -1.8332262e-09 0.13410111 0.051494274

decoder.0.weight f4 [8, 128, 3, 3]
00000000: 3d3a c5bc 4725 8b3e c8cc 76bc e03d 17be
00000010: 0000 0080 d67b 293e b8fb f6b9 0000 0000
00000020: 7a18 49bb a798 14bd 2719 443e 5609 83bd
00000030: 0000 0080 a47b afbe 0000 0080 52eb 9cbd
00000040: 0000 0000 a6fe 52bd 902a 4d3d 7d74 683c
00000050: a124 92bc c3b4 243e 9e9d 1b3e 3362 e63d
00000060: 2762 f1bb c8c8 2cbc f17e c5bc fea5 843b
00000070: 4b11 98bc 35bc 3ebd 755f 283e caf9 d9bc
00000080: 4a12 ae3d 94ac 30be 4945 bc3d bdfd eabd
00000090: 743a 91bc d3fe 71bd 0000 0000 0000 0000
000000a0: c8e7 73be 7717 0880 0000 0080 bd9d 02be
000000b0: 0000 0080 9350 58b9 00e0 9ebd 3e88 1280
000000c0: 17f5 afb3 5fda 29bd a538 448e a0eb 70b8
000000d0: 9470 09bd 4df0 0a00 b5f1 023d f3fd 3f0a
000000e0: affa 963d 69d5 ef3d d119 eabc e696 aabc
000000f0: 76c2 a3bd b077 53be f9b2 bebe 525f ec3d
00000100: e252 0e80 f879 dc3d 4ea4 d0bd 659b 0c00
00000110: 7ae9 7cbd fde3 f7bd 7411 87be 2cd7 f8bb
00000120: 8602 f8bc b00d 73bd 0000 0080 0000 0000
00000130: eccf e1bd 4ee0 373a 5a68 73bd 0000 0080
00000140: ddfa 4bbd 4ddf f33d 0000 0080 a769 523d
00000150: 0000 0000 0000 0080 f143 f5bd bb44 823d
00000160: 0000 0000 d6cc 47bd f019 643c 0000 0080
00000170: 87db 36bc f43a cdbe 47d5 e8a8 48b0 b4bd
00000180: e09a 153d 7501 88be 2070 eabd 550d c13d
00000190: 1169 2b3e e625 9bbc f6cb 6ebe 6684 13bc
000001a0: 5709 493d 1214 5fbb f600 9fbd c4b9 48be
000001b0: 2985 4bbd d1e8 0f00 3a3c 413d bf78 2d3e
000001c0: 1c82 1380 ab95 82bd cd17 203e 39a7 91bc
000001d0: db7d fa3c 5b02 0380 b351 783c f277 a636
000001e0: 0c1b 353e d28d 40be ac06 1bbd 2f50 0200
000001f0: 898f 84bd 239b 24be 5287 07bd 0000 0000
00000200: 3a67 93bd 0000 0080 6c27 02bd 0000 0080
00000210: cfc0 3c3b e6ae 0d80 826c 2c3d e634 1fbc
00000220: b166 35be e75d e1bc 13a6 aabd 2062 9dbc
00000230: 4079 e73a 1a53 8fbd dd6a 84bc 5377 06bc
00000240: 8960 153e 6d9c 12bb 50c6 99bd 2fb9 49bd
00000250: 6ea7 02bb 9278 373c c57b 133d f8ea 89bb
00000260: 24c4 37be a2db 25be 8d64 8ebd 770c 54be
00000270: f2bb 93bb 0000 0000 e52a 1bbb c79e eb3d
00000280: d11b 37bc 410b 3bbe 5434 7dbd 18e1 b33d
00000290: cf0b 9ebd e9ae 7bbd 0a44 97bd 86ec 21be
000002a0: c7c4 9c3c fc83 b1bd 6483 0dbd 1b31 243d
000002b0: 5e9e c0bb 7b46 f0bd ee1f 23b7 f182 eabc
000002c0: 9f8e 3ab8 ae42 a73d 8b97 a4b2 ab4c 86be
000002d0: df71 0b00 e117 42be 8b0c 0b80 3c65 68bd
000002e0: 0000 0080 896a abba fa94 0600 0000 0000
000002f0: eb98 0a00 2a52 0bbe 05aa 4dbe 3118 79bc
00000300: d4ec 0b00 7936 ccbd a64b 0480 fe08 15bd
00000310: ffdf c83b 0000 0080 07d2 bfba a7fc 3abb
00000320: 0000 0000 8e9c 2e3e 0000 0080 8907 2d3d
00000330: 22b4 12bc e8e5 0cbb 0000 0080 07ab b2b8
00000340: e28e 55be a78a d3bc 20ec 383e 0000 0080
00000350: 6698 a6bd 448a e8bc 9ad7 b03b b70d bfbc
00000360: 6088 0bbe dc1c d13d 05e2 90bd ec3a 833c
00000370: e35b 89b9 69cc 753e 9062 37bc fcb1 08bd
00000380: 53cb 06be fb6d 6c3d e05a b6bd 5753 9cbd
00000390: 8568 97bc b81f 31bb 0000 0080 e08c 233e
000003a0: 0000 0080 0000 0080 0000 0000 1bbb 21be
000003b0: 0000 0000 2605 48be 82b0 45b6 68b1 30be
000003c0: 9a3a 3a3e ca21 0c3d aeab 473c 81f6 7c3d
000003d0: d051 7abe ed26 363b c903 0b80 28fe 13be
000003e0: 0000 0000 0000 0000 1987 20bc 0000 0080
000003f0: 9b9d 0a80 0000 0080 9fde 0280 0000 0000
-0.024075622 0.27176878 -0.015063472 -0.14769697 -0.0 0.16551146 -0.0004710832 0.0
-0.0030684755 -0.036278393 0.1915022 -0.06398265 -0.0 -0.34274018 -0.0 -0.07662071
0.0 -0.051512383 0.05008942 0.014187929 -0.017839732 0.1608458 0.15196845 0.11249199
-0.007366437 -0.010545917 -0.024108382 0.004048108 -0.018562933 -0.046566207 0.16442664 -0.026608367
0.08499582 -0.17253333 0.091929026 -0.11474178 -0.017728068 -0.05908091 0.0 0.0
-0.23818886 -7.43102e-40 -0.0 -0.12755485 -0.0 -0.00020629381 -0.07757568 -1.701913e-39
-8.193654e-08 -0.04146802 -2.4186139e-30 -5.7439902e-05 -0.03355463 1.004559e-39 0.03196879 9.244078e-33
0.07372033 0.11710627 -0.028576763 -0.020823907 -0.07996075 -0.20651126 -0.3724592 0.115416184
-1.31543e-39 0.10765451 -0.10187589 1.157771e-39 -0.061746098 -0.12104032 -0.26380503 -0.00759401
-0.03027464 -0.059339225 -0.0 0.0 -0.11025986 0.000701432 -0.05942569 -0.0
-0.04979979 0.119078256 -0.0 0.05137029 0.0 -0.0 -0.119758494 0.063607655
0.0 -0.04877933 0.0139222 -0.0 -0.011160738 -0.4008404 -2.5849668e-14 -0.088226855
0.036524653 -0.26563612 -0.114471674 0.09426371 0.16739298 -0.01893897 -0.23319992 -0.009003734
0.049081173 -0.0034039062 -0.07763855 -0.19602114 -0.04968754 1.461051e-39 0.047176577 0.16940592
-1.791549e-39 -0.06376203 0.1563408 -0.017779933 0.03057759 -2.76351e-40 0.015156197 4.961149e-06
0.17686099 -0.188041 -0.03784816 2.12435e-40 -0.0647269 -0.16074805 -0.033088036 0.0
-0.07197423 -0.0 -0.031775877 -0.0 0.0028801446 -1.256603e-39 0.04209567 -0.009717202
-0.17714955 -0.027510596 -0.083324574 -0.019211829 0.0017660037 -0.06998272 -0.016164238 -0.00820716
0.14587606 -0.002237107 -0.07508528 -0.04924887 -0.0019936222 0.01119818 0.036006708 -0.0042089187
-0.17945915 -0.16197065 -0.06952772 -0.2070788 -0.004508489 0.0 -0.002367669 0.11504894
-0.011176066 -0.18266012 -0.061817482 0.087831676 -0.07717096 -0.061446104 -0.07386024 -0.15812883
0.0191368 -0.08667752 -0.034549132 0.040085893 -0.005878254 -0.11732193 -9.722991e-06 -0.02862689
-4.4478682e-05 0.08167015 -1.9161027e-08 -0.26230368 1.05104e-39 -0.18954422 -1.01469e-39 -0.05673717
-0.0 -0.0013078015 6.04456e-40 0.0 9.73212e-40 -0.13605562 -0.20084389 -0.015203522
1.095148e-39 -0.09971327 -3.9448e-40 -0.03638553 0.006130218 -0.0 -0.0014634737 -0.002853194
0.0 0.17051908 -0.0 0.042243514 -0.00895408 -0.002149934 -0.0 -8.519558e-05
-0.20855287 -0.02582295 0.18058825 -0.0 -0.081345364 -0.028386243 0.0053967955 -0.02332197
-0.13626242 0.102105826 -0.0707436 0.016019307 -0.00026199137 0.24003758 -0.011192933 -0.033372864
-0.131635 0.057722073 -0.08904052 -0.07633083 -0.018482456 -0.0027026962 -0.0 0.15971708
-0.0 -0.0 0.0 -0.15794031 0.0 -0.19533214 -2.9458029e-06 -0.17255175
0.18186417 0.03421191 0.012186928 0.061758522 -0.24445271 0.0027794198 -1.011548e-39 -0.14452422
0.0 0.0 -0.009797835 -0.0 -9.74893e-40 -0.0 -2.63532e-40 0.0

decoder.0.bias f4 [128]
00000000: ff33 923d ac74 36be e3bb babe 1662 e83d
00000010: 6a77 80be 472c c2bd 9684 2a3e 7de2 44be
00000020: c64e 67be ec86 96be 7161 0a3f 69a1 1f3d
00000030: 28c0 08be 3dc5 babd 5994 c23f 8642 a73d
00000040: 772e 1c3e dfd5 343e 147e abbe 3e64 ad3c
00000050: d91e adbd f576 38be e6fe 743d b068 d03c
00000060: 6263 d03c 9461 5e3d 613f a13d d9c9 2dbd
00000070: d471 2ebf 884e ff3c 3508 80be 0ecf 293f
00000080: 9f85 093d c22b 19be 3173 673d 38b6 99be
00000090: a33c 433d a0d9 c4be 94ea 93be 64bc 90be
000000a0: 4040 583f c1df 043f d4dd c9be a2c0 a4be
000000b0: cf99 bebd 0dec 593e 3112 2d3e d3cb 563c
000000c0: 3284 4abd b501 0dbd 0d56 b03d 6684 4cbd
000000d0: c761 2a3d 6a53 8c3e 3f8d 0bbe c020 04bf
000000e0: 1d74 1e3d 59b0 893e a014 3b3e bbe5 30bb
000000f0: eed4 39be 5afd 91be 9702 503d baf8 f53c
00000100: facd 413e e6e3 b9be e41e 773d efd6 d2bc
00000110: 611c 20be 0e90 b33c 3119 3b3e 2e62 f43c
00000120: 0e85 c53d 6280 1ebe b753 8f3d 8f7c b03d
00000130: bd0a 9ebb c447 c43d 52f8 ddbd 3522 9339
00000140: cd91 2dbe 8195 1cbf d5d4 25bf 130f ccbd
00000150: 5471 993c 25bf 9ebe bf3c 30be dc7b 803d
00000160: 4e24 d7be cc01 513d 0147 25be 5351 3bbe
00000170: 717c 0c3f 5c91 b13a 855f 27bd 5640 c93a
00000180: d271 4c3d 9709 a23d 86c7 bcbd ab41 1fbe
00000190: c0ad 913b e633 f1bd 2d1a 0bbd 5742 e4bb
000001a0: 0ead 16be 79e7 76bd eb7a 75bd 0f99 c73e
000001b0: cc46 7dbe f29a 083e 4c2d 18bd 938f f2bd
000001c0: 26b3 873e 4553 eb3d 752f 9b3d a2b0 a1be
000001d0: 1263 603d 1567 eabc 5f12 63bd 7724 ec3e
000001e0: 57b3 ebbd 596e 123e 540b a53d 5ac4 533e
000001f0: a4d6 9dbd 62ab 06bd ea81 aa3d 9df3 393e
0.07138824 -0.17817944 -0.3647147 0.113468334 -0.25091106 -0.094811015 0.1665214 -0.19227023
-0.22588643 -0.29399812 0.54054934 0.038972292 -0.13354552 -0.091196515 1.5201522 0.08166985
0.152521 0.1765971 -0.33494627 0.021165963 -0.08453149 -0.18014129 0.059813403 0.025440544
0.025438014 0.054292277 0.07873417 -0.042428825 -0.6814244 0.031165376 -0.2500626 0.66331565
0.033574697 -0.14958099 0.05650634 -0.30021834 0.04766525 -0.38447285 -0.28889906 -0.2826873
0.8447304 0.5190392 -0.39427054 -0.32178217 -0.093066804 0.21281452 0.1690147 0.013110119
-0.049442478 -0.034425456 0.08610163 -0.049930952 0.041597154 0.2740739 -0.136281 -0.5161247
0.038684953 0.26892355 0.18269587 -0.0026992399 -0.18147632 -0.28513604 0.05078372 0.030025829
0.1892623 -0.36306685 0.060332194 -0.025737254 -0.15635826 0.021919277 0.18271329 0.029831972
0.09644519 -0.15478662 0.06998389 0.08617508 -0.0048230574 0.09584001 -0.10838379 0.0002806351
-0.1695015 -0.61165625 -0.6477788 -0.09963813 0.018730797 -0.31005207 -0.17210673 0.06273624
-0.42019886 0.051027104 -0.16140367 -0.18292741 0.5487738 0.0013547349 -0.04086258 0.0015354257
0.049913235 0.07911985 -0.092177436 -0.15552394 0.0044457614 -0.11777477 -0.03396051 -0.006965916
-0.14714453 -0.060279343 -0.059931677 0.38983962 -0.24734038 0.13340357 -0.037152573 -0.11843791
0.26503867 0.11490492 0.07577411 -0.31580073 0.05478198 -0.028613606 -0.055437442 0.4612157
-0.11508816 0.14299907 0.08058801 0.20680371 -0.07706955 -0.032878287 0.083255604 0.18159337
