mnist_random_iter/end_of_4.pth (torch_old, 842189 bytes, 19 tensors)

encoder.0.weight f4 [128, 1, 3, 3]
00000000: ce0a 303e f46f 253d 0c97 5b3d 41da 923e
00000010: 35b5 523e 2e4e e93d 8d71 513e 3061 89bb
00000020: c265 ddbe 8190 8ebe 6d2f 20bd 3844 cb3b
00000030: 9fab 163d 89ec ee3d dd98 bd3d 0000 0000
00000040: 16ed 103e a5c7 423e 1226 683e 838a 353e
00000050: 382f 76be 945c b83e ed19 8cbc 6a57 8bbe
00000060: c41d 873e 77f0 e13d 50f1 a7be c4ba cdbd
00000070: 96eb e8bd 41bc 9abe 17c8 773e 6c0e 513e
00000080: adfa 52be a63a 8d3e de70 2f3e 1d89 9cbe
00000090: b478 b43d 20da ffbc 98e7 b9bd 9109 02bb
000000a0: 9472 fb3c ddd1 283e 1137 69be 50ae fbba
000000b0: da4a 563e 0000 0000 0000 0000 0000 0000
000000c0: 0000 0080 0000 0080 0000 0000 0000 0000
000000d0: 0000 0000 0000 0000 0000 0000 0000 0000
000000e0: 0000 0080 0000 0080 0000 0000 0000 0000
000000f0: 0000 0000 0000 0000 0000 0000 e3cc 80be
00000100: 9d65 c5bd 6bef 0dbe a15b bc3c 5af7 1bbe
00000110: 550f ca3d 1a28 b33d 3507 88ba 2510 fc3c
00000120: cd6a dc3d 870f 3cbd 5dc3 4b3e 45f6 1b3e
00000130: b0f2 f1bd 3a7e 4e38 e548 00be 5bad 9fbe
00000140: a1b1 65be 0000 0000 0000 0000 0000 0000
00000150: 0000 0080 0000 0080 0000 0000 0000 0080
00000160: 0000 0080 0000 0080 0000 0080 0000 0080
00000170: 0000 0080 0000 0000 0000 0000 0000 0000
00000180: 0000 0080 0000 0000 0000 0000 5db5 eabd
00000190: 7db9 fa3c f4a1 f7bd cf4e e73d 3665 88bd
000001a0: 6c0e 643d eb2a 1dbe 4f5e a73d eae8 41be
000001b0: 2c55 96be efc5 c2bd 368b 2c3d a072 93be
000001c0: 6c39 92bd d4cf 5e3e f496 8bbe c817 dd3d
000001d0: 4e09 af3e ed78 cbbd 63bf 933e dc0c b8bd
000001e0: bdb5 e8bd bc3d 7c3e ccae 713e bbc8 6fbe
000001f0: 1903 8bbe 59a6 a6bd dc82 48be ffa5 d339
00000200: 1636 7bbe d000 4b3e 554a e93d d906 14bd
00000210: 53cd 41bd 2546 c9bd 4d49 59be aa60 513e
00000220: 0c55 a53e 719a b73d 68c4 2e3d ebe0 3c3e
00000230: 478a 9bbe 11b0 ae3d 52bf 1abd 40c5 01be
00000240: 0000 0080 0000 0000 200c 1300 0000 0000
00000250: 0000 0080 0000 0000 d3bb 0280 0000 0080
00000260: 0000 0080 c454 33be 1a40 313d 13ad a4be
00000270: 1f3b 2fbd 0000 0080 396c 16be 5dfd 0d3d
00000280: b0da de3d f1dc 13be 184d f9bd 42e1 5f3c
00000290: 04e6 77bb 2bca 803e acd3 823e 6bab 2f3e
000002a0: 2ec9 8cbc 2ffa 6c3e 9fbb 62be 90cd 1d36
000002b0: bfa7 6db6 bcce 2d37 e248 5e37 fa7c d3b7
000002c0: 440b 2b37 b846 c937 2638 7b37 aeb9 0037
000002d0: dc44 a6be 95a3 efbc 94bf 8e3d 767a 963d
000002e0: b94a 823e 6af2 90bd 19b8 233e d0c2 84bd
000002f0: fd29 58be 0000 0080 0000 0000 0000 0080
00000300: 0000 0080 0000 0000 0000 0000 0000 0000
00000310: 0000 0000 0000 0080 742c 88be ee83 3bbc
00000320: 2682 56bd 3742 08be 4cb8 353e 6488 f7bd
00000330: 89da a1be 0000 0000 f571 08be c320 a13e
00000340: 7faa cf3e 82fd 993e 9258 573d 142d 12be
00000350: 7b50 06bd 4588 da3c 6b1c 91be 66f6 53be
00000360: c8da ab3e 0cba 8b3e 2036 debd 8fd3 c23e
00000370: d194 393c fba0 90bd 85da b83c f955 0ebe
00000380: 0a2d e0be 0000 0080 0000 0000 0000 0080
00000390: 0000 0080 0000 0080 0000 0000 0000 0080
000003a0: 0000 0080 0000 0080 0000 0080 0000 0080
000003b0: 0000 0080 0000 0080 0000 0080 0000 0000
000003c0: 0000 0080 0000 0080 0000 0000 2477 eabd
000003d0: 8862 3c3e f111 0ebe 2164 0c3d a0cf 943e
000003e0: 82b7 14be f17e a1be 65fd 093a 0c44 f3be
000003f0: b23e 043d e5ea 4f3b f89f 94be 0abd 34be
0.17191622 0.04038997 0.053610846 0.2868214 0.20576937 0.11391865 0.20453472 -0.004192494
-0.43241698 -0.27844623 -0.03910773 0.0062032007 0.036784764 0.11666209 0.09257672 0.0
0.14152941 0.19021471 0.22670773 0.1772862 -0.2404145 0.36008132 -0.017102206 -0.2721513
0.26389897 0.11032193 -0.32801294 -0.10045388 -0.113730595 -0.3022175 0.24197422 0.20415658
-0.20603438 0.27583808 0.17132899 -0.3057336 0.08812085 -0.03123194 -0.09077376 -0.0019842128
0.030694284 0.16486306 -0.22774912 -0.001920173 0.20926991 0.0 0.0 0.0
-0.0 -0.0 0.0 0.0 0.0 0.0 0.0 0.0
-0.0 -0.0 0.0 0.0 0.0 0.0 0.0 -0.25156316
-0.09638522 -0.13860862 0.02299291 -0.15231076 0.098662056 0.08747883 -0.0010378124 0.030769417
0.10762558 -0.045913246 0.19898744 0.15230663 -0.11813867 4.9231785e-05 -0.12527807 -0.31186947
-0.22431041 0.0 0.0 0.0 -0.0 -0.0 0.0 -0.0
-0.0 -0.0 -0.0 -0.0 -0.0 0.0 0.0 0.0
-0.0 0.0 0.0 -0.114603736 0.030606026 -0.12091437 0.112943284 -0.066599295
0.055677816 -0.15348403 0.08172285 -0.18936506 -0.29361856 -0.09510409 0.04212495 -0.2879839
-0.071398586 0.21758968 -0.27263606 0.107955515 0.34186786 -0.09935174 0.28856954 -0.08986828
-0.11362789 0.24632925 0.23601836 -0.23416416 -0.271508 -0.08137197 -0.19581169 0.00040368733
-0.24532351 0.19824529 0.11391131 -0.036139343 -0.047314953 -0.09827832 -0.21219368 0.2044703
0.32291448 0.08965004 0.042667776 0.18445174 -0.30378935 0.08529676 -0.037780114 -0.12672901
-0.0 0.0 1.749224e-39 0.0 -0.0 0.0 -2.5105e-40 -0.0
-0.0 -0.17512804 0.043274023 -0.32163295 -0.04278099 -0.0 -0.14689721 0.034665454
0.10881555 -0.14439751 -0.121729076 0.0136645455 -0.003782631 0.25154242 0.25552118 0.17155235
-0.017185774 0.23142312 -0.22141884 2.3514476e-06 -3.5413393e-06 1.0359738e-05 1.32492005e-05 -2.5211357e-05
1.0195017e-05 2.3993998e-05 1.4973839e-05 7.672626e-06 -0.3247441 -0.029252807 0.069701344 0.07347576
0.25447634 -0.07077487 0.15988196 -0.0648247 -0.21109767 -0.0 0.0 -0.0
-0.0 0.0 0.0 0.0 0.0 -0.0 -0.26596415 -0.011445029
-0.052370213 -0.13306509 0.17746085 -0.12086561 -0.31612042 0.0 -0.13324721 0.31470308
0.40559766 0.30076224 0.0525747 -0.14275008 -0.032791596 0.026676307 -0.28341994 -0.20699462
0.33565354 0.2729038 -0.10850167 0.3805203 0.0113269845 -0.070619546 0.022565136 -0.13899983
-0.43784362 -0.0 0.0 -0.0 -0.0 -0.0 0.0 -0.0
-0.0 -0.0 -0.0 -0.0 -0.0 -0.0 -0.0 0.0
-0.0 -0.0 0.0 -0.114485055 0.18396962 -0.13874032 0.034275178 0.29064655
-0.14523128 -0.3154216 0.0005263894 -0.47512853 0.032286353 0.0031725701 -0.29028296 -0.17650238

encoder.0.bias f4 [128]
00000000: 5c60 c73e 829c e93d af50 8e3e 6c7d 043e
00000010: 6369 de3d ada5 0080 0000 0000 bb9c 2c3f
00000020: 49fc 4ebe 0000 0000 0000 0080 2568 b23d
00000030: 74c3 6fbd 3cb3 073f d30a b93c 61e7 e03e
00000040: fe12 0800 48d7 10bd 8494 2b3f 27b4 66ba
00000050: 1b96 113e 0000 0000 5481 dd3d 870a c63e
00000060: 887d 843e 441b 0080 0000 0000 d258 253f
00000070: da8d afbe 0000 0000 7a25 02b5 f8a9 a73e
00000080: b474 7abe 5fc1 9e3d 93bd 5fbe 08cc 363e
00000090: a81b debd 4f12 c8bd ae54 c53d ea58 3b3d
000000a0: 619d 4c3f b1af 11be aab2 f83e 0000 0080
000000b0: 0000 0000 0000 0080 0000 0080 c9ca adbd
000000c0: 0000 0080 3070 bf3e 24e0 8a3e 7354 d93d
000000d0: 8341 6d3e 9ff8 26bd 37d5 0200 0000 0080
000000e0: 5c4f bd3e 8519 b73e 2362 ea3e 034a 7dbe
000000f0: 0000 0080 0000 0080 0000 0080 a49a 97bc
00000100: 1dbd 173f eb3e 2bbd dc4c 97be 0000 0000
00000110: 1b20 803e 0000 0080 1341 64bc ab84 df3e
00000120: 0000 0080 690d 933e 2e7e ec3e 1595 7dbd
00000130: 6639 dda4 0000 0080 0000 0000 0000 0080
00000140: d9d5 8fbd 0000 0080 3d9a e83d 39c0 9e3d
00000150: 2404 403e 6fe5 233e 431c e6bd 7f80 4fbd
00000160: afcf 0d3d 2f6e 853d 8bc9 a33e 0000 0000
00000170: 0000 0000 0000 0080 076b 7d3c 0000 0000
00000180: 0000 0080 f50e 0c00 8345 4b3e ccf9 bf3e
00000190: c355 da3e c708 753e bb8b 923d 0000 0000
000001a0: 17c6 4abe d3d2 94be 7f2f ac3e b9e8 333e
000001b0: 2113 adbb 6875 553d 7a24 8ebd 567e 7d3e
000001c0: 0000 0080 c13d f79a 3788 f3bd 7943 02bc
000001d0: 91af 42be 9b12 a33b 8fa2 153f 96f3 d43e
000001e0: 6d59 c73b 9198 8a3e 83a6 80b7 0000 0000
000001f0: fd67 973e 775b b33d c041 12b7 8ce4 0d3e
0.38940704 0.114068046 0.27795932 0.1293847 0.10859945 -5.9433e-41 0.0 0.6742665
-0.20213427 0.0 -0.0 0.0871127 -0.058536008 0.53007865 0.02258817 0.43926528
7.41497e-40 -0.03536156 0.6702349 -0.00088006485 0.14217417 0.0 0.10815683 0.38679907
0.25877023 -9.781e-42 0.0 0.64588654 -0.34287912 0.0 -4.848331e-07 0.32746863
-0.24458581 0.07751726 -0.2184966 0.17851269 -0.10845119 -0.09769117 0.09635292 0.045739092
0.7992764 -0.14227177 0.4857381 -0.0 0.0 -0.0 -0.0 -0.08485944
-0.0 0.3739028 0.2712413 0.106118105 0.23169522 -0.040764447 2.60158e-40 -0.0
0.3697461 0.35761657 0.45777997 -0.24735264 -0.0 -0.0 -0.0 -0.018506356
0.5927294 -0.04180805 -0.29550827 0.0 0.25024495 -0.0 -0.0139315305 0.43655905
-0.0 0.2872117 0.46190017 -0.061909754 -9.594071e-17 -0.0 0.0 -0.0
-0.0702321 -0.0 0.113575436 0.07751507 0.1875158 0.1600549 -0.11235859 -0.050659653
0.03462189 0.065151565 0.31989703 0.0 0.0 -0.0 0.015467412 0.0
-0.0 1.107392e-39 0.19850735 0.37495267 0.42643556 0.2392913 0.07155558 0.0
-0.19802128 -0.29067096 0.33629987 0.17569245 -0.0052818214 0.05211392 -0.06940551 0.24755225
-0.0 -1.02256574e-22 -0.11891215 -0.007950657 -0.19012286 0.004976583 0.5845117 0.4159209
0.0060836584 0.27069524 -1.5336327e-05 0.0 0.29571524 0.0875768 -8.717587e-06 0.13856715

encoder.2.weight f4 [64, 128, 4, 4]
00000000: 0000 0000 0000 0080 0000 0080 0000 0000
00000010: 0000 0080 0000 0080 0000 0080 0000 0080
00000020: 0000 0080 0000 0000 0000 0000 0000 0080
00000030: 0000 0080 0000 0080 0000 0080 0000 0080
00000040: 0000 0080 0000 0000 0000 0000 0000 0080
00000050: 0000 0080 0000 0080 0000 0080 0000 0000
00000060: 0000 0000 0000 0000 0000 0000 0000 0080
00000070: 0000 0080 0000 0000 0000 0080 0000 0080
00000080: 0000 0080 0000 0080 0000 0000 0000 0000
00000090: 0000 0000 0000 0080 0000 0000 0000 0000
000000a0: 0000 0080 0000 0080 0000 0080 0000 0080
000000b0: 0000 0080 0000 0080 0000 0000 0000 0000
000000c0: 0000 0000 0000 0000 0000 0080 0000 0080
000000d0: 0000 0080 0000 0080 0000 0080 0000 0080
000000e0: 0000 0080 0000 0000 0000 0000 0000 0080
000000f0: 0000 0000 0000 0080 0000 0000 0000 0080
00000100: 0000 0000 0000 0000 0000 0000 0000 0080
00000110: 0000 0000 0000 0080 0000 0000 0000 0000
00000120: 0000 0080 0000 0000 0000 0000 0000 0000
00000130: 0000 0080 0000 0080 0000 0000 0000 0080
00000140: 0000 0000 0000 0000 0000 0080 0000 0080
00000150: 0000 0080 0000 0080 0000 0000 0000 0000
00000160: 0000 0000 0000 0000 0000 0080 0000 0080
00000170: 0000 0000 0000 0000 0000 0000 0000 0000
00000180: 0000 0080 0000 0080 0000 0000 0000 0080
00000190: 0000 0080 0000 0080 0000 0080 0000 0000
000001a0: 0000 0000 0000 0000 0000 0000 0000 0000
000001b0: 0000 0000 0000 0000 0000 0080 0000 0080
000001c0: 0000 0080 0000 0000 0000 0080 0000 0080
000001d0: 0000 0000 0000 0000 0000 0080 0000 0000
000001e0: 0000 0000 0000 0000 0000 0080 0000 0080
000001f0: 0000 0080 0000 0080 0000 0000 0000 0000
00000200: 0000 0080 0000 0080 0000 0000 0000 0000
00000210: 0000 0000 0000 0080 0000 0080 0000 0080
00000220: 0000 0080 0000 0080 0000 0080 0000 0080
00000230: 0000 0080 0000 0080 0000 0000 0000 0080
00000240: 0000 0080 0000 0000 0000 0000 0000 0080
00000250: 0000 0000 0000 0000 0000 0000 0000 0000
00000260: 0000 0000 0000 0000 0000 0000 0000 0000
00000270: 0000 0000 0000 0080 0000 0080 0000 0000
00000280: 0000 0000 0000 0000 0000 0000 0000 0080
00000290: 0000 0080 0000 0080 0000 0000 0000 0080
000002a0: 0000 0000 0000 0080 0000 0080 0000 0080
000002b0: 0000 0000 0000 0000 0000 0000 0000 0080
000002c0: 0000 0000 0000 0080 0000 0000 0000 0000
000002d0: 0000 0000 0000 0000 0000 0000 0000 0000
000002e0: 0000 0080 0000 0080 0000 0000 0000 0000
000002f0: 0000 0080 0000 0000 0000 0080 0000 0000
00000300: 0000 0080 0000 0080 0000 0080 0000 0080
00000310: 0000 0080 0000 0000 0000 0080 0000 0080
00000320: 0000 0080 0000 0080 0000 0080 0000 0080
00000330: 0000 0000 0000 0000 0000 0080 0000 0000
00000340: 0000 0000 0000 0000 0000 0000 0000 0000
00000350: 0000 0000 0000 0080 0000 0000 0000 0000
00000360: 0000 0000 0000 0000 0000 0080 0000 0000
00000370: 0000 0000 0000 0080 0000 0000 0000 0000
00000380: 0000 0000 0000 0000 0000 0080 0000 0000
00000390: 0000 0080 0000 0080 0000 0080 0000 0080
000003a0: 0000 0080 0000 0000 0000 0080 0000 0000
000003b0: 0000 0000 0000 0000 0000 0000 0000 0000
000003c0: 0000 0080 0000 0000 0000 0080 0000 0080
000003d0: 0000 0080 0000 0000 0000 0080 0000 0080
000003e0: 0000 0000 0000 0080 0000 0000 0000 0080
000003f0: 0000 0000 0000 0080 0000 0080 0000 0000
0.0 -0.0 -0.0 0.0 -0.0 -0.0 -0.0 -0.0
-0.0 0.0 0.0 -0.0 -0.0 -0.0 -0.0 -0.0
-0.0 0.0 0.0 -0.0 -0.0 -0.0 -0.0 0.0
0.0 0.0 0.0 -0.0 -0.0 0.0 -0.0 -0.0
-0.0 -0.0 0.0 0.0 0.0 -0.0 0.0 0.0
-0.0 -0.0 -0.0 -0.0 -0.0 -0.0 0.0 0.0
0.0 0.0 -0.0 -0.0 -0.0 -0.0 -0.0 -0.0
-0.0 0.0 0.0 -0.0 0.0 -0.0 0.0 -0.0
0.0 0.0 0.0 -0.0 0.0 -0.0 0.0 0.0
-0.0 0.0 0.0 0.0 -0.0 -0.0 0.0 -0.0
0.0 0.0 -0.0 -0.0 -0.0 -0.0 0.0 0.0
0.0 0.0 -0.0 -0.0 0.0 0.0 0.0 0.0
-0.0 -0.0 0.0 -0.0 -0.0 -0.0 -0.0 0.0
0.0 0.0 0.0 0.0 0.0 0.0 -0.0 -0.0
-0.0 0.0 -0.0 -0.0 0.0 0.0 -0.0 0.0
0.0 0.0 -0.0 -0.0 -0.0 -0.0 0.0 0.0
-0.0 -0.0 0.0 0.0 0.0 -0.0 -0.0 -0.0
-0.0 -0.0 -0.0 -0.0 -0.0 -0.0 0.0 -0.0
-0.0 0.0 0.0 -0.0 0.0 0.0 0.0 0.0
0.0 0.0 0.0 0.0 0.0 -0.0 -0.0 0.0
0.0 0.0 0.0 -0.0 -0.0 -0.0 0.0 -0.0
0.0 -0.0 -0.0 -0.0 0.0 0.0 0.0 -0.0
0.0 -0.0 0.0 0.0 0.0 0.0 0.0 0.0
-0.0 -0.0 0.0 0.0 -0.0 0.0 -0.0 0.0
-0.0 -0.0 -0.0 -0.0 -0.0 0.0 -0.0 -0.0
-0.0 -0.0 -0.0 -0.0 0.0 0.0 -0.0 0.0
0.0 0.0 0.0 0.0 0.0 -0.0 0.0 0.0
0.0 0.0 -0.0 0.0 0.0 -0.0 0.0 0.0
0.0 0.0 -0.0 0.0 -0.0 -0.0 -0.0 -0.0
-0.0 0.0 -0.0 0.0 0.0 0.0 0.0 0.0
-0.0 0.0 -0.0 -0.0 -0.0 0.0 -0.0 -0.0
0.0 -0.0 0.0 -0.0 0.0 -0.0 -0.0 0.0

encoder.2.bias f4 [64]
00000000: 0000 0080 0000 0080 0000 0080 0000 0080
00000010: 0000 0000 b2b7 0680 0000 0080 0000 0080
00000020: 1375 00aa 0000 0080 9a2e e83c 733d 513d
00000030: 0000 0080 c9e6 843c 0000 0000 0000 0080
00000040: af4a dc3c 0000 0000 0000 0000 0000 0000
00000050: e2a7 523d 0000 0080 0000 0000 83d9 d63c
00000060: 0000 0000 0725 273d 0000 0080 08a7 623c
00000070: 0000 0080 4678 a2ba 3718 16bc 0000 0000
00000080: 0000 0080 0000 0080 090c 753d 637b 9c3c
00000090: 0000 0000 8447 91b3 1d7b c1a9 0000 0080
000000a0: 3290 463d b58c 14b4 ced4 753d 1101 51bc
000000b0: 6f77 0180 c822 073d 0000 0080 854f 27ba
000000c0: 1a4f ef3c 0000 0000 2c3b 903c 8082 113d
000000d0: 0000 0000 0000 0000 0000 0000 0000 0000
000000e0: 909b 7b3e a418 b73d 0000 0000 0000 0000
000000f0: 0c30 30ba 0000 0000 0000 0000 0000 0000
-0.0 -0.0 -0.0 -0.0 0.0 -6.1691e-40 -0.0 -0.0
-1.1409302e-13 -0.0 0.028342534 0.051083993 -0.0 0.016223328 0.0 -0.0
0.02689108 0.0 0.0 0.0 0.051429637 -0.0 0.0 0.026226765
0.0 0.040806796 -0.0 0.013833769 -0.0 -0.0012395463 -0.009161047 0.0
-0.0 -0.0 0.05982593 0.019101804 0.0 -6.765097e-08 -8.5922785e-14 -0.0
0.04847736 -1.3834763e-07 0.0600174 -0.012756602 -1.3468e-40 0.032992154 -0.0 -0.0006382394
0.029212523 0.0 0.01760634 0.035524845 0.0 0.0 0.0 0.0
0.24571061 0.08940247 0.0 0.0 -0.0006721027 0.0 0.0 0.0

encoder.4.weight f4 [32, 64, 2, 2]
00000000: 0000 0000 0000 0000 0000 0000 0000 0000
00000010: 0000 0080 0000 0000 0000 0000 0000 0080
00000020: 0000 0000 0000 0080 0000 0080 0000 0000
00000030: 1da5 4bb4 69c3 1eb4 7ddd c7b3 5f23 2bb4
00000040: 0000 0080 0000 0080 0000 0080 0000 0080
00000050: d945 f601 eb47 9780 efe2 e801 ea4a 9181
00000060: 48bd d33c 63dc e0bd 0a34 2b3d 56ad 2b3d
00000070: 3afa eebd 6a96 96bd 1658 57bd cffc 4bbe
00000080: 0000 0000 01bb 0680 0000 0000 97d4 7a88
00000090: 8457 dcbd 0b48 2d3d bede 42be 2400 0bbe
000000a0: 1a20 0a3c d35b d23d a96e d3bd 569f 05bd
000000b0: 2e3a 043e a98f 393e b0ae 1cbd 862e a23d
000000c0: d3bd b3b8 75ca deb8 7793 63b8 401b 1339
000000d0: 426c a53d c8c3 a2bd 7117 243d e488 0dbd
000000e0: 0000 0000 0000 0080 0000 0000 0000 0080
000000f0: 0000 0000 0000 0000 0000 0000 0000 0080
00000100: c224 42bd 0000 0000 3c9e 803d 7cd0 353d
00000110: 0000 0080 0000 0080 0000 0000 0000 0080
00000120: 0000 0000 9934 f4bd bae2 633e 8e79 a53d
00000130: 0000 0000 cbff 1abd 956b 7b3e 0420 103e
00000140: 1885 c33c ebd3 07be 19a5 d0bd 2c3b 22be
00000150: 0596 c43c 0000 0080 9be7 fdbc 0000 0000
00000160: 9b5e 103e bdc5 8abe 66cf 9a3d fbb3 83be
00000170: 2c02 edbc 0000 0000 f5dc 023e db9c 7cbd
00000180: 2765 bebc 9187 3d3d 92aa 453c 30d8 253c
00000190: 6599 acbd 5e02 a73c e5f2 f8bc 0d16 923d
000001a0: 0000 0000 0000 0080 0000 0080 0000 0000
000001b0: 1a48 353d a79c 623d 61c6 a23e fdc5 233e
000001c0: 8c7f 8fbd 3f02 aebd ed55 f3ba fa81 1ebd
000001d0: 1316 363d f454 233d d7ec c63d 306a 9c3d
000001e0: ddff ee3d a07c 70be 3d3b 433e f06c a83d
000001f0: 0000 0000 0000 0000 0000 0000 0000 0000
00000200: 0000 0000 0000 0080 0000 0000 0000 0080
00000210: 0000 0080 0000 0000 0000 0000 0000 0000
00000220: 9ba3 fabc dd6c b9bd 083b 56bd a584 00bd
00000230: 269a 4abd b28f c53c c1c0 3fbc b83e 1e3e
00000240: 8eac 0d3e d86a 34bd 77a8 863d 247e 95bc
00000250: 0000 0000 60ac 772a 4edd 7897 abc9 4f96
00000260: 4ed1 1e17 cb3a dc95 203a 3097 8b6d 8116
00000270: 0000 0080 0000 0000 0000 0000 0000 0000
00000280: dd09 993d 2971 b1bd 2307 84bd 6c66 89bd
00000290: f94b 0c35 3d57 6338 2d4e a133 16de 8138
000002a0: 15c6 d4bd 37d9 63be 40c0 1fbe 222b 97be
000002b0: 3668 7cbd 0000 0000 6cea 06be 6ec5 5cbe
000002c0: 2e39 4280 c594 8081 e061 3581 23f4 2b81
000002d0: 2583 373e 997f 95bd 352f a33c 13df 023e
000002e0: 0000 0080 eb10 e7bd 7c65 66bd 177c b5bd
000002f0: 4fdb 8b2a 6c9c a58a 31b6 dc29 dcd7 798a
00000300: c3a7 5ebd 326f 33bd b934 b03d 30dd 883d
00000310: 0000 0000 0000 0000 0000 0000 0000 0080
00000320: 1548 aa3d 493a 83bd 0000 0000 c0a9 c2bb
00000330: 06f3 2dbe 5a0a 32bc 1e46 84bc 2fa7 9d3c
00000340: 0000 0080 0000 0000 0000 0000 0000 0000
00000350: 1e69 f9bc 8f29 69bd 1b38 dd3d 3eac d03c
00000360: 0000 0080 0000 0080 0000 0080 0000 0080
00000370: 0000 0080 0000 0000 0000 0080 0000 0000
00000380: 2527 dd3e 8f53 3c3f 5376 81bd 324a d53e
00000390: 3e40 ae3c 7984 01be 7f12 c33e fb70 953d
000003a0: 0000 0080 0000 0000 0000 0000 0000 0000
000003b0: 0000 0000 0000 0080 0000 0000 0000 0000
000003c0: fd89 4fb5 f35f 6634 94f4 d8b8 bea2 f331
000003d0: 0000 0000 0000 0000 0000 0000 0000 0000
000003e0: 0000 0000 0000 0000 0000 0000 0000 0080
000003f0: 0000 0080 0000 0000 0000 0080 0000 0080
0.0 0.0 0.0 0.0 -0.0 0.0 0.0 -0.0
0.0 -0.0 -0.0 0.0 -1.8965916e-07 -1.4785986e-07 -9.306948e-08 -1.5938484e-07
-0.0 -0.0 -0.0 -0.0 9.0466355e-38 -1.3892959e-38 8.5548974e-38 -5.3372084e-38
0.025847092 -0.109795354 0.041797675 0.041913353 -0.11668821 -0.07352908 -0.05257424 -0.19920658
0.0 -6.18097e-40 0.0 -7.5481537e-34 -0.1075888 0.042305034 -0.19030282 -0.13574272
0.008430505 0.1027142 -0.10323841 -0.032622658 0.12912819 0.18121208 -0.038252532 0.0791903
-8.570743e-05 -0.000106234955 -5.4258355e-05 0.00014029164 0.08077289 -0.079474986 0.040061418 -0.034554377
0.0 -0.0 0.0 -0.0 0.0 0.0 0.0 -0.0
-0.047398336 0.0 0.06280181 0.04438828 -0.0 -0.0 0.0 -0.0
0.0 -0.11924095 0.22254458 0.08079825 0.0 -0.0378416 0.24552758 0.14074713
0.023867175 -0.13264434 -0.1018774 -0.15842885 0.023997316 -0.0 -0.030994227 0.0
0.14098589 -0.27103987 0.07559089 -0.25723252 -0.0289317 0.0 0.12779601 -0.061673027
-0.023241593 0.046271864 0.012064593 0.010122344 -0.08427695 0.020386871 -0.030389259 0.07133112
0.0 -0.0 -0.0 0.0 0.044258215 0.055325177 0.31791976 0.15993495
-0.070067495 -0.08496522 -0.0018565037 -0.038698174 0.044454645 0.03987594 0.09713142 0.07637441
0.11669896 -0.2348504 0.19065566 0.08223903 0.0 0.0 0.0 0.0
0.0 -0.0 0.0 -0.0 -0.0 0.0 0.0 0.0
-0.030595591 -0.09053967 -0.05230239 -0.0313765 -0.049463414 0.02411637 -0.011703671 0.15453613
0.13835356 -0.044047207 0.06575101 -0.018248625 0.0 2.1997812e-13 -8.041245e-25 -1.6784962e-25
5.1316733e-25 -8.895005e-26 -5.694203e-25 2.0910205e-25 -0.0 0.0 0.0 0.0
0.074725844 -0.08664162 -0.06446674 -0.067089885 5.226462e-07 5.4202264e-05 7.511367e-08 6.192566e-05
-0.10389344 -0.2225083 -0.15600681 -0.29525095 -0.06162282 0.0 -0.13175362 -0.21559688
-6.081655e-39 -4.723325e-38 -3.3314671e-38 -3.15829e-38 0.17921121 -0.07299728 0.019919971 0.12780409
-0.0 -0.11282524 -0.056249127 -0.08861559 2.4843536e-13 -1.5947761e-32 9.801568e-14 -1.20295125e-32
-0.05435921 -0.043807216 0.08603806 0.06682813 0.0 0.0 0.0 -0.0
0.0831453 -0.064076014 0.0 -0.005940646 -0.16987237 -0.010866726 -0.016146716 0.019244758
-0.0 0.0 0.0 0.0 -0.030445632 -0.0569244 0.10801717 0.025472756
-0.0 -0.0 -0.0 -0.0 -0.0 0.0 -0.0 0.0
0.43193927 0.73565 -0.06321397 0.4165817 0.021270867 -0.1264819 0.3810005 0.0729694
-0.0 0.0 0.0 0.0 0.0 -0.0 0.0 0.0
-7.731431e-07 2.1455325e-07 -0.00010345239 7.0907324e-09 0.0 0.0 0.0 0.0
0.0 0.0 0.0 -0.0 -0.0 0.0 -0.0 -0.0

encoder.4.bias f4 [32]
00000000: 0000 0000 e9df 09ba 0000 0080 9a63 8539
00000010: fd6c 25bc 0000 0000 559f 42bb 4a1e 43ba
00000020: db0f 333b 0000 0000 0000 0080 1190 ecbb
00000030: 0000 0000 0000 0000 0fa5 793c 4c5b 3abd
00000040: 0000 0000 6e56 a2ba 0000 0000 0000 0080
00000050: 8350 3f3b 0000 0000 80d8 053e 0000 0080
00000060: d09c 41bb ddbb 34ba 4cfc a5ba 0000 0000
00000070: 0000 0000 0000 0080 0000 0080 52d0 fbaa
0.0 -0.00052595005 -0.0 0.00025441946 -0.010096786 0.0 -0.002969702 -0.0007443173
0.0027322683 0.0 -0.0 -0.0072193225 0.0 0.0 0.015237107 -0.045497224
0.0 -0.0012385377 0.0 -0.0 0.0029192276 0.0 0.1307087 -0.0
-0.002954293 -0.0006894449 -0.0012663691 0.0 0.0 -0.0 -0.0 -4.4731108e-13

encoder.6.weight f4 [16, 32, 3, 3]
00000000: 2d70 1b3d e37a 31bd f389 55be 1fc7 143d
00000010: bf32 56bd e716 ccbd 56c5 54bc e26d e13d
00000020: 0000 0000 0000 0000 7d6a 043c 2597 f83a
00000030: 0000 0080 0000 0000 8d88 0ebd 1cf4 0d3e
00000040: 0000 0000 d203 b5bd 1b22 18b5 5e4f b9b4
00000050: 6da4 bab4 590d 8db4 c2d4 39b4 aee2 5eb4
00000060: 46b9 39b3 d018 22b3 134b c5b2 e974 793d
00000070: dcbf 56bb f277 8c3b f328 dd3b 325d 01be
00000080: 1ff2 a23c 60a5 2b3e 3d6e 723d f5c4 663d
00000090: 1f2b 1e3d 8a73 343d 7edf c93d 0ac6 833d
000000a0: bb8a efbc 8fa8 363d ecd9 b63c 0434 903c
000000b0: 5bb1 1f3c ff95 79bd 0000 0000 e63c 0a3d
000000c0: 0000 0000 7f88 3ebe 6f03 76bb 7389 41bd
000000d0: 50c0 19be 9832 b93c 0000 0000 f755 ba3b
000000e0: 0000 0000 0000 0000 3899 9ebd 0000 0000
000000f0: 0000 0000 8df3 bebc 0000 0000 10ff 293d
00000100: a368 a3bd 84c9 cbbd 973a 04be d01c 58be
00000110: 782c 56bd 95bf 813d 9198 98bd 8f83 203d
00000120: 8868 863d e534 08bc b425 ab3c d8d1 943d
00000130: fa8a 463d 5f3a 92bd 4a88 ee3d d24f 5bbd
00000140: 82f9 1f3e 0000 0080 0000 0080 0000 0000
00000150: 0000 0080 0000 0080 0000 0000 0000 0080
00000160: 0000 0080 0000 0000 0000 0000 0000 0000
00000170: 0000 0000 0000 0080 0000 0080 0000 0080
00000180: 0000 0000 0000 0000 0000 0000 a7ae e93c
00000190: 0000 0000 7ffb b43c 63f7 ddbc 750a 8b3d
000001a0: 8303 803d 5cf3 4d3e a615 b33d 2f65 45bc
000001b0: 33bc 433a e2b8 c3bd 4d9b 0dbe d62d ba3c
000001c0: acfd 17bd 2a6c 243d e3b0 403e ffa6 2a3d
000001d0: ddd5 473a 0000 0000 0000 0080 0000 0080
000001e0: 0000 0000 0000 0000 0000 0000 0000 0000
000001f0: 0000 0000 0000 0000 aaac 0d3e 5f2f e03d
00000200: e7ae 133d 8a39 573d 9046 823c 7c9d b53c
00000210: 5d63 fd3c 1264 d73c fddf 24bb 0000 0000
00000220: e560 9a3c 0000 0000 5291 433d 0000 0000
00000230: b59d aa3b 0000 0000 6352 243d 0000 0000
00000240: c9a5 fa3c 0057 9c3d 0000 0000 b6bd aabc
00000250: 21b6 0f3d 7459 113d 0000 0000 09af 9dbd
00000260: 0000 0000 709f 093d cf6d 35be c91d 78bd
00000270: c018 e0bd 03bc 0fbe d03f 8a3d e8da c43d
00000280: 0000 0000 458a f43d 2e9c bdbb 9236 ecbc
00000290: a518 843c beae b4bd 9fea abbc 92f8 e83b
000002a0: 8c48 4f3e 36a3 a93d e2a1 2a3e 0000 0080
000002b0: a653 74bb 0000 0080 0000 0080 4f1d c3bb
000002c0: 0000 0080 0000 0080 0caf 81bc 0000 0080
000002d0: cc1d 30bd 9fd0 19be 6ebd 36be 4b25 84bd
000002e0: 4b32 e9bd e550 d2bd 49f1 db3d 8e2e 303e
000002f0: 0020 403d 0000 0080 0000 0080 0000 0080
00000300: 0000 0000 0000 0080 0000 0000 0000 0000
00000310: 0000 0080 0000 0080 1691 783d f369 abbd
00000320: 15f6 bebd 8594 8e3d 0cdf 053d 2047 97bd
00000330: 2fcb c6be e196 683e 0460 c33d bc95 193d
00000340: ae86 b739 9979 203d 982a 8c3d bc38 04bd
00000350: 0000 0000 0291 59bd b3ad 9abd 08bb 833e
00000360: b74b 413d b5fe 19be c731 9c3e df7f 8ebc
00000370: c1b9 56be c729 b23d 014d f4bc 58d8 28bd
00000380: 897e 113e bf7b e63d 0000 0000 f4ec b83c
00000390: 0000 0000 c447 4a3c 1623 adbb d0d2 183c
000003a0: f1ba 9bbc 970b d73c d638 1dbd ac23 cfbd
000003b0: eb67 173d 2d62 d03d 39bb 3bbe b428 85bd
000003c0: 044a 253e c881 88bd 5d5e 213d 0000 0080
000003d0: 0000 0080 0000 0080 0000 0080 0000 0080
000003e0: 0000 0080 0000 0080 0000 0080 0000 0080
000003f0: 6201 493d e135 3ebc c2f8 16bd 0094 c73d
0.037948776 -0.043330085 -0.20853405 0.03632271 -0.05229449 -0.09965306 -0.012986502 0.110072866
0.0 0.0 0.008082029 0.0018965943 -0.0 0.0 -0.034798194 0.13862652
0.0 -0.08838619 -5.667404e-07 -3.4516682e-07 -3.4764835e-07 -2.6273008e-07 -1.7306868e-07 -2.0757827e-07
-4.3242174e-08 -3.774113e-08 -2.2967958e-08 0.06090251 -0.0032768166 0.0042867595 0.0067492663 -0.12633207
0.019890843 0.16762304 0.059187163 0.056340177 0.038615342 0.0440555 0.09857081 0.06434257
-0.029240957 0.044594344 0.02232071 0.017602928 0.009746875 -0.060934063 0.0 0.033749484
0.0 -0.18606757 -0.0037538668 -0.047250222 -0.15014768 0.022607133 0.0 0.0056865173
0.0 0.0 -0.07744068 0.0 0.0 -0.023309493 0.0 0.041503012
-0.07978942 -0.099505454 -0.12912975 -0.21104741 -0.052288502 0.063353695 -0.07450975 0.039187964
0.065629065 -0.008313392 0.020892002 0.07266587 0.048472382 -0.0714004 0.11647089 -0.05354292
0.15622523 -0.0 -0.0 0.0 -0.0 -0.0 0.0 -0.0
-0.0 0.0 0.0 0.0 0.0 -0.0 -0.0 -0.0
0.0 0.0 0.0 0.028525664 0.0 0.022092579 -0.027095502 0.06789104
0.0625067 0.20112365 0.087443635 -0.01204805 0.00074667035 -0.09556748 -0.13828774 0.022726934
-0.037107155 0.040142216 0.18817477 0.041663166 0.00076231157 0.0 -0.0 -0.0
0.0 0.0 0.0 0.0 0.0 0.0 0.13835397 0.10946535
0.03605547 0.052545108 0.015902787 0.022169821 0.03093117 0.026292834 -0.0025157921 0.0
0.018845031 0.0 0.04774601 0.0 0.0052067884 0.0 0.040117633 0.0
0.03059663 0.076337814 0.0 -0.020842414 0.0350858 0.0354857 0.0 -0.07699401
0.0 0.033599317 -0.1771767 -0.06057528 -0.10942221 -0.14036565 0.067504525 0.096120656
0.0 0.11940435 -0.0057864403 -0.028834615 0.016125033 -0.08822392 -0.0209859 0.00710971
0.20242518 0.08283083 0.16663316 -0.0 -0.0037281304 -0.0 -0.0 -0.0059544216
-0.0 -0.0 -0.01583054 -0.0 -0.042997167 -0.15020989 -0.17845699 -0.064524256
-0.11386546 -0.10269336 0.10739381 0.17205259 0.046905518 -0.0 -0.0 -0.0
0.0 -0.0 0.0 0.0 -0.0 -0.0 0.06068524 -0.083698176
-0.0932428 0.069619216 0.032683417 -0.07386613 -0.38826892 0.22713806 0.09539798 0.037496313
0.00035004824 0.039178465 0.068440616 -0.03228067 0.0 -0.053116806 -0.07552662 0.2572863
0.047191348 -0.1503857 0.30506727 -0.017394958 -0.20969297 0.08699375 -0.029821875 -0.041221946
0.14208426 0.112540714 0.0 0.022573926 0.0 0.012346212 -0.0052837236 0.009327605
-0.019010039 0.026250644 -0.03838428 -0.10114226 0.03696434 0.101749755 -0.18333139 -0.06501904
0.16141516 -0.06665379 0.039396632 -0.0 -0.0 -0.0 -0.0 -0.0
-0.0 -0.0 -0.0 -0.0 0.049073584 -0.011609525 -0.036858328 0.09745026

encoder.6.bias f4 [16]
00000000: f232 8e3d 0000 0000 2e7e e3bc a19e 4a3d
00000010: e8f3 bd3d 0000 0080 f2cc be3c 039f fc3c
00000020: 0000 0000 0000 0000 5597 df3c 3f3a a43c
00000030: 6a09 64bc 1351 dd3c e1cc c53c 811a 983d
0.06943311 0.0 -0.027770128 0.049467687 0.09275037 -0.0 0.023291085 0.030837541
0.0 0.0 0.02729384 0.020047305 -0.01391826 0.027016198 0.024145545 0.0742693

encoder.9.weight f4 [8, 16, 3, 3]
00000000: 4cdb 1dbc c172 80bd 4ca7 d43d 703a 933e
00000010: 8e6d 983d d539 2abd 4f0c 2fbd 0484 a73c
00000020: 76e2 ae3d 0000 0080 0000 0000 0000 0080
00000030: 0000 0080 0000 0000 0000 0080 0000 0000
00000040: 0000 0080 0000 0080 83ab 603d d89a 33bd
00000050: ebe0 b4bd 30f1 23be e904 cebd cc28 8fbb
00000060: 64a8 f23e f8d4 323d 02e0 043d 672e 93bd
00000070: 11d1 32bd 6e1e 0c3b 0000 0000 c948 263c
00000080: d6d4 aa3d caae b33e ff88 853d e546 b4bc
00000090: 0000 0000 801e c4bd 4e27 d6bc e6d7 e7bb
000000a0: 4396 acbc 0000 0000 b16d cb3d cac9 253e
000000b0: e764 a83c 8d6e a03d ac56 7ebc 0000 0000
000000c0: 0000 0080 9140 6c3d bed7 0c3c 8c8c 5f3e
000000d0: a90e d13d 67ab 96be e302 f4bc 1125 3fbd
000000e0: 9438 853c 1d21 d5bc 4137 72bc 5ea1 f43a
000000f0: 82f3 343e b2fe b73d 54a3 17bd 4421 c83d
00000100: c5a3 c3bd 5454 3f3c 2b2a b4bd ef4b c93d
00000110: 5733 3d3d 28bc a53d b6a1 6c3e 877a 14be
00000120: 0000 0080 0000 0080 4dbc 0a80 0000 0080
00000130: 0000 0080 0000 0080 0000 0080 0000 0080
00000140: 0000 0080 0000 0080 0000 0000 0000 0000
00000150: 0000 0080 0000 0000 0000 0000 8f7e aa3d
00000160: 92ea f23d 35b7 70bb a6f6 02be 0000 0080
00000170: 4952 02bd cd9f 2ebd 86dc 9e3d 0cc5 43bd
00000180: 574d 663e afcd 4dbd 4301 633d 5a2f 223d
00000190: 3624 853b b6d9 c63c 2b52 023e 39a7 883c
000001a0: 7334 17bd 3687 e0bd bd41 b1bd 8fb8 06bd
000001b0: 5838 45bd 48de 8bbd e399 d4bc c787 083d
000001c0: f92c abbc 1476 05bd d334 f3be 4fab 0cbe
000001d0: 71db 71bb d783 c23a 5534 ae3d 518f 4b3c
000001e0: 9a2c 443c cf8a c4be 214f bf3b 2983 8f3a
000001f0: c43a 23be 981a 413c 17d4 dc3c a504 b93d
00000200: 3edb 87bd 562e 903d c61c c6bc 06a0 cebc
00000210: e0c9 523e 77eb 16be 2f97 8ebb e234 85ba
00000220: 5704 4d3d e579 0fbc 2e3f 123c 6ef0 38bd
00000230: aafc 70bd 0000 0000 bdb2 04be e1a4 50bd
00000240: 0000 0000 0000 0080 0000 0080 0000 0000
00000250: 0000 0000 0000 0080 0000 0080 0000 0080
00000260: 0000 0080 0000 0000 0000 0000 0000 0080
00000270: 0000 0080 0000 0000 0000 0000 0000 0000
00000280: 0000 0080 0000 0080 0000 0000 0000 0000
00000290: 0000 0000 0000 0000 0000 0000 0000 0080
000002a0: 0000 0000 0000 0000 0000 0080 0000 0080
000002b0: 0000 0080 0000 0000 0000 0080 0000 0000
000002c0: 0000 0000 0000 0000 0000 0000 0000 0000
000002d0: 0000 0000 0000 0080 0000 0080 0000 0000
000002e0: 0000 0000 0000 0000 0000 0000 0000 0000
000002f0: 0000 0080 0000 0000 0000 0080 0000 0000
00000300: 0000 0000 0000 0080 0000 0000 0000 0000
00000310: 0000 0080 0000 0000 0000 0000 0000 0000
00000320: 0000 0080 0000 0000 0000 0000 0000 0080
00000330: 0000 0000 0000 0000 0000 0080 0000 0080
00000340: 0000 0000 0000 0080 0000 0080 0000 0080
00000350: 0000 0080 0000 0000 0000 0080 0000 0080
00000360: 0000 0000 0000 0000 0000 0000 0000 0000
00000370: 0000 0080 0000 0080 0000 0000 0000 0080
00000380: 0000 0080 0000 0000 0000 0000 0000 0080
00000390: 0000 0000 0000 0080 0000 0080 0000 0000
000003a0: 0000 0000 0000 0080 0000 0000 0000 0080
000003b0: 0000 0080 0000 0080 0000 0000 0000 0000
000003c0: 0000 0000 0000 0080 0000 0000 0000 0000
000003d0: 0000 0000 0000 0080 0000 0000 0000 0000
000003e0: 0000 0080 0000 0000 0000 0080 0000 0080
000003f0: 0000 0000 0000 0000 0000 0080 0000 0080
-0.009634804 -0.062718876 0.10383472 0.28755522 0.07442771 -0.04155906 -0.042736348 0.020448692
0.08539288 -0.0 0.0 -0.0 -0.0 0.0 -0.0 0.0
-0.0 -0.0 0.054851066 -0.043848842 -0.08831962 -0.16009974 -0.1005953 -0.004368877
0.47394097 0.043660134 0.032440193 -0.07186585 -0.043656413 0.0021380442 0.0 0.010149189
0.083413765 0.3509429 0.065202706 -0.022006461 0.0 -0.0957613 -0.026141789 -0.0070752976
-0.021067744 0.0 0.09933031 0.16190258 0.020555926 0.07833586 -0.015523594 0.0
-0.0 0.057678763 0.008596359 0.21830958 0.10207874 -0.29427645 -0.029786533 -0.04666621
0.01626233 -0.026016766 -0.014783681 0.0018663814 0.17671016 0.08984126 -0.037020996 0.0977197
-0.09552721 0.01167782 -0.087971054 0.09828936 0.04619154 0.080925286 0.23108563 -0.14499865
-0.0 -0.0 -9.85905e-40 -0.0 -0.0 -0.0 -0.0 -0.0
-0.0 -0.0 0.0 0.0 -0.0 0.0 0.0 0.083249204
0.11861147 -0.0036730294 -0.12789401 -0.0 -0.031816754 -0.042632867 0.07756905 -0.04779534
0.2249044 -0.050244983 0.055421125 0.03959594 0.0040631546 0.024273735 0.12726657 0.0166813
-0.036915254 -0.109632894 -0.08655117 -0.032890853 -0.048149437 -0.06829506 -0.025952285 0.033332612
-0.020895468 -0.03258331 -0.4750124 -0.13737224 -0.003690448 0.0014840317 0.08506075 0.012424306
0.0119735245 -0.38387153 0.0058382903 0.0010949123 -0.15940386 0.011786126 0.026956601 0.09034089
-0.06633614 0.07040088 -0.024183642 -0.02522279 0.20584822 -0.1473826 -0.0043515186 -0.0010162855
0.050052967 -0.008757089 0.008926196 -0.045151167 -0.05883471 0.0 -0.12958808 -0.05093849
0.0 -0.0 -0.0 0.0 0.0 -0.0 -0.0 -0.0
-0.0 0.0 0.0 -0.0 -0.0 0.0 0.0 0.0
-0.0 -0.0 0.0 0.0 0.0 0.0 0.0 -0.0
0.0 0.0 -0.0 -0.0 -0.0 0.0 -0.0 0.0
0.0 0.0 0.0 0.0 0.0 -0.0 -0.0 0.0
0.0 0.0 0.0 0.0 -0.0 0.0 -0.0 0.0
0.0 -0.0 0.0 0.0 -0.0 0.0 0.0 0.0
-0.0 0.0 0.0 -0.0 0.0 0.0 -0.0 -0.0
0.0 -0.0 -0.0 -0.0 -0.0 0.0 -0.0 -0.0
0.0 0.0 0.0 0.0 -0.0 -0.0 0.0 -0.0
-0.0 0.0 0.0 -0.0 0.0 -0.0 -0.0 0.0
0.0 -0.0 0.0 -0.0 -0.0 -0.0 0.0 0.0
0.0 -0.0 0.0 0.0 0.0 -0.0 0.0 0.0
-0.0 0.0 -0.0 -0.0 0.0 0.0 -0.0 -0.0

encoder.9.bias f4 [8]
00000000: e67e ec3c 0000 0080 0000 0000 127e 963d
00000010: 0000 0000 0000 0000 3fba dd3d 0e4e 5f3d
0.028869104 -0.0 0.0 0.07348265 0.0 0.0 0.10826539 0.054517798

decoder.0.weight f4 [8, 128, 3, 3]
00000000: 3deb 36bc bf47 0d80 97fd 103c 079a 4b3b
00000010: 0000 0000 abae f63d 7499 3d3c 0000 0000
00000020: c5dd 893c 2bf0 2ebd ec9f 1dbe dd0d 29bc
00000030: 0000 0000 e276 0280 0000 0000 fd01 5bbd
00000040: 0000 0000 2d26 9cbc 0000 0080 0000 0000
00000050: 0000 0080 d3dc 0dbe 28ea 43bc ddf1 46be
00000060: 0000 0080 0000 0000 0000 0080 7947 9c3e
00000070: aae3 a4bc 24d7 b7bd a6de 0d3e 7bf3 99bd
00000080: e2c9 aabd 3af9 2ebe 599d 1cbd 8810 a2bc
00000090: 8722 82bd 0000 0000 0000 0000 0000 0000
000000a0: 6ba8 163e 0000 0080 0000 0080 0000 0080
000000b0: 0000 0000 7549 02be 0000 0080 0000 0080
000000c0: 86aa 01bd 58a4 273e c997 dfbc 4213 473d
000000d0: 0000 0080 f387 2bbe 0000 0080 3cf0 66be
000000e0: a7e1 1b3e 1018 d8bb 3375 30bd d8ca 1bbc
000000f0: 0000 0080 edb9 d03d 75de 10be ade1 81be
00000100: d47b 0200 f0df 1bbd 0000 0080 0000 0000
00000110: 0000 0080 9044 afbd 54f0 0780 e5b0 83be
00000120: 0000 0080 9bf1 94bc 0000 0080 0000 0000
00000130: 2644 0080 2cc0 553e 0000 0080 0000 0000
00000140: 0000 0080 d39f fcbc 0000 0080 890a e7bc
00000150: 0000 0080 0000 0080 0000 0080 23a5 823e
00000160: 0000 0080 ba4e 1cbe 0000 0080 0000 0080
00000170: eeab 0900 0000 0080 0000 0000 0000 0080
00000180: 0000 0080 1798 5e3b 9716 1080 36c9 873c
00000190: ef01 21be 1f76 a6bd 58e4 a33d 0000 0000
000001a0: 93ef 60bd 7692 913d b649 6a3e ec5d 6dbe
000001b0: e400 71bd f35e c3bd 96d7 9ab9 f14f 1cbd
000001c0: 0000 0000 5900 2abe 0000 0000 1e55 933e
000001d0: ed71 0d3d 0000 0080 0000 0000 e7ca 87bd
000001e0: 096a 9d3d 0000 0080 5c69 413e 0000 0080
000001f0: 0000 0080 acfa f03d 462e 0e00 0000 0080
00000200: 1352 0180 0000 0000 b611 a83d 0000 0000
00000210: 26e3 0b80 e0d6 3abd 886f 0b00 affe 32be
00000220: 0000 0080 03ac cf3d 0000 0000 0000 0080
00000230: 0000 0000 236c 02bd 0000 0080 4239 803d
00000240: 0000 0000 0000 0080 0000 0000 8080 f53c
00000250: 0000 0080 be75 f8bd 0000 0000 0000 0080
00000260: 3afe 973d c3a7 173d 0000 0080 ceba 523e
00000270: 21db 90bc 0000 0080 c7c8 10bd 91da ccbd
00000280: f03e e2bc fe70 59bd f29c a4bd cf26 d2bc
00000290: 0000 0080 0000 0080 3ae6 5cbd 0000 0080
000002a0: 55f7 513d 9b12 e6bc cafa 113d 0000 0080
000002b0: 8167 bc3d 0000 0080 560a c8bd 0000 0080
000002c0: 0000 0080 0000 0080 bf3f a6bd 0000 0080
000002d0: d35e 15be 0000 0000 7203 983e 5482 95bb
000002e0: 0000 0080 e1e8 7aba 0000 0000 0000 0000
000002f0: 94e0 d73c 35c3 eb3b 4548 893d e7a5 5ebd
00000300: 0000 0080 71dc 0200 0000 0080 8dde 5b3d
00000310: 9f1a eebd 0000 0080 5861 563b 0acb 58be
00000320: 0000 0000 882a 1fbc 0000 0080 8e88 613e
00000330: 8d7f 22bd c0a1 eebc 0000 0080 b009 a7bc
00000340: 0000 0000 05bd 3b3c 0000 0080 0000 0080
00000350: 0000 0080 7fa0 643c ab55 cebd 6b62 d23d
00000360: 0979 58bc 0000 0080 0000 0000 0000 0000
00000370: 0000 0000 0000 0000 06d0 fcbd 0000 0080
00000380: 0000 0000 f5f5 64bd 0000 0080 6527 103d
00000390: 7eea 92bb 0000 0080 0000 0000 0000 0080
000003a0: 0000 0080 0000 0080 0000 0000 0000 0080
000003b0: 0000 0000 5186 7abe 0000 0080 43f6 60be
000003c0: 8112 4f3d 0000 0080 1227 83be aac6 993d
000003d0: 484a e4be ff13 c6bd 9ee3 263e 0000 0000
000003e0: 0000 0000 0000 0000 7af7 28bd 0000 0000
000003f0: de9a 3b3e 0000 0080 0000 0080 0000 0080
-0.011164484 -1.219599e-39 0.008849523 0.003106715 0.0 0.12045034 0.011572231 0.0
0.01682938 -0.04270951 -0.15393037 -0.010318247 0.0 -2.26318e-40 0.0 -0.053468693
0.0 -0.019061172 -0.0 0.0 -0.0 -0.13853769 -0.011957683 -0.19428201
-0.0 0.0 -0.0 0.3052328 -0.02012809 -0.08976582 0.13854465 -0.07517143
-0.08339287 -0.1708726 -0.038235996 -0.019783273 -0.06354242 0.0 0.0 0.0
0.14712684 -0.0 -0.0 -0.0 0.0 -0.12723334 -0.0 -0.0
-0.031656764 0.16371286 -0.027294056 0.04860235 -0.0 -0.1675108 -0.0 -0.2255258
0.15222798 -0.0065946653 -0.04308052 -0.009508811 -0.0 0.101917125 -0.1414736 -0.2536749
2.28092e-40 -0.03805536 -0.0 0.0 -0.0 -0.08557999 -7.29062e-40 -0.25720897
-0.0 -0.018181613 -0.0 0.0 -2.4447e-41 0.20874089 -0.0 0.0
-0.0 -0.030837929 -0.0 -0.028203266 -0.0 -0.0 -0.0 0.25516614
-0.0 -0.15264407 -0.0 -0.0 8.88196e-40 -0.0 0.0 -0.0
-0.0 0.0033965164 -1.477472e-39 0.016575437 -0.15723394 -0.081279986 0.080025375 0.0
-0.054915976 0.07108013 0.22879681 -0.2318036 -0.05883874 -0.095395945 -0.00029533793 -0.038162176
0.0 -0.16601695 0.0 0.28775877 0.034532476 -0.0 0.0 -0.066304974
0.0768624 -0.0 0.18887848 -0.0 -0.0 0.11766562 1.302297e-39 -0.0
-1.21278e-40 0.0 0.08206503 0.0 -1.091676e-39 -0.045615077 1.0502e-39 -0.17479967
-0.0 0.101402305 0.0 -0.0 0.0 -0.03184141 -0.0 0.06260921
0.0 -0.0 0.0 0.0299685 -0.0 -0.121318325 0.0 -0.0
0.07421537 0.037025224 -0.0 0.20579073 -0.017682614 -0.0 -0.035347726 -0.10002626
-0.027617902 -0.053086273 -0.080377474 -0.025653271 -0.0 -0.0 -0.0539305 -0.0
0.051261265 -0.028085044 0.03563956 -0.0 0.09199429 -0.0 -0.097675964 -0.0
-0.0 -0.0 -0.08117627 -0.0 -0.14586954 0.0 0.2969013 -0.0045626555
-0.0 -0.0009571445 0.0 0.0 0.026352204 0.0071949014 0.067032374 -0.054357436
-0.0 2.6275e-40 -0.0 0.053679038 -0.11626171 -0.0 0.003271183 -0.21171203
0.0 -0.00971473 -0.0 0.22024748 -0.039672423 -0.029129863 -0.0 -0.020390362
0.0 0.01145864 -0.0 -0.0 -0.0 0.013954281 -0.100749336 0.10272678
-0.013212451 -0.0 0.0 0.0 0.0 0.0 -0.12344365 -0.0
0.0 -0.055898625 -0.0 0.03519382 -0.00448352 -0.0 0.0 -0.0
-0.0 -0.0 0.0 -0.0 0.0 -0.244653 -0.0 -0.21968941
0.050554756 -0.0 -0.25615746 0.07508595 -0.44587922 -0.09671783 0.16297767 0.0
0.0 0.0 -0.041251637 0.0 0.18320796 -0.0 -0.0 -0.0

decoder.0.bias f4 [128]
00000000: 9542 afbe 1abe c0be 5913 e3bc 2f35 e73c
00000010: 792c 88bd 2904 26bb 66df 513d 7bfd 66bd
00000020: 40a7 2cbe 3334 51be 28fc 44be 10b4 333d
00000030: f11e 653b 0000 0080 8012 96be e052 343e
00000040: 749c adbd 13f6 f0ba 564c 97b8 c698 0bbe
00000050: 5698 d0bb 8678 98be a3ab fe3d 700e 4e3f
00000060: a1cf 7dbf 9131 4dbb dcb0 09bd 208d dd3c
00000070: 5923 b5bc 0000 0080 8036 dfbe ae92 95bd
00000080: 6027 283e 80fa 143e f121 523e 83e1 abbe
00000090: 0000 0000 bca5 11bc 1d0d 32be 256f 9b3d
000000a0: dd6c e8bd 0000 0080 fb14 473d 456f c7bd
000000b0: eae2 dabb d5ce bc3d c935 819f 4bb9 dcbe
000000c0: 89cc a9be 0ef4 97bc 499c 66bd 2fc7 9abe
000000d0: b490 4dbe a5e0 07be 06e8 74bb d536 cbbe
000000e0: b032 7ebe 9805 c63c 271a 71be fd6d 813d
000000f0: 36a3 4cbf be39 adbd 564a 2e3f 5db0 47bd
00000100: b5ef dcbe 1fc1 d73d d26a 223e 6e1a 693e
00000110: a2d0 003e 2f1d 11be db08 85be d676 9ebd
00000120: 4971 063e 23c7 fbbd 0583 c93e 64fd 823f
00000130: 75e6 3d80 749b cebc 9d2a 58bd b49e 1c3c
00000140: a4c2 72be 70bd 56be a871 75bc 68fb 6b3b
00000150: d1eb 173f 152f febd 415d ca3e 3a88 163e
00000160: b877 893e 9059 08be 80a6 19be e3a8 ca3d
00000170: 9fa1 7dbd 064c 0bbf 6dfa 1cbe 6639 eebe
00000180: 2845 2c9f b53b d83e 218c bbbd 9bbb 253d
00000190: c751 92be fc1f 85be e627 8cbe 0000 0000
000001a0: 01ae 7abd ea1e 113f 453d a63c 0000 0080
000001b0: 0000 0080 e736 833f 4d11 20be 8cf3 9fbe
000001c0: c5d3 023f 4bb6 093f 0000 0080 8eba 903d
000001d0: 5204 223f a4b5 73bd 9fa3 9eba 9e30 d5be
000001e0: 7be9 a93e 53f2 cfbe 6420 71be 5034 423e
000001f0: efab 993e c6d5 b13f 0c7c f0bd a48b c53d
-0.34230486 -0.37645036 -0.027719187 0.028223602 -0.066491075 -0.002533207 0.05123844 -0.05639408
-0.16860676 -0.20430069 -0.19236815 0.043872893 0.003496107 -0.0 -0.2931099 0.1760974
-0.08477107 -0.0018383883 -7.21446e-05 -0.13632497 -0.006365816 -0.29779452 0.12435081 0.8049078
-0.9914494 -0.0031310061 -0.033615932 0.027044833 -0.022111582 -0.0 -0.43596268 -0.073033676
0.1642127 0.14548683 0.2052076 -0.3357049 0.0 -0.008889612 -0.17387815 0.075895585
-0.11348889 -0.0 0.048603993 -0.0973802 -0.0066798823 0.092191376 -5.4722605e-20 -0.43110117
-0.3316386 -0.018548992 -0.05630139 -0.3023009 -0.20074731 -0.13269289 -0.0037369742 -0.3969027
-0.24824023 0.02417259 -0.23545133 0.06319807 -0.7993654 -0.08458279 0.6808218 -0.048752178
-0.43151632 0.10534882 0.15861061 0.22763988 0.12579587 -0.14171289 -0.2598332 -0.0773751
0.13129152 -0.12293842 0.39357772 1.0233579 -5.684638e-39 -0.02522061 -0.052775014 0.009559322
-0.23707062 -0.20970702 -0.014980711 0.0036008004 0.593442 -0.12411324 0.39524272 0.14700404
0.2684915 -0.13315415 -0.15004921 0.09895494 -0.061921712 -0.5441288 -0.15329905 -0.46528167
-3.647962e-20 0.42233053 -0.09157587 0.040462118 -0.28578016 -0.26000965 -0.2737419 0.0
-0.0612011 0.56687796 0.020292887 -0.0 -0.0 1.025113 -0.156316 -0.312405
0.51104385 0.5379378 -0.0 0.070668325 0.6328784 -0.059499398 -0.0012103206 -0.41638654
0.33185944 -0.40614566 -0.23547512 0.18965268 0.30013987 1.3893363 -0.1174241 0.09645775

decoder.2.weight f4 [128, 64, 2, 2]
00000000: 0000 0000 ee7d c93b 0000 0000 17af 16bd
00000010: 042e 073e 1600 18bd aeeb 8d3c 673e cf3c
00000020: 4adc 4fbd 7360 353d 0000 0080 70b8 59bd
00000030: 6d89 7ebb 849e 15bd 0ee1 1e3b f456 8ebc
00000040: af6a d2bc 84e7 9e3d 4dca 45be 0000 0080
00000050: 0000 0000 962c aa3d ed2b 893d 0000 0000
00000060: 0000 0000 0000 0000 0000 0000 93ac e3bd
00000070: 0000 0000 6fe6 7cbc 0000 0000 0000 0000
00000080: 0000 0080 8b17 ee3c 7a11 aa3d 8fd8 cbbd
00000090: 0000 0080 0000 0000 0000 0000 4cec 52bd
000000a0: 0000 0000 351c 00bd 0000 0080 de64 0a80
000000b0: 0000 0080 0000 0000 8da2 66bd 0000 0000
000000c0: 0000 0080 e6ab 9e3d f95a f8bc 442b 9bbc
000000d0: afd0 0c00 b912 763e b831 fc3d a4d1 943d
000000e0: 0000 0080 5494 c63d 0000 0080 0000 0000
000000f0: 0000 0080 5b3e edbd 0000 0080 8801 063c
00000100: 78f8 20bd 5ec4 9bbc 7080 43bd 8587 343d
00000110: 58c3 543a b65b d53d 0000 0000 0000 0080
00000120: 0000 0000 42b1 94bd f08e 59bd 0000 0080
00000130: 0000 0080 0000 0080 0000 0080 0000 0080
00000140: 78df c0bc 36b0 7c3d 0000 0080 0000 0000
00000150: 0000 0000 a0ad a4bd 0000 0080 0000 0080
00000160: 10c5 443d a1ef bf3d 3e7e 0a80 0000 0080
00000170: f2fe 5e3d 4348 963d 0000 0000 0000 0080
00000180: 6ff1 b6bd 6a3b cebd edd1 3bbd d106 21bd
00000190: 5394 03be 0000 0080 0000 0000 fa75 04bd
000001a0: b003 ab3d 0000 0080 0000 0080 85f4 bdbd
000001b0: 7829 7cbc d65e 3abe 6080 fbbc ac55 093e
000001c0: 1989 483d 0000 0080 0000 0000 0000 0000
000001d0: fad9 793b 8131 163e 53c4 85bd 9ab0 bd3b
000001e0: 2ee6 15be bb06 f53d 6a52 0d3e 871e b53d
000001f0: c491 2b3d d953 cc3d 951c f23d 77cb 753d
00000200: 0000 0080 0000 0000 0000 0080 1aed 623a
00000210: 85f9 8d3d 9c1c 813c 0000 0000 11f1 8fbd
00000220: 0000 0000 c7a7 133e 2ce9 603d 0000 0080
00000230: 0000 0000 0000 0000 da36 a4bc 0000 0080
00000240: c419 53bd 4112 033d 95d6 c1bd 00eb 51bd
00000250: 0000 0080 0000 0080 0000 0080 4f27 b0bd
00000260: 8f3c de3c c673 f73d 0000 0080 1593 47be
00000270: 0000 0080 fb49 043e f314 783d 2588 ddbc
00000280: 0000 0000 0000 0080 7c9a d9bd 4c3b 4abc
00000290: 0000 0080 8e73 c93a bb69 b6bc 0ce2 0bbd
000002a0: 54bd 84bd 0000 0080 0000 0000 0000 0080
000002b0: 0000 0000 0000 0080 133b 633c 0000 0080
000002c0: ace4 5f3d 5551 103e c82c b0bd 60da 1480
000002d0: fec7 0ebe fba4 eabd 0000 0080 0000 0080
000002e0: 0000 0080 f67b d2bd 3a9c a13d a775 a5bd
000002f0: f00f 913d 0000 0080 0000 0080 d441 b23b
00000300: a6ca 813d 35ed 0380 09cd 653e 31f0 f83d
00000310: 0000 0000 0000 0080 0000 0000 0000 0000
00000320: 0000 0080 0000 0000 0000 0000 0000 0000
00000330: 280c cd3c c294 51bd 0a50 803d 7514 c43c
00000340: ec62 853d d9c6 b93d e981 053c 5339 b83c
00000350: fba3 003d b08d 2f3d b63c a63a 0000 0000
00000360: 0000 0000 d9b1 3d3d 2711 893d c99e 1c3e
00000370: 8a9b 153e 147f 12be 52c8 873b d131 1ebd
00000380: 0000 0080 0000 0000 ffb9 533d ca70 463e
00000390: e0e0 743d 0000 0080 a67a c53d 0000 0080
000003a0: 9d3e 33bd fe11 abbb 0000 0080 cb84 a73d
000003b0: 0000 0080 0000 0000 0000 0000 6d76 0e00
000003c0: 0000 0000 0000 0000 0000 0000 0000 0000
000003d0: 0000 0080 0000 0080 0000 0080 3853 423e
000003e0: 0000 0080 0000 0000 0000 0000 00b1 aebc
000003f0: 0000 0000 0000 0000 0000 0000 764e b9bc
0.0 0.006149045 0.0 -0.036788072 0.13201147 -0.037109457 0.017324295 0.02529831
-0.050747193 0.044281434 -0.0 -0.05315441 -0.0038839236 -0.036528125 0.002424303 -0.017375447
-0.025685636 0.07759002 -0.19315453 -0.0 0.0 0.08309285 0.06697831 0.0
0.0 0.0 0.0 -0.111169 0.0 -0.015435799 0.0 0.0
-0.0 0.02906396 0.08304115 -0.09953415 -0.0 0.0 0.0 -0.05149488
0.0 -0.0312769 -0.0 -9.54539e-40 -0.0 0.0 -0.056307364 0.0
-0.0 0.07747631 -0.030316817 -0.01894153 1.176888e-39 0.2403058 0.123141706 0.07266548
-0.0 0.0969626 -0.0 0.0 -0.0 -0.11584159 -0.0 0.008179076
-0.03929946 -0.019014534 -0.04772991 0.044074554 0.00081162667 0.10417883 0.0 -0.0
0.0 -0.07260372 -0.05311483 -0.0 -0.0 -0.0 -0.0 -0.0
-0.023544058 0.061691485 -0.0 0.0 0.0 -0.08040929 -0.0 -0.0
0.048039496 0.093718775 -9.63642e-40 -0.0 0.054442354 0.073380016 0.0 -0.0
-0.089327686 -0.10069926 -0.045854498 -0.03931314 -0.1284955 -0.0 0.0 -0.032339074
0.08350313 -0.0 -0.0 -0.09275154 -0.015390746 -0.1820024 -0.030700862 0.13411587
0.04895887 -0.0 0.0 0.0 0.003812431 0.14667322 -0.065315865 0.005788875
-0.14638588 0.11964174 0.1380097 0.08843713 0.04188706 0.0997693 0.11821858 0.060008492
-0.0 0.0 -0.0 0.00086565467 0.06932358 0.015760712 0.0 -0.07028402
0.0 0.1441947 0.05490987 -0.0 0.0 0.0 -0.020045687 -0.0
-0.051538244 0.03199983 -0.094647564 -0.051249504 -0.0 -0.0 -0.0 -0.086012475
0.027128486 0.12082629 -0.0 -0.19489701 -0.0 0.12918846 0.060566854 -0.027042458
0.0 -0.0 -0.10625169 -0.012343239 -0.0 0.0015369521 -0.022267213 -0.034151122
-0.06481424 -0.0 0.0 -0.0 0.0 -0.0 0.013869065 -0.0
0.054661438 0.14093526 -0.08602291 -1.915048e-39 -0.13943478 -0.11457249 -0.0 -0.0
-0.0 -0.1027755 0.07891126 -0.08079081 0.07083118 -0.0 -0.0 0.005439976
0.0633748 -3.606e-40 0.22441496 0.12155188 0.0 -0.0 0.0 0.0
-0.0 0.0 0.0 0.0 0.02503021 -0.051167257 0.06265266 0.023935536
0.065130085 0.0907113 0.008148649 0.022488272 0.031406384 0.042859733 0.0012682888 0.0
0.0 0.046312187 0.06692725 0.15294947 0.14610115 -0.14306289 0.004143753 -0.038621727
-0.0 0.0 0.05169105 0.19378963 0.05978477 -0.0 0.09642534 -0.0
-0.043760885 -0.0052206507 -0.0 0.08179625 -0.0 0.0 0.0 1.32818e-39
0.0 0.0 0.0 0.0 -0.0 -0.0 -0.0 0.18977058
-0.0 0.0 0.0 -0.021324635 0.0 0.0 0.0 -0.02262042

decoder.2.bias f4 [64]
00000000: b6f8 0fbf 2246 8ebd a13b d63e 0057 583e
00000010: 988d 353c 0208 43bd b92d 913c 72ae b13e
00000020: a6b8 223e e2d3 86bd 3a65 92bd aa0e 93be
00000030: 1355 be3e 0207 debe 0e72 043e 1dae f2bd
00000040: 7a12 3bbe 2d73 31be 9f10 673e 5914 f9bc
00000050: 9706 c43c 7b30 90be 05fc 79bd 0000 0080
00000060: 5761 d8bd 21d5 26be 4d42 69bd e8fa a03e
00000070: e8dc 703e 7032 903e 054c bf3d 0e76 fcbe
00000080: a8f1 06bd 458e 4ebe 47e5 a43d 2d04 fa3e
00000090: 4fec d53e 8dcf 803e a2a6 a2bd 8b90 953e
000000a0: d9fc 0e3e f56b d6bd f6fe 9cbe 5a2c b0be
000000b0: 40e9 4cbe a764 e33d 05b5 803e 495a 0c3d
000000c0: aace 39bf f316 7ebf bec7 b13d 19c5 e93d
000000d0: 21d1 58bd 37fe 67be 3cda 133e 2f1d 283e
000000e0: 3b97 ce3d 6261 48bf 6a7f 273d d87b 52be
000000f0: 0818 123f 4d9e 853e 1c09 03bd f69f b8bd
-0.5623888 -0.069469705 0.41842368 0.21126938 0.011081122 -0.04761506 0.017721998 0.34703404
0.1589075 -0.06583382 -0.07148214 -0.28722125 0.3717428 -0.43364722 0.12934133 -0.11849616
-0.18268767 -0.17329092 0.22564934 -0.03040521 0.023928924 -0.28161988 -0.06103136 -0.0
-0.10565441 -0.1629224 -0.056947995 0.31441426 0.23521769 0.2816348 0.093406714 -0.4930882
-0.032945305 -0.20171459 0.08051544 0.4883131 0.41781852 0.2515835 -0.07941939 0.2921184
0.13963641 -0.1046981 -0.3066327 -0.34408838 -0.20010853 0.11103182 0.25138107 0.03426579
-0.7258097 -0.9925377 0.08680676 0.114145465 -0.052933816 -0.22655569 0.14438719 0.16417383
0.10087439 -0.78273594 0.040892996 -0.20555055 0.5706792 0.26097336 -0.03199111 -0.09014885
